pretrained_models/comick-40-context-size.pth (torch, 821283 bytes, 10 tensors)

feature.weight_ih_l0 f4 [512, 64]
00000000: 1e0c 8fbf 6724 a23f 4dc3 82be ccde 1e3f
00000010: 579d 8f3d f9bf 78be 2a85 d2be 06e7 693f
00000020: 0ec1 afbe d062 cebc 9c10 8ebf 6b01 063f
00000030: e985 45bf 3cdf 32bf d901 373d 1478 193f
00000040: e9d3 b2be 99d6 d6be e2e5 4abf 4a90 64be
00000050: ec28 113f 24af 0b3f 1b76 14bf 370c 33bf
00000060: 0cd6 753d 7095 5dbe 92cb 273f 9412 b53e
00000070: baf3 e0be 184d 393f 1f9d 503e 8106 23bd
00000080: 039b b3bd 11c2 583e 9f4f d9be 60ca 693f
00000090: 5be0 413f bb03 493f 0ff9 d83c 21b8 c3be
000000a0: b4e3 483f 8a74 3a3f 9db4 d93e 1696 383d
000000b0: 32aa a63f 5d7b 43bd e9dc 2fbe 566f c83e
000000c0: 383d 0ebf a81b 25be e4dc e5bb bd76 49be
000000d0: e060 573d df8b 10bf 8de2 a73f 4eb8 15be
000000e0: 0efe 1b3f e499 ec3e be7b 81bf ec28 50bf
000000f0: 8f51 4d3e a5f6 7c3e c7bb 54bf ca57 7c3f
00000100: a54d 453d 79f9 b3be 1146 70bd c857 9e3e
00000110: bef7 aa3e f598 34bc 05ec a8be 7e96 4a3f
00000120: 4313 7d3e bddc 273f 4979 90bd 1fa4 18be
00000130: 60b2 3abf 24ec 73bf 61e5 293f 2408 bd3e
00000140: 37cc 123e 9894 fa3e aaf2 42bf 98cf fbbe
00000150: b0da f7be f7b8 48bf 7108 813f c65c 71bf
00000160: 4825 6f3e 753a b8be d839 19bd 7964 f3be
00000170: 48d1 c53e 7608 da3d b291 34be 3fce 203e
00000180: a22c a0bd b31a 9c3e e969 cebd ee8e f23d
00000190: 7405 88bf 732b be3e 2aa1 373e 48a9 8ebd
000001a0: b2c9 5c3e 6fdf 123f 0a53 30bf 4efa 933d
000001b0: 0625 63bf 1802 593e 07d2 313d a9a2 c53e
000001c0: 84c8 1dbf 9e95 00bf fff8 0cbf 4801 aebd
000001d0: 6c93 b93e 5431 313f 2302 603f c6ac f83e
000001e0: 63a9 943f 81fa b93c 9800 83bf 3102 16be
000001f0: f755 18bf 5b58 9dbf b104 88be a006 96be
00000200: 6309 64be 7309 85be 9634 babf 2e7d e43e
00000210: 3c9f 1dbe 108f 19bf 4854 6ebe 9f8f 3d3f
00000220: 5287 383e 85a4 873e b98e 89bf dbdd 0c3f
00000230: a3e6 68bf b87a 22bf 11a8 853e ca51 993c
00000240: 4c8d 7cbe fd73 6e3e d1eb f5be c090 3a3f
00000250: 3e44 2fbf 41c2 373f a7e9 c13e 0d1e 0cbf
00000260: cad5 593f 4704 573f 7fa3 05bf 8704 e4bd
00000270: 2a06 fcbd 17eb d5be cea5 98bf 6962 b73e
00000280: 4fc4 c23e dd2d ddbb 2047 073f c3da a4bf
00000290: ec09 0d3f ce7c e53e c721 013f 7b7a 03be
000002a0: f401 f03d c9f9 b6be 85f0 9a3e dbed 7b3e
000002b0: 92f3 8b3c 5f72 f03d fc0c a2bd e2cb 78be
000002c0: fe4d 7d3e 7173 99be fbe1 403d fdee a63e
000002d0: 3bbf bb3e 7e32 c43e d36d 7d3f 0778 153f
000002e0: 83b9 e63e 259c a8bd 3754 163f 8839 643f
000002f0: f574 88bf 45a0 5c3e 3819 173e aac6 74bf
00000300: a00f b3bf d767 e73e 0100 d43e 9cce a5be
00000310: 98c7 9bbe 399c d1bd 48a3 9e3f 20f5 e1be
00000320: 695e 72bf e4de a33f 3d2c 34be 36b5 94be
00000330: 5945 42bf fb34 a13f 6cd1 c23e 9819 1abf
00000340: fb82 a73c 9116 51bf 5654 8cbf 6288 48be
00000350: 1e7f 42bf e165 8d3f 7ef1 843d e0ee 8e3f
00000360: 91ab c3bd a77c 66bf a50e 75bf 9399 413e
00000370: bd69 ec3c a1ea 5a3f 24fa 87bf 0888 c0be
00000380: 1fba b2be fe6c 353f dd07 9fbe 8c46 a93f
00000390: 4a7a 16bf 3dcd 68bf 1761 263f 9f07 873f
000003a0: 7ec5 1abf 126c 1b3f ebda 6c3e 2c81 223e
000003b0: f37e 75be 23c9 39bf 6c42 26bf 8cb4 5f3f
000003c0: 8091 1c3f e9fc 883e e2a3 40be 5648 503f
000003d0: ee51 80bc 0e8a d3be 469c 58bd 42a6 423e
000003e0: 53f8 143f e9d2 9e3d 18a9 afbc e501 da3e
000003f0: 29d3 313d 7fa0 1f3e 4cb9 43be 04cf 5f3e
-1.1175573 1.2667359 -0.25539628 0.6205871 0.07012432 -0.24291982 -0.4111722 0.9136814
-0.34326977 -0.025193602 -1.1098819 0.52345914 -0.77157456 -0.6987188 0.044679496 0.5994885
-0.349273 -0.419606 -0.79257023 -0.22320667 0.56703067 0.5456412 -0.57992715 -0.69940513
0.060018584 -0.21639037 0.65545 0.35365736 -0.4393595 0.7238326 0.20372437 -0.039801124
-0.087698005 0.2116778 -0.4244356 0.91324425 0.75732964 0.7852132 0.026485948 -0.38226417
0.7847245 0.72834074 0.4252061 0.045065008 1.302069 -0.04772507 -0.17174114 0.39147443
-0.5556216 -0.16123831 -0.0070148576 -0.19674201 0.05258262 -0.56463426 1.3116013 -0.14621088
0.6093453 0.4621116 -1.0115888 -0.8131244 0.20050643 0.24703462 -0.83099025 0.98571455
0.04816975 -0.3515127 -0.05866057 0.30926347 0.33392137 -0.011022796 -0.3299257 0.7913588
0.24714379 0.65571195 -0.07054383 -0.14906357 -0.7292843 -0.95282197 0.6636563 0.36920273
0.14335714 0.48941493 -0.76151526 -0.4918182 -0.48409033 -0.78407234 1.0080701 -0.94282186
0.23354065 -0.359821 -0.03740868 -0.47537592 0.3863623 0.10646145 -0.17633703 0.15703677
-0.07821013 0.3048912 -0.100787945 0.11843668 -1.0626664 0.37142524 0.17932573 -0.069658816
0.21561316 0.5737218 -0.6887671 0.07225476 -0.8872837 0.21192205 0.04341319 0.38600662
-0.6163409 -0.502283 -0.5506744 -0.08496338 0.36245286 0.69215894 0.8750326 0.48569316
1.1614193 0.022702457 -1.0234556 -0.14649273 -0.5950617 -1.2292589 -0.2656608 -0.2930193
-0.22269206 -0.25983772 -1.4547298 0.44626755 -0.15392774 -0.5998392 -0.23274338 0.74047273
0.1802037 0.26492706 -1.074668 0.55026025 -0.90976924 -0.63468504 0.26104787 0.018715758
-0.24663275 0.23286434 -0.48031476 0.7287712 -0.68463504 0.7178078 0.37873575 -0.54733354
0.8509184 0.839909 -0.522026 -0.11133676 -0.12305863 -0.41780922 -1.19256 0.35817268
0.38040397 -0.006749852 0.52842903 -1.2879261 0.55093265 0.4482178 0.50442165 -0.12839691
0.117191225 -0.35737446 0.30261627 0.24602453 0.017083917 0.117405646 -0.07912633 -0.24296525
0.24736783 -0.29970887 0.04709051 0.3260421 0.36669335 0.38319772 0.98995703 0.5838627
0.4506341 -0.08232907 0.5872225 0.89150286 -1.0660692 0.21545513 0.14755714 -0.9561564
-1.3989143 0.4519641 0.41406253 -0.32384193 -0.30425715 -0.10234875 1.239358 -0.44132328
-0.9467531 1.2802396 -0.17595 -0.29044503 -0.75887066 1.2594293 0.380504 -0.601953
0.020448199 -0.8167506 -1.0963237 -0.19583276 -0.75975215 1.1046716 0.064913735 1.1166649
-0.09554208 -0.90033954 -0.9572547 0.1890624 0.028859014 0.85514265 -1.0623212 -0.37603784
-0.34907624 0.70869434 -0.31060687 1.3224654 -0.5878035 -0.9093817 0.649919 1.0549201
-0.604576 0.6071178 0.23130386 0.15869588 -0.23974209 -0.72572535 -0.649451 0.8738487
0.61159515 0.26755455 -0.18812516 0.81360376 -0.015664067 -0.41316265 -0.05288341 0.19008735
0.5819141 0.07755072 -0.021442935 0.4257957 0.04341427 0.15588568 -0.19113654 0.21856314

feature.weight_hh_l0 f4 [512, 128]
00000000: 8a8b 05bf aad0 08bf e93c a8be 9c7f 5a3e
00000010: 6a96 943d 2c2c 04bf 0d58 ad3e fd3c 21bf
00000020: 9c35 69bc 1191 433f 7e05 5ebd 10d2 e5be
00000030: dd6c ef3e 145b c3bf ffff 663f 81e6 103e
00000040: 81e8 b9be 8cf9 60bd c1ef e8be ed2c 113f
00000050: 6c99 89be 8629 bebc 6f90 c2be 3745 8c3d
00000060: 0478 303f 8bf3 a5be 8177 d3be 96de 31be
00000070: 2785 76be 5cdb 91be df33 77bf ffa4 bcbe
00000080: 5eca 01bf 1ea5 183e f3b9 933f 65fa 16be
00000090: 6d4c 86bf 0617 f53e d962 173f 13a3 383e
000000a0: a7c2 61bf fbb9 0e3e d8ad e1be 4e3a b0bd
000000b0: c622 443d e465 04be 9e61 63be 29c3 cebe
000000c0: 16c0 ca3e 8800 523f 5eaa 1e3e e37e d6bd
000000d0: 719e a93e e161 f53e 16e6 d13e 009c 89bd
000000e0: da64 58be eb2c bcbe 3472 793f 0792 dcbe
000000f0: 6bf5 cc3e e751 823d 0c57 acbe e9ca 783e
00000100: 5649 aa3e 0168 b5bf ce83 0abe af35 703f
00000110: ce83 d03c b560 2a3e 1aac b0be 4750 783d
00000120: 7717 153f af7b 05bd 6c6a a43e 0ce0 9abe
00000130: 74ee fcbe 1e3c 1a3f cd98 36bf 1046 493e
00000140: 39b8 a5be 47b4 43bf 1dfd de3e 9097 e2be
00000150: 3e34 a5be 8d59 d7be f242 01bf fe17 04bf
00000160: a23a 013f a7dd 103d 2999 6b3e b166 4ebf
00000170: f943 173f e433 bc3e 5188 4abf eef9 05bf
00000180: 5dfa 413e 0722 1bbe 42ec 643e 220e 31be
00000190: 1a06 243f cea0 253f 0229 153e f06a 443f
000001a0: b3e5 86be c3c3 0d3e ab77 2ebf a8bd b7be
000001b0: 7b28 c03c 5c79 f13e b4f2 c93e 5de9 543d
000001c0: 856a 32bf a64d 1b3f 6c42 3fbf 620c b1be
000001d0: 63f6 303f d79e 12bd 7fb6 21bf d1a2 c1be
000001e0: 3f17 a0be 6897 5b3f 8116 283f fa79 c73e
000001f0: 578f 3bbe dae7 42be 0edd 823f 9682 b23e
00000200: 3964 fcbe fb22 59be 39c6 503f 4934 4d3d
00000210: 09ce 993f 182a 6bbe 784f fd3d d4fc b9be
00000220: 3832 6bbf 5eb5 883f dfe5 1f3f 4a4c 2a3f
00000230: 734d babe 6456 e33f 1aa5 e43d 7752 cabe
00000240: e7f0 9abe 22a0 5bbe da1a 873e cfaf 703e
00000250: c7cf 8ebf 3067 7f3f da41 72be b652 4c3f
00000260: 78de eabe 251f 8d3f dfb5 16be 3477 df3d
00000270: 2e67 ddbe 0829 1b3f 4cee b7be 1385 14bf
00000280: d85e 26be 6db9 5a3d 8375 0c3f 7d51 a53f
00000290: c14d 71bf cc19 48be d859 183f b455 38bf
000002a0: eb40 19bf 099f 3bbc 95f1 213f 33ee 5ebe
000002b0: 8a51 253d 3cdc b13e 12f5 27bf 1b34 a6be
000002c0: 7de4 a8be 177f 37bf 3d44 963d d6d3 c13e
000002d0: b14e 763d 8129 48bf 8a87 fdbe e3e8 ec3e
000002e0: 7c51 5b3f 1527 723f 7040 c73d e9ae f03e
000002f0: 7893 ecbe f037 69bf 2409 213f 227b abbd
00000300: a45f ccbe 36a4 97be 74d8 0ebe 95fa 60be
00000310: d28f 8dbe 39a7 8fbe 2474 8ebd 5256 ef3e
00000320: 2b1d 283e 77c6 2cbf d62e 893d 6ffe 0c3e
00000330: c23f 0ebf 1c6d a5bf 6054 483e d8a7 d83c
00000340: 77f6 b33e 0f92 e23d 8168 2e3d f825 23bf
00000350: 886a 853f 0841 f1be 635c c83e a8ac bebd
00000360: 9e94 17bf 94ec 31bf de44 3dbf 3bd5 e93d
00000370: 3020 96be 0257 80be 983b 353e 7ce6 1abf
00000380: 6dc7 9fbe e154 343e 8863 aa3e 236c e43e
00000390: 6cd5 bebe a6de a6bf 8360 f03d 5ed0 76bf
000003a0: 14b4 0a3e 428e f63c d820 6a3f 5bca debe
000003b0: a86d 82bd 7364 64bf 4c55 273f 266f 7f3e
000003c0: f71a f6be c761 983f 0d9c 1ebf 6499 43bf
000003d0: 14c7 643c 37b4 6fbf 5d22 db3e b7f7 313f
000003e0: 8c83 8bbe eed0 e1bd 6fff cabc 4714 273f
000003f0: 3384 60bf 2584 803e fb1a e53d b2e1 833e
-0.52166045 -0.53443396 -0.3285897 0.21337742 0.07255252 -0.516299 0.3385624 -0.62983686
-0.014233973 0.7639323 -0.054204457 -0.44886827 0.46762744 -1.526217 0.9023437 0.1415043
-0.363102 -0.054925486 -0.45495418 0.56709176 -0.26874864 -0.02321316 -0.3800082 0.06849139
0.6893313 -0.3241237 -0.41302112 -0.17370066 -0.24074231 -0.2848767 -0.96563524 -0.36844632
-0.5069941 0.14906737 1.1541122 -0.14743955 -1.0492073 0.47869128 0.59135205 0.18030958
-0.8818764 0.13938133 -0.44077945 -0.08604871 0.047884725 -0.12929493 -0.22205207 -0.4038327
0.39599675 0.8203206 0.15494677 -0.104734205 0.33128694 0.47926238 0.40995854 -0.06719208
-0.21132222 -0.3675302 0.97439885 -0.4308016 0.4003099 0.06363278 -0.33660161 0.24296154
0.33259076 -1.4172364 -0.13526842 0.93831915 0.025453474 0.16638453 -0.34506303 0.060623433
0.5823893 -0.032588657 0.32112443 -0.3024906 -0.49400675 0.6024798 -0.71326905 0.19655633
-0.32367113 -0.76446956 0.43552485 -0.44256258 -0.3226642 -0.4206051 -0.50492775 -0.5159911
0.5048009 0.035367634 0.23007645 -0.80625445 0.59088093 0.3675834 -0.7911425 -0.5233449
0.18943162 -0.15149699 0.2235575 -0.17290547 0.6407181 0.64698493 0.14566424 0.76725674
-0.26347122 0.13844208 -0.6815135 -0.35886884 0.023456803 0.47162902 0.3944298 0.051980365
-0.69693786 0.6066536 -0.74710727 -0.3457976 0.69125956 -0.035796013 -0.6316909 -0.37819532
-0.31267735 0.857779 0.6565934 0.38960248 -0.18316399 -0.19033757 1.022371 0.34865254
-0.49295214 -0.2120475 0.81552464 0.05009869 1.2016002 -0.22965276 0.12368673 -0.36325705
-0.918735 1.0680349 0.6246013 0.6652266 -0.36387214 1.7760739 0.11164303 -0.3951604
-0.3026192 -0.21447805 0.26387674 0.23504566 -1.1157159 0.99766827 -0.23657933 0.79813707
-0.45872855 1.102513 -0.14717816 0.10911408 -0.43242782 0.60609484 -0.35923994 -0.58015555
-0.16247118 0.053399492 0.5486681 1.2915493 -0.9425927 -0.1954109 0.5951209 -0.7200577
-0.5986468 -0.011451491 0.6325925 -0.21770553 0.040360965 0.34738338 -0.6560832 -0.32461628
-0.32986823 -0.716783 0.07337234 0.3785693 0.06013364 -0.7818833 -0.4951747 0.46271428
0.8567121 0.94590884 0.09729087 0.47008446 -0.4620626 -0.9110098 0.6290457 -0.08373095
-0.39916718 -0.2961747 -0.13949758 -0.2197059 -0.2764879 -0.28057268 -0.06955746 0.46745545
0.16417377 -0.67490333 0.06698386 0.13768934 -0.55566037 -1.2923923 0.19563437 0.026447222
0.35148975 0.11063015 0.04258013 -0.6372981 1.0423136 -0.47119927 0.39132985 -0.09310275
-0.59211147 -0.69501615 -0.7393321 0.114176236 -0.29321432 -0.25066382 0.17698514 -0.6050794
-0.31206837 0.17610504 0.3327906 0.44613752 -0.37272203 -1.3036697 0.11737158 -0.96411693
0.13545257 0.03009713 0.91456366 -0.4351376 -0.063685715 -0.89215773 0.6536453 0.24944744
-0.48067448 1.1904839 -0.61956865 -0.7640593 0.01396348 -0.9363436 0.42799655 0.6951861
-0.272488 -0.11026178 -0.024780003 0.65265316 -0.8770172 0.25100818 0.11186787 0.2575813

feature.bias_ih_l0 f4 [512]
00000000: 4b87 8e3f 238f da3d e87f 3bbd 388f 243e
00000010: 4ed8 e73e caf0 d3be 0908 37bd 08e5 a3be
00000020: a205 793e 41bb 823d 8a13 893e 1e20 723e
00000030: 0616 89be be02 253f c9a0 f5bb 0b51 03be
00000040: d3d3 be3d ea69 943e a611 efbd c6a7 28bd
00000050: 94d5 57be f1e1 a83f a711 013f 3a0b f63e
00000060: 5e83 31be 6db9 a93f 8b4e 9f3d 5b1f cc3e
00000070: 7589 bdbe 94bb 823f c8e1 3b3d e3d4 9b3c
00000080: 118c df3e b26f 9a3e 9e56 643e ca81 94bd
00000090: 1734 84be 33e3 b43e 999a c23d feaf bb3d
000000a0: ddb7 d2bd 60f5 483e 46d9 8bbe a737 5a3c
000000b0: 3fee 08bc dae3 913e 5f7e 34bc 4c64 65bd
000000c0: eb79 28bd d883 003e 51e7 193f ae4d 903e
000000d0: 408c dbbd f9fb 58be 5c5a 333e b3c8 383e
000000e0: 99fe 203e e020 fcbd d9f3 8e3e 3ca8 d8be
000000f0: f7c0 1b3e 1b9f d03d cab7 10be e99b 483f
00000100: a79f 013d e5c7 4cbd d84a 99bd 968b 463f
00000110: 328e d33e d0c3 943e 9d64 cfbd bd66 0d3e
00000120: 3bff edbd 6f9b 843f 290e 183f 7ed1 44bd
00000130: 5567 203f 800e 173d 964c 973e 4032 d03e
00000140: 1bb7 bfbe 9fb9 d53e 3b3e 7f3e 0cd2 643e
00000150: 8a20 233e 355e a33e 518c a2be d945 4c3f
00000160: 62e4 8d3e 0c43 b0bd 59cb 883f 43dd dabe
00000170: 5378 e73e a956 973e 6e70 19be e31a 0e3e
00000180: 7142 ca3e f9db 093f ed20 e63e 88ca 903d
00000190: ff1c 5a3f 32d1 d53d 38f6 543b dd4c 37bd
000001a0: af65 c63e e0a7 903f 1e8b 0d3f db25 f33e
000001b0: c9f6 4b3f fe70 463f 2eeb e53d c7ac f43c
000001c0: bae5 a5be 6a1d f0be b542 333f 1c86 dc3e
000001d0: fb51 25be 4fb3 cabd 493c 83be b57c 4a3d
000001e0: 20ad a0bb df46 633e c8f6 57bd 8c6b 38be
000001f0: e596 483e 4c9a 0e3f 83f0 9dbe 3312 9d3e
00000200: 6539 053d bebf fdbd 26ed 69bc 697f b93d
00000210: 2bf3 4ebd 544d a0be bd15 adbe 6adb 323e
00000220: ee1f 89be 73b9 ba3d e9eb 5b3d 9195 d0be
00000230: 5fe4 84bd 2811 a4be 9b23 1d3d 425f 18be
00000240: 313a edbd 505f 613e 6997 a5be 2b1b e63d
00000250: f8b1 cebe 52fa 8abe 2f86 d93e 0d8a 983d
00000260: 61f5 26bf 4a57 e4be 25f0 d3bd 1db3 6fbe
00000270: c889 363d eed3 16bf d08f b3be 5ab8 503d
00000280: 457e 033e 5f71 0cbf 6e3a 18bf 4147 d4b9
00000290: 77fe f9be 2dd3 9e3d 9527 7b3e e35a 11bf
000002a0: 92ba ccbe 1f79 143e 4236 17be c62b 503e
000002b0: 5834 5a3f 7e29 7fbe ce2b 813d 1348 b5bb
000002c0: 7ffe c23c c63f b4bd 3aa8 bbbe 49f5 13bf
000002d0: 2281 2f3e bb51 413c b37a b4be 80c0 94bd
000002e0: 5805 b9be 580b 1abf 8212 7bbe f824 7dbe
000002f0: aeb6 b1be aaed a83e 69eb 123e 7cec f43e
00000300: 42e8 a43e 709d 353e 5986 33bd 8519 0abe
00000310: e46b 893e 7a50 153f ae66 0f3e af2c 94be
00000320: 2dfb 1bbe cc89 c13e 1648 1d3e 34d2 263d
00000330: 2373 063e c1e0 8abc c4d0 003e 38d6 a4bd
00000340: 2d73 703d 750a c83d b6c4 f7be 5f8c 1dbf
00000350: 1b33 9abe 3204 7dbe 4af4 663e db3d d0be
00000360: 8f16 86be 0edf 09bc 4e2f f1be d00f 29be
00000370: 74e4 d1bd b05c 893b fdf9 9cbe 4612 8c3c
00000380: 1fbb 2abd 8286 5ebd 0a70 29bf 1968 9a3d
00000390: 65ea 89be 2171 85bc 4294 10bf ae91 fcbe
000003a0: 2601 e0be 4aa7 e5be 3505 2abf fa29 a6be
000003b0: 483e cbbe 9e7f e8be fe71 eebd b1e8 603e
000003c0: 21f0 a53e 4e70 573c 096b cfbe 1eb5 693e
000003d0: 29e3 99be 41b8 0fbe 5b04 bebd 20a5 44bc
000003e0: f207 a3be 1480 5dbe 2ce0 dcbd 1d9b efbd
000003f0: 23a0 11be e961 b2bd adaf 89be 7108 1abf
1.1135038 0.106718324 -0.045776278 0.16070259 0.45282215 -0.41394645 -0.044685397 -0.32010674
0.24318555 0.06383372 0.2677272 0.23645064 -0.26774615 0.6445731 -0.0074959737 -0.12823884
0.09317746 0.28987056 -0.11673288 -0.041175626 -0.21077567 1.3193952 0.5041756 0.4805544
-0.17335269 1.3259712 0.07778653 0.39867672 -0.37018934 1.0213494 0.04586962 0.01902241
0.4366155 0.30163342 0.22298667 -0.07251318 -0.2582099 0.3532959 0.095021434 0.09164427
-0.102889754 0.19624853 -0.27314204 0.013318933 -0.008357584 0.2849415 -0.011016457 -0.056003854
-0.041131895 0.12550294 0.60118586 0.28184265 -0.1072011 -0.2118987 0.17514938 0.1804531
0.15722121 -0.12310958 0.27920416 -0.42315853 0.15210329 0.10186597 -0.1413261 0.783629
0.031646397 -0.04999532 -0.074849784 0.7755674 0.41319424 0.29055643 -0.10126612 0.13808723
-0.11620947 1.0359935 0.59396607 -0.04805135 0.6265767 0.036879063 0.29550618 0.40663338
-0.37444386 0.4174318 0.24926083 0.22345752 0.15930381 0.31907812 -0.31747678 0.7979408
0.27713305 -0.08606538 1.0687057 -0.42746934 0.45208988 0.29558304 -0.14984295 0.13877444
0.39503816 0.53851277 0.44946995 0.0706988 0.85200495 0.104402915 0.003249539 -0.044751037
0.38749453 1.1301231 0.552904 0.4748982 0.7967344 0.7751616 0.112264976 0.029867543
-0.3240183 -0.4689744 0.7002366 0.43071067 -0.16144554 -0.09897482 -0.2563193 0.049435336
-0.0049034506 0.22195004 -0.052725583 -0.18009776 0.19588812 0.5570419 -0.30847558 0.30677947
0.03252544 -0.123900875 -0.014277732 0.09057505 -0.05052487 -0.31308997 -0.33805647 0.17466512
-0.26782173 0.09117403 0.05369178 -0.4073911 -0.06488871 -0.3204434 0.038364034 -0.14880088
-0.11583365 0.22009015 -0.3234208 0.11235651 -0.40370154 -0.27144104 0.42485186 0.07448206
-0.6521817 -0.44597846 -0.10348538 -0.2340817 0.044564992 -0.5891713 -0.35070658 0.05095706
0.12841137 -0.5486049 -0.59464157 -0.0004048888 -0.48826954 0.07755122 0.24526818 -0.5677931
-0.39986092 0.14499329 -0.14766791 0.20329198 0.8523612 -0.24918172 0.06307183 -0.0055322736
0.023802994 -0.08801226 -0.36651784 -0.5779615 0.17139104 0.011799271 -0.35249862 -0.07263279
-0.3613689 -0.6017356 -0.24518779 -0.24721134 -0.34709686 0.32993823 0.14347614 0.47836673
0.3220845 0.17735839 -0.043829296 -0.13486297 0.26840127 0.5832592 0.14004013 -0.2894034
-0.15232535 0.37800443 0.1535953 0.04072781 0.13129859 -0.016952874 0.12579638 -0.080486715
0.05870359 0.097676195 -0.48392266 -0.61542314 -0.30117115 -0.24708632 0.22554126 -0.40672192
-0.26189086 -0.008414997 -0.47106403 -0.16509938 -0.10248652 0.0041919574 -0.30659476 0.017098557
-0.04168236 -0.054327495 -0.66186583 0.07539386 -0.2693664 -0.016289296 -0.56476223 -0.49329895
-0.43750876 -0.44854194 -0.66414195 -0.324539 -0.39695954 -0.45409864 -0.11642836 0.21963765
0.32409766 0.013149334 -0.4051135 0.22822997 -0.30056122 -0.14035131 -0.092781745 -0.0120022595
-0.31842 -0.21630889 -0.10784945 -0.116995074 -0.14221244 -0.08710081 -0.26891842 -0.6016913

feature.bias_hh_l0 f4 [512]
00000000: 260a 843f 0da7 473e 159c 2bbd c156 733e
00000010: a6cb 993e f8bb f6be 1f1a 80bc f357 a6be
00000020: 3536 043e 6148 be3d 3684 8c3e aa47 d53d
00000030: 221d 79be d718 1c3f b923 be3d 019e 8f3b
00000040: cd9f ba3d 7bda 7c3e 4d79 d2bd 2889 3cbe
00000050: 0be5 61be cffe a63f 36c7 ea3e bad3 013f
00000060: f23a 74be 9a7a 9f3f 544f 9b3d 6830 b73e
00000070: 49c5 d3be 8027 863f d227 5fbd 0a20 ad3c
00000080: b97e ee3e 845b a03e 4c40 9c3e f4d4 debd
00000090: 2cea 59bd 33dc ce3e fb21 0d3e 703e 7b3d
000000a0: 85c7 d6bd 7590 5d3e eee2 95be e350 213d
000000b0: dade 03be 5468 8a3e c7ca 09be 8a5a 313d
000000c0: d331 5c3d b8dd 91bc 6e90 0b3f 0d5b 603e
000000d0: e6b8 29be 6460 b3be c820 883e 40f9 933e
000000e0: 22e5 503e edf7 8ebe 5101 333e e4ba a3be
000000f0: eeb6 3b3e 4a9d 803e be56 64bd 0ff1 363f
00000100: a998 4abc b144 24be 49b5 6abe 6fcc 4b3f
00000110: 7341 823e 0e2c a93e e7e4 a0bd 0da6 2ebd
00000120: 2943 71bd cebd 8b3f bb90 143f 3eaa fdbd
00000130: ddcf 1c3f 42df d23d 1fb4 b13e d13c ce3e
00000140: e907 cbbe 9c18 913e d577 a43e c33f 0d3e
00000150: c65b b23d bd83 4b3e 0dcb 5bbe 2b27 643f
00000160: d07f 643e 9498 1a3d 70a8 7f3f a81b e1be
00000170: cebf 0d3f 2697 d13e f0ce dfbd 9704 1e3e
00000180: bfd3 f83e c284 393f 8082 dd3e 5e5a dd3c
00000190: 3e39 843f d99e 08bb 7f1e 46be 8288 c73d
000001a0: cc43 813e 2199 6f3f 2625 f93e 6fea 053f
000001b0: 50e8 3b3f f206 523f e405 243e 5caa 293e
000001c0: 77fb b1be a21e cdbe c56b 4b3f a0c8 0d3f
000001d0: 6e93 56be 82a1 b33d c499 a3be 3862 ebbd
000001e0: 73ad ae3d f7f5 a23e 9fb6 1b3d 051d 81bd
000001f0: c156 243e 1228 163f 9669 60be 8d5c cf3e
00000200: d483 683e 22c4 57be 88d2 05be 190c 023e
00000210: 3d7c a33d 9558 aebe c28f aebe c94e 203d
00000220: b31a 9dbe 34d7 183e 0718 283e 1567 d6be
00000230: 0e26 33bc 0143 a6be 0e6b 02be 5ce9 98bd
00000240: 960c 63be 833d d63d e39b 73be 93fa 203e
00000250: 6113 a1be e733 bebe a57b a53e 941d 6f3d
00000260: b452 4cbf e836 e7be 8cff bfbd d276 38be
00000270: f763 dc3d dc19 12bf 8f58 57be fac4 bf3d
00000280: 65ec 5c3e 19a8 cbbe 14d9 02bf 0617 bf3d
00000290: dc7e b2be aea2 8b3d cd94 923e 1a70 18bf
000002a0: 2d83 cbbe 5130 0a3e 6e56 36bd a665 823e
000002b0: c3e0 7a3f 600e 9dbe 8a21 a93d 56c5 93bd
000002c0: 4aa1 4abd 9b78 48bd 63a3 c4be afe6 0cbf
000002d0: ee5d 5e3e d670 c13d d9e5 d4be 7b0e 54bd
000002e0: ff13 96be 13c1 c3be 9f06 f9bd f4ae 90be
000002f0: 0499 95be 57e8 b33e f4c0 173e 711a 013f
00000300: 5f47 8f3e d3c0 143c cb94 063d 13dd babd
00000310: 6573 1d3e 313b f13e a337 2abd 5b1b b5be
00000320: 4250 c8bd f6c5 f13e 3e1e 553e e766 d03d
00000330: 8df3 d03d 226b 88bd 5f7d a63d 1a22 a3bd
00000340: 5c12 1a3c 96ef 023e a0e2 e2be 4fac 0cbf
00000350: caad aebe 9caa 83be 550a c83e 1941 bbbe
00000360: 5027 a2be d297 693c cdb7 f7be dbed 41be
00000370: 16bf fbbd 4c1a 893d 6c63 7cbe f31c 63be
00000380: d5bb eebc 00e6 063e 9010 09bf 9fa8 913d
00000390: 8b0d 27be 89dd 93bd 2f22 0bbf d46d dfbe
000003a0: 3a8f 8dbe 51c7 c3be cd84 32bf 057c b2be
000003b0: a961 d4be 3fc8 b4be 6949 60be 1b07 9d3e
000003c0: 78c0 893e 0691 5abd edda c4be 6208 ab3e
000003d0: a895 98be 73e0 90bd ac50 54bd 793c ed3b
000003e0: f75b 5ebe 04f5 9ebe 279b abbd fd69 19be
000003f0: e65c 90bd 30d8 d8bd e852 87be 2742 2fbf
1.0315597 0.19497319 -0.0418969 0.23763563 0.30038184 -0.48190284 -0.015637456 -0.32488975
0.12911303 0.09291149 0.2744462 0.104140595 -0.2432752 0.609754 0.09284157 0.004382849
0.09112511 0.24692719 -0.102770425 -0.18411696 -0.22060029 1.3046511 0.4585511 0.50713694
-0.23850611 1.245929 0.0758349 0.3577912 -0.41361454 1.0480804 -0.054481335 0.021133441
0.46581057 0.3131982 0.30517805 -0.10880461 -0.05320184 0.40402374 0.13782494 0.061338842
-0.10487274 0.21637137 -0.29274696 0.03938378 -0.1287798 0.2703272 -0.1345626 0.043299235
0.053758454 -0.017805919 0.5451726 0.21909733 -0.1657444 -0.35034478 0.2658751 0.289011
0.20399907 -0.27923527 0.17480971 -0.31978524 0.18331501 0.25120002 -0.055746786 0.71461576
-0.012365499 -0.16041829 -0.22920717 0.79608816 0.2544056 0.33041424 -0.0785616 -0.042638827
-0.05890194 1.0917299 0.5803334 -0.12385987 0.61254674 0.10296489 0.34707734 0.40280774
-0.39654472 0.28339088 0.32122675 0.13793854 0.08708911 0.19874473 -0.21464176 0.89122266
0.22314382 0.037743166 0.9986639 -0.43966413 0.55370796 0.4093563 -0.10928142 0.15431438
0.4859905 0.724682 0.43263626 0.02702063 1.0329969 -0.0020846634 -0.19347571 0.09742834
0.25247037 0.9359303 0.48661155 0.5231084 0.73401356 0.8204185 0.16017872 0.16568893
-0.34762165 -0.40062433 0.7946132 0.55384254 -0.20954677 0.087710395 -0.3195325 -0.11493343
0.085291766 0.3182828 0.038015958 -0.06304363 0.16048719 0.5865489 -0.21915278 0.40500298
0.22706538 -0.21070912 -0.13068593 0.12699927 0.07982681 -0.34051958 -0.34094054 0.039137635
-0.30684432 0.14925843 0.16415416 -0.4187552 -0.010934366 -0.32472995 -0.1273615 -0.07466385
-0.2217277 0.10460951 -0.23789935 0.15720586 -0.31460097 -0.37148973 0.32320896 0.058377817
-0.79813695 -0.45159078 -0.093749136 -0.18014076 0.10761254 -0.5707071 -0.21029876 0.09363742
0.21574552 -0.39776686 -0.51112485 0.09330563 -0.3486241 0.06818138 0.2862915 -0.59546053
-0.39748517 0.13494994 -0.04451602 0.25468177 0.9799921 -0.3067503 0.0825835 -0.07215373
-0.049470223 -0.048943143 -0.38405904 -0.55039495 0.21715519 0.0944535 -0.4158161 -0.051771622
-0.2931213 -0.3823324 -0.12159466 -0.2825848 -0.29218304 0.351382 0.148197 0.5043097
0.2798414 0.009079176 0.032856744 -0.09124198 0.15376051 0.47115472 -0.041556966 -0.35372433
-0.09780933 0.47221345 0.20812318 0.10175877 0.102027036 -0.06661059 0.081293814 -0.07965489
0.009403791 0.12786707 -0.44313526 -0.5495042 -0.34116966 -0.25716102 0.39070383 -0.36573103
-0.31670618 0.014257388 -0.48382416 -0.18938391 -0.12292306 0.06694469 -0.24647301 -0.22179012
-0.0291423 0.13173676 -0.535409 0.0711224 -0.1631376 -0.07219989 -0.54349035 -0.4363848
-0.27648336 -0.38238004 -0.6973389 -0.34860244 -0.4148076 -0.35309026 -0.21903004 0.30669484
0.26904655 -0.05336096 -0.38448277 0.33404833 -0.2980168 -0.0707406 -0.051834747 0.007239875
-0.2171477 -0.31046307 -0.08379202 -0.14981838 -0.07048969 -0.105881095 -0.2643044 -0.68460315

feature.weight_ih_l0_reverse f4 [512, 64]
00000000: ea91 563f 82c4 4a3f 4f0e e9be 67f9 56be
00000010: bbc5 58be c7cc 3abf aa2e 893e 7ad6 223e
00000020: 2db0 9a3e b237 083e 091a 10bf 7fcc aa3e
00000030: 5754 b23d d404 773f 11cb 233f 8639 833e
00000040: 8d2a 3d3e e28f d8bf f3dd b6be d6b7 31be
00000050: abf5 f3be 81c6 a33e 7466 e23d da22 413f
00000060: 71dc 29bf 52d3 42be 9618 0dbe b801 df3e
00000070: 7dbf 933e 8d61 1dbd 1c32 cc3e c277 d33d
00000080: 8b36 ccbe 473d 1ebe e4be a83e d86a 85bf
00000090: f688 16be e6df d6bd 9f11 16be 9f50 a93f
000000a0: 51e0 883e b8a0 f63e 0cdb 473e f975 bb3e
000000b0: 6526 263e 1fcc f8bd 4c65 bfbe ca76 1c3e
000000c0: 016d 36bf b7cd 09bf 167e 6ebf e783 483e
000000d0: bf0e 163d 0da6 59bf c801 7b3f b559 103d
000000e0: 4a68 22be bd18 833f 3cc2 75bf c456 e23e
000000f0: 6968 603f afa3 0f3f e527 a13f c9d7 85be
00000100: ff10 463e 1e47 e6be 908f 953e 2e3e 073f
00000110: 66fd b43e 52e4 bbbe fa7b 44bf f7a8 bb3e
00000120: 5fa7 bcbe dc08 f8be 020d 32be 24ac 44be
00000130: 065a 873e e292 17bf a527 9abe eac3 853f
00000140: 7a8c 9dbe 787b 493f 65f3 0abe 5a01 b9be
00000150: 3350 84be a92f 1a3f 0bf2 063f 83d9 20be
00000160: 78d0 1fbf 0a76 d8be 5a52 333f 19fe ed3e
00000170: 1768 28bf 45e6 3abf f546 783d 5045 7e3c
00000180: de2b 3a3f 6e22 94be 19b2 4fbf f31b 823e
00000190: 1151 52be b80d 8f3f 1d40 a0be 84ee 23bf
000001a0: 05b1 f4be 8381 0d3d 8cb2 cc3d 7fa6 253f
000001b0: c514 11bf 074e a03e 092c 893e 53f1 54be
000001c0: 9ad4 073f 75df f0be c9bb 023f 3958 fb3e
000001d0: a707 6c3e 0344 003e 3108 4abf 6537 33bf
000001e0: 77bd 723f e2b4 a0be 416b eb3d a805 7fbe
000001f0: 4cd6 debe 3e21 1d3f eea8 28bf b40d c4be
00000200: 9e67 b3bd 98ab a1be e5d8 15bf 71cb 093f
00000210: 5810 0b3f 359e 293e 8718 123f 28af adbe
00000220: 00eb 90be 805c 77bc 098a 90be 6c6b f13c
00000230: 7d16 023e 377d 7abf 6867 bd3f 6323 c5be
00000240: 9194 203f 55a2 513f e78b 063f 2653 cabe
00000250: 81e8 bfbe 947f e4bc 4f18 3e3f 4426 4abe
00000260: 5f4b 57bd b5ea 803f 4453 4abf 2169 7dbe
00000270: 6515 113f e69f 4c3f 4aa9 893c 71ea d83e
00000280: 4a58 8cbe 630b 8b3e 8191 9cbe b30f 543d
00000290: 5104 e9bd 9751 4d3e 640c 8a3e 673a c3be
000002a0: af3c 1bbf 5cb2 1c3f c517 6ebf c317 3abe
000002b0: 0459 9c3d e2ba 693f e8fd d7be 7d8e 9c3e
000002c0: 9aff b03e f63a 853e bf4c c23d a6ad f03e
000002d0: 43d9 4dbe b6f1 953e 6c5e 843f fbbf a83e
000002e0: b19e 623e f96f c1be 61fb 5f3e 4c3c 633f
000002f0: 2948 22bf a9d0 85be 4fe5 543f 468f b0bc
00000300: 4160 01bf 6454 0e3f 6bab ba3e 50a5 c23e
00000310: 812d b13e 2602 9f3d f562 b53e 0f41 c7bc
00000320: 703d 203f 2d84 2b3f 9272 ba3e 1a8d 683f
00000330: 27a2 dfbe 0253 05be 18ad a7bf cc6d e33f
00000340: 3e44 50be ab22 2ebf f47f 913e 9195 0a3f
00000350: 77d1 3f3f e8c9 bc3f 7130 00c0 4ad9 b3bf
00000360: c2f3 213d fa11 5f3e 4000 94be 2ecf f03d
00000370: a60e b0bf be2d 9d3f 3150 993f 4476 ee3e
00000380: b14f 043f 433a 12bf 69ba 0140 4b81 ae3e
00000390: f197 0a3f a664 93be a9c0 7b3f 2496 00bf
000003a0: 89f9 7d3f d8c5 e5be 452d b4be 4361 3540
000003b0: 27e0 e73f 6741 d8bf 1a51 ca3f 9fe6 34bf
000003c0: b2f5 1e3f 4a0e 74be a173 b23e f147 25be
000003d0: 1431 5cbf 251b 293d 33fd 243e 72c1 5e3e
000003e0: 0fd4 993d 8739 913f bd07 2dbd 3cea 113f
000003f0: f52f 193f 23a6 d33e 49f7 663e 086d 0040
0.838164 0.792061 -0.4551873 -0.20993577 -0.21169178 -0.72968715 0.26793414 0.15902129
0.30212536 0.13302496 -0.56289726 0.33359143 0.08707493 0.9649174 0.6398173 0.25629824
0.18473263 -1.691891 -0.3571621 -0.17355284 -0.47648367 0.31987384 0.11054698 0.75443804
-0.6635199 -0.19025925 -0.1377891 0.43556 0.2885703 -0.03842311 0.3988198 0.10325576
-0.39885363 -0.15453063 0.32958138 -1.0423231 -0.14700684 -0.10491924 -0.1465516 1.3227729
0.2673364 0.48169494 0.19517154 0.36613443 0.16225584 -0.12148308 -0.3738197 0.1527969
-0.71260077 -0.5382952 -0.9316114 0.19581567 0.036635157 -0.85019 0.9804959 0.0352418
-0.15860096 1.0241925 -0.95999503 0.44206822 0.8765932 0.56109136 1.25903 -0.26141194
0.19342421 -0.44976133 0.29211092 0.52829254 0.35349578 -0.36697632 -0.76751673 0.36652347
-0.36846444 -0.4844426 -0.17387775 -0.19206291 0.2643587 -0.592085 -0.3010837 1.0450413
-0.30771238 0.78704023 -0.1356941 -0.36133844 -0.25842437 0.60228974 0.5271308 -0.15707974
-0.62427473 -0.42277557 0.70047534 0.46482924 -0.6578383 -0.73007613 0.060614545 0.015519455
0.72723186 -0.28932518 -0.8113113 0.2541195 -0.20538737 1.1176062 -0.31298915 -0.6403582
-0.47791305 0.03454734 0.099949926 0.6470718 -0.56672317 0.3130953 0.2679141 -0.20795183
0.5305878 -0.47045484 0.5106779 0.49090746 0.23049794 0.12525944 -0.7891875 -0.700064
0.9482035 -0.31388003 0.114950664 -0.24904501 -0.4352287 0.6137885 -0.65882766 -0.38291705
-0.08759998 -0.31576228 -0.5853408 0.5382605 0.54321814 0.16564257 0.57068676 -0.33922696
-0.2830429 -0.015097737 -0.28230312 0.029470168 0.12703891 -0.9784731 1.4797182 -0.3850356
0.62726694 0.81888324 0.52557224 -0.39516562 -0.37482074 -0.027892865 0.7425584 -0.1974116
-0.052562114 1.0071627 -0.79033303 -0.24747135 0.5667327 0.79931486 0.016804356 0.42366365
-0.2741111 0.27157125 -0.3057976 0.051772784 -0.113777764 0.20050655 0.26962578 -0.38130495
-0.6063947 0.61209655 -0.9300502 -0.18173127 0.07634166 0.91300786 -0.42185903 0.3057746
0.3457001 0.26021546 0.094872944 0.47007483 -0.2010241 0.29285973 1.0341315 0.3295897
0.22130848 -0.3778074 0.21873237 0.8876388 -0.6339136 -0.26135758 0.831624 -0.021552693
-0.50537497 0.5559752 0.36458907 0.38016748 0.3460503 0.07764082 0.3542706 -0.024323015
0.62593746 0.6699856 0.36415535 0.90840304 -0.436784 -0.13019946 -1.3099699 1.7767882
-0.20338532 -0.6802165 0.28417933 0.5413447 0.74928993 1.4749117 -2.0029566 -1.4050686
0.039539106 0.21784201 -0.2890644 0.117582664 -1.375447 1.2279584 1.1977597 0.46574605
0.516841 -0.5712015 2.0270026 0.34083018 0.54138094 -0.28787726 0.9834085 -0.50229096
0.99208885 -0.44877505 -0.35190788 2.8340614 1.8115281 -1.6894959 1.5806 -0.706644
0.6209365 -0.23833576 0.34853843 -0.16140725 -0.8601239 0.041285653 0.16112213 0.21753481
0.0751115 1.1345681 -0.042243708 0.5699804 0.598388 0.4133769 0.2255527 2.0066547

feature.weight_hh_l0_reverse f4 [512, 128]
00000000: 673d 21bf f0e7 36bf cb2c 453f 5e8b 8fbe
00000010: 967e 8e3f c3e6 c63e 3b2c 0cbd 8478 0dbd
00000020: 0c6a f13d 9b7a 043f 62c7 973e 0c11 8ebf
00000030: 7854 6fbe 650b b2bd bdd6 3abb a78f 2fbd
00000040: 4b89 fc3d d3fa 6dbe 8a15 5cbe 3887 cdbe
00000050: d3ac 11be 70aa 9cbc c632 103e 1fea a6be
00000060: cf6b b0be 572e 7a3e a8ef f73d 93dc 98be
00000070: 650e 08bf bddf 033e 5461 113c 076e 193e
00000080: d100 0b3d 8463 05bf f685 143e 09a0 eb3e
00000090: 7e1a 643e 888d 92bf 52fe 2e3f 8392 9bbc
000000a0: f6a3 d33e 7a5f e03e 4e67 283d a47b 963f
000000b0: 1ee2 a03f 0dcc 05bf 19df 353f a4f8 17bf
000000c0: 8429 95be 21ea 6d3e 6492 dabe 45af 073f
000000d0: 440e fb3d 9dfe b03d f82d 90bf 18b2 073f
000000e0: 1147 2fbe 050d 7a3f bedb 803e f242 4abe
000000f0: 54d6 2dbf 0e07 913d 7b35 61bf da52 6d3f
00000100: 81ea 36bd c430 f6bb 91e5 edbe 8857 363f
00000110: 1262 b6be 9c25 1f3f c50a 5cbf b8cc 13be
00000120: c40c f8be fa7d 7abd 2061 bebe 0b43 b03d
00000130: c082 cd3e 8ad5 17bf 2bb9 1e3c d4bd 73be
00000140: eb8c 6cbe 7811 043d 5ba6 05be ee39 4c3f
00000150: 44a8 083f 033c 2a3e 5134 da3d 9cc7 7dbe
00000160: 57bc dcbe 7349 4e3f 3a5b 91bf bfb8 e7be
00000170: aeb8 073f b0e3 f63d ac48 7e3c e5aa debe
00000180: 16d8 25bf 70b0 863f 2c3b 0c3f 99f9 84bd
00000190: 7578 8c3e 23bc 82be 2dfc 8ebe c4c5 a4be
000001a0: c5a7 3bbf b547 33bd 668e 14be 04cc 10be
000001b0: c2b2 823f dd5d a53e 58cf 823e 91d8 0ebe
000001c0: 9fdb 27be 54b0 ee3e 3c0f d7be 4327 36bf
000001d0: bcfd ae3e 05bb a43f 0b10 293e 758e 84bf
000001e0: e143 c5bd c9a7 033d 2500 0d3f fcdd c1bd
000001f0: b746 77bf 5dc6 153f a326 da3c da17 0b3f
00000200: fe45 a9be 161d 0d3e 6d4d afbc ef25 523f
00000210: 9b81 803f 6537 663e 3360 aa3e b745 823d
00000220: 13ce 303e 2b0d 9ebe 2607 9c3e 1636 f83d
00000230: 4bf6 c1be 12ef 48be 066d 8abe decb 913e
00000240: d49d 4e3d 6f73 c33d 4e70 963b c95c 31bf
00000250: a299 2e3d df1e aebe e8c5 3e3c f133 82bf
00000260: 6510 d63e 158d 8abf 585f 363d 9a2c 75bf
00000270: 99aa 393e 71f4 9d3c 8952 4bbf c47f 23bd
00000280: 69b8 1b3f 5e86 d3be 5fb7 873e 8a28 cfbd
00000290: f125 39bf 9973 4ebd ed4d 5f3e 1ddd 17bf
000002a0: 7c84 2ebf 6857 f7bd 0e5b a1bc 3097 69be
000002b0: f1dd 70be 356b 953e e240 32bf ddc1 a9be
000002c0: 7136 9d3d d19f ccbe 232b 8cbe 840c 0d3d
000002d0: 4736 8f3e 1492 bebe 26a7 82be 117c 1bbf
000002e0: f879 10bc 6d42 03bf a7d1 ff3d 6b82 50bf
000002f0: 7eb1 d93f 2004 d53e 8001 0abf 5a17 cbbe
00000300: cce8 f4be ab14 a83f a91a 8cbe 9ca4 ebbe
00000310: 8b1b 19bf 33bd bb3c 90a0 ce3e 69eb 9f3e
00000320: 025e c0be ad04 c43e 6e2d 46bf 69f2 0c3d
00000330: c57e c23e e42e 50bb c4c0 e0be b2a0 4dbf
00000340: ba4f 323f f5d0 37bf 9b51 2cbe 1bc4 fb3e
00000350: e1b7 293d 3510 e63e 16b5 a3bd 5caf 193e
00000360: c3b1 51bf 4d30 8bbf 1140 df3e 566e a2bd
00000370: 11d9 4abf 873a 28be d78b f73e 95f9 bc3e
00000380: ba7f 3cbe c2c6 d5be 34aa 0bbf 7d90 c83e
00000390: cd44 bf3e 6c14 163f 2d1d b8be 8d62 033f
000003a0: 26b2 30be bd52 4a3e 716f f6be e6bd d83e
000003b0: 9de9 25bf 0ec2 8abf 0b36 5e3d 6325 2d3f
000003c0: b9cd 14bf 9752 133f 60e6 d8bd e226 31be
000003d0: f5c8 82be 6924 343f 662b 6dbe 1589 3dbf
000003e0: 732a 90be 764d 6d3f 13df 863f 117d a9bd
000003f0: 91c8 0ebf 7b17 a23e 7878 a6be a9d5 373f
-0.6298432 -0.7144766 0.77021474 -0.28036016 1.1132381 0.38847932 -0.03422187 -0.03453876
0.11787805 0.5174958 0.29644305 -1.1098952 -0.23372066 -0.086935796 -0.0028509342 -0.042861607
0.12330874 -0.23240213 -0.21492592 -0.40142226 -0.14226083 -0.01912424 0.14081869 -0.32600495
-0.3445725 0.2443174 0.12106258 -0.29855785 -0.53146964 0.12878318 0.0088733025 0.14983378
0.033936325 -0.52104974 0.14504227 0.46020535 0.22275731 -1.1449442 0.6835681 -0.01899076
0.4133603 0.43822843 0.041114144 1.1756482 1.2569005 -0.5226448 0.71043545 -0.5936377
-0.29133236 0.23233844 -0.42689812 0.53001815 0.1225858 0.08642314 -1.1264029 0.53006124
-0.17116953 0.97676116 0.2516765 -0.197521 -0.67905164 0.07081424 -0.8797223 0.92704546
-0.044657234 -0.0075131375 -0.46464208 0.7122731 -0.35621697 0.6216676 -0.85953933 -0.14433563
-0.4844724 -0.061155297 -0.37183475 0.086065374 0.40138817 -0.5931021 0.009687702 -0.23802882
-0.23100631 0.032243222 -0.13051741 0.79775894 0.5338175 0.16624455 0.1065451 -0.24783176
-0.43112442 0.80580825 -1.1355965 -0.45258138 0.53016174 0.12055147 0.015520256 -0.43489757
-0.64782846 1.0522594 0.5477779 -0.064929195 0.2743565 -0.25534162 -0.2792677 -0.32182133
-0.7330287 -0.043769557 -0.14507446 -0.14140326 1.0210803 0.32298175 0.25548816 -0.13949801
-0.16392373 0.46618903 -0.4200381 -0.7115366 0.3417796 1.2869574 0.16510026 -1.0355974
-0.096320875 0.032142434 0.55078346 -0.09466168 -0.9659228 0.58505803 0.026629752 0.5433327
-0.33061212 0.13780627 -0.021399224 0.8208913 1.0039552 0.22482069 0.3327652 0.06360953
0.17266111 -0.3086942 0.30474204 0.12119691 -0.3788322 -0.19622448 -0.27036303 0.2847585
0.050443485 0.095435016 0.0045910245 -0.69282204 0.042626984 -0.34007928 0.011643864 -1.0172101
0.41809383 -1.0824305 0.04452452 -0.9577118 0.18131484 0.019281598 -0.79422814 -0.03991677
0.6082826 -0.41313452 0.2650709 -0.10115154 -0.7232352 -0.05040321 0.2180707 -0.5932177
-0.68170905 -0.12077218 -0.019696739 -0.2281158 -0.23522164 0.29183355 -0.69630253 -0.33155718
0.076763995 -0.3996568 -0.2737666 0.034435764 0.27971098 -0.37220824 -0.2551815 -0.60736185
-0.008818142 -0.5127323 0.1249116 -0.81449 1.7007291 0.4160471 -0.5390854 -0.39666253
-0.4783386 1.3131307 -0.2736409 -0.46024024 -0.5980765 0.022917366 0.40356874 0.3123429
-0.37571722 0.38284817 -0.7741307 0.034410868 0.37987342 -0.003176623 -0.43897069 -0.80323327
0.69652903 -0.7180322 -0.16828005 0.49173054 0.041435126 0.4493424 -0.07993524 0.150083
-0.8191187 -1.0874115 0.43603566 -0.07931201 -0.7923747 -0.16428576 0.48348877 0.36909166
-0.18408099 -0.41753203 -0.54556584 0.39172736 0.37357178 0.5862491 -0.3595976 0.5132225
-0.17255458 0.19758125 -0.48131898 0.4233238 -0.6480959 -1.0840471 0.05425076 0.6763517
-0.5812641 0.575479 -0.105908155 -0.17299989 -0.25543943 0.7036806 -0.23161086 -0.74037296
-0.28157386 0.9269632 1.0536827 -0.08275808 -0.5577479 0.3165854 -0.32513785 0.71810395

feature.bias_ih_l0_reverse f4 [512]
00000000: 5037 da3e 0f32 53bd 6834 9e3d 195a cc3e
00000010: 29d9 113f 2569 b1be 93ce 923e 9012 a73d
00000020: 58a5 ddbd 7a2e 443d d68b 1ebd 6be8 ba3e
00000030: 3c3b 123f d69f 863e c2f7 ae3e 7b4f 7f3e
00000040: 4fb3 e2bd 20cf 693c a9c1 69bd 0fca 553f
00000050: aaa5 c23e e8d8 e5bc 4482 643d 7fc2 0e3f
00000060: 328a 70bc 6d52 6a3d 0d18 b3be 38c9 01bd
00000070: f321 31bd 21c1 4f3e b317 ff3e 3d13 63bd
00000080: 58cc e9bc 7f23 8a3e b53f b33c 43b1 7b3e
00000090: 068f 403d b62c 44be 1ff2 4e3e cc19 1838
000000a0: d866 85be 4fe7 543e da65 0d3e ffb2 b4be
000000b0: ce2f 963d 8429 113f f834 42be 350b 50bc
000000c0: c24e cfbd e3ec 2fbe 2926 73bd 1a1a fa3d
000000d0: 5218 033e cc3e 393c 1942 2abe 081d 583e
000000e0: eb76 e6be 3e01 793e a3ad 99bd cb6b fb3d
000000f0: 5094 4c3f c5ef 3fbe 9076 d13d 6e20 46be
00000100: 340f 95be 399d 14bc 07e9 853e d467 923d
00000110: 1362 04bd 7196 21bb f979 8dbe 52be f93e
00000120: 66b3 1e3e 1b72 783e 9bc8 27bd e603 413e
00000130: 590f e83d f51b f83d d28d 0b3e 412d b03c
00000140: 1660 ff3e eca9 1dbd 7e0c d73d 839b b9be
00000150: 0454 2fbe d1bd 09bf 2dfb b9be a71b 0fbf
00000160: 49dc 87be 7dbf 123f 76ee adbe 9081 923d
00000170: d15b 71be 65e0 57be bbaa ba3e fb75 c23e
00000180: cd42 353f b5b8 ad3e a0a8 083f df81 9c3d
00000190: 9bb5 a7be 3175 c8bd 1a4b 43be 912b 9fbe
000001a0: bfdc f7bd cf9c 8b3d 873f e43e 158f 283f
000001b0: 4ff0 da3e 412d 833e 4fa4 ccbd cba9 1c3e
000001c0: 5874 a83e 53f5 bdbe 04fd 8abd de67 62be
000001d0: 4114 4b3e 88f5 063f 2439 593e db4e 823e
000001e0: 7b8d 77be f6ba b2bb 410c 783f 654e 1f3e
000001f0: 62b5 76bd 4c8b dabd 7ea3 00be 540e 823d
00000200: 66dc 94be f006 dcbe 4b22 6d3e 6921 0dbf
00000210: 78ac a13e 3201 2ebe 6d67 04bf 0325 003d
00000220: 4ff8 443e f41f 72bd 0bd1 a63e beaa 073b
00000230: 0445 21bf 44cb 9abe 2554 0abf 6d43 233d
00000240: e12d 183e eea5 f73d 24b2 973d e352 373e
00000250: 48b2 3a3e 9a78 403d adef e7bd 6da2 47bc
00000260: 3c77 f83e dd4f 833e 0f37 4ebe fe00 02bc
00000270: f42f c03e 614e acbe e3a9 393d 3b0d 9dbe
00000280: 3452 57bd 57d5 003d 5080 a23c 5a1f d1bd
00000290: 1e0e 10be be5f f7be 1a21 85be 6856 c0bd
000002a0: aa52 0d3e 9b08 d83c 2f63 89bd 8e4d e33e
000002b0: 4e20 bb3d 4139 9a3e 2c62 0b3e b5f7 e73e
000002c0: f250 1c3f 52bf 393e 58fe a3bc 1bac b43c
000002d0: eb4e b63e daac babe dc68 1f3c a5d4 1bbe
000002e0: aae1 443d 254b 1bbe ddaa f0bd f082 53be
000002f0: 1087 12bf 41e0 3abd 0490 a03d b38d 84be
00000300: bf0e 90be 2ac5 2dbe a9cd a23e 5991 f0bd
00000310: e01d acbd 1776 093f 4a67 22bc a694 e33e
00000320: ed55 013f 7269 79be 31e9 663e db76 aa3e
00000330: ad67 313e b925 b6bd e460 d43e eaf5 96bd
00000340: e773 03bf 8460 8abe c05f 8cbe 236f b63e
00000350: 06d1 5abd 54b8 213e f1bb 0d3e 1169 8d3e
00000360: e645 be3e ee39 23bf bcda 123f 1a87 83be
00000370: 4df3 c33a d237 f1be d4c4 c4bd 3197 0abf
00000380: fee3 e73c 058c 87be be84 8ebe 4678 eabe
00000390: 90ae 713e b488 683f 5cc2 e1bd 5d2f 1c3e
000003a0: fee9 70be 8ca4 98be bc30 9ebe d0e5 53be
000003b0: 799e 883c 814c 333e d87b 7ebe 4375 933e
000003c0: 44a9 56bd 7d0d 013f e136 6b3d aa26 d23e
000003d0: 7b52 7e3d f57d cb3d 831f 46be 5311 16be
000003e0: 0b6f 22bd 4efb 513e 7087 56be da4b 40be
000003f0: 69ef 72be ecbb 65be 9599 89bd b670 ad3d
0.42620325 -0.05156141 0.077248394 0.3991249 0.56971985 -0.3465053 0.2867323 0.081578374
-0.108225524 0.047895886 -0.038707577 0.36505446 0.57121634 0.2629382 0.341734 0.24932663
-0.11069357 0.014270574 -0.057069454 0.8351144 0.38017017 -0.02805753 0.055788293 0.5576553
-0.014681386 0.057207514 -0.34979287 -0.031686038 -0.043245267 0.20288517 0.4982277 -0.05543827
-0.028539822 0.26980206 0.021880964 0.24579339 0.047011398 -0.19157681 0.2020955 3.626365e-05
-0.26055026 0.20791362 0.13808385 -0.35292813 0.07333337 0.5670397 -0.18965518 -0.012697984
-0.10122444 -0.17180209 -0.059362564 0.1221201 0.12802246 0.011306476 -0.16626777 0.21104825
-0.45012602 0.2431688 -0.07503822 0.12276419 0.79913807 -0.18743809 0.10227692 -0.19348308
-0.29113162 -0.009070688 0.26154348 0.0714871 -0.032320093 -0.002465632 -0.2763212 0.48778015
0.15498123 0.24262278 -0.040962797 0.18849143 0.11331052 0.121147074 0.13628319 0.021505954
0.49877995 -0.03849213 0.105004296 -0.3625146 -0.17121893 -0.5380526 -0.36324444 -0.5590157
-0.26535252 0.5732344 -0.33970994 0.07153618 -0.23570181 -0.21081693 0.36458382 0.37980637
0.70805055 0.33929983 0.533823 0.076419584 -0.3275574 -0.097879775 -0.19071618 -0.31087926
-0.12102651 0.06817018 0.44579718 0.65843326 0.42761466 0.25620463 -0.09992277 0.15299146
0.32901263 -0.3710123 -0.0678654 -0.22109935 0.19831945 0.527184 0.21213204 0.25450787
-0.24175064 -0.0054544164 0.968937 0.15557249 -0.060231574 -0.106711 -0.12562367 0.06350389
-0.290744 -0.42974043 0.23157613 -0.55129105 0.31576896 -0.16992643 -0.51720315 0.031285297
0.19235347 -0.059112504 0.32581362 0.0020701136 -0.62995934 -0.30233204 -0.54034644 0.039859224
0.14861251 0.120921955 0.074070245 0.17902713 0.18232071 0.046990015 -0.113250114 -0.012184721
0.4852847 0.25646868 -0.2013819 -0.007934807 0.37536585 -0.33653548 0.045328032 -0.30674157
-0.05256863 0.031453457 0.019836575 -0.10211058 -0.14067885 -0.48315233 -0.26001817 -0.09391481
0.13801065 0.02637129 -0.06708371 0.44395107 0.09137021 0.30121806 0.13611668 0.45306173
0.6106101 0.18139389 -0.020018741 0.022054723 0.35607085 -0.3646 0.00972959 -0.15217836
0.048066773 -0.15165384 -0.117513396 -0.20655417 -0.5723734 -0.04562402 0.07839969 -0.25889358
-0.2813625 -0.16969743 0.3179753 -0.11746473 -0.08404136 0.53695816 -0.009912321 0.44449347
0.5052174 -0.2435663 0.22549893 0.33293805 0.17324705 -0.08893914 0.41480172 -0.07371123
-0.5134873 -0.2702676 -0.274168 0.35631666 -0.053421997 0.15792972 0.13841225 0.27619222
0.37162703 -0.6376027 0.5736501 -0.25689012 0.0014949829 -0.471129 -0.096078545 -0.5413695
0.028306957 -0.26474014 -0.2783565 -0.45794886 0.23601747 0.9083359 -0.11023399 0.15252443
-0.23526761 -0.2981304 -0.30896556 -0.20693135 0.016677128 0.17509653 -0.2485193 0.288004
-0.052407518 0.50411206 0.057425383 0.41045123 0.06209038 0.09936134 -0.19347958 -0.14655046
-0.03965668 0.20506021 -0.20950103 -0.18778935 -0.2372414 -0.22434968 -0.067187466 0.084687635

feature.bias_hh_l0_reverse f4 [512]
00000000: 2bed 8f3e 205b abbc a43b bd3d 8595 a83e
00000010: aea5 ec3e d69c 60be ed39 e83e 96d2 083e
00000020: 0b7e 83be fdaa e73d 4e90 a5bc fcdb bb3e
00000030: 85bf 123f 66b2 623e ef3f 823e 438b b43d
00000040: cde7 88be 2acf 34be 75f2 a1bd ef10 4d3f
00000050: 85b6 d53e cd2a f23c c5a9 fb3c 2994 c63e
00000060: bb89 8f3c 5cdd 993d b221 8ebe 2229 713b
00000070: 9ae9 42be 28cb 863e 06b8 043f 40ce 5dbd
00000080: 343d 18bd e869 f53e fa6b aa3d 1482 1d3e
00000090: ece4 a13d 81e2 0bbe 28d4 5b3e ec16 083d
000000a0: 84bf 90be 9b7f 573e 80cf ee3d eb34 64be
000000b0: 60d8 4c3d 9d3b 213f b54d c0be 472e a83d
000000c0: 4125 a6bd a718 2fbe e41b c3bd 27e2 6a3e
000000d0: 148d a03d 89f3 f03d ac07 91be 4525 973e
000000e0: 6dc6 06bf 8919 403e 47d6 a5bd 4523 f43b
000000f0: 2945 313f 19dd 8cbd a8a8 dcbc 56e7 1fbe
00000100: 95a1 acbe c6b0 203e e0ff 6d3e 08aa c43d
00000110: a87e 0ebd e918 3b3d 7b11 72be 4956 073f
00000120: 6b68 203e d5ad 293e 0403 9ebd 370e e03c
00000130: c727 0b3c c0a1 093e 6d4b 753e a5d4 503d
00000140: 1996 173f b3b0 9ebc 2484 1f3d 2875 e2be
00000150: deeb 6a3c e1e2 05bf cc6d ccbe f24e fcbe
00000160: e615 f9bd 1ae4 f83e a8fd f8be 3128 c13c
00000170: b3ff 7bbe c77f bfbd f59d a83e 0aa4 aa3e
00000180: 1162 483f 8548 413e a73a 0a3f e627 9c3d
00000190: dc57 acbe 62e2 debc 90db 35be 19de 73be
000001a0: 77a5 11be 91c0 113c 83cf c73e 328e 463f
000001b0: bbac d63e 4d03 b43e 47eb 2abe 9901 573e
000001c0: ca24 a73e 8e6e b8be b6e7 08be 3009 64be
000001d0: efea 513e 6d8c f13e 3d5b e23d 18b5 8c3e
000001e0: 15f0 87bd eca6 f9bc ef51 683f bc35 b03d
000001f0: 3995 90bd 19d8 4dbe 48aa 13bc dadf 453d
00000200: 1819 cabe 270c c8be 1d0b 0c3e 8c99 ffbe
00000210: 20d1 823e d79b fbbd 6431 01bf bb14 e23c
00000220: 235c 373e 62e2 463a c53f cd3e 7508 1e3d
00000230: f6dc 14bf 91cd cbbe 5d65 1abf 7fff 203b
00000240: 0545 063e 1fd7 e43d d2d9 e7bc af8f 073e
00000250: 6286 1c3e 01b3 db3d bb6c debd c96d f4bd
00000260: b752 dc3e aef8 973e ef50 83be 73d2 923d
00000270: f329 a93e a1ef bbbe 0119 223e c7e8 99be
00000280: 8fe2 22bd 8241 dd3d 9ad2 533d ed61 35be
00000290: 46af d13c e675 f2be 5eb5 a3be 3429 e5bd
000002a0: 654c ae3b c63e 1d3e baa7 83bc cdd0 103f
000002b0: 4721 d53c ae3e cc3e 55e4 d63d 3849 b63e
000002c0: 588b 3c3f 34a6 433e 4dee 5bbd a3c7 013e
000002d0: ec30 ec3e d8a6 d4be fdfe 053e 4459 3bbe
000002e0: 5b6e f43d a225 8cbe 8f1f 22bd 9e8a 53be
000002f0: d3c2 08bf 3b4c 87be 62f9 d33d 00fb 45be
00000300: 5c51 21be e864 25be 1b39 473e 623a d1bd
00000310: d34a dabd 29a4 0c3f 1576 613d 2f5f c83e
00000320: de15 e83e bf0c 5ebe b03d 623e 5b2c ce3e
00000330: 4a01 8a3e ef55 50be 8cf7 c63e 16d2 3d3c
00000340: f109 eabe c554 b3be 4ff3 2bbe 3294 c03e
00000350: 17de cabd ea0d 0e3e 8595 083b 9980 723e
00000360: 43ba a93e 077a 1ebf 8930 ec3e fff2 5cbe
00000370: 4be4 2bbd 2062 b6be c4bc 75bc 51f0 0ebf
00000380: db15 083e b80f 37be 889b afbe db7d d1be
00000390: 87ee c33e 24f0 613f c79c 82bc 5f1a 4c3e
000003a0: 0a0d 35be 169a 9bbe 22ba b0be 7fb5 12be
000003b0: 6ddd 9bbd 28ca 973e 024e 40be f3a2 7d3e
000003c0: 9b65 1fbe 35f4 233f 2985 913d 1def b23e
000003d0: 3901 f53d d6e5 93bd 57e8 d1be 6e91 a0bd
000003e0: b41d febd 558c ac3e 1505 aabe 1ec8 67bd
000003f0: 3175 debd cb9b 45be 7c95 14be ee4f 64bc
0.28110632 -0.020917475 0.09239891 0.32926574 0.46220154 -0.21934828 0.45356694 0.13361582
-0.256821 0.1131191 -0.020210411 0.36691272 0.57323486 0.22138366 0.25439402 0.088156246
-0.2673935 -0.17657152 -0.07907573 0.80103964 0.41740814 0.029561425 0.0307206 0.38784912
0.01752173 0.07512924 -0.27760082 0.0036798199 -0.19034424 0.2632687 0.518433 -0.054151773
-0.037167743 0.47932363 0.08321376 0.15381652 0.079049915 -0.13660623 0.2146765 0.033224985
-0.28271115 0.21044771 0.11660671 -0.22285812 0.05001104 0.6298159 -0.37559286 0.08211952
-0.08112574 -0.17099248 -0.09526804 0.22937833 0.078394085 0.11765201 -0.28326166 0.29520622
-0.52646524 0.18759741 -0.08097511 0.0074504935 0.69246155 -0.068781085 -0.02693589 -0.15615591
-0.33717027 0.15692434 0.2324214 0.096027434 -0.034788758 0.045678053 -0.23639481 0.52866036
0.15664832 0.16570218 -0.07715419 0.027350528 0.00849337 0.13440609 0.23954554 0.050984044
0.59213406 -0.019371366 0.03894438 -0.44230008 0.014338462 -0.52299315 -0.39927518 -0.4927898
-0.1216238 0.48611528 -0.48631024 0.023578735 -0.2460926 -0.093505435 0.32933012 0.33328277
0.7827464 0.1887532 0.53995746 0.076247975 -0.3366078 -0.027207557 -0.17759538 -0.23815192
-0.14223276 0.008896009 0.39025506 0.7756072 0.41928658 0.35158768 -0.16691314 0.20996703
0.32645255 -0.36021847 -0.1336964 -0.2226913 0.20499776 0.4717745 0.110525586 0.27481914
-0.06637589 -0.030475102 0.9075002 0.08603999 -0.07059712 -0.20101966 -0.009012766 0.048309185
-0.3947227 -0.39071772 0.13676114 -0.49921834 0.25550175 -0.122855835 -0.5046599 0.027597776
0.17906241 0.0007586834 0.40087715 0.038582284 -0.5814966 -0.39805272 -0.6031092 0.002456635
0.13112266 0.111738436 -0.028302107 0.13238405 0.15285638 0.10727502 -0.108605824 -0.11935002
0.43031856 0.29681915 -0.25647685 0.07169046 0.33039817 -0.3670626 0.1582985 -0.30060408
-0.039766844 0.1080351 0.051714517 -0.17713137 0.025596272 -0.47355574 -0.3197431 -0.111894995
0.0053191655 0.15355977 -0.01607119 0.56568605 0.026016844 0.3989157 0.1049277 0.35602736
0.7365012 0.1910637 -0.05369406 0.12673812 0.46131074 -0.41533542 0.13085552 -0.18295771
0.11935111 -0.27372462 -0.039580878 -0.20658347 -0.5342228 -0.26425347 0.103503 -0.1933403
-0.15753692 -0.16151774 0.19455378 -0.10216214 -0.10658803 0.5493799 0.055044252 0.3913512
0.45329183 -0.2168455 0.22093844 0.40268216 0.26954108 -0.20345281 0.38860738 0.011585733
-0.4571071 -0.35025612 -0.16792034 0.37613064 -0.099056415 0.13872495 0.0020841074 0.23681869
0.3314992 -0.6190495 0.4613078 -0.2157707 -0.041965764 -0.35621738 -0.0149986185 -0.55835444
0.13289587 -0.1787709 -0.34298348 -0.40916333 0.3826792 0.8825705 -0.015943898 0.19931935
-0.17680755 -0.30390996 -0.34517008 -0.14327048 -0.07610593 0.2964642 -0.18779758 0.24769191
-0.15566103 0.64044505 0.071054764 0.34948054 0.11963124 -0.07221572 -0.40997574 -0.078402385
-0.12408009 0.33700815 -0.33207002 -0.05658733 -0.10862196 -0.19297712 -0.14510149 -0.013935072
