pretrained_models/comick-45-context-size.pth (torch, 821283 bytes, 10 tensors)

feature.weight_ih_l0 f4 [512, 64]
00000000: e99b 2ebe 2358 a1be ba2c fa3d 5381 913e
00000010: e694 b93d a3da 623f b29b 11bf 947c 3ebf
00000020: abdd d3be 0a5a 983e 988c 9c3f 6c4b bdbf
00000030: 32ef 87be 8342 bb3e ba7e 843d 89fe bb3e
00000040: ead7 2d3e 27bb 69bd 2f79 b83e 80a4 f2be
00000050: 4f74 783f b1f4 84bf 25a7 dd3e 3042 793f
00000060: 39c0 023d 11a9 dabe 3b76 363f 7f3d d9be
00000070: 2c24 bbbe 09de 253f abf3 423f 8d3b 533f
00000080: fbbf 2bbf 3a35 853e bb86 d7be 5ff2 62be
00000090: 42ec 483e 5b91 9d3f 0435 093f 6e7a 083f
000000a0: 3747 a6be 7372 943e 3b46 713f 5a2e b43f
000000b0: 4baa ba3e 71f6 4fbf 1470 3cbe de59 c93e
000000c0: 697e 203e 7360 88bd 9136 68bf 0716 373f
000000d0: b93d 96bd 2d14 9dbe 8e52 453f 2ca3 8bbd
000000e0: dee5 e53e 94fe 233f 62f0 523f 8b4c 84bf
000000f0: 7bd4 fb3e 5a5d ecbc ff9d 843e d7ef 7bbe
00000100: e46b 203e eeaf d2be 5d63 fbbd 996d d73e
00000110: cb74 8bbe 73c0 d73e cdd7 f03d 8a99 1cbf
00000120: 66d5 96bf 0c63 59bf d1a3 6dbf 7b89 e3bd
00000130: 695c c63e 571d 85bf 3b9d b63e 8797 07bf
00000140: 00ee bf3d 3e66 4c3f 76d4 4ebe e1fe 073f
00000150: 1a76 063f d4ef 373e 3994 24bd ebc6 c4be
00000160: 6d2c 9ebe 86c8 b23e a14d 1dbf cfb6 233f
00000170: 12f7 a93e f889 a23f 69d4 10bf bfe0 6abf
00000180: 73d1 dfbd 1612 313e c3a8 b4be 072e 433f
00000190: fcb2 e23d 5fb2 45be f9a9 dfbe cc03 82be
000001a0: b1d6 89be 1966 bf3e 7a93 a9be a9b2 a4be
000001b0: 2694 babe b436 a43e bdab 8d3d 0389 88be
000001c0: c51d e8be d764 693e 5342 dcbe 7376 3bbe
000001d0: 9736 f9bf 0673 133e 9277 ea3d 28fa 013f
000001e0: 2e45 bb3c fa7f 8fbf 86f6 80bd 25ad 2dbd
000001f0: dcb3 04bf 5787 e33c d1ae aabe ebf3 debd
00000200: 23cf 5abf ab5e 77be c887 373e 07e6 533f
00000210: d6e9 793f da9e 073f 4aa3 afbf 24b7 d6be
00000220: fbee a43e 4324 b53e a275 ec3e 768b e2be
00000230: e21d 313f 6a7f bebe b9e2 fbbe 703d ea3e
00000240: a1e1 213f 2981 5cbf 8484 073e 3226 0ebe
00000250: 1713 52bf 7297 10bf b966 6d3e 9991 333e
00000260: 73fb 0d3f de21 0c3e 08c5 4b3f 2cb9 3b3f
00000270: 7efd 353f 7d99 493d 394c d93e dec5 e63e
00000280: 9848 17bd 3f86 893e 6043 a13e 6f9c 2f3d
00000290: 594e 07bf d0d8 1b3e d8f9 31bd 604e f13e
000002a0: 9252 e8bd 5760 a23e 43cc 043e 7b3c 3f3f
000002b0: 4859 db3d 5623 98bd 80fd 83be 5df1 c3be
000002c0: 48d9 cabe 7a07 4b3f a2f9 47bd 6762 583f
000002d0: 3e6d 043e fce8 943e 1c0d 603f 7fa8 33bf
000002e0: 32bf 39bf 5838 ab3e df3a f53d 8735 e03e
000002f0: 17d7 4dbf f44d b3bf 6b04 cdbe 0b72 9ebf
00000300: 3f25 6c3f 334a 073f 69fb 09be e970 32bf
00000310: 2cac ebbd 4d8c 1ebf daf5 82be 8fc6 7f3e
00000320: dfa2 2c3e 2bdb ed3e 4af1 a93d 6d8d 103d
00000330: f39c f83e 90f0 fb3e 42f8 bb3f e8e4 463c
00000340: 7f01 d9be 2e6d 2bbf 2ed9 03bf 99b2 71bf
00000350: ef69 7a3e f645 eebe 972a 45bf 2eb2 56bd
00000360: b787 bebf fa93 c13e 3660 953f ada9 f1bf
00000370: bb2e d93e 5cda a23e b439 29bf c01c 0abe
00000380: 4ff9 7abe b48f 23bf a8e7 2bbf 927b 13bf
00000390: 4753 df3e 994d 6c3f 0508 07be 4d71 83bf
000003a0: 50a8 4fbf f10e 9fbe 840b b2bd 0d2c 693d
000003b0: 9d96 1bbe 5b8a b5be f935 e93e a3a8 253f
000003c0: c98a 8a3f c326 bf3c 52ab d6be 0e4d 64bf
000003d0: 8e6d 3b3e 03b4 56bf dc4e 483f 2973 9fbe
000003e0: feea 36bf cf5e f63d 53cc b9be afab 03bf
000003f0: a6a4 a23e df2a 40be f115 143f 8985 f33d
-0.17051663 -0.31512555 0.12215562 0.2841898 0.09061603 0.88614863 -0.568782 -0.7440884
-0.41380057 0.29756194 1.2230406 -1.4788642 -0.2654968 0.36574182 0.06469484 0.36717632
0.16976896 -0.057063248 0.36029956 -0.4739113 0.9705247 -1.0387174 0.43291584 0.9736662
0.0319216 -0.42707112 0.71274155 -0.4242973 -0.36551034 0.64791924 0.7615306 0.8251274
-0.67089814 0.2601717 -0.4209498 -0.2216277 0.19621375 1.2309984 0.5359652 0.5331181
-0.32476208 0.28993568 0.9424779 1.4076645 0.36458048 -0.81235415 -0.1840213 0.39326376
0.15673222 -0.06659021 -0.9070826 0.71517986 -0.073359914 -0.30679455 0.77079093 -0.06818232
0.44901937 0.6406033 0.82398045 -1.0335859 0.49185547 -0.028853107 0.2590179 -0.2460321
0.15666157 -0.4114985 -0.122748114 0.42075804 -0.27237543 0.42139015 0.11759911 -0.6117178
-1.1783874 -0.8491676 -0.9282809 -0.11110207 0.38742378 -1.0399579 0.35666832 -0.5296559
0.09371567 0.7984351 -0.20198235 0.5312329 0.5252396 0.17962581 -0.04018042 -0.38433012
-0.3089327 0.34918612 -0.6144658 0.6395082 0.33196312 1.2698355 -0.5657411 -0.91749185
-0.10928621 0.17292055 -0.35285005 0.7624211 0.11069295 -0.19306324 -0.43684366 -0.25393522
-0.2692161 0.37382582 -0.33120328 -0.32167557 -0.36441153 0.32072985 0.06917522 -0.26667032
-0.45335212 0.22792374 -0.4301935 -0.18306904 -1.9469784 0.14399347 0.114485875 0.50772333
0.022860136 -1.121093 -0.062970206 -0.04240145 -0.51836944 0.027774496 -0.333365 -0.108863674
-0.85472316 -0.24157207 0.1792289 0.8277287 0.9762243 0.52976763 -1.3721707 -0.419366
0.32213578 0.35379228 0.46183497 -0.44247025 0.6918622 -0.37206584 -0.49196413 0.45749998
0.6323491 -0.8613458 0.13234144 -0.13881758 -0.8206038 -0.5648109 0.23183717 0.1753601
0.55461806 0.13684794 0.7959752 0.73329425 0.71089923 0.049218643 0.42440966 0.45072836
-0.036934465 0.26860234 0.31496716 0.042873796 -0.52853924 0.15219426 -0.04345116 0.47130108
-0.11343874 0.31714126 0.12968545 0.7470166 0.107103884 -0.07428615 -0.25779343 -0.38270083
-0.39618897 0.79308283 -0.048822053 0.8452515 0.12932298 0.29084003 0.87520003 -0.7017898
-0.72557366 0.33441424 0.119741194 0.43790838 -0.80406326 -1.4008164 -0.40042433 -1.2378553
0.92244333 0.52847594 -0.13474812 -0.6970354 -0.115074486 -0.6193283 -0.25578195 0.24978088
0.16859005 0.46456274 0.08297975 0.035291124 0.48557243 0.49206972 1.4685137 0.012139536
-0.42383954 -0.6696347 -0.51503265 -0.94413143 0.24454473 -0.4653775 -0.7701811 -0.05241602
-1.4885167 0.3780821 1.1669986 -1.8879906 0.42418465 0.3180722 -0.66103673 -0.1348753
-0.24509166 -0.6389115 -0.67150354 -0.5761043 0.43618223 0.92305905 -0.13186653 -1.0268952
-0.811162 -0.31066087 -0.08693603 0.056926776 -0.15194173 -0.3545712 0.4554899 0.64710444
1.0823604 0.023333913 -0.41927582 -0.89180076 0.1830351 -0.83868426 0.7824533 -0.31142548
-0.7145232 0.12029802 -0.362887 -0.51433843 0.31766242 -0.18766354 0.5784598 0.11890704

feature.weight_hh_l0 f4 [512, 128]
00000000: 3032 133f 5ae9 cebe d938 283d 9b2c 2ebe
00000010: f194 023f d907 063e c7e2 833e b9bd aebd
00000020: c79b 293f 1c36 1a3e 08b0 e1bd 2c67 bcbd
00000030: 33a5 d73e 3504 d53d 35bb f3bc 154a 24bf
00000040: d9fa a23e c4c5 ccbc aaa7 efbd 64e8 733e
00000050: c8a1 1f3f 6d76 6abf da3c a1be fb5b e83d
00000060: 740e 423e 9c8f ffbe 8f5c b4be 1f0a 96be
00000070: d394 15bf abf4 9dbe 456e 8ebd 6d70 053e
00000080: ecfd 61be 8b3b fabe 6875 b8bf 8286 07bf
00000090: 3539 093f 8ed0 d73e b252 f73e 812f 23bf
000000a0: f7e9 623f e60d 943f 24f3 b0be 9804 383f
000000b0: 3006 9a3e 1d11 ddbe f36b 953d 5796 ec3d
000000c0: bca2 ab3e 581f d0bd 73bb 4f3e 3738 a6be
000000d0: 96a1 8c3f 1ebd 7f3e 6b99 51bf d511 95be
000000e0: 50ba 653c 1a66 893e 15ea 343e 93c8 1f3f
000000f0: f66d 23bf fe00 c5be d548 3f3f 6bd1 d43e
00000100: cc55 b63e a46a 673e e5b6 f73d a7d9 52bf
00000110: 765f 3dbf b68d e4bd 23fd a4be 832c 3a3f
00000120: dd15 fd3e 60d1 063d 6cf7 133e b111 283e
00000130: 5ab4 253f e593 18bf 039d 2ebe 637c b43e
00000140: 847c 38bf 3f40 dfbe a0f8 803d 4195 faba
00000150: e00a aebe 6d0b eabe 4398 3f3f 8aec 1e3f
00000160: ea84 103f 42cb 403f 88cc 053f 881f 57bf
00000170: 03b3 09bf 852e 62bf 1c04 cd3d 927e cd3d
00000180: c84a 34be 200e 25bf a72a b73c 1c51 873e
00000190: f708 b7be efe1 86be 9a4b 9cbe 9c0f b4be
000001a0: 7595 e5be 9207 ee3d 0f07 34be 5808 103e
000001b0: aaae 4ebf a24e 903d bdd9 99bd d6e6 753e
000001c0: 1525 09bf 0bc3 393f db1d 5e3e 041e b0be
000001d0: 20b5 8dbe 8384 533f 2953 60be 5404 683e
000001e0: 3170 04bf 0302 80be 214a 0f3f 60e9 3b3e
000001f0: d6f7 033f dff6 42bf a904 09bf d363 f93e
00000200: 146f b3bd 9e37 8abe 22c8 55bf 29d2 c03e
00000210: f7ae 2bbf f636 463e 74b9 263e 8521 2abe
00000220: ba06 88bd 92f0 1dbe 6acf 93be 5447 80be
00000230: 51db c7be 15a0 7ebd 1f27 9e3e 5e92 193e
00000240: 0145 6abe c2a3 06bf f479 843d 580b c93d
00000250: cda4 4abe 7402 023f 70c2 413f 2444 2fbf
00000260: 0fe3 91be 7304 40be 133f 273e 11d8 1abf
00000270: d825 c43e 9a4e e5be 078e d5bd dbff ce3e
00000280: c7e3 2e3f d3e3 0b3f 1314 d23e 2896 a4be
00000290: ffd7 66bd 2490 e9be 9231 6c3e 9eb1 14be
000002a0: d4e6 343e cff5 8e3e 9e02 f03e 5162 eabd
000002b0: 2ced 453e 88e9 113f e6da 1c3f 28db 04be
000002c0: bd95 1ebd b0f6 4abe 3f4a fabe 555f 02bf
000002d0: bd0f ba3d 2fa6 363e 0dd1 bebe cee5 96be
000002e0: 3062 f6be 3496 a6bd 59a5 e3bd b14e d9be
000002f0: b760 283f fd01 d5bc 8801 3bbf 612e 89be
00000300: 76a2 a23c cd34 73be 37d6 3fbf b128 09bc
00000310: b200 503f 1965 6a3d b0af 3fbe dc82 503e
00000320: eee6 56bd c603 49bf caf4 043d e16f f1be
00000330: c4c9 913e ff71 87be a977 18be a507 b8be
00000340: 2e6c 46bf 4bce 69be 8930 b6be e01c a73d
00000350: 3f50 43be 52c6 7b3e fd7b 74be 8e00 a1be
00000360: 1c23 2b3e 9790 0d3e 2cf0 63bf af22 143e
00000370: a4af 10bf ccbe d13e c8f4 df3e dd03 923d
00000380: e3b8 983e f5e5 663d 6456 ea3e 9dd2 49bf
00000390: ed0c 21bd 2e78 033d c9b1 603e f8a6 103f
000003a0: b7ef 843c 0f74 8ebe 864d 2ebe f84c d9be
000003b0: e786 393e d432 883e d66e e4be ae7f 08be
000003c0: bb2d 50bf a976 2cbe fb24 153f c2c5 8ebd
000003d0: 8838 debf 3886 eebe 62c1 6cbf e5ce 62bf
000003e0: 3352 8cbe 1001 073f 3d46 2dbe 190d 65be
000003f0: 5251 54bf 588d 2d3f d1f4 9d3e 8e17 d8be
0.57498455 -0.40412408 0.04106984 -0.17009203 0.51008517 0.13088931 0.25758955 -0.085322805
0.6625332 0.15059704 -0.110199034 -0.09199366 0.42118225 0.10401193 -0.029752353 -0.6417554
0.31832007 -0.024996646 -0.11701901 0.23819119 0.62356234 -0.91586953 -0.3149174 0.11345669
0.18950826 -0.49914253 -0.35226867 -0.29304597 -0.5843021 -0.3085073 -0.06954626 0.13031168
-0.2206952 -0.48873553 -1.441083 -0.5293962 0.53602916 0.42151302 0.4830528 -0.6374436
0.8863825 1.1566741 -0.34560502 0.7188201 0.30082846 -0.4317712 0.0729598 0.115521125
0.33522594 -0.10162228 0.2028635 -0.32464764 1.0986812 0.24974486 -0.8187472 -0.29115167
0.014021471 0.2683571 0.1766742 0.62415427 -0.6383966 -0.3847732 0.7472051 0.41566023
0.35612333 0.22599274 0.12095431 -0.8236336 -0.73973787 -0.11159842 -0.32224378 0.7272417
0.49430743 0.03291452 0.14449853 0.16412999 0.6472832 -0.5960067 -0.17052083 0.3525115
-0.72064996 -0.43603703 0.062974215 -0.0019117967 -0.33992672 -0.45711842 0.7484171 0.6207968
0.5645281 0.75310147 0.52265215 -0.8403249 -0.53788775 -0.88352233 0.100105494 0.10033907
-0.17606652 -0.6447468 0.022359205 0.2642907 -0.35749027 -0.2634425 -0.3052643 -0.3516816
-0.4484059 0.11622538 -0.17580818 0.14065683 -0.80735266 0.07046248 -0.075122334 0.24013838
-0.5357221 0.72563237 0.21691076 -0.343979 -0.2767725 0.8262407 -0.21906723 0.22657901
-0.5173369 -0.25001535 0.55972487 0.18350744 0.5155004 -0.76157945 -0.53522736 0.48708972
-0.08761421 -0.26995558 -0.83508503 0.3766034 -0.6706385 0.19356903 0.16281682 -0.16614349
-0.06641908 -0.15423802 -0.28869182 -0.2505442 -0.39034513 -0.062164385 0.30889222 0.14997241
-0.22877885 -0.52593625 0.06468573 0.09816617 -0.19789429 0.50784993 0.75687313 -0.6846335
-0.28493544 -0.18751697 0.16332655 -0.6048594 0.38310122 -0.4478653 -0.1042748 0.40429577
0.6831631 0.5464451 0.4103094 -0.3214581 -0.056358334 -0.45617783 0.23065785 -0.1452088
0.17666179 0.27921912 0.46876997 -0.114445336 0.19328755 0.56996965 0.6127151 -0.12974226
-0.03871702 -0.19820666 -0.4888477 -0.50926715 0.09085033 0.17836832 -0.37268868 -0.29472202
-0.48121786 -0.08134118 -0.11115522 -0.4244285 0.65772575 -0.026001925 -0.7304921 -0.26793197
0.019852858 -0.2375061 -0.7493624 -0.008371518 0.8125106 0.05722532 -0.18719363 0.20362419
-0.052466325 -0.7852138 0.03246001 -0.4715567 0.28474247 -0.2645416 -0.14889397 -0.35943332
-0.7750882 -0.22832601 -0.35583904 0.08159804 -0.1907358 0.24587372 -0.23875423 -0.31445736
0.16712612 0.13824688 -0.8903835 0.14466356 -0.56518006 0.4096588 0.4374144 0.07129643
0.29828557 0.056371648 0.45769036 -0.78836995 -0.039318968 0.032097034 0.2194282 0.56504774
0.016227586 -0.2782292 -0.1702176 -0.42441535 0.18117867 0.2660128 -0.4461581 -0.13329956
-0.8131978 -0.1684214 0.5825955 -0.06971313 -1.7361002 -0.46586776 -0.9248258 -0.88596946
-0.27406463 0.52735996 -0.16921325 -0.22368278 -0.82936585 0.677938 0.30850843 -0.4220547

feature.bias_ih_l0 f4 [512]
00000000: 567e 843f e884 05be 577f ed3e a8c7 0b3f
00000010: cbcb 853e e3a9 123f afca dc3e e283 103f
00000020: 8be6 6cbd 5735 ccbe 04a8 633d 4bb0 98be
00000030: 221c 5f3d b4c7 3dbe 1ce8 193d 5142 a1be
00000040: da85 66bd 249a 423e a28b 84be 57dd 533e
00000050: fd94 6c3e f667 d4be c332 fc3d 4cec 3ebe
00000060: 3b98 e1bd 703b 473f 7cf2 ba3e 0643 c83d
00000070: 69e9 2ebc 36f6 31be 402c 2f3e 28dd 39bd
00000080: e0c4 f5bd 926f 913e cec9 913e 7d18 33bc
00000090: 196c 933e 6faa 6b3f d480 bb3e 6e90 1dbc
000000a0: 51d7 8bbe 189e 673e bb20 213e 6079 4cbe
000000b0: b741 34be c5fd 5c3d 97ed 81be c14f 8dbe
000000c0: 8cf7 1a3e ca69 533f acbf 0fbe 4137 4abc
000000d0: bda4 b33d c1c3 32bc 86f0 273d 7dae 493e
000000e0: 0d43 8a3e afd6 58bd 9335 f93e 66d1 6c3f
000000f0: ebd5 c0be fc69 a9be d3a5 a93e fc38 90bd
00000100: ad2f da3d d7b3 793f 03ab 193e 0f19 fabd
00000110: a10e b83e 7d9d f7be fdb4 4f3e 47fc d7bd
00000120: 5778 743e ad8e 18bd 4efe 79bd b975 54ba
00000130: d896 eebc d035 913e 35ed 093e ec36 f13d
00000140: a5a9 a93e a225 ae3d a064 29be d69a 103e
00000150: 9bc0 883f c4d4 d73e 5f7a f5be f6cf 9a3d
00000160: 74ce 693d c178 393e 21a3 373f cac6 b7be
00000170: 2644 8b3e 0f39 af3d 8d72 803f 0d72 62be
00000180: edd6 85bd c6a9 e43c bde1 4c3f fca9 9fbc
00000190: fb81 323f 7bbb 573e bad7 bc3e e19e 253e
000001a0: 2fec 853e 84ea 833d 734b b0be 9330 473e
000001b0: 2511 37bd 1686 58be 972e bc3e 560a a3be
000001c0: 7608 7c3e cc89 bc3d 2692 b2bd 0925 8c3d
000001d0: 3117 3abe 236e 8d3e 64c5 4c3f 8108 343e
000001e0: abaf 8e3e 8901 433f 3ad0 2cbe 8a25 a9be
000001f0: fbd7 b63f 9fdd cbbd 4aa9 313e 59d8 a03e
00000200: 7c4d 16be ceca 1a3d 01aa b13e 6c31 2ebf
00000210: 84f9 8d3d 251e f9bd e0bb d3be 6507 05bf
00000220: 790a d9bd 0b53 063f f6df 8c3d 166e cb3d
00000230: 2c25 2ebe d98a cebd 1951 cfbe cf11 9fbe
00000240: 4d06 6bbe b6a5 82bd 0064 49bb 74f1 1fbf
00000250: 47bc 603e d1da 8f3e 7091 17bf 357d c7be
00000260: 51cf 963e 8e06 37be fb73 953d 2a7c 06be
00000270: c825 ccbc 6761 53be d19b a9be f623 b83d
00000280: 26c9 29bf ea27 423e 7f77 0abf e8e0 cdbe
00000290: 81ac 82bd 454a c0be 3654 873d b654 09be
000002a0: 5bf3 dc3b 1b8e 23bc 2e39 fabd 02e5 e5be
000002b0: e263 40be b745 1abe a4b7 2dbf a509 1fbe
000002c0: cf33 9cbe e8ea aabe 9095 75be e263 283d
000002d0: 83e8 30bf f852 e23d b182 0c3f e99e 0a3e
000002e0: 7c9d eb3d b0ea 65be f503 b6be 7791 0e3d
000002f0: 454f 05bf 892b 3d3b 334b efbe f718 b5bd
00000300: 63c7 05be 08c7 1dbf b5a6 4cbe bb1a 8bbd
00000310: ee6b 753c e902 17bf 7c92 323d fa32 4e3d
00000320: e94d dfbe af5e 13be f554 9abe 63f0 34be
00000330: ce6c a4bd e5c9 793e 8814 2cbe 06ed dabe
00000340: 3fe4 cabe 1ae0 7dbe 7433 c53d 177c 7d3d
00000350: e08f 0abf 8a7e 053f 0f8c 4cbe e84c 92be
00000360: ff20 f7be 51c9 55be e40d f6be 8e55 623e
00000370: c005 a33c ceba 83bf 2dd9 bfbe 97ba 04bc
00000380: 79bc b1be 8a9c 42bd bcce eabe 44da 653d
00000390: 8f16 3dbf 4103 bdbd 2a39 10be e666 c63e
000003a0: 1db9 973e f0c3 55be 7806 873e 3959 56be
000003b0: 5141 77bd 9b68 7ebe ec99 593e f961 96be
000003c0: ba71 103d 411b 57be f94f 313e a75e e2be
000003d0: f15e 49be e45c 283e 053e c8be 2952 85be
000003e0: 7255 75be f595 a1be 436d 94bd 14c9 6e3e
000003f0: 1412 03bf 1664 093e 7235 e3be e264 b13e
1.0351055 -0.13038981 0.46386215 0.54601526 0.26132044 0.57290477 0.43123385 0.5645124
-0.05783705 -0.39884445 0.055580154 -0.29822 0.05447019 -0.18533212 0.037574872 -0.31495908
-0.056279995 0.19004112 -0.2588778 0.20689903 0.2310371 -0.41485566 0.123143695 -0.18644828
-0.11015364 0.7782507 0.36513126 0.09778409 -0.0106757665 -0.17379078 0.17106724 -0.045376927
-0.120004416 0.28405434 0.28474277 -0.010931131 0.2879341 0.92056936 0.36621726 -0.009616954
-0.2731271 0.22618902 0.15735142 -0.19968176 -0.17603193 0.05395295 -0.2537658 -0.2759991
0.15133494 0.82583296 -0.14037961 -0.012342275 0.08771656 -0.010910929 0.041000865 0.19695468
0.2700428 -0.052939113 0.48673686 0.92507017 -0.37663206 -0.33088672 0.33134326 -0.07042119
0.10653625 0.9754004 0.15006642 -0.12211811 0.3594866 -0.48362342 0.20283885 -0.10546165
0.23874031 -0.03724544 -0.06103354 -0.00081047 -0.029124662 0.28361368 0.13469394 0.11778054
0.3313724 0.08503272 -0.16542292 0.14121565 1.0683779 0.42154515 -0.47944924 0.07559197
0.057081655 0.1811247 0.7173329 -0.35893852 0.2720043 0.08555805 1.0034958 -0.2211382
-0.065351345 0.027912986 0.8003195 -0.019490235 0.69729584 0.21067612 0.36883336 0.16173889
0.26156756 0.06441215 -0.34432563 0.19452123 -0.044694085 -0.211449 0.36754295 -0.31843823
0.24612603 0.0920597 -0.08719282 0.068430014 -0.1817291 0.2762309 0.79988694 0.17581369
0.278684 0.7617422 -0.16876307 -0.33036453 1.4284662 -0.0995438 0.17349735 0.3141506
-0.14677995 0.037791066 0.34700015 -0.6804416 0.06932357 -0.12163953 -0.41354275 -0.5196441
-0.105977006 0.52470464 0.06878655 0.099331066 -0.17006367 -0.10085077 -0.4049156 -0.31068274
-0.22951622 -0.06379263 -0.003072977 -0.62477803 0.21946822 0.2809663 -0.59206295 -0.38962713
0.29455045 -0.17873594 0.07297512 -0.13133302 -0.02492036 -0.20642625 -0.3312669 0.08991234
-0.66322553 0.18960539 -0.54088587 -0.40210652 -0.06380559 -0.37556663 0.06607859 -0.13411221
0.0067428774 -0.009982611 -0.122179374 -0.44901282 -0.18788102 -0.15065657 -0.6785834 -0.15531023
-0.30508277 -0.33382344 -0.23982835 0.04111088 -0.69104785 0.11050981 0.5488692 0.13537182
0.11504647 -0.22452807 -0.35549894 0.034806695 -0.5207408 0.002886506 -0.4673706 -0.08842652
-0.13064341 -0.6163182 -0.19985469 -0.06792208 0.014979346 -0.58988816 0.04359673 0.050341584
-0.43614128 -0.14391588 -0.30142942 -0.17669825 -0.08028565 0.24393423 -0.16804707 -0.4275896
-0.39627263 -0.24792519 0.096289545 0.06188592 -0.54125786 0.5214621 -0.19975303 -0.285743
-0.48267362 -0.20877577 -0.48057473 0.22102949 0.019900203 -1.0291383 -0.3747038 -0.008101127
-0.34714106 -0.04751257 -0.4586085 0.056116357 -0.73862547 -0.09229136 -0.14084306 0.3875038
0.29633418 -0.20875525 0.26372123 -0.20932473 -0.060365025 -0.24844591 0.21250123 -0.29371622
0.035264708 -0.2100649 0.17315663 -0.4421284 -0.19665124 0.16441685 -0.39109817 -0.26039246
-0.23958376 -0.3155972 -0.072474025 0.23318893 -0.5119946 0.13417086 -0.44376713 0.3464728

feature.bias_hh_l0 f4 [512]
00000000: a9a3 773f 6fdb 3abe d334 f93e 4c1b 0a3f
00000010: 3f23 5d3e e15d 253f 4bdd 0c3f 79cd 153f
00000020: 890e fdbd 6214 c1be e839 363d c2b4 68be
00000030: 7c44 763c 9862 97be 04a7 77bd df33 9cbe
00000040: 9801 8b3d 79ed d13e 239d 61be d86d 433e
00000050: 437f 393e 9a31 92be c3e4 ad3d 5a03 8abe
00000060: 32ce 36bd efaa 4d3f 3efd 093f 14b5 b23d
00000070: 5725 9ebd 7521 3fbe 8b83 153e 668e bdbd
00000080: 306c e53d a1a5 d93e 06c3 823e 04e2 bebd
00000090: c25f f13e 5d37 6a3f 2fdc 963e ada1 933d
000000a0: 8654 98be 681b 903e 8ca9 ad3e 88a2 51be
000000b0: 7180 e1bd 6971 7ebb d087 7abe 4f19 a0be
000000c0: b8af a93d cc21 453f 577b a8bd 831b 263d
000000d0: 6336 4e3d ad8b b1bc 6c6b d83c 8512 f73d
000000e0: 2f6c b63e fc94 25be fb66 ff3e c9f6 733f
000000f0: 7c54 e1be d578 5cbe 8fd1 c03e 5dca 1fbe
00000100: 25d3 41bd 16f5 843f 87f1 253e 2963 6abe
00000110: d3ae ce3e 7d35 0dbf 1a1d 503e 034f 29bd
00000120: a350 183e 79a0 0bbe a0f3 843d 9f0c a43d
00000130: d3b6 733d 31b8 a03e 3df4 d33c d34c 573e
00000140: ee48 a53e d20a 233d be6b d4bd 8686 b13e
00000150: d759 823f 7783 993e 4a7d adbe 9550 e33c
00000160: 3bc4 d9bd f449 463e bbd1 393f f344 dbbd
00000170: f4e7 783e 8d0d 493e 3d1a 5b3f 403d 5ebe
00000180: 9858 a4bd 8e84 f63c 7a0b 4f3f e8cb b13a
00000190: 4803 1b3f 518b 353e adaa b63e 2405 283e
000001a0: 5a64 623e e9aa 283e b3e4 6cbe 8cc9 643e
000001b0: 14b4 5c39 f767 95be 2ab3 983e 91fb 49be
000001c0: cbe6 eb3e cbbf a63d 3023 0ebd 10de e83d
000001d0: 9759 30be 82e2 933e 9fc0 263f 6f96 e23d
000001e0: f29f 9d3e 8f49 363f e8c7 8cbe a1b6 afbe
000001f0: 287b bb3f ba36 d4bd 6822 793e 90b7 b63e
00000200: 1123 c5bd 1017 8abd 86a0 a13e 0c59 34bf
00000210: 52e1 67bc 22e9 89be 9cd6 bcbe 3574 c6be
00000220: 06af bbbd 0fa6 e83e bbf9 9c3d 05d2 133e
00000230: bc29 5fbe aae9 19be 2fd7 8bbe fd79 97be
00000240: b69f 91be 8866 b1bd a29e 2fbe 5af3 0dbf
00000250: ba79 ff3d c809 7f3e 2753 12bf 3949 7abe
00000260: ff9e c53e 9e5b d3bd 9c59 213e 949e 7cbd
00000270: 83d0 2bbd bc81 8ebe 7e2f 40be e6bb 70bc
00000280: 18bb 17bf 40cd ef3d 2107 39bf e56d 45be
00000290: 4af2 5dbd e3d1 02bf 4219 1b3e 7369 b3ba
000002a0: a695 093e 0fa9 a1bd b555 77bd 47fc 1abf
000002b0: 695a 86be e0d0 fabc f5b9 20bf 81a1 98be
000002c0: c14e d1be 23f3 cbbe a30d aebe b342 febd
000002d0: 5805 e6be a673 06bd 2b9c 213f b30c 1a3e
000002e0: 1931 c43e db89 90be 8ea1 9abe d3bc 803e
000002f0: 95e9 efbe 4eb0 49bd 6ee2 05bf 9e40 45bd
00000300: 17d5 3ebe ba00 01bf ed2a 37be 08bc 433c
00000310: 1488 58bd d904 19bf 4835 063c 1064 10bd
00000320: 254c dcbe 9796 5dbe 0f64 89be 84ae 93be
00000330: 6b1f 20be 6bc2 0d3e e18d 3bbe d702 ebbe
00000340: 99bf 82be 1b40 c0bd 1ebb 1abd 638c e8bd
00000350: 7fd8 22bf 1f0d ce3e e92a 69be 857b c4be
00000360: caf1 c2be 5306 8ebc 663c 1abf 1de1 f23d
00000370: 1ee9 663d fb62 65bf cba8 a9be 77ad c73d
00000380: e084 9dbe b086 eebc d7d8 15bf c399 c53d
00000390: 144d 27bf 1b9b 1b3e 144d be3c 242b 863e
000003a0: a174 a4bc 72eb 15be 9e53 073e faa0 1cbe
000003b0: 7a54 323d 6135 f8bd 27c4 443e c4e3 14be
000003c0: cf69 083d 94fc 0dbe 271b 623e 9d7d 73be
000003d0: 457e 7cbe bd66 8b3e cccb b1be 5750 96be
000003e0: 228c 74be 72e1 85be b417 11be 2173 c43e
000003f0: 708a f4be 1e5c 413e 903e c6be cf94 a13e
0.967341 -0.1824777 0.48673114 0.539479 0.21595477 0.6459637 0.55025166 0.5851665
-0.12356288 -0.37710863 0.044488817 -0.22725204 0.015030976 -0.2956741 -0.060462013 -0.30508325
0.06787413 0.4100149 -0.22032599 0.19084871 0.18114953 -0.28553468 0.084908985 -0.26955682
-0.044630237 0.8033895 0.5390204 0.08725944 -0.07721966 -0.18665107 0.14600961 -0.09255676
0.11202276 0.42509177 0.25539416 -0.09320453 0.4714337 0.9149073 0.29464862 0.072085716
-0.29751986 0.2814591 0.33918417 -0.20472157 -0.110108264 -0.0038824922 -0.24465871 -0.3126931
0.08285469 0.77004695 -0.0822665 0.04055358 0.050344836 -0.021673048 0.02641841 0.12064079
0.35629413 -0.16170114 0.49883255 0.9529844 -0.4400977 -0.21530469 0.3765988 -0.15604539
-0.047320504 1.0387294 0.16205417 -0.22889389 0.40367755 -0.5515974 0.20323601 -0.041335117
0.1487451 -0.13635434 0.0649178 0.0801022 0.059500527 0.31390527 0.025873298 0.210254
0.32282203 0.03980524 -0.10372113 0.34672946 1.0183667 0.29983112 -0.3388465 0.027748385
-0.10633131 0.19364148 0.7258565 -0.107065104 0.24307233 0.19634075 0.8558691 -0.21703053
-0.080247104 0.030092504 0.80876887 0.0013564797 0.6055188 0.17728926 0.3567709 0.16408211
0.22108594 0.16471447 -0.23134117 0.22342509 0.0002104792 -0.2918088 0.2982419 -0.19724871
0.4607452 0.0814205 -0.034701526 0.1137048 -0.17221676 0.2888375 0.65137666 0.11063849
0.3078609 0.7120599 -0.27496266 -0.34319022 1.4646959 -0.10362001 0.24329531 0.35686922
-0.09625829 -0.0674268 0.31567782 -0.70448375 -0.014152842 -0.2693568 -0.36882484 -0.38760534
-0.091642424 0.45439193 0.0766482 0.14435585 -0.21793264 -0.15030542 -0.2731261 -0.29585257
-0.28442162 -0.086621344 -0.17150357 -0.5544945 0.124743894 0.24906075 -0.5715813 -0.24441995
0.38597867 -0.10320209 0.1575684 -0.06167467 -0.0419469 -0.27833354 -0.18768117 -0.014693236
-0.5926986 0.1170907 -0.722765 -0.19280203 -0.054186143 -0.5110151 0.15146354 -0.0013688043
0.13435993 -0.078935735 -0.06038447 -0.60541195 -0.26240852 -0.030617177 -0.6278375 -0.29810718
-0.40880397 -0.39833936 -0.3399478 -0.124150656 -0.44925952 -0.032825135 0.6312892 0.15043907
0.3831871 -0.28230175 -0.3020138 0.2514406 -0.46857896 -0.049240403 -0.5229863 -0.048157327
-0.18635975 -0.50391734 -0.17887469 0.011946686 -0.05286415 -0.5977302 0.008191414 -0.035251677
-0.43026844 -0.21639477 -0.2683415 -0.28844082 -0.15636985 0.13843696 -0.18315841 -0.45900604
-0.25536802 -0.09387227 -0.037776105 -0.11354902 -0.63611597 0.40244386 -0.22770275 -0.38375488
-0.38075095 -0.017337 -0.6024841 0.11859343 0.05637466 -0.8960416 -0.3313659 0.09749883
-0.30765438 -0.029116958 -0.58533996 0.09648468 -0.65351987 0.15195887 0.023230113 0.2620479
-0.020075144 -0.14640597 0.13215491 -0.15295783 0.043537594 -0.12119556 0.19215451 -0.1454001
0.033304032 -0.13865882 0.2208067 -0.23778386 -0.24657543 0.2722682 -0.34725797 -0.2935817
-0.23881581 -0.26148564 -0.14169198 0.38369086 -0.4776187 0.18882796 -0.38719606 0.31558844

feature.weight_ih_l0_reverse f4 [512, 64]
00000000: e07d fa3e 49cc ebbe 13ce 303f 6837 1e3e
00000010: 78bd c73e 2042 8dbe c31d 5fbe 6d8a 50be
00000020: fb28 203f e34a b63f a289 d43e 6dab ba3e
00000030: 2578 8abd 6166 06be a501 e93e 69e1 febc
00000040: 59a9 c6bd f7cf dbbe 0919 38be 2184 96be
00000050: b7a9 b4be 7711 bf3e 7b6e 91be 8ba9 bf3e
00000060: a754 d03e 6a7d 31bf 2bf4 04bf 004d 803e
00000070: 7668 ee3e 29b0 8fbf 4335 5e3e 2a70 0e3e
00000080: a391 8d3e fa0e 3c3f b07c 6c3f bf3e 5cbe
00000090: 415a c93e d3c8 0f3f df07 35bf cb2f 893f
000000a0: fa31 5d3e e786 8abe 4480 6cbf b816 8c3f
000000b0: 4b38 453f fe35 0a3e 686a 8d3f 6208 86be
000000c0: d05d a63e bc94 853d f3a7 02bf 87b0 a9bd
000000d0: 740d d9bd df51 653f af1c 47bf 45dc 4ebe
000000e0: c513 34bf 1e5c f33e 27c2 22bf 2129 b93f
000000f0: bded 423f 8968 d7bf c51b 92be 1392 f4be
00000100: bf3a 563f b3c0 86bd a472 4c3f 4852 1f3c
00000110: f464 2dbf 78c7 b9bf 96ec 4fbe 6d05 38be
00000120: 3cc1 ac3e 2b25 34be ef77 b4be df6d f5be
00000130: 987b 323f f8bb 313f d97d 553e 78e4 3b3f
00000140: 5954 84bf fc0e 35bf ff86 00bf 36b8 543f
00000150: 6567 6b3f 9628 743f 580f 3c3f b483 8c3f
00000160: bc8e d8be 45ce f03e b0f5 053f f80b 993e
00000170: 54df 723f 946f a23f cc54 87bf 037b 653e
00000180: 91be 87bf 2584 083f 3a9a 4b3e 8436 03bf
00000190: 1f8c 2a3c 6851 243e 023e ca3e 6961 3abe
000001a0: 7bad 013f ebb0 20be e62c 623f ac53 973d
000001b0: a532 b23d 2b2f 65bd 2395 1b3f 038c 01bf
000001c0: 79f0 84bd d69f 02bf d410 20bf 95a3 5cbd
000001d0: 82ab 95bf 37ae 063f b0b9 46bf 8d4d 85be
000001e0: 9a99 b7bf 6b4f 293f 11e8 3bbf 4aa8 44bd
000001f0: 9260 cbbd d800 533e 62f5 4b3f 3730 113f
00000200: ce67 10bc 0184 ca3e 55f3 f83e 8d75 79bc
00000210: 1f74 963f 05f2 abbe e394 08be 9f5d c93d
00000220: 122d 383f 2b9c 443c 3fff e53d 0a7c d33e
00000230: b061 51bf 635a 4d3f e608 15bf 5eed aebd
00000240: dd71 9c3f dcc3 a6be 26da 6abe c2e2 333f
00000250: 1ccc a2be 6e0f f93e 5dda 8f3d 6294 423e
00000260: 7e85 91bd 000b 24bf 4080 443e 8d53 27bf
00000270: ea1c 683f 2b24 e53d 36d0 b4bf 0c48 3bbf
00000280: 2cd8 0b3f 4a53 d6bc 9ced 4b3f 7102 8dbf
00000290: bdbe aabe bcb9 46bf 559d f73e 5ca1 933e
000002a0: cd00 cb3e eb52 20bf 42a8 3cbf a75c f3be
000002b0: 54b3 c03e a379 ea3e 2fae 353f 30be f43d
000002c0: b8a3 553d 6252 db3e 2753 9bbf b2fb 2ebc
000002d0: 99eb 66be 5d53 183e 18b6 173f 1a33 bf3d
000002e0: a7d9 b3bf c804 0bbf 00d1 46be 3679 c53d
000002f0: 8e11 b7be f4e6 b3be e5b9 c1be 0826 243e
00000300: 1d46 74bf 66a5 82bd cd03 7c3e 9a5a 3b3f
00000310: 3cc9 7f3f 5531 4e3f f7ce 253e 99d6 38bf
00000320: 2789 0cbf 743c b33d b0a2 21bf 8b91 b93d
00000330: e0cc 003f 35df a3be 4145 1c3f 41fc 3fbf
00000340: 92c3 0dbf 3046 a13f 2305 fabd ec85 b8bf
00000350: 9f69 023f 6a6c f23c bf1c 103f 735a c33e
00000360: 10a3 e2be 3509 3e3e b53a 833e a523 1dbe
00000370: 879c 803e 5ca2 253e 1f6d 31be bc76 43bf
00000380: f1fd f23e b9c5 bf3e 2533 413f b4f9 973e
00000390: f027 33bf e769 0c3e a4d2 a8be 26d3 993e
000003a0: 1378 f63e 7b57 99be 8bf8 f43e 027e 15bf
000003b0: 35f0 2d3e cfc3 3ebf deb0 033e 590d 3b3e
000003c0: 8d5b a0bf 4940 4fbf a89c ae3f 0aa2 fdbe
000003d0: d748 e2bf 1337 603e c107 f33d bfe3 053f
000003e0: 4a0b 623d d476 69bf 598f c63e 6cf8 86bf
000003f0: 88a6 993e e8c3 103f acd7 e83e 0b9d a6bd
0.4892416 -0.46054295 0.69064444 0.15450823 0.3901174 -0.27589512 -0.21788697 -0.20365305
0.6256253 1.4241604 0.41511256 0.36458912 -0.06761197 -0.13124992 0.45509067 -0.031113343
-0.09700269 -0.42932102 -0.179783 -0.2939768 -0.35285732 0.37318012 -0.28404602 0.3743404
0.40689585 -0.6933199 -0.5193507 0.25058746 0.46564072 -1.1225635 0.21700005 0.13909975
0.27650174 0.7346035 0.9237776 -0.2150831 0.3932667 0.5616581 -0.70715135 1.071771
0.21601096 -0.27056047 -0.9238322 1.0944433 0.7703902 0.13497159 1.1048098 -0.2617827
0.32493448 0.065225095 -0.5103752 -0.08285623 -0.10598269 0.8957805 -0.7777814 -0.20201214
-0.70342666 0.47531217 -0.635775 1.4465677 0.7614401 -1.6828777 -0.2853681 -0.47767696
0.8368339 -0.06579723 0.7986243 0.009724207 -0.6773217 -1.4513998 -0.20305094 -0.1797082
0.33741176 -0.17592303 -0.35247752 -0.47935387 0.6971984 0.6942744 0.20848788 0.7339549
-1.0338241 -0.7072599 -0.5020599 0.83093584 0.9195464 0.9537443 0.7346091 1.0977693
-0.42296398 0.4703237 0.52328014 0.29891944 0.9487202 1.2690301 -1.0572753 0.22410206
-1.0605031 0.53326637 0.19883052 -0.5125506 0.010409384 0.16046679 0.39500433 -0.18201222
0.50655335 -0.15692489 0.8834976 0.07389006 0.08701066 -0.055953186 0.6077444 -0.50604266
-0.06491179 -0.5102514 -0.6252568 -0.05386694 -1.1692965 0.5260958 -0.77627087 -0.2603573
-1.434375 0.6613681 -0.7340098 -0.048012055 -0.09930529 0.2060579 0.796713 0.56714195
-0.0088138115 0.39553836 0.48623148 -0.01522578 1.1754187 -0.33583084 -0.13338046 0.0983231
0.7194377 0.012000124 0.11230325 0.41305572 -0.81789684 0.80216044 -0.582167 -0.08541368
1.2222248 -0.32571304 -0.2293478 0.7026788 -0.31796348 0.48644584 0.07024071 0.19001916
-0.0710554 -0.64079285 0.19189548 -0.65361863 0.9066912 0.11188539 -1.4126041 -0.7315681
0.5462673 -0.026162762 0.7965944 -1.101637 -0.33348647 -0.7762716 0.48362222 0.28834045
0.39649048 -0.6262652 -0.7369424 -0.47531626 0.37636817 0.45795926 0.7096891 0.11950338
0.052158087 0.4283629 -1.2134751 -0.010680126 -0.22550811 0.1487555 0.5926223 0.09335919
-1.4050797 -0.5430417 -0.19415665 0.0964226 -0.3575558 -0.3513714 -0.3783714 0.16030133
-0.95419484 -0.063792035 0.24610825 0.7318512 0.99916434 0.80544025 0.16192232 -0.7220245
-0.5489678 0.08751765 -0.63138866 0.09060963 0.50312614 -0.3200623 0.61043173 -0.74994284
-0.5537654 1.2599545 -0.12208011 -1.441587 0.50942415 0.029592711 0.56293863 0.38154945
-0.44265032 0.185582 0.25630727 -0.15345629 0.2511942 0.16175216 -0.17326783 -0.7635305
0.47459367 0.37455538 0.75468665 0.29682696 -0.69982815 0.13712274 -0.32973206 0.30043906
0.48138484 -0.29949555 0.47845873 -0.583954 0.16986163 -0.7451753 0.12860438 0.1826681
-1.2527939 -0.80957466 1.3641558 -0.49537688 -1.7678479 0.21896009 0.11866713 0.5230064
0.055186547 -0.9119694 0.3878124 -1.0544562 0.30009866 0.5654893 0.45477045 -0.08135422

feature.weight_hh_l0_reverse f4 [512, 128]
00000000: 2a52 e13e 2bba 373f 1b28 26bf a80c 0abf
00000010: 7eef bbbe 73b5 fdbd 8fb3 033f 1ca8 053f
00000020: 1a50 fb3e 7623 0dbf 56ca 01bf 1f47 b4be
00000030: 68ac 813e d9c9 4bbe 719f 57bf 9959 43be
00000040: 6a4e 623d e0f0 093f 8132 6bbd 8f6a acbd
00000050: a12e 20bf 85d9 053e ccab 023e 0976 98bd
00000060: 3327 0dbe a424 193f b2ec 09bf 7234 873f
00000070: f3b4 33bf 454b 8bbf 30dc d03b 6132 3c3f
00000080: a38b 2d3d 600d d83e 9332 8c3d b57d febd
00000090: ee97 f03e e1b1 ab3e 004b 3c3f ad43 8f3e
000000a0: 7adc 243f 607b ecbe d723 a8be bb45 8abe
000000b0: 162e f6bb 5c71 273f 4ef6 19bf 4620 023f
000000c0: ccb0 603f 0fa9 a23e ee4b c33e 0c32 bfbe
000000d0: e0aa ddbe 1af3 113f c101 bbbe 9bee 993f
000000e0: 9aab 9cbd 2a15 803f 2652 9c3c f56a 323f
000000f0: ab7a 073f 4887 02be 0ff1 b2bd 529f 27be
00000100: 6f87 37bd 3b41 63bd a039 01be ebb9 423f
00000110: 0b16 153f 006b f9be 5408 8abf 39c1 af3e
00000120: a941 ba3b b02b 80be 98ae 8b3d 2e08 9cbe
00000130: 57fb 293c 374b 29be c02f a73d 8fcc 22bf
00000140: 3a8a 84bf 3a55 303b 1f32 803e a332 d7be
00000150: 2b35 043e 516b c9be dbe4 cf3d 3ec3 8f3d
00000160: 7b66 a43e 48a4 ff3e fcaf 1cbf 6969 95bb
00000170: 5b6d 3fbe bcbc a4bf 379d d6bd ccc6 75bf
00000180: ce04 82be e262 d6be cf02 f1be 9e80 e23e
00000190: fff3 ab3e e9c2 9d3b eef0 353f d32b 87be
000001a0: 9614 73bf 99c1 bcbe d677 423f 0cef b33e
000001b0: 552b 38be 1824 ea3e 4f60 95bf e2e8 fd3e
000001c0: 90c6 7cbe fbdb 8abe 58c4 52be e06f fc3d
000001d0: 0bae 08be 2b98 c0bc 2645 acbe 7c83 78bf
000001e0: 45d9 b7be 7836 443e 8c25 e6be 2f0e 5ebf
000001f0: e325 e9bd 8bcf c1be be9e 3b3d 423c 293f
00000200: bd53 483f 6a72 d33e fd5e 0a3f a948 313f
00000210: 85dd 283f 1521 0fbe 07e0 1c3f f97b d1be
00000220: f9f3 d2be 4fb6 96be d484 cdbd 4782 17bf
00000230: 55a0 f93c 1f36 a7bd 678c 3f3e c688 403f
00000240: 8672 f23d c43f f33d b0bf 8c3d 8ab0 aebe
00000250: cb7b 083f f600 afbd 9d35 943c 2b3d 813f
00000260: 52bc 393d 7ba5 a43d 5aa4 1c3f 6a48 d93e
00000270: be58 21be 4127 edbe bf46 2dbe 3bff 67bd
00000280: c4a4 c7be 8ff6 aa3e f947 123f 0ceb f73e
00000290: 7123 263e b14a 0b3f d024 d93d d1ab b43d
000002a0: 5c29 993e 8ee0 2fbe 7cd4 133f 2dd7 b73e
000002b0: 84fa d7bc 8bce 9a3f 911c 7d3e 20a3 d7be
000002c0: 07c5 26bf b3e1 233f a80a 35bf 6ba8 fd3e
000002d0: b05c 4c3f 636b 033f 5edd 133f 6fd9 b2be
000002e0: a27b 55bf d5f1 863e 878c d7be eb79 023e
000002f0: f919 75be 7521 df3e 4301 f4bd a24e 81be
00000300: 663c 703d 15e6 d83e 53ff 52bd 5820 b53d
00000310: 4aec 9cbe 081d 153f 6145 14bf 2569 b3bc
00000320: b931 323e 287a b43d 128d ed3d 6786 9d3e
00000330: 2912 edbc f1ee 8abe 3984 06be c775 29bd
00000340: fab4 0abf 54ab e3be 6b08 943c 06f3 9c3e
00000350: f4ae 6d3d 91ea 2e3f 7eb6 0bbf 4038 00be
00000360: be0b 5abf 7f77 38bf 6aef bbbd 62d7 a83e
00000370: 79f7 b63e e425 63be 0255 c13e 9b70 813e
00000380: 2d13 82be a5ec bf3f 408b 3abf 2660 a9be
00000390: 69de 473f 1f23 713d 8ed9 cc3e e549 0b3f
000003a0: 9e1d 1dbf 7703 d3be 53e5 923e 78b4 e8bc
000003b0: 54b8 0b3f 42cc fd3e aae1 8d3d fee0 0bbe
000003c0: 06d3 97be 2f55 98be 297e 843f 7ab0 463f
000003d0: cbd5 223e c29c 773d 6e4f 803e 1207 723e
000003e0: 2d57 4dbf e595 c0bd 06c9 41bf 9b16 443f
000003f0: 6f82 88be ef95 19be 9527 0dbf 1fe7 aebc
0.44008 0.71768445 -0.64904946 -0.5392556 -0.36706156 -0.12388124 0.5144586 0.5220964
0.4908455 -0.55132234 -0.50699365 -0.3521051 0.25326848 -0.19901218 -0.84227663 -0.19077148
0.055250563 0.5388317 -0.05742121 -0.08418762 -0.6257115 0.13071258 0.12760848 -0.074443884
-0.13784485 0.59821534 -0.53876793 1.056288 -0.7019798 -1.0882345 0.0063739046 0.7351437
0.042369496 0.42197704 0.06845584 -0.124263205 0.46990913 0.33534148 0.7355194 0.2798132
0.6439892 -0.46187878 -0.32839844 -0.27006325 -0.007512818 0.6540735 -0.60141456 0.50830495
0.8776977 0.31769606 0.38143867 -0.3734287 -0.4329443 0.5701157 -0.36524776 1.2025942
-0.07649918 1.0006459 0.01908214 0.69694453 0.5292155 -0.12746918 -0.087373845 -0.1636937
-0.044806894 -0.05548213 -0.12619638 0.7606494 0.5823676 -0.48714447 -1.0783792 0.34327105
0.005684097 -0.2503333 0.068204105 -0.3047499 0.0103748655 -0.16532598 0.081634045 -0.6359338
-1.0354683 0.0026906268 0.2503824 -0.4203082 0.12910907 -0.39339688 0.101510726 0.07019661
0.32109436 0.49930024 -0.6120603 -0.004559685 -0.1869406 -1.2870097 -0.10479205 -0.96006465
-0.2539429 -0.41872317 -0.47072455 0.44238752 0.33584592 0.004814495 0.71070755 -0.26400623
-0.94953287 -0.36866453 0.75964105 0.35143316 -0.1798528 0.45730662 -1.1670016 0.49591738
-0.2468512 -0.27120957 -0.20582712 0.12326026 -0.13347642 -0.02351006 -0.33646506 -0.9707563
-0.3590795 0.19161403 -0.4495052 -0.8674039 -0.113841794 -0.37853655 0.045805685 0.6610757
0.78252774 0.41298229 0.5405119 0.69251496 0.6596301 -0.13977464 0.6127934 -0.40914896
-0.4120176 -0.29435965 -0.100351006 -0.5918316 0.03047196 -0.0816462 0.18705903 0.752087
0.1183825 0.11877397 0.06872499 -0.34119064 0.53313893 -0.08545105 0.018091971 1.0096792
0.045345612 0.080393754 0.6118828 0.4243806 -0.15756509 -0.4631901 -0.16921519 -0.05663989
-0.38992894 0.33391234 0.5714107 0.48421514 0.16224457 0.54410845 0.106027246 0.08821834
0.29914367 -0.17175505 0.577461 0.35906354 -0.026364572 1.2094282 0.24717928 -0.42116642
-0.6514439 0.64016265 -0.70719385 0.49542555 0.7982893 0.51335734 0.57759655 -0.34931514
-0.83391774 0.26356378 -0.420994 0.1274182 -0.23935689 0.43580213 -0.11914303 -0.25255305
0.05865135 0.4236304 -0.051513027 0.0884406 -0.30649024 0.58247423 -0.57918364 -0.021900723
0.1740178 0.08812362 0.11599173 0.30766603 -0.028939323 -0.27135423 -0.13136376 -0.041372087
-0.541824 -0.4446665 0.01807042 0.30654162 0.058028176 0.6832667 -0.54575336 -0.12521458
-0.8517417 -0.72057337 -0.09176524 0.32976824 0.35735682 -0.22182423 0.37760168 0.25281224
-0.25405255 1.4994093 -0.7286873 -0.33081168 0.78073746 0.058871385 0.4000973 0.5440963
-0.6137332 -0.4121358 0.28690585 -0.028406367 0.5457814 0.495699 0.06927808 -0.13660046
-0.29653186 -0.2975249 1.0351001 0.7761303 0.15901868 0.06045223 0.250606 0.2363551
-0.80211145 -0.0940359 -0.7569736 0.76596993 -0.26662013 -0.14998601 -0.5513852 -0.021350442

feature.bias_ih_l0_reverse f4 [512]
00000000: c71f ddbc 7041 2fbc 5358 053f bdc1 8f3d
00000010: c1c2 3c3f 9a36 1b3e cb9a ab3d 8b39 1ebe
00000020: 1216 03bf d979 9cbe 2da2 4f3e ac34 273e
00000030: 7b87 ecbd c08e cfbd 100a ab3e 80c7 9b3b
00000040: f0da 893e 9019 563f 8c23 c23e f881 823e
00000050: 81f4 86be d6ce 24be 4806 2e3d 5b81 4fbe
00000060: 090a 26bd d975 58be 973f dc3d 8f18 bfbc
00000070: e370 ab3d a0a7 d3be 14ee 09be 450f 60be
00000080: b565 a63c ef6b e93e 6377 47be 60ad 443e
00000090: dcef ffbc f623 873d f251 893d 53ba 233e
000000a0: 5170 03be 34f9 d43d 3d74 8d3d 8dd3 d03e
000000b0: d3b6 d53e 1574 c2bd 7e84 993e e57d 173f
000000c0: 5120 b13e 26f7 363e b752 d23e 655f 803e
000000d0: 1540 de3e aa99 123e ab9d 403e ba6c db3d
000000e0: 26c4 12bd fb28 833f eccd b23d 7a2d eb3e
000000f0: 4784 203e 62b9 5ebe 30cc 88be 1e55 9cbe
00000100: 5b4c 6e3e 4988 573c 7207 b5bc 59f3 b7bd
00000110: 61e6 a43d 04ab de3d 28d3 17bf 2cf8 93bc
00000120: d85b 3abd 3559 0ebe a056 46be b8f1 973e
00000130: e62c 2c3d 89e6 983e f1ff 9dbd 1e31 573e
00000140: 2832 6c3e 143c 353e ffba 913c 94ad e9bd
00000150: c913 513d e103 243f b67d 09bf d77c 793c
00000160: 71a2 79bd f2cb bf3e b5a0 813e 3fe8 393e
00000170: 5727 c2be 2e3d e43e 0250 d23e eb2e c93e
00000180: 84bc c73d fd8d ddbd 5397 77be 1fcf 7d3b
00000190: 86dc f2bd f0dd 243f dc87 4c3d 246a 00bc
000001a0: f8c9 fe3e 9340 d63c 9d51 3b3d db6c 083c
000001b0: 0f40 663f 4490 133c 441d 62bd 49bf 3abe
000001c0: a1ca 5ebe 5bc5 84be df0f 343e 477f 0e3e
000001d0: 128b edbe 3e9e 4f3e 497b b43d 2581 943d
000001e0: 5c88 b43d e58d 673e f4a0 0abd a430 e7bd
000001f0: d6ff 813e b907 8d3e ef23 f9be 1b0f 9d3e
00000200: 9eb1 0abe 37b5 2abe 2607 e6be 5a50 fb3d
00000210: e2c3 f9be 945a 18be fe97 d4bc e256 2bbe
00000220: 0cb8 6bbd 05d2 43bd fba8 d2bd fbc2 d93e
00000230: cc9d a23d 9e29 9d3d 5d05 8c3e f164 20be
00000240: 1813 da3d 6370 8abe 2fef 833d 01fd 30bd
00000250: 6af0 40bd 0ae3 403d 8f8a c5bd 4ccd a2bc
00000260: 0c75 5e3c 8bce 833e 9692 ca3e 0e50 90be
00000270: 2df5 9abe 5b33 1bbf 5e7b fe3d 8fc4 64be
00000280: 3bb7 dc3e 9eb1 b13e 949c 9f3e 1d57 403e
00000290: 9c7d d7bd d5e2 2bbd 90c8 c1bd 69a3 123f
000002a0: c802 b8bd 78ac ce3e e9af 273e bb22 f7be
000002b0: c284 e33e 68e1 bc3e dfb6 1a3e 53db dabd
000002c0: 947f 8ebe a4d6 2abe 2f35 513e a181 a5bd
000002d0: c441 7abe eb41 81be 0c70 c6be 12cc 44bd
000002e0: 72a2 d83d 07e3 20bf 5700 4b3e e64b 1a3f
000002f0: 07f1 b83d 68c1 8c3d 40be 62bc fe61 b73d
00000300: 6d60 bbbc c568 bcbd 638b e0be 470a 6dbe
00000310: 3145 f8bd 1cca 753d dacd f43b aa61 0fbc
00000320: c2e0 603e e6cd 3e3e 2d86 e83e 4f92 113e
00000330: 7a63 8b3d d9d2 193d 497e e43e cdd9 31bd
00000340: ddd4 ac3e d4a2 cb3e eb14 db3d c642 eebd
00000350: db12 663e 09e4 873e 5f58 00bf 5e63 9e3e
00000360: 692c 073c d605 683e 4d07 2bbe b9fe d23e
00000370: 39ce 9fbe 8c9e 92be d577 183e 771d 5a3e
00000380: 3e36 f43d bae9 03bc f02e 933d 109a 0f3f
00000390: cc60 7fba efb5 d7be 2d01 4b3e 1682 1dbe
000003a0: ac96 5d3e 2ce9 853e 28aa 5bbd 3bb0 d93e
000003b0: 1939 01bf d6c7 d3be 88ac 97be 486b 26be
000003c0: cf92 ebbd 092c f4be a512 d43d 3c4a 123e
000003d0: c5a2 d63e 2245 99be 0291 c8be 6092 8bbe
000003e0: 6225 9bbe c748 d1bc 06e5 203e 96fa 103d
000003f0: a3d0 acbc 9147 e8bd 15cb 113e 18f8 7cbe
-0.026992692 -0.010696754 0.520879 0.070193745 0.7373467 0.15157548 0.08379134 -0.15451638
-0.5120555 -0.30561712 0.20276709 0.16328686 -0.11549278 -0.10134649 0.33406115 0.004754007
0.2692485 0.83632755 0.37917745 0.25489783 -0.26358417 -0.16094527 0.04248646 -0.20264189
-0.040536914 -0.21138705 0.10754316 -0.02332714 0.08371141 -0.41338825 -0.13469726 -0.21880825
0.02031217 0.4559016 -0.19479136 0.19206762 -0.031242304 0.06598656 0.06705083 0.15989046
-0.12835814 0.10399094 0.06906936 0.407864 0.41741046 -0.09494797 0.29983896 0.59176475
0.34594968 0.17867717 0.4107873 0.2507278 0.43408266 0.1431643 0.18810146 0.10714097
-0.035831593 1.0246881 0.08730683 0.45933133 0.1567546 -0.21750405 -0.26718283 -0.3053369
0.23271315 0.0131550515 -0.022098277 -0.08981962 0.08051754 0.108724624 -0.59306574 -0.018062674
-0.045497745 -0.13901217 -0.19368982 0.29676604 0.042035006 0.29863384 -0.077148326 0.2101483
0.23066008 0.17698699 0.017789362 -0.114100605 0.05104426 0.6406842 -0.53707445 0.015227518
-0.06094593 0.37460285 0.25317922 0.18155001 -0.3792064 0.44577926 0.41076666 0.39293608
0.097527534 -0.10818098 -0.2417882 0.003872819 -0.11858468 0.6440115 0.049934253 -0.007837806
0.49763465 0.026153838 0.04573213 0.008326734 0.89941496 0.009006564 -0.05520369 -0.18237032
-0.21756984 -0.2593182 0.1758418 0.1391574 -0.46395165 0.20275208 0.08812577 0.07251195
0.08815071 0.22612722 -0.033844903 -0.11288574 0.253905 0.27544954 -0.48660228 0.30675587
-0.13544318 -0.1667069 -0.4492733 0.12271185 -0.4878226 -0.14878303 -0.025951382 -0.16732362
-0.057548568 -0.047807712 -0.10286137 0.4253157 0.079402536 0.076739535 0.27347842 -0.15663506
0.10648173 -0.2703887 0.06442105 -0.043210033 -0.047104277 0.04709152 -0.096455686 -0.019873284
0.013577711 0.25743517 0.3956496 -0.28186077 -0.3026518 -0.6062524 0.12425874 -0.22340606
0.43108544 0.34705824 0.31174147 0.18783231 -0.10522005 -0.04196437 -0.094620824 0.57280594
-0.089849055 0.40365958 0.16375698 -0.48268685 0.44437224 0.3689072 0.15108822 -0.10686364
-0.2783171 -0.16683441 0.20430444 -0.080813654 -0.2443915 -0.25245604 -0.3875736 -0.04804618
0.10577859 -0.62846416 0.19824348 0.6027206 0.09030347 0.06872827 -0.013839304 0.089542374
-0.022873128 -0.09199671 -0.43856344 -0.23148452 -0.12122572 0.0600072 0.0074708285 -0.008751312
0.21960738 0.18633232 0.45414868 0.14215969 0.06806083 0.037554596 0.44627598 -0.0434206
0.33756152 0.39772666 0.10697349 -0.1163383 0.2246813 0.26541165 -0.50134844 0.30935186
0.008250334 0.22658476 -0.16702004 0.41209963 -0.31212023 -0.28636587 0.14889462 0.21300302
0.119244084 -0.00805133 0.07186687 0.56094456 -0.0009741902 -0.42130992 0.19824667 -0.15381655
0.21639508 0.2615446 -0.05362907 0.42517266 -0.5047775 -0.413634 -0.29623818 -0.16251862
-0.11502611 -0.47689846 0.10355119 0.1428613 0.41921058 -0.29935557 -0.39173132 -0.27260113
-0.30301958 -0.025547398 0.15712366 0.035395227 -0.02109558 -0.11341775 0.14237626 -0.24704015

feature.bias_hh_l0_reverse f4 [512]
00000000: c3cf 0ebe b443 cabd 9a58 013f 850c 053e
00000010: 8a9b 353f ed27 423e 511c e63d 5c76 a2bd
00000020: a1af bfbe 3e95 9fbe 5c5a 133e 707d 253e
00000030: fc8d c43c 2334 dbbc a13c 983e f97e 873b
00000040: ea46 f23e cc94 4e3f afc5 bf3e faa9 de3e
00000050: 9f00 97be 9c6d 0abd 7578 233e 8dad 5bbe
00000060: 35c9 0cbd 2e19 81bd 0c24 813b 4aef b93d
00000070: 4f68 8d3e 22f6 d3be f82b 42bd fec1 0cbe
00000080: f0ba 123e f219 e43e 1e16 91be 56b1 6c3e
00000090: 3449 933c d3f5 36bd 764f 4bbd 0f5d 253e
000000a0: a391 133d 3b16 ff3d 2879 a13d e53d bb3e
000000b0: b9e5 bf3e 56ba 68be 5fb5 343e 7e67 323f
000000c0: edc1 a63e a67f 5e3e 7932 e93e 0ce1 983e
000000d0: e492 033f 26da d63d 1dc2 5c3e 1c9d 143d
000000e0: 9cbe 0abd eb6a 6c3f 07c2 a33e a8bc ff3e
000000f0: e87b 003e a3f7 b6bd d95a 31be a943 b5be
00000100: 0913 953e 0baa 1e3e 3968 5abd 040b 36bc
00000110: 031f 253e 528e aa3d f5ef 23bf 215f d0bd
00000120: 68db febc b27d 2abe 252b 99be 7d11 5b3e
00000130: b1cd 6cbc 51f6 8a3e 1975 c0bd c4b7 513e
00000140: 5b88 9f3e e225 4e3d 1772 0ebc 6ed8 8ebd
00000150: 9d83 6f3e 75c9 eb3e 31e8 e1be ce71 b33d
00000160: f055 ecbd 338b cd3e 869e 543e d56e 3a3e
00000170: 20f4 a8be d55e ff3e 06bb da3e fc99 df3e
00000180: 56b6 8fbd 20ca 3a3d 900b 8ebd 6e7e f0bd
00000190: 7fec 0cbe 1253 e73e 59f2 22bb f1a4 fe3d
000001a0: 5fb5 223f c82b ba3d a415 763d fa57 953c
000001b0: f162 4d3f ecf5 26bd 458a 11be e05b 99be
000001c0: bcba 63be 65c4 5cbe 73fc 013e 3bc9 093e
000001d0: f430 d6be ec28 0e3e 23a7 433e a6cf 013e
000001e0: 01b8 093e d4c0 9a3e 769c eebd d672 77bd
000001f0: b31b 373e 4563 523e 4f30 a0be 702c 883e
00000200: e09c 88bd 027e 78be 0603 c2be dd47 073d
00000210: 6a54 bbbe 4ebd 5abe e0b9 dbbd f790 57be
00000220: 379e 79bd a67c 9f3d 1b25 bebd 7903 b23e
00000230: 7d6f 453e 24db 2cbe 77b8 973e 88f1 e5bb
00000240: bae9 bf3d a41b 85be 0064 2abd da18 623d
00000250: e01e 033d 90cf 603c 3b7f 86be 9e2e ef3d
00000260: a1c3 9c3e fe6c 7d3e a340 c23e 7b44 98be
00000270: de92 80be 2af6 10bf 31d3 2fbb d496 59be
00000280: 734b b63e 7334 8b3e 8f94 6a3e 60f7 803e
00000290: eefd 0639 ae65 5dbe a910 11be 46ce 173f
000002a0: 4a7a 82bd b70a b73e 6957 a43e 8ad0 9cbe
000002b0: cb5a b63e 2861 4e3e 8065 8a3d 7d63 80be
000002c0: 514c 77be 0644 82be 2e24 47be f1f8 52bc
000002d0: 04c8 dbbe a21e a2be 9d06 e3be 8b26 a1bd
000002e0: c591 683e 9325 3abf 2080 9b3e 37ab 073f
000002f0: b495 2c3e e2c1 a3bd 5509 84bc 2674 933c
00000300: 94ea 01bd a853 fcbd 1207 8dbe accd 53be
00000310: 66bc b63c 1b28 193c 66b7 43bd 5b6f 9fbd
00000320: 7413 3b3e d884 873d df77 033f 9830 9b3e
00000330: 7ece 66bc 2864 233e 9fbb ad3e 7fe4 13be
00000340: fdb6 7c3e fa7f ab3e e158 e93d 1822 69bd
00000350: 1e36 5c3e f5de d63d 4f03 ccbe 8b9c 913e
00000360: 2ef8 72bd 04eb 833e d857 9cbe 17bc 9d3e
00000370: 15f8 19be 7e3c f7be de00 573e 901f 903e
00000380: 22b5 f63d e84d 5dbd 70d6 573e b519 243f
00000390: 56c2 afbd eaa1 cfbe 7fc2 423c 8e7c 5abd
000003a0: 6710 d23d 058a a53e 8d02 4c3c 625c 9f3e
000003b0: 7059 0dbf 6856 ddbe ec5d a5be 0b53 bdbe
000003c0: c035 a2bd 4b38 0bbf 2489 a93c bc5e c93e
000003d0: 559b bd3e 80d1 babe a89e dcbe 0c2a babe
000003e0: c055 03bf 0b80 ab3d e5ee b13d b048 c4bd
000003f0: 97f4 47bc c1c3 29be 23ef e43d 2707 81be
-0.13946442 -0.098761946 0.5052582 0.12993057 0.7094046 0.18960543 0.1123587 -0.079327315
-0.37438682 -0.3116855 0.14389938 0.16161132 0.023993485 -0.02675826 0.29733756 0.0041350094
0.47319728 0.80695796 0.37455508 0.43489057 -0.2949266 -0.033795938 0.1596392 -0.21452923
-0.034371573 -0.06303631 0.0039410647 0.09078844 0.27618644 -0.41398722 -0.047405213 -0.13745877
0.14329123 0.44551045 -0.28337187 0.23114523 0.017979242 -0.04466803 -0.049636327 0.1614878
0.036027562 0.12455412 0.07884437 0.3657066 0.37479952 -0.22727332 0.17647313 0.69689167
0.3256983 0.21728382 0.4554632 0.29859197 0.5139601 0.10490827 0.21558423 0.036282644
-0.033873186 0.92350644 0.3198397 0.4994862 0.12547266 -0.08933952 -0.17319812 -0.35403183
0.29116085 0.15494554 -0.05332205 -0.011111025 0.16125111 0.08327927 -0.6403802 -0.101743944
-0.03111048 -0.16649511 -0.2991573 0.2139339 -0.0144533375 0.2714105 -0.093973346 0.20480257
0.31158718 0.050329097 -0.008694193 -0.069748744 0.2339005 0.46052137 -0.4412246 0.08761941
-0.11539829 0.40145263 0.20763597 0.18206342 -0.32998753 0.4987704 0.42720813 0.43672168
-0.070172 0.045602918 -0.06935799 -0.117428645 -0.13762091 0.45180565 -0.0024863689 0.12433804
0.63558 0.09090382 0.06007923 0.018230427 0.802291 -0.040761873 -0.14212902 -0.29952908
-0.22239202 -0.21559294 0.12693958 0.1345567 -0.41834223 0.13882798 0.19106726 0.12676868
0.13449098 0.3022524 -0.11650936 -0.06041225 0.1788166 0.20545681 -0.31286857 0.26596403
-0.066705465 -0.24266818 -0.37892932 0.03302752 -0.3658784 -0.21361277 -0.10728812 -0.21051393
-0.0609419 0.07787447 -0.09284421 0.34768274 0.1928081 -0.1688047 0.29632923 -0.007017318
0.09370752 -0.2599765 -0.041599274 0.05519948 0.032011867 0.013721362 -0.26268944 0.116788134
0.30618003 0.24748608 0.3793994 -0.29739746 -0.2511205 -0.56625617 -0.002682876 -0.21248943
0.35604438 0.27188453 0.22908233 0.25188732 0.00012873832 -0.21620819 -0.14166512 0.59299123
-0.06370981 0.35750362 0.3209794 -0.30627853 0.35616145 0.2015425 0.06757641 -0.25075904
-0.24150206 -0.25442523 -0.19447395 -0.012876735 -0.42926037 -0.31663996 -0.44340983 -0.078686796
0.22711857 -0.72713584 0.3037119 0.5299563 0.16853982 -0.079959646 -0.016117731 0.01799972
-0.03171785 -0.12320644 -0.27544457 -0.20683926 0.022306632 0.009347941 -0.047782324 -0.07784911
0.1826914 0.06617135 0.51354784 0.30310512 -0.0140873175 0.15956175 0.33932206 -0.14442633
0.2467918 0.33496076 0.113939054 -0.05691728 0.21505019 0.104917444 -0.39846274 0.28439745
-0.059318714 0.2576524 -0.3053577 0.30807564 -0.15036042 -0.4828834 0.20996425 0.2814908
0.12046267 -0.054029375 0.21077895 0.64101726 -0.085819885 -0.40553218 0.011887192 -0.05334144
0.10257035 0.32331863 0.01245178 0.3112517 -0.55214596 -0.43229985 -0.3229822 -0.3697742
-0.07920408 -0.5438277 0.020695277 0.3933009 0.3703257 -0.3648796 -0.43089795 -0.36360204
-0.5130272 0.08374032 0.08688144 -0.095841765 -0.012204311 -0.1657858 0.11178424 -0.2520077
