pretrained_models/comick-30-context-size.pth (torch, 821283 bytes, 10 tensors)

feature.weight_ih_l0 f4 [512, 64]
000000 c9 9c 22 bf 1d 0f 84 bf cf d2 61 be 77 4b 78 be
       -0.63520485 -1.0317112 -0.22053073 -0.24247538
000010 78 f4 90 3f 01 48 50 3c cb 36 3b be e1 33 70 3e
       1.1324606 0.01271248 -0.1828262 0.2345729
000020 51 92 2a bf d2 2a 6e bd 17 f2 4d bf 45 aa 82 bf
       -0.6662951 -0.058146305 -0.80447525 -1.0208212
000030 af a8 22 bf a4 83 90 be 13 49 9c bd 86 d8 2e 3d
       -0.6353864 -0.28225434 -0.07631125 0.04268696
000040 78 39 10 3f c1 66 64 be 98 d9 8c be 83 fa 66 3f
       0.5633769 -0.22304823 -0.2750976 0.90226
000050 07 9a 07 3f cf f4 db 3d 30 f2 10 be dd 09 22 3e
       0.529694 0.10740053 -0.14154887 0.15824075
000060 12 a1 99 3f 24 c0 d3 bc e0 83 fb 3e 76 16 8f bb
       1.200228 -0.025848456 0.4912405 -0.004366691
000070 d4 c1 e6 3e 23 78 49 3e 5e bd c7 3e b1 8b 91 bf
       0.45069754 0.19674735 0.39011663 -1.1370755
000080 13 b3 2a bf 14 c6 eb 3e 89 1b 2d 3c 9c 91 3d 3f
       -0.66679496 0.4604956 0.010565647 0.7405031
000090 a1 d1 89 3e 24 eb a3 bd c9 64 cd 3e 18 cc e2 3e
       0.26917747 -0.08003834 0.40115955 0.44296336
0000a0 20 01 79 3c 77 d2 7d bc 29 41 d3 3e c2 c6 77 be
       0.015198022 -0.015492073 0.4126065 -0.24196914
0000b0 74 83 9d be 78 56 08 bc 47 17 fe 3d 4d b5 57 3f
       -0.30764353 -0.008321397 0.124067836 0.8426102
0000c0 b8 14 e2 be 8f e9 02 40 06 84 41 3f 68 ff 6a be
       -0.44156432 2.0455053 0.75592077 -0.22948992
0000d0 bd 06 a3 3f 76 ef 98 be 4f f3 a9 bf f9 07 08 3e
       1.2736431 -0.29870194 -1.3277377 0.13284291
0000e0 64 2b 8b be 0c 38 8f bf 73 cb 02 3e 50 e9 d3 be
       -0.27181542 -1.1188979 0.12772922 -0.4138894
0000f0 c3 40 9c 3e 4a 42 3d bf 4c 30 3b bd fd f5 3e bf
       0.3051816 -0.73929274 -0.045700356 -0.745941
000100 d4 51 f3 be c2 99 3d 3f 53 5c 31 3f 22 ad 6b 3f
       -0.47523367 0.7406274 0.692815 0.92061055
000110 5d 67 4a 3f d1 5a 40 bd e5 46 5f bf e9 31 69 3f
       0.7906397 -0.04696161 -0.8721755 0.9109178
000120 84 e7 67 be e2 95 47 3f 29 8f 7b 3e a7 c3 1e bf
       -0.2264691 0.7796308 0.2456633 -0.6201729
000130 a4 8e 8b 3f 52 64 44 bf 0c ed a8 bf 03 18 b5 bc
       1.0902905 -0.76715577 -1.3197341 -0.022106176
000140 48 c9 b0 be 79 6c ed be f5 ea c0 bc 01 cc 80 3e
       -0.34528565 -0.4637182 -0.023549536 0.25155643
000150 9b 38 4f be a6 6e c6 be 91 cc 18 bf eb ba 22 3e
       -0.20236437 -0.38756293 -0.59687144 0.15891616
000160 8c c8 c8 3e ba 3e 13 bf 61 bf 17 3f 6e ab 9b 3e
       0.39215505 -0.5751759 0.59276396 0.30404228
000170 f7 e8 2f bf 76 0d 5f 3f f5 e0 81 3e c4 60 3a bf
       -0.6871485 0.87129915 0.2536694 -0.728039
000180 39 04 73 be 09 9e 54 be af 9c 3f 3f df 2a 06 3e
       -0.2373208 -0.2076341 0.74848455 0.13102292
000190 c5 76 11 be 3a a5 8f 3f 10 26 83 3f d5 10 90 3f
       -0.14205463 1.1222298 1.0245991 1.1255137
0001a0 1a 69 f9 3e c5 32 02 bc 0c 0b 42 3c 6d f1 84 3f
       0.48713 -0.007946675 0.011843454 1.0386177
0001b0 bd 5d 91 3f 4f 4d 13 3f d5 13 41 bf 6d 1c 5f 3e
       1.1356732 0.5753984 -0.75420886 0.21788187
0001c0 f4 81 ea 3d 56 6a c1 be 14 bf 47 3f 17 d0 3a 3f
       0.11450568 -0.3777644 0.7802594 0.7297377
0001d0 b6 b9 22 be d3 6e 0a be 8e 49 a1 3e f2 03 44 bf
       -0.15891156 -0.13518839 0.3150143 -0.7656852
0001e0 11 af dd 3e a9 45 b8 be 7e 95 b3 3e f6 cb 2c 3d
       0.43297628 -0.35990646 0.3507499 0.0421867
0001f0 b4 d7 5a bc 4d 55 39 3f 84 b2 2e 3f c3 6d ad bc
       -0.013357092 0.72395784 0.68241143 -0.021170503
000200 e7 02 76 3e f2 19 02 3f 5a d0 0a 3e b1 1b be bc
       0.24024545 0.5082084 0.13556042 -0.023206564
000210 c1 44 f9 3e 90 e4 86 3d c1 ae cc be 5d 7f 9f bd
       0.48685268 0.065865636 -0.39977077 -0.077879645
000220 25 18 1d be a8 29 e8 be 12 f2 4e 3e cf 3b 56 3e
       -0.15341242 -0.4534428 0.2020953 0.20921253
000230 84 96 58 3e 33 be af 3e 32 68 cb 3e ce 48 04 3e
       0.21151167 0.34324798 0.39727932 0.12918398
000240 87 36 24 be 16 54 4f bf 26 6d c4 be 9c 83 32 be
       -0.16036426 -0.8098768 -0.38364524 -0.17433017
000250 6d 4b e2 be b5 9a a8 3d c0 91 47 bf d1 fe 4b bd
       -0.4419817 0.08232633 -0.7795677 -0.04980356
000260 e0 15 a5 be 5d 5c c1 be 1b f6 75 be c6 74 6a be
       -0.32243252 -0.3776578 -0.24019663 -0.22896108
000270 cc 89 2f be 18 41 5c 3e fa ad 04 3e 3b 61 92 3e
       -0.17142409 0.21509206 0.12956992 0.28589806
000280 c2 37 df be 40 cb d8 be a1 6b 00 bf 2e 21 b4 be
       -0.43597227 -0.42342567 -0.5016423 -0.35181564
000290 d7 a6 91 bf c5 32 22 3e e1 8b 40 3e cf 3f f2 bd
       -1.137904 0.1583968 0.1880336 -0.11828577
0002a0 ef 09 b7 be a0 43 cb bd e6 67 f6 bc e7 f5 9a be
       -0.35749766 -0.09925008 -0.03007884 -0.30265734
0002b0 2b a5 0d 3e 3d 78 2d bf aa 57 58 3f ea 6c 93 bc
       0.13832538 -0.67761594 0.84508765 -0.01799627
0002c0 46 09 b9 3d 4d ec 90 be 96 38 f4 3e 81 e5 3c bf
       0.09034972 -0.28305283 0.47699422 -0.73787695
0002d0 81 d8 3a be d8 d0 03 3d cb 56 f6 3e 5c fa 5b be
       -0.18246652 0.03218159 0.48113093 -0.21482223
0002e0 7b e5 95 be 46 21 38 bc 6c 6b 0b bf 8d 80 6c 3d
       -0.29276642 -0.011238402 -0.5446079 0.057739783
0002f0 07 42 31 be 9a fd 16 3e 43 17 9e be e0 2e 8c 3e
       -0.17310344 0.14745179 -0.30877122 0.27379513
000300 fc 67 2e bd 55 cf d2 3e ff a3 76 3e 8b 3d 9d bf
       -0.042579636 0.41173807 0.24085997 -1.2284406
000310 46 76 0b 3f 7c 45 06 bf 7a af 44 3b 98 43 c1 bf
       0.54477346 -0.52449775 0.0030011819 -1.5098753
000320 e2 b2 76 3f e1 31 77 bf 00 80 09 3e 2d 8d b0 3e
       0.96366704 -0.96560484 0.13427734 0.3448271
000330 be 4e c2 3e 2d 33 bd be 5b 80 a2 3e ae 91 d1 bc
       0.379507 -0.36953107 0.31738552 -0.02558216
000340 55 f6 0b bf 26 6f 8b bd 16 e0 05 be 19 94 ea be
       -0.5467275 -0.06808309 -0.13073763 -0.45816115
000350 25 95 8d be 7c dc 32 bf 3e 34 4a 3e d8 b1 c6 be
       -0.2765285 -0.6986768 0.19746491 -0.3880756
000360 eb 9e 9b be 52 00 3d bf e3 35 04 bf 35 dd ef be
       -0.30394682 -0.73828614 -0.51644725 -0.46848455
000370 d9 fe 93 3e 6c 1d e7 bc 90 5e 27 3f b9 c1 e5 be
       0.2890537 -0.028212272 0.65378666 -0.4487436
000380 cc 51 e4 3e f2 11 73 3f ad ca ef be 67 c7 e2 3e
       0.44593656 0.9494926 -0.46834317 0.44292757
000390 9c 0b 98 bc 45 d0 aa bf c8 cb 76 3e 8a 1e e8 be
       -0.018560223 -1.3344809 0.24101174 -0.453358
0003a0 26 ac 19 bd f0 40 b2 3d 11 d8 40 be 61 d3 80 be
       -0.03751769 0.08703792 -0.18832423 -0.2516127
0003b0 32 69 ba 3e a3 32 b3 be c2 ac b3 be 01 c6 d6 3e
       0.36408383 -0.3499957 -0.3509274 0.4194794
0003c0 04 f6 46 3f 1f ef 0f 3f dd e1 45 3c e8 52 2d 3e
       0.7771914 0.56224245 0.012077776 0.16926157
0003d0 e4 84 21 3f f5 12 90 be c8 d5 9f be 7e 5d 5f 3f
       0.630934 -0.28139463 -0.3121779 0.8725203
0003e0 e8 4f d7 bd 01 dc 94 be 63 7b 86 3e 75 fa 86 be
       -0.10513288 -0.290741 0.26266012 -0.2636296
0003f0 a4 58 1f 3f da 63 06 3f 3d 95 e2 be 7d 56 d1 3e
       0.6224463 0.5249611 -0.44254485 0.40886298

feature.weight_hh_l0 f4 [512, 128]
000000 49 1c 47 be c7 23 9b 3d 16 b4 61 be 09 1e 98 bd
       -0.19444384 0.07575183 -0.22041354 -0.07427604
000010 03 40 75 bf fc 2e c0 3e bb 4d 3c 3e 33 29 f8 bd
       -0.958008 0.37535846 0.18389027 -0.12117233
000020 4d 70 55 bf f8 4e 55 bf f6 1c 05 3e 1c 5d 17 3f
       -0.8337448 -0.8332362 0.12999329 0.5912645
000030 8a db e6 be 64 78 ed 3d ca 80 d6 3c be ba a7 3f
       -0.4508937 0.11595228 0.026184458 1.3103864
000040 9c fa 00 3f b1 f6 f7 be f3 1a 34 3f 38 fb 0b 3f
       0.503824 -0.48430398 0.7035362 0.54680204
000050 c0 93 a7 be 8d 98 89 be a2 eb f0 be 62 2e cd 3e
       -0.32729912 -0.268742 -0.47054774 0.4007445
000060 a8 b2 d2 3e b4 f4 21 3f aa 6f 6e 3e b8 01 11 3f
       0.4115193 0.6326401 0.23284784 0.5664325
000070 fa e0 8a 3e 72 46 65 3e 54 69 69 3d 66 7e bf bd
       0.27124768 0.22390154 0.056985214 -0.093502805
000080 cf 27 be 3e ef 97 c4 3e 46 13 3a 3e 50 c1 4a be
       0.37139747 0.38397166 0.18171415 -0.19800305
000090 17 98 88 bd 35 58 cd 3f e2 1e de be 7b 32 bc be
       -0.06669634 1.6042544 -0.43382937 -0.36757264
0000a0 a7 48 d0 be ec 43 15 bf 97 39 f5 3e db 7e 43 3f
       -0.4068043 -0.58306766 0.478955 0.7636544
0000b0 9d 1f 72 bf b4 63 1d 3f 3a 50 98 3d a3 0b e1 be
       -0.9457949 0.6148026 0.07437177 -0.4395419
0000c0 28 81 e1 3e 82 5c 6c bd 50 33 3f be 37 b7 36 3e
       0.4404385 -0.05770541 -0.18671918 0.17843328
0000d0 e6 d1 8a 3c cc 2e 0d 3f 5f b3 52 be 15 6c b6 3e
       0.01694579 0.5514953 -0.20576237 0.35629335
0000e0 ea d4 91 bd 0f 89 e8 bd 68 3c ac bd e6 9c a5 bd
       -0.07120688 -0.11354267 -0.08409959 -0.080865666
0000f0 f4 39 2b bf 68 3f 1d 3f 39 82 09 bf a8 bb 57 3e
       -0.66885304 0.61424875 -0.5371433 0.21067679
000100 e2 15 14 3e 76 12 ac bd 55 49 01 3e 9d 8a ff 3d
       0.14461473 -0.08401959 0.1262563 0.1247761
000110 e4 73 af 3e 01 39 54 bf 4f e4 b1 be 14 2b 51 bf
       0.34268105 -0.8289948 -0.34744498 -0.81706357
000120 18 1f d7 3e 7a 1e 8d bf d0 57 97 be 33 aa 00 bf
       0.4201591 -1.1024926 -0.29559183 -0.50259703
000130 42 4e 9f 3e e0 d4 10 be 64 11 bd bb 90 ec 54 3d
       0.31114393 -0.14143705 -0.0057698954 0.051983416
000140 e9 ac 14 bf 00 ec f1 3e ff c5 12 3f 56 c9 74 bf
       -0.5807634 0.47250366 0.5733337 -0.95619714
000150 c2 44 13 3f 40 db 0e bf 77 71 a5 3d 7c 59 3e 3e
       0.5752679 -0.558033 0.08078282 0.18588823
000160 d1 a7 1e 3f 9b 34 eb be e9 6d 65 be 88 68 4b 3f
       0.6197482 -0.45938572 -0.22405209 0.7945638
000170 c1 8a 17 be 77 34 ef 3d c4 ff 6b 3d c8 1c a7 bd
       -0.14799024 0.11679929 0.057616964 -0.081597865
000180 93 1d f9 be 91 08 68 3e d1 10 5c bf ef dd c6 bd
       -0.48655376 0.22659518 -0.8596316 -0.09710299
000190 47 f4 3c 3f 67 0f 27 bd 50 c1 15 bf a9 b2 a5 3e
       0.7381024 -0.040786173 -0.58498096 0.3236287
0001a0 bd 13 02 bf 80 b3 90 be ba e5 09 3f 63 18 00 bf
       -0.5081137 -0.28261948 0.5386616 -0.5003721
0001b0 9f 9d af bd 13 7f 2f 3e 42 b1 92 3f 05 85 21 bf
       -0.08574986 0.17138319 1.1460345 -0.63093597
0001c0 b2 97 7e bd 29 a9 d5 3e 74 45 0e be 9b 8d a0 3f
       -0.062156387 0.4173062 -0.13893682 1.2543215
0001d0 a5 a4 e8 be 19 30 68 be 5b 70 e1 3e 21 78 f8 be
       -0.45438114 -0.22674598 0.44031033 -0.4852915
0001e0 fd 36 29 3f fe ac 50 be 0b 23 1f 3f 96 01 55 3f
       0.6609953 -0.20378491 0.62162846 0.83205545
0001f0 18 bf c4 bd 6d 43 66 bf 6e 36 fa 3e 3a 11 4f 3e
       -0.09606761 -0.89946634 0.48869652 0.20221415
000200 55 d2 ff 3d a5 a5 27 3e d1 a8 d3 be a2 34 84 be
       0.124912895 0.16371782 -0.41339734 -0.25821406
000210 d4 23 54 bf 35 fe 39 3f 8d f3 20 bf f0 3a 89 3d
       -0.8286717 0.72653514 -0.6287163 0.067006946
000220 31 a9 6f bf f5 84 80 bd a4 7b 25 be 2b 39 84 3f
       -0.9361754 -0.062753595 -0.16160446 1.0329946
000230 bc 0a a5 3e 1d ca 7f be 25 7e a6 3d ff ef 29 3f
       0.32234752 -0.24979444 0.08129529 0.6638183
000240 66 d8 88 3c 83 aa 9d 3e 7d 9b 56 3e 83 20 a7 be
       0.01670475 0.30794153 0.20957752 -0.32641992
000250 96 70 7c be 3e 40 e8 3d 9c 03 dd be ed 9a d7 bb
       -0.24652323 0.11340378 -0.43166816 -0.006579748
000260 81 74 c0 3e a6 ea bf bb 94 a9 1c 3f 25 29 d9 3e
       0.37588885 -0.0058568297 0.61196256 0.42414203
000270 ed d9 aa be 88 a6 c7 be df a3 39 bf 74 4b fc 3d
       -0.3336939 -0.3899424 -0.7251567 0.12319079
000280 1c 60 b0 be be ba 59 3d 8d 8d 4b bd a6 e5 c3 3d
       -0.34448326 0.053156607 -0.04969554 0.09565286
000290 43 35 ad 3e 15 ea 9b 3e db 3f 8c bf 34 e8 dd bd
       0.33829698 0.30452028 -1.0956987 -0.10835305
0002a0 86 76 d8 3d 51 a4 4d bf 77 6f c6 3e dd 16 be 3d
       0.105694816 -0.8032885 0.38756916 0.092817046
0002b0 a6 7a 83 bf 30 6f 6e be 4d 9b de 3e 97 ea b3 bc
       -1.0271804 -0.23284602 0.4347786 -0.021962447
0002c0 58 25 fb 3e a9 bd 07 bf 71 f7 da be 46 8b 83 3f
       0.4905193 -0.53023773 -0.42766908 1.0276878
0002d0 90 42 c9 3e 36 c9 14 3f cb 91 88 be 1c b1 f9 be
       0.39308596 0.58119524 -0.2667373 -0.48767936
0002e0 5b dd fb ba d5 e3 18 3e 7d 01 be be b7 be 3d be
       -0.0019215749 0.14930661 -0.3711051 -0.18529783
0002f0 b9 f2 95 be a6 40 93 bd fb b8 2b be 4c 61 2e 3f
       -0.29286745 -0.07190065 -0.16769783 0.68117213
000300 4c 21 8c be d4 7f 8a 3e 91 36 82 3e 29 af 57 bf
       -0.27369153 0.2705065 0.25432256 -0.8425165
000310 be c2 86 bd 73 1a 11 3f dd d6 04 bf 69 13 23 3f
       -0.06580113 0.56680983 -0.51890355 0.6370149
000320 72 43 72 bf c7 f7 c8 3e e3 f4 19 bd e0 05 c7 3d
       -0.94634163 0.3925154 -0.037587058 0.097179174
000330 66 50 f5 3e 6e 88 88 3f 8e 6b 02 bb d6 20 3f be
       0.47912902 1.0666635 -0.0019900533 -0.1866487
000340 ac 05 bf 3d 4b 4f 58 3f cb f8 37 bf 62 36 82 bf
       0.09327254 0.8449599 -0.71864 -1.0172846
000350 1e 8f 50 3d 6c 72 97 3e 8c b4 4f 3d 7c cd 01 3f
       0.050917737 0.29579484 0.050709292 0.5070417
000360 c5 4d 91 3d 16 aa 6a 3f 43 dc 6b 3e d5 67 a1 be
       0.070949115 0.9166578 0.23033242 -0.3152453
000370 2f ec b3 3e 54 dc 2c 3e cd 40 a0 3e a5 7e cc 3e
       0.3514113 0.16880924 0.3129944 0.39940372
000380 ab ac 2b 3e 82 a7 98 be 59 93 7e 3e 27 41 87 be
       0.16765086 -0.29815298 0.24860896 -0.26416895
000390 b7 2e 63 3f d4 57 a6 bf e2 52 51 3e 85 37 5c 3f
       0.88743156 -1.2995553 0.20441774 0.86022216
0003a0 6a 44 53 3e 5a 2a db 3e 08 00 5e be 09 0d 07 3e
       0.20631567 0.4280575 -0.216797 0.13188566
0003b0 c8 8e 05 bf 2c 12 8e 3e 37 e4 b4 3e 02 f0 8c be
       -0.5217099 0.2774824 0.35330364 -0.2752686
0003c0 3e 90 84 be 60 e9 a6 3e c0 5c 79 be 2d cd 1a 3e
       -0.25891298 0.32599926 -0.24351788 0.15117331
0003d0 49 67 31 bf 54 e6 06 3c 55 62 e8 3e 4a 3f 09 bf
       -0.69298226 0.008233625 0.4538752 -0.53612196
0003e0 b7 35 f0 3d 7f 60 e9 3d 01 20 16 3e dd f3 b7 3e
       0.11728995 0.11395358 0.14660646 0.3592824
0003f0 8a 82 02 be e5 a9 51 3f a0 76 00 3f 31 af 16 3f
       -0.12745109 0.81899863 0.5018101 0.5886107

feature.bias_ih_l0 f4 [512]
000000 38 58 f8 3e 63 f5 5a 3d 55 da 33 3e 92 81 8a 3e
       0.48504806 0.053456675 0.17563756 0.2705198
000010 de e3 84 3d 58 f7 35 3f 0c b3 80 3e 91 12 87 3d
       0.06488775 0.7108054 0.25136602 0.06595338
000020 2f a2 28 bd 6e ff 8e be b2 5d 00 bf 78 9d 83 3e
       -0.041170295 -0.27929252 -0.5014297 0.25706077
000030 28 b9 17 3e f6 2a ba 3e 97 bd 9c 3d 2c 68 31 3f
       0.14816725 0.36360902 0.07653349 0.6929958
000040 7a 91 8c 3e a2 4b d7 3f d1 83 8b bc c1 e3 d2 be
       0.2745474 1.6819956 -0.017030628 -0.41189387
000050 97 4a 95 be 4e 7b cb b9 e6 e2 7e 3e 18 f0 c0 be
       -0.2915847 -0.00038811046 0.24891242 -0.37683177
000060 55 05 14 3e ec 87 96 3e ac 36 7c 3f 74 f4 88 be
       0.14455159 0.29400575 0.9852092 -0.26749003
000070 55 6b 94 3e 8b 9c 9c 3f d2 1b a0 3e ae bd 69 3f
       0.28988138 1.2235273 0.31271225 0.91305053
000080 1c d2 3d be 9f 00 60 3e 2f 25 2f be ae d8 fd 3e
       -0.18537182 0.21875237 -0.17104028 0.49579376
000090 fd 53 a5 bd fc c7 07 3f 85 78 67 3e 64 26 01 bf
       -0.0807266 0.53039527 0.22604568 -0.50449204
0000a0 42 f3 3a 3e 64 3c 55 3e 84 2e 32 3f 85 2c d2 3d
       0.18256858 0.20823818 0.6960223 0.10262398
0000b0 f1 b5 9d 3e 1a b7 86 be 03 ed 09 3e ca 51 63 be
       0.30802873 -0.2631157 0.13469319 -0.22199169
0000c0 f7 69 14 be fe e0 df 3d 09 03 92 be 83 7a 22 3f
       -0.14493547 0.10931586 -0.2851794 0.6346819
0000d0 eb e2 21 be db 53 92 3e 30 13 bc be d6 5c a4 be
       -0.15809219 0.28579602 -0.3673339 -0.32102078
0000e0 ae 24 88 3e 63 ee d1 3e e7 2a b8 be 72 44 10 3e
       0.26590484 0.41002187 -0.35970232 0.1408861
0000f0 98 e6 30 3d f9 09 f5 3c 6d 6b 00 3e f5 d3 ac 3e
       0.04318866 0.029911982 0.1254098 0.3375546
000100 75 24 59 be e4 d7 f4 3d 0b b0 26 3f c1 a8 7d be
       -0.21205314 0.1195524 0.6511237 -0.24771406
000110 d8 ff fd 3e 2b b0 45 3e a1 18 ab be 93 2c 89 3f
       0.49609256 0.19305484 -0.33417228 1.0716728
000120 6b 47 dc be 60 bb 99 bd be d2 5a 3d 1c 63 df be
       -0.43023238 -0.07506442 0.053423636 -0.43630302
000130 35 5d c1 bc 0c 83 27 3d 84 95 1c 3f 36 15 d4 bd
       -0.023604015 0.04089646 0.6116564 -0.10355608
000140 9d 6a bc 3e 13 36 c1 3e 2f e9 ad 3d 8f b1 58 bd
       0.3680009 0.37736568 0.08491742 -0.052903708
000150 cb e9 6e 3e 62 d2 bd 3e d6 f6 f4 bd 7d d0 ce bd
       0.23331372 0.37074572 -0.11961143 -0.1009836
000160 51 eb d6 3e 3e 7a 64 bc 3d c9 50 3e 45 3a d7 3e
       0.41976407 -0.01394516 0.20389266 0.42036644
000170 07 d5 e4 bd 8e cc f7 3d f0 9e db 3e 01 b8 10 be
       -0.11173444 0.120995626 0.42894697 -0.14132692
000180 4e 76 1d 3e 0e 2a fc 3d 66 ad 6e 3e 5c 97 19 be
       0.15377161 0.12312709 0.23308334 -0.14999145
000190 2f 49 82 3e 83 9b 4d 3e 94 7c 48 be 00 a6 b1 3e
       0.2544646 0.20078854 -0.19578773 0.3469696
0001a0 92 61 f2 3d 3e 80 8d bc 0f 72 90 be 48 82 97 be
       0.11835016 -0.017273065 -0.2821202 -0.29591584
0001b0 ad 21 a5 bd 62 07 0f be a9 67 ab bd 7c 63 61 be
       -0.08063064 -0.1396766 -0.08369381 -0.22010607
0001c0 ef 9e 96 bd 99 31 61 3e 94 7c 22 3d 6a e2 c4 3d
       -0.07354533 0.21991576 0.03966959 0.096134976
0001d0 a6 56 62 3e 3c 0d a8 3e a3 33 44 3e ec a5 3c 3e
       0.22103366 0.32822597 0.19160323 0.18422669
0001e0 bb 8d 24 3d 8b 22 b9 be b6 c8 32 bd 0e 23 ef 3e
       0.040174227 -0.36159167 -0.043648444 0.46706432
0001f0 44 b2 94 be d6 8c 9a be 22 12 cc bd 40 10 70 3e
       -0.29042256 -0.30185574 -0.09964396 0.23443699
000200 4f 3e 6a 3e 83 85 d8 be 39 46 dc be e9 13 02 bc
       0.22875331 -0.4228936 -0.43022326 -0.007939317
000210 c5 52 80 be d5 08 1b 3d f0 2c 2e 3e fa 4b 34 bf
       -0.25063148 0.03785022 0.1700933 -0.7042843
000220 a5 38 b7 be 89 5c 70 3e ab 93 1d be 0b 82 de 3d
       -0.35785404 0.234728 -0.15388362 0.108646475
000230 a0 1b e4 be 6e eb 03 be c4 92 8e 3e 98 bb 1a bf
       -0.44552326 -0.12882778 0.27846348 -0.60442495
000240 36 18 b3 be 56 7a 33 bf 6f af f2 3c be ec 1f bf
       -0.3497941 -0.70108545 0.029624669 -0.62470615
000250 da b2 f2 3c a2 8e b7 bd e7 99 5e bd c7 c0 30 be
       0.029626299 -0.08962752 -0.05434599 -0.17261039
000260 9e e7 83 bc bb 59 78 be 5a 4a 97 be 7d fd 9a 3e
       -0.016101655 -0.2425298 -0.29548913 0.3027152
000270 26 7b 71 be a0 35 6f bf 3f 6d f4 bd 69 e2 e2 be
       -0.23582134 -0.934412 -0.119348995 -0.44313362
000280 67 76 83 bd bf 97 bd 3d a2 cc b0 3d e8 ef c9 be
       -0.06419068 0.09257459 0.086327806 -0.39440846
000290 d1 85 34 3e d9 39 94 3d 6c 5c 90 3e 12 31 38 be
       0.17629172 0.07237596 0.28195512 -0.17987469
0002a0 31 07 03 bf e4 3b 1e be 1d 5d 64 be e3 40 de bd
       -0.5118285 -0.15452534 -0.22301145 -0.1085222
0002b0 8d bd 82 be d2 fe 50 bd 5f e6 67 be cd 16 92 be
       -0.2553524 -0.051024266 -0.22646473 -0.2853302
0002c0 80 14 e9 be 15 40 7d 3c 8e 59 d1 bc 49 0f 97 3e
       -0.45523453 0.015457173 -0.025555398 0.2950385
0002d0 7c c7 1c be ee 6d 7a bd e3 7f 58 be 84 14 55 be
       -0.15310472 -0.061139993 -0.21142535 -0.20808607
0002e0 17 9e 01 bd c2 b2 04 bf b6 d7 11 3e 05 2f 16 bf
       -0.031644907 -0.5183526 0.14242443 -0.58665496
0002f0 69 f5 b6 bd e9 b9 5d bd 86 42 f9 3d 2c a6 7e be
       -0.08933527 -0.054132376 0.121708915 -0.24868077
000300 dc 1d 76 bd cd 3a f4 bd 50 65 0b bf 31 b1 dd bd
       -0.06008707 -0.11925278 -0.54451466 -0.10824812
000310 37 1f f2 be 53 06 92 be ad 1e c5 3c da 35 1e bd
       -0.4728944 -0.2852045 0.024062479 -0.038625576
000320 0c 61 fe bd c9 9b 15 be b2 16 03 be 2a 01 43 3e
       -0.12420854 -0.14610209 -0.12801626 0.19043413
000330 05 d5 1f 3e f7 d4 fa bd 49 c7 d8 be be 43 46 3e
       0.15608604 -0.12247651 -0.42339543 0.19361779
000340 5e 89 6c 3d 71 be 9e bb 98 e3 97 be ce 36 ba be
       0.05774819 -0.0048444797 -0.29665828 -0.36369938
000350 23 29 0a be c6 1a 7f be bb a3 da be 5b d4 3d be
       -0.13492255 -0.24912557 -0.4270304 -0.18538038
000360 5a 97 fc be 30 2b 00 be 9d 1d 02 bf 22 09 86 bd
       -0.49334222 -0.12516475 -0.50826436 -0.06544711
000370 51 e8 74 3e e1 00 0b be 41 18 60 3d 1d f6 84 3e
       0.23916747 -0.13574554 0.05471063 0.2596902
000380 d5 47 a2 3e 02 d7 1f bf 80 19 8e bd 77 c4 25 be
       0.31695428 -0.6243745 -0.069384575 -0.16188227
000390 69 68 b6 be 09 94 1b 3e ca 44 51 be 64 dd 1e bf
       -0.35626534 0.1519319 -0.20436397 -0.62056565
0003a0 31 f7 41 be 5f e8 0d bf 78 7a b5 be 4f e6 66 be
       -0.18941952 -0.55432695 -0.35445 -0.22548793
0003b0 9c cb a0 be fd dc 7a 3e c3 bc 65 be 55 4a 75 bd
       -0.31405342 0.24498363 -0.22435288 -0.05988534
0003c0 ae e6 81 be ec 9b 9b be fb d5 b3 3b 54 83 bc be
       -0.25371307 -0.30392396 0.005488155 -0.36818945
0003d0 6a 66 b5 3e 75 18 0c 3e e0 94 b0 3e 4b 1e ac bd
       0.35429698 0.13681205 0.34488583 -0.084042154
0003e0 62 b8 20 be be 1b af 3e 8c 7c e9 bd 8e a7 d6 be
       -0.15695336 0.34200853 -0.114007086 -0.4192471
0003f0 de 80 88 be 4a 0f d8 be b2 51 d3 bd 77 cb 5c bd
       -0.26660818 -0.42199165 -0.103183165 -0.053904977

feature.bias_hh_l0 f4 [512]
000000 cd 85 b1 3e c0 6d 11 3e f9 58 5c 3e c7 4b e3 3e
       0.34672394 0.14202023 0.21518315 0.4439375
000010 9a 58 b5 bd f3 a3 1c 3f 1d 2e 8c 3e 39 03 e9 3d
       -0.0885479 0.61187667 0.27378932 0.11377568
000020 a6 98 37 3d 2e 0d 46 be 90 bf 2a bf 6f 7a a4 3e
       0.04482331 -0.19340965 -0.6669855 0.3212466
000030 c2 82 60 3e 05 ef 1e 3e 68 62 48 3d 60 00 31 3f
       0.2192488 0.15520866 0.048921973 0.691412
000040 44 e9 36 3e 5e 1a d4 3f 21 89 7d bc b5 20 e5 be
       0.17862421 1.6570547 -0.015474589 -0.44751516
000050 fe a7 62 be ea 30 c6 3d cc 13 d7 3e c4 2b 1c bf
       -0.22134396 0.09677298 0.4200729 -0.6100428
000060 fb 18 45 3e 53 d6 82 3e 36 ba 6b 3f 29 b5 7a be
       0.1924781 0.2555414 0.9208101 -0.2448317
000070 8c 0b b0 3e b6 5b ac 3f 4b b1 9c 3e 84 1f 8a 3f
       0.3438381 1.3465488 0.30604014 1.0790868
000080 67 c5 42 be 12 65 2e 3e 59 3f df bd fa 49 fe 3e
       -0.19020616 0.17030743 -0.109007545 0.49665815
000090 c8 43 48 3b ea a5 2e 3f f7 5b 59 3e 0a 02 02 bf
       0.003055798 0.68221915 0.21226488 -0.5078436
0000a0 bd 98 f0 3d 9d 30 a4 3e bf bd 24 3f c4 44 29 3e
       0.117478825 0.3206834 0.6435203 0.16530138
0000b0 02 80 ae 3e 83 c9 9c be b5 ae 4d 3d b3 51 42 be
       0.34082037 -0.3062249 0.05021544 -0.18976478
0000c0 24 3d 9a bd b2 5b 32 3e e8 dd 7f be 9a b1 21 3f
       -0.07531193 0.17417791 -0.24986994 0.63161623
0000d0 48 31 1e be 73 b9 88 3e 2f db ca be c7 c9 99 be
       -0.15448487 0.26703987 -0.3962035 -0.30036756
0000e0 19 fc 6f 3e 79 dd ca 3e a2 89 c8 be 89 97 f3 3d
       0.23436011 0.39622095 -0.39167506 0.118941374
0000f0 71 08 c5 3c 12 4b dc 3c 98 6c 24 3e 31 77 bc 3e
       0.024051877 0.026891265 0.1605705 0.36809686
000100 3c 03 16 be 3f 7c 8b 3d bc e6 23 3f da e6 6e be
       -0.14649671 0.068108074 0.6402395 -0.2333025
000110 f9 49 ec 3e 88 2f 1f 3e 24 9e ab be 66 ba 8d 3f
       0.46150187 0.15545475 -0.3351909 1.1072509
000120 c4 9d bc be 0e 8a 9c bd 62 48 12 3e 4b 7a 06 bf
       -0.36839116 -0.07643519 0.14285424 -0.52530354
000130 98 2c ee bd 8d 3f a5 3c c0 50 3e 3f 44 84 07 be
       -0.11629599 0.020171905 0.74341965 -0.13234049
000140 c9 8b ae 3e 78 ec ce 3e 95 5d 16 3e ea e1 80 bc
       0.34091023 0.40414786 0.14684136 -0.015732724
000150 1d ab 70 3e 53 3f d4 3e 02 0d e0 bd 07 f2 a4 bd
       0.23502775 0.41454563 -0.10939981 -0.080539756
000160 36 23 c6 3e fc 31 f7 bd 88 fd f8 3d 8a 20 be 3e
       0.3869874 -0.12070081 0.12157732 0.371342
000170 37 1d f4 bd 4a 1e 80 3d 09 75 b9 3e 1a a0 7b 3c
       -0.11919635 0.06255777 0.36222103 0.015357995
000180 73 ee 3e 3e 7a d8 05 3e 5c 36 a5 3e f2 4a 40 be
       0.18645649 0.1307086 0.32268035 -0.1877859
000190 cf 9d 6a 3e bf 6b 6b 3e b9 44 4a be a9 be f6 3e
       0.22911762 0.2299032 -0.19752778 0.48192337
0001a0 a0 ca 57 3e 48 07 4e bd d9 41 98 be 73 0d bd be
       0.21073389 -0.050299913 -0.29737738 -0.36924323
0001b0 89 2e a4 bd 8e 70 12 be 74 25 24 be a5 e7 45 be
       -0.080166884 -0.14300749 -0.16029912 -0.19326647
0001c0 db 66 0c be 95 e2 8e 3e 8e b8 56 3d 9e e0 c3 bd
       -0.13711111 0.27907243 0.0524221 -0.09564327
0001d0 f2 14 03 3e 8b ed 40 3e a5 79 d9 3d d8 32 28 3e
       0.12800959 0.18840615 0.10618905 0.16425645
0001e0 9e 07 de 3c 06 1b b2 be 2c d9 80 bc fc 70 0e 3f
       0.027103242 -0.34786242 -0.015728556 0.5564115
0001f0 2a 17 85 be d2 8b 9b be 9b 1c c8 bd 7d 31 14 3e
       -0.25994235 -0.30380112 -0.09771081 0.14472003
000200 03 07 3e 3e 44 cf 00 bf eb 3d 13 bf 76 7e 48 bd
       0.18557362 -0.5031626 -0.57516354 -0.048948728
000210 a3 17 c2 bd 69 8d 84 3d 67 1f 0c 3e 39 0f 15 bf
       -0.094771646 0.06472284 0.13683854 -0.5822635
000220 6c 08 9d be ad b2 e7 3d 88 8f ee bd dc 3c ea 3d
       -0.30670488 0.113133766 -0.1164847 0.11437389
000230 99 d9 91 be a1 37 16 ba 47 34 86 3e fb 43 0c bf
       -0.28486326 -0.0005730335 0.2621176 -0.5479123
000240 10 7c a9 be d6 7a 44 bf e7 11 fb 3d 06 79 ff be
       -0.33102465 -0.7674993 0.12259274 -0.4989702
000250 44 13 ae 3b b0 e4 1a be a2 71 23 be 7a 0c 2c be
       0.0053123552 -0.151263 -0.15961316 -0.16801634
000260 72 17 ab 3d cf 71 92 be 86 2d c7 be 34 e2 bf 3e
       0.08354081 -0.28602454 -0.3890192 0.37477267
000270 96 b3 9a be ac b6 74 bf b0 83 26 be e2 74 cb be
       -0.30215138 -0.95591235 -0.16261172 -0.39737612
000280 20 f4 16 be 43 ef 2b 3e 15 07 19 3e 4c 34 93 be
       -0.14741564 0.1679049 0.14944108 -0.28750837
000290 7d d8 ce 3e ef c0 a4 ba ea 34 85 3e 17 97 7c be
       0.40399542 -0.0012569706 0.26016933 -0.24667011
0002a0 92 13 f7 be 36 74 12 be 60 13 61 be 50 b7 c7 bd
       -0.48257118 -0.14302143 -0.21980047 -0.09751761
0002b0 7c dd a6 be 0f 3c dd bd 83 f8 9a be 03 1e 54 be
       -0.32590854 -0.10802471 -0.30267724 -0.20714574
0002c0 fd 6d 14 bf da c0 8f 3d 95 a1 55 3b c5 20 89 3e
       -0.5798033 0.070192054 0.003259753 0.26782814
0002d0 d1 86 91 be 66 85 0b be 73 b7 40 be 30 0e 8c be
       -0.2842317 -0.13625106 -0.1881998 -0.27354574
0002e0 6d 23 db 3c ca d9 09 bf 4c f9 ba 3d 7f 33 0f bf
       0.02675029 -0.53847945 0.09129581 -0.5593795
0002f0 08 6c e0 bd a3 12 7e be 4a d8 5c 3e 83 50 b5 be
       -0.10958105 -0.24811797 0.21566883 -0.35412988
000300 60 e7 30 bd a2 96 44 be ef 33 16 bf f7 2c cb bd
       -0.043189406 -0.19198087 -0.58672994 -0.09920686
000310 5b 8a dc be 2d 27 9b be 38 9f b7 bc 86 c2 d6 bc
       -0.43074307 -0.30303326 -0.022414789 -0.026215803
000320 4b 1c 7f bd 7a 60 ba bd 59 ff 56 be 98 20 91 3e
       -0.06228284 -0.09100433 -0.20995845 0.2834518
000330 de fb 4a 3c 9d 65 83 be 19 45 cc be fb d9 87 3e
       0.012389151 -0.25663462 -0.39896467 0.26533493
000340 f9 a8 9a 3d 74 31 48 be fe 7f a1 be db d7 00 bf
       0.0755176 -0.19550115 -0.31542963 -0.5032937
000350 3a 5d 5e be 15 b0 09 be 90 37 a8 be 94 9a 5e be
       -0.2171525 -0.13446076 -0.3285489 -0.21738654
000360 ff b2 0d bf 49 ed e6 bd b5 77 01 bf 5d 77 b2 bd
       -0.5535125 -0.11275727 -0.50573283 -0.08714173
000370 80 4d 2f 3e 89 b1 65 be 13 7b 6c bd 6c 8e d2 3e
       0.17119408 -0.22431006 -0.05773456 0.41124284
000380 66 0c 7f 3e 70 d7 1b bf c4 33 e1 bc 9a ec 5d 3d
       0.24907073 -0.60875607 -0.027490504 0.05418072
000390 bb 2e 9f be 3e 20 13 3d 83 86 02 be 71 c3 30 bf
       -0.3109034 0.03591942 -0.12746625 -0.6904822
0003a0 50 eb 9d be 81 60 01 bf 73 93 a1 be 90 34 98 be
       -0.30843592 -0.5053788 -0.31557807 -0.29727602
0003b0 89 3f 71 be 94 5b 97 3e 23 da 03 be d6 35 37 be
       -0.23559393 0.29562056 -0.12876181 -0.1789163
0003c0 b0 d5 67 be d4 2d 8b be f2 2a 51 3d 23 c8 b3 be
       -0.22640109 -0.27183402 0.051066346 -0.3511363
0003d0 90 1a 74 3e e9 8c 65 3e ee 82 83 3e c3 0f 35 bd
       0.23838258 0.22417034 0.2568583 -0.044204485
0003e0 9a ed 67 be cd eb bc 3e a4 1e 9a bd fb 1e d9 be
       -0.22649232 0.36898652 -0.075253755 -0.4240645
0003f0 2e 98 42 be e3 84 b7 be cf 98 65 be 3e e9 1c be
       -0.19003364 -0.35843572 -0.22421573 -0.1532335

feature.weight_ih_l0_reverse f4 [512, 64]
000000 d1 38 08 3e 0e 8e 61 bf 73 12 82 3f 94 73 19 3f
       0.13302924 -0.88107383 1.016188 0.59941983
000010 44 64 e9 be db 34 0a 3f 8a f6 7b be e8 3e 06 bf
       -0.4558431 0.539869 -0.24605766 -0.5243974
000020 36 a4 93 be 7f 91 4b bf cd 12 5e be 63 8e c4 3e
       -0.2883622 -0.79518884 -0.2168686 0.38389882
000030 2a 8b 2d bf 7e 80 9d 3e 33 3d 0b 3f 37 84 67 3f
       -0.6779047 0.30762094 0.5439026 0.9043612
000040 76 f2 ae 3e da b8 10 3f a2 8b fb 3d 53 a3 21 3d
       0.34169358 0.5653206 0.12282492 0.0394624
000050 ba d9 61 3e 1c e4 e2 3d 84 dc 67 be 12 a0 89 3e
       0.22055712 0.11078665 -0.22642714 0.26879936
000060 a3 67 6a be ec 6a a3 3f 55 b2 79 3e f5 a2 e9 3e
       -0.22891097 1.2767005 0.24384435 0.4563214
000070 03 ed 43 3e be 09 a5 be 38 69 58 bf df cd c5 be
       0.19133382 -0.32233995 -0.8453555 -0.3863363
000080 6f 7f b8 bf d0 1f 26 bf 75 f0 31 bf 9d 4a 50 3e
       -1.441389 -0.6489229 -0.69507533 0.20340963
000090 5a 88 35 bf 24 ad 9b be 30 0a c0 3e 97 94 18 3f
       -0.7091118 -0.30405533 0.37507772 0.5960173
0000a0 49 05 7d 3e 98 e1 7b 3e ca cf d0 3e 10 8f b7 be
       0.24709047 0.24597776 0.4078353 -0.35851336
0000b0 c9 33 e3 3c 76 b9 a8 bd db 4f e4 be 07 fe fd bd
       0.027734654 -0.08238499 -0.44592175 -0.124019675
0000c0 05 05 c8 3e 45 f2 2d bf 1c 84 45 bd c8 31 31 be
       0.3906633 -0.679478 -0.048221692 -0.17304146
0000d0 a7 30 b7 3e 0c 8f c8 be 79 88 1d 3e 99 e8 da bd
       0.35779306 -0.39171636 0.15384091 -0.10688896
0000e0 91 63 55 3f 88 0c 1d bf f5 5a a0 bd 41 30 f6 be
       0.8335505 -0.61347246 -0.07829849 -0.4808369
0000f0 8f a8 28 3c 65 1a b9 bd 53 22 c7 3d 30 dd 5b be
       0.010294094 -0.090382375 0.09723344 -0.21471095
000100 cf bb fa be 0b b2 eb be 29 c3 b5 3e ed b8 c0 be
       -0.48971412 -0.46034274 0.35500458 -0.37641087
000110 0c d5 84 3e 81 0d 37 bf 21 3a 2d bf 5b 67 74 3d
       0.25943792 -0.7150498 -0.6766682 0.05966888
000120 e0 07 f6 be e5 87 4f 3e f8 43 fd be 76 bf 1d 3f
       -0.48052883 0.20266683 -0.4946592 0.6162027
000130 61 bc af 3d a6 71 38 3e 51 ee 29 bf 09 11 02 bf
       0.08580852 0.18012103 -0.66379267 -0.50807244
000140 aa 20 2a be b1 c9 08 bf d5 ee af 38 63 c5 76 bd
       -0.16614023 -0.53432757 8.389136e-05 -0.060246836
000150 82 02 5c 3f b7 5d 4d 3f f7 ac cb 3b fc ed ed be
       0.85941327 0.8022112 0.0062156874 -0.4647063
000160 12 02 b3 3e be 9a fd 3e 4e b1 4b 3f bc 7a c9 be
       0.34962517 0.4953212 0.7956742 -0.3935145
000170 0e 3f b7 3e 1a a9 20 be b0 20 86 bf c7 78 cb 3f
       0.35790294 -0.15689507 -1.0478725 1.5896233
000180 d5 34 b8 be fb c6 97 be a0 b3 20 3e 07 64 f0 3e
       -0.35977808 -0.29643998 0.15693521 0.46951315
000190 4b cb fe 3e c8 17 c0 be dc ca 79 bf fb 94 2c 3f
       0.49764475 -0.37518144 -0.97575164 0.67414826
0001a0 67 e9 82 3e 68 92 cb be 8a 5d 25 3f a3 40 ad 3d
       0.25568697 -0.39760137 0.64595854 0.08459594
0001b0 5a b0 7a be 52 9b 4b be ef 57 56 bf 6a 4d 68 be
       -0.24481335 -0.19883469 -0.83727926 -0.22685781
0001c0 93 d5 e9 3e 13 6e 3e bf dc 14 e8 3e fc 60 c1 bd
       0.45670757 -0.7438671 0.45328414 -0.094423264
0001d0 6f 0a d5 3d e3 80 b7 3e bc 76 06 3f a8 0e 6f be
       0.10402381 0.3584052 0.52524924 -0.23345435
0001e0 7c fd d9 3d cd a4 73 bc e8 62 5f bf 80 0d d6 3e
       0.106440514 -0.014870835 -0.87260294 0.41807175
0001f0 4b 0d 49 bd 22 b9 96 bc b4 dd 80 3f dc 18 23 3d
       -0.049084943 -0.018398825 1.0067658 0.03981863
000200 28 b8 ac 3e e5 5b 24 3f 6f 69 36 3f 53 c7 14 bd
       0.3373425 0.6420272 0.7125463 -0.036322903
000210 45 e4 85 3e 38 3f e2 3e 36 5e 1e be e1 b1 a5 bf
       0.26150718 0.44188857 -0.15465626 -1.2944909
000220 d2 e1 85 bd fb 0c 26 3f 66 90 dd be 78 63 36 3e
       -0.065372124 0.64863557 -0.4327423 0.17811382
000230 5a 92 f1 3d c8 fe 5b bf 54 ec 0d 3f a3 b1 cd bf
       0.117954925 -0.8593564 0.55438733 -1.6069835
000240 4c ba 68 be 35 a9 90 bd 05 43 c3 3e f9 89 77 bf
       -0.22727317 -0.07063524 0.3813707 -0.96694905
000250 a2 70 26 3f 09 b3 14 bf 57 25 13 bf ae 8e 71 bf
       0.65015614 -0.58085686 -0.5747885 -0.94358337
000260 d0 0c fb 3e de e7 4a be 4d 1f 39 3f fd 4b 99 3f
       0.49033213 -0.19815013 0.72313386 1.1976315
000270 88 f5 09 3f 73 4a cc be 78 13 d1 3e 78 dc 6d 3f
       0.53890276 -0.3990055 0.40835166 0.92914534
000280 dc a0 4f bf 42 b3 8f bf 1a 65 30 3e 1d 68 f1 3f
       -0.81104827 -1.122658 0.17226067 1.8859898
000290 6c f8 9b 3e e7 54 6a 3f 31 c5 f2 3d 03 e8 fc 3e
       0.30462968 0.915358 0.118540175 0.4939576
0002a0 29 99 b5 be 30 bf 3f bf fe d9 df be f1 a0 37 bf
       -0.35468414 -0.74901104 -0.43721002 -0.7172995
0002b0 3d 1f 3e 3e 0f fc c9 3f 57 cb f0 3e e0 18 78 bf
       0.18566604 1.5780047 0.47030136 -0.96912956
0002c0 b9 e1 25 3f 9d 77 fb 3d 72 9c c7 3e 2d 24 59 3d
       0.6479755 0.12278674 0.38986546 0.053013016
0002d0 85 31 88 be bd ee c6 bf ea 2b 36 bf cf 40 91 3f
       -0.2660028 -1.5541607 -0.7116076 1.1347903
0002e0 6c 75 83 3f 20 a6 5d bf c8 4a 8d be cf 16 0b 3e
       1.0270209 -0.8658161 -0.27596116 0.1358292
0002f0 36 e7 19 3b c3 59 00 3f e2 8f f8 3f 25 31 c8 3e
       0.002348376 0.50136966 1.941891 0.39099994
000300 97 7f 89 3e 1a 79 be be 8c 9b 4e 3f 76 c8 0d bf
       0.26855156 -0.37201768 0.80706096 -0.55384004
000310 ac ea ef 3e 42 c0 1c bf 7c ae 57 bf e4 52 2f bd
       0.46858728 -0.6123086 -0.8425062 -0.04280366
000320 b6 e5 9e 3e 48 13 91 be 63 27 ce bd 0b 97 57 3e
       0.3103463 -0.28335023 -0.10066106 0.21053712
000330 00 e0 09 bf 5e d9 3a be 3e f7 6d bf 81 53 21 3e
       -0.5385742 -0.18246982 -0.92955387 0.1575451
000340 8e 1a 77 be 1d 07 29 3f f7 3f 3d 3d c8 c2 c5 bd
       -0.24131224 0.6602648 0.04620358 -0.09656292
000350 b6 8c c4 3e 82 59 35 3e f8 7f 72 be cd 58 0a 3f
       0.38388604 0.17709926 -0.23681629 0.5404175
000360 e3 4a 1d bf 48 11 80 bf 4e 04 15 3f 85 56 00 3f
       -0.61442393 -1.0005274 0.58209693 0.5013202
000370 53 63 30 3f a6 bc b6 bd ba 0a 15 3f f2 37 37 be
       0.68901557 -0.089227006 0.5821949 -0.17892435
000380 39 38 c2 be 00 b6 f6 be 36 d8 41 bf 59 25 cf 3d
       -0.3793352 -0.4818573 -0.75720537 0.101145454
000390 78 2a 5a bf 3a 8a 29 bf 11 a8 8d be 49 18 08 be
       -0.8522105 -0.6622654 -0.27667287 -0.13290514
0003a0 47 74 cd 3e b8 cb f4 bd 97 a3 b4 be 80 aa f9 be
       0.40127775 -0.11952919 -0.3528106 -0.48762894
0003b0 b9 3e 84 be 43 ab 62 3e 88 a7 98 be 65 bc f8 bd
       -0.25829104 0.22135644 -0.29815316 -0.121453084
0003c0 22 34 35 bf 9c 1c 8d 3e fc f9 ee 3f 9a 6e 3c bf
       -0.70782673 0.2756089 1.8670039 -0.73606265
0003d0 94 0e a9 3e 9a 83 03 3f a3 88 e1 be a8 f5 bf 3e
       0.33018935 0.51372683 -0.44049558 0.37492108
0003e0 9d 25 89 3d 77 dd 46 bf fd 36 eb be 72 69 16 3e
       0.06696627 -0.7768168 -0.4594039 0.14688662
0003f0 d4 e2 2c be fe 5d b9 be 79 77 9b be 92 4f 70 3e
       -0.16883403 -0.36204523 -0.30364588 0.23467854

feature.weight_hh_l0_reverse f4 [512, 128]
000000 b1 b0 04 3f 48 23 49 be 76 87 d4 3e fc d8 09 3f
       0.5183211 -0.19642365 0.41509598 0.53846717
000010 81 af 0e be f8 c4 c9 be 50 00 70 bd 22 a2 52 3e
       -0.13934137 -0.39408088 -0.058594048 0.20569661
000020 d4 20 d2 be fd 92 aa 3e ac 97 d0 3d 7b b0 50 bd
       -0.4104067 0.33315268 0.10185179 -0.050949555
000030 93 5e 8b bf da 97 b2 be 7d 6d 43 be de 61 27 3e
       -1.0888237 -0.3488148 -0.19084735 0.16345927
000040 05 0c aa 3e 64 03 aa be 82 4c 86 3c ca fe 41 bf
       0.33212295 -0.33205712 0.016393904 -0.757794
000050 fd 1d 31 be 24 36 46 3f e1 78 54 3e 5e 6b 4f 3e
       -0.17296596 0.7742636 0.20749237 0.20255801
000060 8c 0a a0 bd 14 28 89 be d8 e9 54 3f 4a 60 da bd
       -0.07814512 -0.2678839 0.8316932 -0.10662897
000070 1c 95 8c 3e 8b a3 8a bd da ff c4 bc 2c 47 64 bd
       0.2745751 -0.067694746 -0.02404778 -0.055731937
000080 a6 59 72 3f d5 cd d4 3e 91 36 80 be 2e a8 de 3e
       0.9466804 0.41563287 -0.2504163 0.43487686
000090 a6 5f a1 bd 04 0a 3e 3e af 3c 68 3f f2 20 0f be
       -0.078795716 0.18558508 0.90717596 -0.13977411
0000a0 8d e8 08 3f 43 c8 50 3e 29 93 97 be b4 3e 3e bf
       0.53479844 0.20388894 -0.29604462 -0.7431443
0000b0 a8 ca 16 be 41 06 2e 3f cf 6c ef 3e f4 93 65 be
       -0.14725745 0.6797829 0.46762702 -0.22419721
0000c0 e5 94 4d be ac 5d 20 3e e5 fd 8f 3d b0 43 44 bf
       -0.2007633 0.15660733 0.070308484 -0.7666578
0000d0 19 42 c5 bd d5 a5 32 3d ae 96 97 3e e4 90 7b 3e
       -0.09631748 0.04361518 0.29607147 0.2456699
0000e0 8c fc 33 be 59 7f 4c 3e 89 3c d9 3d 42 d2 f7 3d
       -0.17576808 0.19970454 0.10607249 0.1210065
0000f0 e3 10 47 3f 25 69 19 3f e0 6b 83 3d 6a 4a 7e bf
       0.7776014 0.5992606 0.0641706 -0.99332297
000100 9c 8a c5 3e 15 10 e8 be 98 a6 9c 3e 62 aa 9e 3d
       0.38582313 -0.4532477 0.3059585 0.07747342
000110 20 ef 23 be 17 55 a9 3e ee a8 19 3e ca f9 15 bd
       -0.16009188 0.3307273 0.15005848 -0.03661517
000120 b2 6a 72 3f fc 98 90 3e aa 00 0f bf f0 56 0c 3e
       0.94694054 0.28241718 -0.5586039 0.13705039
000130 7c 70 d8 bd ad d1 01 3e 42 08 14 3e c7 79 63 3d
       -0.1056833 0.12677641 0.14456275 0.055536058
000140 88 42 8b bd 5b 1c 10 bd 39 17 e4 3d fc 13 54 3e
       -0.06799799 -0.035183292 0.11137242 0.20710748
000150 33 23 7d be 68 4f 13 bf 92 16 5d bd bc fa 13 3f
       -0.24720459 -0.5754304 -0.053976603 0.57804465
000160 04 a3 7c 3e e8 6e 93 be ea e9 26 bf 87 63 6c 3e
       0.2467156 -0.28795552 -0.65200675 0.23084842
000170 51 f9 71 be e6 82 17 bf 4e e8 fa be 2a 70 89 bc
       -0.23630263 -0.5918411 -0.4900536 -0.016777117
000180 01 bf 49 be 04 fe 3f 3e 08 64 ba 3e 36 06 07 3f
       -0.19701768 0.18749243 0.36404443 0.5274385
000190 24 11 c3 3d a3 7a 1d 3f 46 6a 97 3e e4 c0 be be
       0.09524754 0.61515254 0.29573268 -0.3725654
0001a0 ed 23 63 3e 48 d8 0c 3e 6f 00 d6 3e fe 6d f1 3e
       0.22181673 0.1375438 0.41797206 0.4715423
0001b0 a2 a5 86 be a9 08 6e bd 21 56 b5 be a5 18 14 3f
       -0.26298243 -0.058113728 -0.35417274 0.57850105
0001c0 50 a8 9b 3e c2 75 94 3d 57 e9 38 bc 5f 20 71 3d
       0.3040185 0.07249023 -0.011286101 0.058868762
0001d0 c4 2d a5 bd ec 66 3d 3e f3 07 03 3f 13 19 6d 3d
       -0.0806537 0.18496293 0.51184005 0.05788524
0001e0 29 0d 14 be 79 f0 c8 be d2 14 07 3f ad 80 6e 3e
       -0.14458145 -0.39245966 0.52766144 0.23291273
0001f0 75 7d 49 3f db d1 a6 3f 3b 77 5d 3c e9 c3 53 be
       0.7870706 1.3032793 0.013517196 -0.20680203
000200 77 c2 93 3e c9 40 9d 3e 48 46 1a bf 90 de a1 3e
       0.28859302 0.3071349 -0.6026349 0.31615114
000210 48 e6 7b be 46 14 27 bd 7f 7e e4 bc b1 4c 34 3f
       -0.24599564 -0.04079082 -0.02789235 0.7042952
000220 d8 0f 58 bd 32 f9 8f 3d 6a b7 dc 3e 96 15 30 3f
       -0.052749485 0.07029952 0.43108684 0.6878294
000230 5f f0 d5 be f4 de 9c be 6f d2 6e 3f 33 c4 b9 be
       -0.4178495 -0.3063885 0.93289846 -0.362825
000240 83 c8 10 3f 85 f5 00 bf cb 99 bb be b2 7e 1e 3f
       0.56555957 -0.50374633 -0.36640772 0.6191207
000250 51 95 ab 3d c1 92 31 3e e5 4f 39 be 2c 9e 9c 3e
       0.08378089 0.17341138 -0.18096884 0.30589426
000260 d8 56 cf be f2 f6 81 3e 4f 0c 3f bd 9e e8 50 bf
       -0.40495944 0.25383717 -0.046642598 -0.81604946
000270 bb 9a 38 bf 64 4e 85 be 45 b3 09 bf af 26 6d 3e
       -0.721111 -0.2603637 -0.5378917 0.23159288
000280 6d 8a 84 3f e8 64 d0 3d 7d 12 85 be c9 01 47 bf
       1.0354744 0.10175496 -0.25990668 -0.777371
000290 75 16 b8 3e 55 8f 6e bf 8c d2 78 3d d8 44 cc be
       0.35954633 -0.9318746 0.06074767 -0.39896274
0002a0 40 b1 fd be da a7 06 3f 65 84 fa be c9 47 22 bf
       -0.49549294 0.5259987 -0.48929134 -0.63390785
0002b0 c6 96 ce be eb c2 bb be da d2 76 be dd d6 3f be
       -0.40349406 -0.36672148 -0.24103871 -0.18734308
0002c0 bf 0e b8 be cf b7 9b be 3d f8 22 3f cc 35 71 be
       -0.3594875 -0.30413672 0.6366003 -0.23555678
0002d0 55 2f 12 bf 42 02 45 3f 82 a1 f5 3e 8c 94 51 3e
       -0.5710347 0.7695657 0.47974783 0.20466822
0002e0 db fb d0 3e 4c ca 23 3f 34 4f 3a bf 51 d0 df be
       0.4081715 0.63980556 -0.72777104 -0.4371362
0002f0 b7 e8 48 3b 4e c1 d0 3e 9b 09 49 3f 91 04 b8 bd
       0.0030656287 0.4077248 0.7853028 -0.08985246
000300 d7 8b 6a bd 6d 6d 58 3e be 0f c2 3e af 57 3c be
       -0.057262268 0.21135493 0.37902635 -0.18392824
000310 06 c2 dd bd 66 b4 e3 3d c4 a3 2b 3e 6e 72 ec 3e
       -0.10828023 0.11118393 0.1676169 0.46181053
000320 72 33 e6 bb b7 5a 40 be 54 c9 00 3d e1 c4 40 bd
       -0.0070251757 -0.18784605 0.031442 -0.04706276
000330 6e 2d eb 3e 67 32 2a bf b2 1a 42 3d e5 4b b7 3e
       0.45933098 -0.6648316 0.04738874 0.3580009
000340 63 8e 0f be 61 5f ca be fc fd 48 3f 13 5c 24 3f
       -0.1401916 -0.39525893 0.7851255 0.64202994
000350 19 c1 f2 3d 0d a6 3d bf 53 ed cb 3e 55 c9 ec bf
       0.11853237 -0.740815 0.39829502 -1.8498942
000360 81 5f 80 3e 46 7b a8 3e 77 be 3b bd b8 03 00 3f
       0.25072864 0.3290655 -0.04583594 0.50005674
000370 ba c9 84 3d f9 e4 03 3f 6c e7 48 be 90 be e9 be
       0.06483789 0.5152126 -0.1961953 -0.456532
000380 1d ea ad be f6 0d 20 3e 9f 8d 12 bd c9 7e 84 3e
       -0.33967677 0.15630326 -0.03577959 0.2587798
000390 8f 71 fb be 14 db 16 3f f9 18 ca 3e bb 1e 1a 3f
       -0.49110076 0.58928037 0.39472178 0.6020314
0003a0 d6 a6 88 3e bf 16 fc be 62 89 a5 3d ec 70 a8 bd
       0.26689786 -0.49236104 0.08082844 -0.08224663
0003b0 e1 62 5a 3f c7 3b 2f be 3c 8b e4 3e 2c fe 38 bf
       0.8530713 -0.17112647 0.44637477 -0.72262836
0003c0 44 ba c6 be 4b bd 3f 3e a3 20 f1 3e af 68 48 3e
       -0.38813984 0.18724553 0.47095212 0.19571184
0003d0 de ce 00 be 7d ac 88 be aa 92 51 bf 08 a4 a5 3d
       -0.12578914 -0.26694098 -0.81864417 0.08087927
0003e0 fb 73 5d be d3 f9 ed 3e 32 58 e9 3e 04 26 5c be
       -0.21626274 0.46479663 0.455751 -0.21498877
0003f0 f7 6f e7 bd 4a e3 4d 3d f1 c0 dd 3e 81 57 02 bf
       -0.113006525 0.050265588 0.43311265 -0.5091477

feature.bias_ih_l0_reverse f4 [512]
000000 2c f7 a7 bd d7 ed a8 bd 52 92 79 3e 31 d9 8f be
       -0.08201441 -0.08248489 0.24372223 -0.2809539
000010 4d 60 7a 3d a6 2c 9b be 71 1b 00 bd 5b 48 06 3f
       0.061126996 -0.30307502 -0.03127617 0.52454156
000020 d6 5a 5f 3d 11 af 8a 3d 5d 7d 82 3e 8c 5a 85 3d
       0.054529987 0.067716725 0.2548627 0.06511411
000030 08 c7 48 3e 63 47 8c 3d d6 fb ab bd f0 df 15 3f
       0.19607174 0.068495534 -0.08397643 0.58544827
000040 ac 75 07 3f 04 c8 c5 bd 47 98 0f 3e 13 32 ff 3d
       0.5291393 -0.096572906 0.14022933 0.12460723
000050 cc 5f 37 3e 6a e4 24 3e a8 25 2e be 0c cd a8 3d
       0.17907637 0.16102758 -0.17006552 0.082422346
000060 6a 17 94 be 40 8e 1a 3f 93 0b 23 be 2c e2 18 3e
       -0.28924114 0.60373306 -0.15922384 0.14930028
000070 01 81 47 3e d4 21 84 3e 4d 71 7e be ea 36 ab bd
       0.19482805 0.2580706 -0.24847908 -0.083600834
000080 f5 c4 59 3d 74 de 18 3d 62 ce cc 3c 74 9e f2 3e
       0.05316635 0.037321523 0.025000755 0.47386515
000090 8a ba 4e 3e 3e cc 1c 3f 42 ae 93 be a3 8e 8c be
       0.20188347 0.6124915 -0.28843886 -0.27452573
0000a0 9f 79 b8 be 04 54 91 bc 8d 92 0d 3f 36 30 05 be
       -0.3603029 -0.017740257 0.55301744 -0.13006672
0000b0 57 2c 4c 3e 96 5e 71 bd 2c 88 96 3e 30 9f 49 3e
       0.1993879 -0.058928095 0.29400766 0.19689631
0000c0 3e 4e 2b be 1b da a7 bd 67 f7 90 be 9a 64 f9 3e
       -0.16729066 -0.08195897 -0.28313753 0.48709565
0000d0 fb 5d 17 3f f0 75 57 3e aa 81 10 3d 97 6e 60 3f
       0.5912778 0.21041083 0.035279907 0.87668747
0000e0 3a 14 46 3d 51 53 63 3e ec 74 f4 be 24 4b 24 be
       0.048359133 0.22199751 -0.47745454 -0.16044289
0000f0 76 a6 ec 3e a7 a7 b1 bd 9a 9f 15 be 92 a7 b1 be
       0.4622075 -0.08674555 -0.14611664 -0.34698159
000100 85 bc 37 be 4b ac 1b 3e a3 a8 86 3e 99 3d c1 be
       -0.17943008 0.15202443 0.26300535 -0.37742308
000110 8c bc 47 be 69 01 6b bd b5 8e 3b 3e 1b 81 8c bd
       -0.19505519 -0.05737439 0.18316157 -0.068605624
000120 5c 34 da 3c 88 2d 49 be 87 1a b5 3d 39 33 09 3e
       0.026636295 -0.19646275 0.0884295 0.13398446
000130 b7 bd 6f 3d f9 1e ee 3d 6f 98 c8 be 42 73 be 3e
       0.058530536 0.11627001 -0.39178798 0.3719731
000140 a3 ac 14 3f 48 1c 64 be fa 2a 4f 3f b5 99 5c 3f
       0.5807592 -0.22276413 0.8092495 0.8617204
000150 77 d6 5e 3d 32 e6 2c 3e 69 7f bf 3c 51 ea 4a 3f
       0.05440375 0.16884688 0.023376184 0.7926379
000160 92 a9 91 3e da 32 d0 3d f2 e7 26 3f 23 e3 83 3e
       0.28449684 0.10165949 0.6519767 0.2575923
000170 b1 df 22 be 42 c0 76 3e 57 ed 5c be 30 37 58 3e
       -0.15905644 0.24096778 -0.21574913 0.21114802
000180 bf 85 f3 3d dd ac 28 3f 24 02 e3 3e 72 cf 3e 3f
       0.118907444 0.6588877 0.4433757 0.74535286
000190 42 44 2f 3f fa 34 f8 be 9f fa 54 3d a4 3e 92 3e
       0.6846353 -0.48477918 0.051996823 0.28563416
0001a0 e5 3d 33 3d 1e 72 65 3e 14 42 0f 3e b8 23 ee 3e
       0.0437602 0.22406814 0.1399005 0.46511626
0001b0 61 6f 65 3e c5 c7 45 3f 24 1e a6 3f 64 b1 b6 3e
       0.22405769 0.7725795 1.2977948 0.35682213
0001c0 c9 ab ce 3e f2 a9 20 3d eb 79 84 3e 99 e3 92 bc
       0.40365437 0.039224572 0.25874266 -0.017930793
0001d0 1c 07 1e 3f f0 37 cd 3d a8 08 24 3f 32 6a a1 3e
       0.617296 0.10020435 0.6407571 0.31526333
0001e0 d4 dd e1 bd a4 1a 2d bf b6 77 85 3e c7 b7 42 3f
       -0.110286385 -0.67618775 0.26067895 0.7606167
0001f0 92 cb c8 3e 5e 16 f1 bb 81 0e 5b 3e 55 e1 be be
       0.39217812 -0.0073574027 0.21392252 -0.3728129
000200 73 07 16 3e 53 6a 71 be bf dc 59 be 3c 99 03 3f
       0.14651279 -0.23575716 -0.21275614 0.5140569
000210 85 56 39 be cf 63 42 3f 78 07 96 be 19 40 ff ba
       -0.18099411 0.75933546 -0.29302573 -0.0019474059
000220 7a da c7 3e f5 95 a2 3d 69 b1 a9 3e 3c be 39 be
       0.39033872 0.07938758 0.33143166 -0.18138975
000230 2f 78 a3 be a6 3c 2e 3e fa ae 01 3c 12 6b 91 3d
       -0.3192763 0.17015323 0.007915253 0.071005
000240 0d 31 14 be 2c 75 91 3e b9 27 fa 3e 14 bc 44 3f
       -0.14471836 0.28409708 0.4885843 0.76849484
000250 fc ce ad bd c1 15 80 3e b3 36 89 3d 49 c2 8c be
       -0.08486745 0.25016597 0.06699886 -0.27491978
000260 6c 13 99 3d f7 29 f5 be 2e ba 47 3d 5c 87 99 bc
       0.074744076 -0.4788358 0.04876154 -0.018741302
000270 c7 86 10 bf 11 8c 84 bd 10 7d 41 be 52 87 a7 be
       -0.56455654 -0.06472028 -0.18895364 -0.3272043
000280 dd 06 03 3b d3 f8 08 3e 76 38 31 3d 3f f1 1f be
       0.0019993105 0.13376169 0.043266736 -0.15619372
000290 13 01 cf 3c e4 a3 1e bd fd 70 84 be d6 33 8a be
       0.025269067 -0.038730517 -0.25867453 -0.26992673
0002a0 b6 9b 78 be 6a 60 c3 3e 6f d5 09 3f 63 3c 34 3e
       -0.24278149 0.38159496 0.538413 0.1760116
0002b0 a0 f2 7b be c2 8e 8e 3d a5 85 60 be 4e 60 38 3f
       -0.24604273 0.06960823 -0.21925981 0.7202195
0002c0 ff d5 1d be f4 aa 62 3d 6f 2b 24 3d a4 8c 7b be
       -0.15413664 0.055338815 0.040080484 -0.24565369
0002d0 b6 94 8a be 81 be a9 bc a9 0e e9 be 6a 0d 71 3d
       -0.27066582 -0.020720722 -0.45518997 0.058850683
0002e0 28 81 5e be c7 71 4d bf 3d 2d a2 3e c7 25 ed bd
       -0.21728957 -0.80251735 0.3167514 -0.11579471
0002f0 bb 4c 7a be 14 8b 68 bd ca 7d 0a be 94 33 fa bb
       -0.24443333 -0.05677326 -0.13524547 -0.007635543
000300 c8 95 03 3e 5e 87 ef be 02 bb 76 3d 2d d7 07 3f
       0.12850106 -0.46782964 0.06023694 0.5306271
000310 b3 67 bc 3e f9 a6 42 3f 85 c1 3e 3f d9 78 a4 bd
       0.36797866 0.7603603 0.7451404 -0.08030862
000320 41 0e bc be c7 7a b1 3d 0a 0d 46 be 2d b2 ac 3b
       -0.36729625 0.08665996 -0.19340912 0.0052702636
000330 97 b4 0c 3e f7 d0 ac be 34 bd dc be 7a a4 93 bd
       0.13740765 -0.33753178 -0.431131 -0.07209106
000340 16 bc b3 3e 4d 31 00 be c3 53 66 be ea e7 21 bd
       0.35104436 -0.12518807 -0.2249289 -0.03952781
000350 02 b0 a6 3e dc df 2d be 12 96 58 3e 6f c4 ae 3e
       0.32556158 -0.16979927 0.21150997 0.34134242
000360 93 8c c0 3e 2c 49 99 be 28 a4 03 be 48 d0 19 be
       0.3760725 -0.29938638 -0.1285559 -0.15020859
000370 80 1e a4 3e 09 e8 a5 be 7e 82 06 3f d1 45 20 bd
       0.3205452 -0.3240359 0.52542865 -0.039129082
000380 77 6f f8 bd 70 6f ba be 2f a1 b6 bd 2e 4f bc be
       -0.12130635 -0.36413145 -0.08917462 -0.3677916
000390 3a 16 7e be 7d 57 db 3d 6a 33 81 3e e5 1a 35 be
       -0.24813166 0.107100464 0.25234538 -0.1768604
0003a0 0f 00 86 3e d2 22 12 3f 59 01 a3 3e 3c 56 ce be
       0.2617192 0.5708438 0.31836966 -0.40300167
0003b0 61 11 40 be ac ae 2c 3e ab 25 dc 3e a6 a8 01 3d
       -0.1875663 0.16863507 0.42997488 0.031654976
0003c0 85 17 ce be ca 67 96 be d5 cb 1f be 21 7d 14 3e
       -0.4025232 -0.2937606 -0.156051 0.14500858
0003d0 49 8a 4c 3f 90 80 93 3d 7d ac 21 be 76 3a 60 be
       0.79898506 0.07202256 -0.15788455 -0.21897301
0003e0 e5 1b aa bd 6a f8 eb bc cc 9c 28 be 9b 3b bb be
       -0.08306102 -0.028804976 -0.16466063 -0.36568913
0003f0 ef d4 d1 3e c3 58 fb bd a4 98 7d 3e 46 9c b8 3e
       0.40982768 -0.12272789 0.24765259 0.36056727
