pretrained_models/comick-1-context-size.pth (torch, 821283 bytes, 10 tensors)

feature.weight_ih_l0 f4 [512, 64]
0	0x3d9e4747	0.07728439
1	0x3f30aad3	0.6901066
2	0xbe2dcc82	-0.16972545
3	0xbf20ce2d	-0.628146
4	0xbd1cc5a3	-0.03827442
5	0xbf17a0bd	-0.5922964
6	0x3dfe7127	0.12423926
7	0x3e95f621	0.29289344
8	0xbe95c74a	-0.29253608
9	0xbe15d936	-0.1463364
10	0xbd2839af	-0.041070636
11	0x3e75b9c0	0.23996639
12	0x3e993239	0.2992113
13	0xbf87909b	-1.0591005
14	0x3f6c237b	0.9224164
15	0xbf273488	-0.6531453
16	0xbf61bd8e	-0.8817986
17	0xbe4ff0b5	-0.20306666
18	0xbfb1afed	-1.3881813
19	0x3f38bd5a	0.7216393
20	0x3f417532	0.7556945
21	0xbd9b51da	-0.07583971
22	0xbe6f88b4	-0.23391992
23	0xbe86fa7f	-0.26362988
24	0x3e7b7ece	0.24560091
25	0xbe9be29e	-0.30446333
26	0x3db207aa	0.08692868
27	0x3f8a823a	1.0820992
28	0xbf651c92	-0.8949672
29	0xbf3089f6	-0.6896051
30	0x3f76e639	0.9644504
31	0xbec39626	-0.38200492
32	0x3f229390	0.6350641
33	0x3e750701	0.23928453
34	0xbf02648a	-0.5093466
35	0x3e912beb	0.2835382
36	0xbf6221ca	-0.8833281
37	0xbe71d0f0	-0.2361486
38	0x3efe1ad9	0.49629858
39	0x3dbf5c15	0.09343735
40	0x3ee9e2ad	0.45680752
41	0xbe4e5eeb	-0.20153396
42	0x3f208f09	0.62718254
43	0xbeb5c328	-0.35500455
44	0x3e53cf3a	0.2068452
45	0xbe75b9be	-0.23996636
46	0xbec01f64	-0.3752395
47	0xbe4ee723	-0.20205359
48	0x3e79d83f	0.24398898
49	0x3f31fd1f	0.6952686
50	0xbe95305b	-0.29138455
51	0x3ebb5d33	0.36594543
52	0xbf4fc0de	-0.81153667
53	0x3f60f9ed	0.87881356
54	0x3fbc5b61	1.4715387
55	0x3f185612	0.5950633
56	0xbec62677	-0.3870122
57	0x3f0d1504	0.5511019
58	0x3f4182db	0.75590295
59	0xbe8d7906	-0.27631396
60	0x3f5b0ddb	0.85568017
61	0xbf181b50	-0.59416676
62	0xbed40153	-0.4140726
63	0xbe619a9d	-0.22031637
64	0x3f05c581	0.5225449
65	0x3cecbe3e	0.028899308
66	0xbfb1a8df	-1.387966
67	0xbe3df95d	-0.18552156
68	0xbf05feec	-0.52342105
69	0xbf73c016	-0.95214975
70	0x3e4259ea	0.18979612
71	0xbf1ac87f	-0.6046218
72	0xbf962e23	-1.173283
73	0x3f2d46ba	0.67686045
74	0x3e73ac24	0.23796135
75	0xbe861f31	-0.26195672
76	0x3f0e401a	0.5556656
77	0x3dda166c	0.10648808
78	0xbf43c685	-0.7647479
79	0xbe80cf6b	-0.25158247
80	0xbe994ab2	-0.299398
81	0x3ea7f8a1	0.32806876
82	0x3eab19c4	0.33418095
83	0xbf6489dd	-0.8927286
84	0xbe3f0a55	-0.18656285
85	0x3dd023d6	0.10163085
86	0xbf2d9b59	-0.67815167
87	0x3fb6034d	1.4219757
88	0xbe4a9e71	-0.19787003
89	0xbf02874e	-0.5098771
90	0x3c20611f	0.0097887805
91	0xbdcef31c	-0.10104963
92	0xbd90b0a5	-0.07064942
93	0x3efb8371	0.4912372
94	0x3f14e2f9	0.5815883
95	0x3d4b9be6	0.049709223
96	0x3f5d73f4	0.86505055
97	0xbe9d8e8e	-0.30772823
98	0xbe69d22e	-0.22834083
99	0xbf723437	-0.94610924
100	0x3e72d19e	0.23712775
101	0x3e648e98	0.2232002
102	0x3dddbcac	0.10827002
103	0x3f91e2e1	1.1397363
104	0x3f5ab19f	0.8542728
105	0xbf1ca4c5	-0.6118892
106	0x3ea2cfc8	0.3179915
107	0x3fa4ba68	1.2869387
108	0xbe98c9d1	-0.29841474
109	0xbf12bdd7	-0.5732092
110	0x3f048bcc	0.51775813
111	0xbde04ab0	-0.109517455
112	0x3d01cadf	0.031687614
113	0xbf36aff3	-0.7136223
114	0xbebd4554	-0.36966956
115	0xbecbec3e	-0.39828676
116	0xbed6d451	-0.4195886
117	0x3ee5fb06	0.44918078
118	0xbe92e39d	-0.2868928
119	0xbf504dfb	-0.8136899
120	0xbe94e44d	-0.2908043
121	0x3d96d2ad	0.07364402
122	0x3d8a8df4	0.06765357
123	0x3f7b2990	0.98110294
124	0x3ed78ced	0.42099705
125	0x3e858240	0.26075935
126	0xbe13901a	-0.14410439
127	0x3f1cd07e	0.61255634
128	0xbf8aff89	-1.0859233
129	0x3e8ce9a7	0.27522013
130	0xbefefe11	-0.49803212
131	0xbf0e7f9f	-0.55663484
132	0x3cab652b	0.020922264
133	0xbf31a13a	-0.6938664
134	0x3e35b66a	0.17745367
135	0xbf2dfcad	-0.6796368
136	0xbe140e90	-0.1445868
137	0x3e5702f9	0.20997228
138	0x3eb23a74	0.3481022
139	0xbf3762ea	-0.71635306
140	0xbe0d407e	-0.13794133
141	0xbf25319d	-0.6452883
142	0xbf1e303a	-0.6179234
143	0x3efc6161	0.49293044
144	0x3e5debc2	0.21671966
145	0xbeaaef9a	-0.33385926
146	0xbf86ae37	-1.0521916
147	0xbf6e68cd	-0.93128663
148	0x3f8c55de	1.0963705
149	0xbe956fc8	-0.29186845
150	0x3f0ff17a	0.5622784
151	0x3e0b83e4	0.13624531
152	0xbe92f827	-0.2870495
153	0xbea6332d	-0.3246092
154	0xbfac8613	-1.3478416
155	0xbe18d43a	-0.14924708
156	0x3ee05621	0.4381571
157	0x3f3e93d0	0.74444294
158	0x3f11af20	0.56907845
159	0x3f83d8bf	1.0300521
160	0xbeab8a30	-0.33503866
161	0x3d964d18	0.07338923
162	0x3ee170ca	0.44031364
163	0xbf06bd84	-0.5263293
164	0x3f45b9ed	0.77236825
165	0xbdb589ff	-0.08864211
166	0xbe668835	-0.22512896
167	0x3fb1a659	1.387889
168	0x3de02f2d	0.10946498
169	0x3ec1a415	0.37820497
170	0x3ee9217d	0.45533362
171	0xbe001c3b	-0.12510769
172	0x3f567298	0.83768606
173	0x3dcc0596	0.09962003
174	0xbeeb2c28	-0.45932126
175	0xbd77a93a	-0.06046412
176	0xbe3164e6	-0.17323646
177	0xbeddebbf	-0.43343922
178	0xbddfda20	-0.10930276
179	0xbf00dd49	-0.50337654
180	0x3e52a5df	0.20571087
181	0xbdb2cd20	-0.08730531
182	0xbc8703e4	-0.016481347
183	0x3d82614a	0.06366213
184	0xbeed096d	-0.46296254
185	0x3ae4207c	0.0017404701
186	0x3e29dd6d	0.16588373
187	0x3f52963c	0.8226049
188	0x3f0325b1	0.5122939
189	0x3e87b380	0.26504135
190	0xbde45fa8	-0.111510575
191	0x3ed16b55	0.409022
192	0xbdee2177	-0.11627477
193	0xbef91904	-0.48651898
194	0xbf1459a3	-0.57949275
195	0xbf869f76	-1.0517414
196	0x3d1f570e	0.03890138
197	0x3e827206	0.25477618
198	0x3f1c14bd	0.60969144
199	0xbf2be0af	-0.67139715
200	0xbd2c2999	-0.042031858
201	0x3f61398e	0.87978446
202	0x3e22e0ba	0.15906039
203	0x3e38491a	0.17996636
204	0xbf9dbd43	-1.2323383
205	0x3e8cd529	0.27506378
206	0xbef5d3a4	-0.4801303
207	0xbeafbacd	-0.34322205
208	0x3dc2594a	0.09489687
209	0x3db1213b	0.08648916
210	0x3e2755f1	0.16341378
211	0xbe1d76f8	-0.15377414
212	0x3e730ac0	0.2373457
213	0xbe0c2bcc	-0.13688582
214	0x3da973df	0.08274054
215	0x3f2ffd87	0.6874623
216	0xbe5ae935	-0.21378024
217	0x3eff2243	0.49830827
218	0x3f4763f0	0.7788687
219	0xbe922c35	-0.28549352
220	0x3f2dbd05	0.67866546
221	0x3ea6c64b	0.3257316
222	0xbf3ef29a	-0.7458893
223	0xbeb020b7	-0.3439996
224	0xbf0c6c43	-0.54852694
225	0x3f85abc2	1.0443041
226	0x3f3088be	0.6895865
227	0x3d060938	0.032723635
228	0x3f094e90	0.536355
229	0x3f0063c3	0.50152224
230	0x3f801220	1.0005531
231	0xbf65eda6	-0.8981575
232	0xbe825b41	-0.25460246
233	0xbdfeefa3	-0.12448051
234	0x3f459190	0.77175236
235	0x3f82403b	1.0175852
236	0xbf2c5274	-0.67313313
237	0x3f3dc33d	0.74126035
238	0xbe774880	-0.2414875
239	0x3f07cc7c	0.53046393
240	0x3e8f9f48	0.2805121
241	0xbe2854b5	-0.16438563
242	0xbf3c3dc6	-0.7353176
243	0xbf24e9d3	-0.6441929
244	0x3e0af0dd	0.13568445
245	0xbfa5bfa0	-1.2949104
246	0xbe5a6cbb	-0.2133054
247	0x3f1c4679	0.6104503
248	0xbf083ade	-0.53214824
249	0xbe2d21f2	-0.1690748
250	0xbdb20f94	-0.086943775
251	0xbf22c453	-0.63580817
252	0xbf1699b2	-0.5882827
253	0xbedec8c9	-0.43512562
254	0xbecc2c37	-0.39877483
255	0x3e850bdb	0.25985608

feature.weight_hh_l0 f4 [512, 128]
0	0x3ec6f5d5	0.3885943
1	0xbef7425d	-0.4829282
2	0xbf5dcb07	-0.8663792
3	0x3eda63f6	0.4265439
4	0x3ef83cd7	0.48483917
5	0x3f94cf45	1.1625754
6	0xbe8f793c	-0.28022182
7	0x3e137d27	0.1440321
8	0xbea01bfd	-0.31271353
9	0xbf2308f9	-0.63685566
10	0x3f8f07c8	1.117425
11	0xbf8dc8d3	-1.1076912
12	0xbd0e9624	-0.034811154
13	0xbf37250d	-0.7154091
14	0xbeb8caac	-0.36092126
15	0xbf8b5891	-1.0886403
16	0x3f20311b	0.6257493
17	0x3f41e4d1	0.7573977
18	0x3dc0425a	0.093876556
19	0x3ef42b93	0.47689494
20	0xbf2ca5e2	-0.6744062
21	0x3fae6ae0	1.3626366
22	0x3d8d4c0d	0.06899271
23	0x3f89d16c	1.0767035
24	0x3ed53d0d	0.4164814
25	0x3c935ff2	0.017990086
26	0x3ecb8af7	0.3975446
27	0xbe0ce651	-0.13759734
28	0x3f8691cc	1.0513244
29	0xbe921ff4	-0.28540003
30	0xbf383a43	-0.719639
31	0x3e468561	0.19386818
32	0x3f97dec6	1.186486
33	0x3ca1beac	0.01974424
34	0x3e609cf1	0.21934868
35	0x3f230a6e	0.6368779
36	0x3eca935e	0.39565557
37	0x3f2fc105	0.686539
38	0xbf4d7c9d	-0.8026827
39	0x3e6db2a7	0.23212682
40	0xbec7ddea	-0.39036494
41	0xbf936389	-1.1514751
42	0x3c25d5aa	0.010121742
43	0xbf854174	-1.04106
44	0x3f872253	1.055735
45	0x3de4f79b	0.111800395
46	0x3db236ee	0.08701883
47	0xbe358de3	-0.17729907
48	0x3e792a13	0.24332456
49	0x3d1c49e4	0.038156405
50	0x3e5c749b	0.21528856
51	0x3fb6b7b3	1.427481
52	0x3f30ecec	0.69111514
53	0xbd973f7a	-0.07385154
54	0x3c84d652	0.016215477
55	0xbf03ad1d	-0.51436025
56	0xbeb72d40	-0.3577671
57	0xbe79a84e	-0.2438061
58	0xbdd092ec	-0.10184273
59	0xbe25fd6b	-0.16209953
60	0xbf831b1f	-1.0242652
61	0xbf8a70db	-1.0815691
62	0xbdc48db8	-0.09597343
63	0xbe0bd221	-0.13654377
64	0x3de91cfa	0.1138248
65	0x3ea27bdd	0.31735125
66	0x3df8e2d9	0.12152643
67	0xbe494267	-0.19654237
68	0xbeb6b0dd	-0.3568181
69	0x3f2d8303	0.67778033
70	0x3f0cc925	0.5499442
71	0xbd3c8215	-0.046022493
72	0x3f227cf8	0.6347194
73	0x3e17911b	0.14801447
74	0xbe09ffbf	-0.13476466
75	0x3fb4f346	1.4136741
76	0x3e1c1385	0.15241821
77	0xbe574e17	-0.21025883
78	0xbf00e3ca	-0.5034758
79	0xbe8305f0	-0.25590467
80	0x3f48fc7f	0.7851028
81	0x3f74a373	0.95561904
82	0x3e601729	0.21883835
83	0x3f43a346	0.7642101
84	0xbf36f475	-0.7146676
85	0x3c52391c	0.012830999
86	0xbf9ed978	-1.2410116
87	0xbcfd1218	-0.030892417
88	0xbebd9ff6	-0.37036103
89	0xbf64fb43	-0.89445895
90	0x3e9dc9f7	0.3081815
91	0xbe20d174	-0.157049
92	0xbc782f9a	-0.015148068
93	0x3eff744a	0.4989341
94	0xbc05d75e	-0.008169023
95	0xbf585fcb	-0.8452117
96	0xbeaace85	-0.33360687
97	0xbdee618e	-0.11639701
98	0xbf02c274	-0.5107796
99	0xbe9bd7a1	-0.3043795
100	0x3ebc5fdc	0.36791885
101	0x3e883818	0.26605296
102	0x3f2b580c	0.66931224
103	0x3d4ee78d	0.050513793
104	0xbf6715c6	-0.902676
105	0x3f91cce4	1.1390653
106	0xbe7932a3	-0.24335723
107	0x3db0ba80	0.08629322
108	0x3e8ea5ce	0.27860874
109	0x3e8f9626	0.28044242
110	0x3e992481	0.29910663
111	0xbe7e5cd4	-0.24840099
112	0x3bb9c749	0.0056695086
113	0x3f34697f	0.70473474
114	0xbece97bb	-0.40350136
115	0xbd897fbf	-0.06713819
116	0x3f191268	0.5979371
117	0xbeff039c	-0.4980744
118	0x3dc3c05e	0.095581755
119	0x3ec2efa2	0.3807345
120	0x3f21190c	0.62928843
121	0x3d56e2c9	0.052462373
122	0x3f0d0134	0.5507996
123	0xbe4b50a9	-0.19854988
124	0x3f2ac887	0.6671223
125	0x3ec0e3b1	0.37673715
126	0x3ccf0a72	0.025273535
127	0xbe0808e0	-0.13284636
128	0xbf1b461d	-0.6065386
129	0xbf6617c2	-0.8988
130	0x3f0da10d	0.5532387
131	0xbf5f47ec	-0.8721912
132	0x3c07dbfb	0.0082921935
133	0x3ea560d1	0.32300428
134	0x3e6079bf	0.21921442
135	0x3d2f429c	0.042788133
136	0x3d6fd66c	0.058554098
137	0x3f886668	1.0656252
138	0x3e3c0090	0.1835959
139	0xbf86e825	-1.0539595
140	0x3eef9224	0.46791184
141	0xbed78ca7	-0.42099497
142	0xbee7d66a	-0.45280772
143	0xbea77da8	-0.32713056
144	0x3dc864a9	0.097848244
145	0x3e1a5d5f	0.15074681
146	0xbe2c5b0a	-0.16831604
147	0xbf1d54aa	-0.6145731
148	0xbfbf4990	-1.4944324
149	0x3e8b54e5	0.27213207
150	0x3f0cb7b6	0.5496782
151	0x3e5e82bd	0.2172956
152	0x3e502792	0.20327595
153	0xbf54b982	-0.8309556
154	0x3e0cab3e	0.13737199
155	0xbf0a3a97	-0.5399565
156	0x3e420ef2	0.18951014
157	0xbf96a306	-1.1768501
158	0xbc90c03c	-0.01766979
159	0xbe1824b1	-0.14857747
160	0xbd4e62d6	-0.050387226
161	0x3d0cd5a9	0.03438345
162	0x3f0a34cf	0.5398683
163	0x3f348546	0.7051586
164	0x3f485434	0.78253484
165	0x3f004d31	0.50117785
166	0xbeeae6fd	-0.45879355
167	0xbd786376	-0.06064173
168	0xbecdb0ce	-0.40173954
169	0xbcca2d29	-0.024679737
170	0xbf252630	-0.64511395
171	0xbe9dfa00	-0.30854797
172	0x3d3d1e24	0.046171322
173	0x3ed8bcd3	0.4233156
174	0x3f74b869	0.9559389
175	0xbd973d6f	-0.073847644
176	0xbe6e2378	-0.23255718
177	0x3e1687f6	0.14700302
178	0xbf163d3a	-0.58687174
179	0xbf0e0609	-0.5547796
180	0xbe195366	-0.1497322
181	0x3e0fb6e6	0.14034614
182	0xbf21784f	-0.630742
183	0x3ebae8b7	0.36505672
184	0x3e6b7974	0.2299555
185	0xbea9203f	-0.33032414
186	0x3da2f336	0.07956545
187	0x3e629f0e	0.22130987
188	0xbf8462dd	-1.0342671
189	0xbe6d1800	-0.23153687
190	0xbf12b1de	-0.57302654
191	0x3f2bd211	0.6711741
192	0xbf068fd4	-0.52563214
193	0xbdcd0233	-0.10010185
194	0xbef68782	-0.4815026
195	0x3e37b8fd	0.17941661
196	0x3dc7a6eb	0.09748634
197	0xbf1255d1	-0.57162195
198	0x3f23c3cf	0.63970655
199	0xbf0d0c0b	-0.550965
200	0x3f351d7b	0.7074811
201	0x3e36ed57	0.17863975
202	0x3ef2e629	0.47441223
203	0xbe45fd4c	-0.19334906
204	0x3e74e85d	0.23916765
205	0x3f9d3187	1.228074
206	0xbedeac04	-0.43490613
207	0x3e2746a6	0.16335544
208	0xbdb81276	-0.08987896
209	0x3f503f99	0.8134704
210	0xbe629645	-0.22127636
211	0x3eeb1b44	0.4591924
212	0x3e64c6ea	0.22341505
213	0xbf0cf640	-0.5506325
214	0xbf4c43de	-0.7979106
215	0xbe9f0f05	-0.31066146
216	0xbf45eaaf	-0.77311224
217	0xbea6b98d	-0.3256344
218	0x3e8b3533	0.27189025
219	0xbe8e37b8	-0.27776885
220	0xbc6b39a4	-0.014357004
221	0xbe80d5d1	-0.2516313
222	0x3f14aa19	0.5807205
223	0x3e65d85e	0.22445819
224	0x3a93a598	0.0011264561
225	0x3e1d80f8	0.15381229
226	0x3e5a6988	0.2132932
227	0x3f0d175f	0.55113786
228	0x3e1b9b24	0.151959
229	0xbf45bcf5	-0.7724145
230	0x3ebb244c	0.3655113
231	0xbee3fd99	-0.44529417
232	0x3f279969	0.6546846
233	0xbd32bd8c	-0.043637797
234	0x3ea4cbfa	0.32186872
235	0xbebde537	-0.3708894
236	0xbf22ab4a	-0.63542616
237	0x3e5a0011	0.21289088
238	0x3e747870	0.23874068
239	0xbeb962b4	-0.36208117
240	0xbf8310dc	-1.023952
241	0xbebfd505	-0.37467209
242	0x3ec368a7	0.3816578
243	0xbe391857	-0.18075691
244	0xbf3b6cc4	-0.7321284
245	0xbb60744d	-0.0034249008
246	0x3f085f3a	0.53270304
247	0xbdcaa694	-0.098950535
248	0x3eb876e5	0.3602821
249	0x3f0a13d1	0.5393649
250	0xbe17e306	-0.14832696
251	0x3ef255fe	0.47331232
252	0xbdcecd04	-0.100976974
253	0xbe09a729	-0.13442673
254	0xbf05b870	-0.52234554
255	0xbc86950f	-0.016428499

feature.bias_ih_l0 f4 [512]
0	0xbe84d2d4	-0.259421
1	0x3e459885	0.19296463
2	0x3fa45d1f	1.2840918
3	0xbe1bac51	-0.15202452
4	0x3f4804a0	0.7813206
5	0x3caad9ee	0.02085587
6	0x3ba8d212	0.0051519955
7	0xbdd78b03	-0.10524561
8	0xbdc26aff	-0.09493064
9	0xbee4efd2	-0.44714218
10	0x3ef38ddb	0.47569165
11	0xbd21b631	-0.039480392
12	0x3f29f845	0.66394454
13	0x3e2c9c85	0.16856582
14	0xbbb0120b	-0.0053732446
15	0xbd4c3f38	-0.049864978
16	0x3e470075	0.19433768
17	0xbe5020c0	-0.20324993
18	0x3ce53130	0.027977556
19	0x3e438eae	0.19097397
20	0xbd80ebb4	-0.06294957
21	0x3da95105	0.082674064
22	0xbeaf1fd2	-0.34203964
23	0xbd6ad2d5	-0.05732997
24	0xbef2885d	-0.47369662
25	0x3f3bf2d2	0.7341739
26	0x3e4d33cd	0.20039292
27	0x3eed1a8f	0.46309325
28	0xbe99ab3e	-0.3001346
29	0x3f897d2f	1.0741328
30	0x3d8667fb	0.065628015
31	0x3e24eb39	0.16105355
32	0xbe0149a1	-0.12625743
33	0x3effe090	0.49976015
34	0x3ef082de	0.46974844
35	0x3c4216be	0.0118462425
36	0xbe75581d	-0.23959394
37	0x3e615d54	0.22008258
38	0x3edc245d	0.42996493
39	0xbe0dca5e	-0.13846728
40	0xbe6430ba	-0.22284213
41	0xbe8cc315	-0.27492586
42	0x3f49f958	0.78896093
43	0xbdc4d685	-0.09611229
44	0x3d715ad6	0.05892452
45	0xbdd4b292	-0.10385622
46	0x3f4b2b68	0.7936311
47	0x3f454d3c	0.77070975
48	0xbd6b65fb	-0.057470303
49	0xbd50d76e	-0.0509867
50	0xbe8dc0f2	-0.27686268
51	0x3f86b185	1.0522925
52	0xbe997403	-0.29971322
53	0x3f237c4a	0.63861525
54	0x3c2061c4	0.009788934
55	0x3edb05f9	0.42777994
56	0xbd5a1b6a	-0.0532488
57	0xbde6a269	-0.11261446
58	0x3e0b2553	0.13588457
59	0x3e8686b4	0.26274645
60	0x3ef18fa3	0.471799
61	0x3e973d2d	0.2953886
62	0xbd8f8885	-0.07008461
63	0x3a9f30e3	0.0012145307
64	0x3f09cb0e	0.5382546
65	0xbd1c59d0	-0.03817159
66	0x3f1eb5ac	0.6199596
67	0x3f16964f	0.588231
68	0xbe80222f	-0.2502608
69	0xbbb14cb5	-0.0054107555
70	0x3fb7f9f2	1.4373152
71	0x3e97bb22	0.29634959
72	0x3f166f24	0.5876334
73	0xbed81481	-0.42203143
74	0xbe3139b6	-0.17307171
75	0xbe0bdeed	-0.13659258
76	0xbdb8c713	-0.090223454
77	0x3e8cca0e	0.27497905
78	0x3efb3e31	0.49070886
79	0x3e727f10	0.23681283
80	0x3e6a5839	0.22885217
81	0xbee61ff6	-0.4494626
82	0x3e997792	0.29974037
83	0x3f33699e	0.70083034
84	0xbe645049	-0.22296251
85	0x3e159a4d	0.14609642
86	0x3f0935a9	0.53597504
87	0x3e43b69d	0.1911263
88	0x3ebbdd49	0.36692265
89	0x3f57b1de	0.8425578
90	0x3c3e5b98	0.011618517
91	0xbd88612d	-0.0665916
92	0x3eda9e0e	0.4269871
93	0xbdd83c13	-0.10558333
94	0xbd770c0b	-0.06031422
95	0x3e81df44	0.2536565
96	0x3f8302c7	1.0235223
97	0x3ea74a63	0.3267394
98	0x3f8b6e1f	1.0892981
99	0xbdf7acce	-0.12093507
100	0xbe04a707	-0.12954341
101	0x3eda529c	0.4264115
102	0x3f5c2326	0.8599113
103	0x3f811e04	1.0087285
104	0xbcab8c98	-0.020941064
105	0x3f1e89f7	0.6192927
106	0x3d5352a1	0.051592473
107	0x3e476b4f	0.19474529
108	0xbd8c02f7	-0.06836503
109	0x3e535d0e	0.20640966
110	0x3ea3b76b	0.31975874
111	0x3f0f21f4	0.55911183
112	0xbdbc22bd	-0.09186313
113	0x3e996cfc	0.2996596
114	0xbd9f584d	-0.07780514
115	0x3f50a4f2	0.81501687
116	0x3e290852	0.1650708
117	0x3e1f2b48	0.15543854
118	0x3eafdd8d	0.34348717
119	0xbdb1a974	-0.08674899
120	0xbec160ed	-0.3776926
121	0x3d1b2e7b	0.037886124
122	0x3e19ccbd	0.15019508
123	0x3d7602e1	0.06006134
124	0x3e878896	0.26471394
125	0xbf0d5f3a	-0.5522343
126	0x3e8ce848	0.27520967
127	0xbeb3464c	-0.3501457
128	0xbec58f52	-0.38585907
129	0xbec71fb6	-0.3889138
130	0xbdb18bd3	-0.086692475
131	0xbe8d88f3	-0.27643546
132	0x3e904147	0.28174803
133	0xbe970d0a	-0.29502136
134	0xbebc02b2	-0.36720806
135	0xbeabe54c	-0.33573377
136	0x3e818caa	0.2530263
137	0x3e08c8f9	0.13357915
138	0x3e0617c2	0.13095
139	0xbe7a5553	-0.24446611
140	0xbe9e4cac	-0.3091787
141	0x3e08cb7c	0.13358873
142	0x3c06e07f	0.008232235
143	0xbf47c984	-0.78041863
144	0x3e929f86	0.28637332
145	0xbeab7b53	-0.33492526
146	0xbe8729c1	-0.26399043
147	0x3e1de3be	0.15418908
148	0xbe0f1a3d	-0.13974853
149	0xbede92a8	-0.43471265
150	0xbe58c3da	-0.21168461
151	0xbf165149	-0.5871778
152	0x3c611ff8	0.013740532
153	0x3ec7dfcf	0.3903794
154	0xbe375234	-0.17902452
155	0xbdfef5ca	-0.12449224
156	0x3e00e23d	0.12586303
157	0x3f848071	1.0351697
158	0xbed83953	-0.42231235
159	0x3d1ee442	0.038791902
160	0xbd4b7515	-0.049672205
161	0x3e333847	0.17501937
162	0xbf0b38e0	-0.5438366
163	0xbe3c7b6b	-0.18406455
164	0xbde17b8f	-0.11009895
165	0x3e4f867f	0.2026615
166	0x3e11fe87	0.1425725
167	0xbea04712	-0.31304222
168	0xbebc2e00	-0.36753845
169	0xbe5ebdb8	-0.2175206
170	0xbe56cf08	-0.20977414
171	0xbe5ebe1a	-0.21752205
172	0x3ec9b1c4	0.39393437
173	0xbdf2160c	-0.11820611
174	0xbe7e315e	-0.2482352
175	0xbe590787	-0.21194278
176	0x3e4e1e7a	0.20128813
177	0x3c9f3822	0.019435946
178	0x3dd2217c	0.10260293
179	0xbeb9b1b6	-0.36268395
180	0x3e6622bf	0.22474192
181	0xbe872957	-0.26398727
182	0x3d4fce55	0.050733883
183	0x3f53167b	0.8245618
184	0xbe30af9c	-0.1725449
185	0x3e141d45	0.1446429
186	0xbe85e1a7	-0.26148722
187	0xbe66cb0a	-0.22538391
188	0xbf42f3fd	-0.76153547
189	0xbee8d3d8	-0.45474124
190	0xbe305988	-0.17221653
191	0xbe4169d0	-0.1888802
192	0xbe33921c	-0.17536205
193	0xbc3de25a	-0.011589611
194	0x3d3197fe	0.04335784
195	0xbec91ff4	-0.3928219
196	0x3e853b41	0.2602177
197	0xbe8cd1e7	-0.27503893
198	0x3ee50173	0.44727668
199	0x3f775c55	0.9662526
200	0xbe1b7850	-0.15182614
201	0x3e48c81f	0.1960759
202	0xbb9aa156	-0.00471894
203	0x3e9f16e9	0.31072167
204	0xbe1dc729	-0.15408005
205	0xbecb49b0	-0.39704657
206	0xbe42a220	-0.19007158
207	0xbe95ba6f	-0.292438
208	0xbe65e7d1	-0.22451712
209	0xbe11756b	-0.14204948
210	0x3e312da0	0.17302561
211	0x3da6cb87	0.081442885
212	0x3ed91474	0.42398417
213	0x3f0e3446	0.5554851
214	0x3f0e60ba	0.55616343
215	0x3f12b785	0.5731128
216	0xbf00c3c4	-0.50298715
217	0xbed5770e	-0.41692394
218	0xbe738811	-0.23782374
219	0xbeb9ac80	-0.3626442
220	0xbedb5001	-0.42834476
221	0xbf5a7faa	-0.8535105
222	0x3f29ee22	0.66378987
223	0xbf07819d	-0.5293215
224	0xbf2b170f	-0.6683206
225	0x3eeb5a7b	0.4596747
226	0xbe6b4a0c	-0.22977465
227	0x3eb1539a	0.34634095
228	0xbd93b9fc	-0.07213208
229	0xbe2a4a13	-0.1662982
230	0xbd71f8ef	-0.059075292
231	0xbebaa6d7	-0.36455414
232	0xbeb49ca1	-0.35275748
233	0xbf447e3e	-0.7675513
234	0x3e889689	0.2667735
235	0xbf42030f	-0.7578592
236	0xbf1428ed	-0.5787495
237	0xbeaefba8	-0.34176373
238	0xbea50217	-0.32228157
239	0x3e3fbe79	0.18725003
240	0x3d7b2649	0.06131581
241	0xbef27172	-0.47352177
242	0xbe644ee2	-0.22295716
243	0x3ebfd671	0.37468293
244	0xbe94e620	-0.2908182
245	0xbed8d238	-0.42347884
246	0x3c222e94	0.0098988
247	0xbf3fb867	-0.7489075
248	0xbcdbd102	-0.026833061
249	0xbe4506a2	-0.19240811
250	0xbe60a261	-0.21936943
251	0xbde3f8e5	-0.11131457
252	0xbedd3ed9	-0.4321201
253	0xbe6abf93	-0.22924642
254	0xbe4f74ce	-0.20259401
255	0xbe6c724f	-0.2309048

feature.bias_hh_l0 f4 [512]
0	0xbe76127f	-0.24030493
1	0x3e915201	0.28382877
2	0x3fa1171f	1.2585181
3	0xbe78a8da	-0.24283162
4	0x3f4afa94	0.792886
5	0x3e0b6048	0.13610947
6	0x3d4d1848	0.050071985
7	0xbbc6a382	-0.006061972
8	0xbd9d9252	-0.07693924
9	0xbebade45	-0.36497703
10	0x3e969116	0.29407567
11	0xbe40ca4f	-0.18827175
12	0x3f315e62	0.6928464
13	0x3e01358e	0.12618086
14	0x3da0cf83	0.0785208
15	0xbe09c9e5	-0.13455923
16	0x3db878cf	0.090074174
17	0xbdeaccb8	-0.11464828
18	0x3c5890c9	0.013218113
19	0x3e1bcb00	0.15214157
20	0x3dde18ed	0.10844598
21	0x3e47c9dd	0.19510598
22	0xbe6f3089	-0.23358358
23	0x3de6ac09	0.11263282
24	0xbeac1ad7	-0.33614227
25	0x3f38f92c	0.72255206
26	0x3ea17db2	0.3154121
27	0x3f06186c	0.52381015
28	0xbee45b0b	-0.4460071
29	0x3f844cbb	1.0335916
30	0x3d9515e5	0.07279567
31	0x3e418b45	0.18900783
32	0xbe9c450e	-0.30521435
33	0x3f0fabcb	0.5612151
34	0x3f2224ac	0.63337207
35	0x3b42b619	0.002971059
36	0xbe1976db	-0.14986746
37	0x3eaefff4	0.34179652
38	0x3f067d7a	0.5253521
39	0xbe9b8c24	-0.30380356
40	0xbe998f5b	-0.29992184
41	0xbea2ab08	-0.3177111
42	0x3f443337	0.7664065
43	0xbe4b4a18	-0.19852483
44	0xbdd488b5	-0.10377637
45	0x3c3e25e1	0.011605711
46	0x3f34451e	0.70417964
47	0x3f6b249a	0.91852725
48	0xbe6388c9	-0.22220148
49	0xbd84cb1e	-0.06484054
50	0xbea9fe25	-0.3320171
51	0x3f693042	0.9108926
52	0xbe91cd7a	-0.2847708
53	0x3f023d17	0.50874466
54	0xbe1418cc	-0.14462584
55	0x3f14eaf3	0.58171004
56	0x3d9c1c99	0.07622642
57	0xbda3fda5	-0.08007363
58	0x3d98f936	0.07469408
59	0x3ed4c38a	0.41555434
60	0x3edb2131	0.4279876
61	0x3e890468	0.26761174
62	0xbe4dd9ec	-0.20102662
63	0xbc7b1460	-0.015324682
64	0x3f28e0d6	0.6596807
65	0xbdeea444	-0.11652425
66	0x3f216609	0.6304632
67	0x3f156032	0.5834991
68	0xbe48190a	-0.19540802
69	0x3ab56eec	0.0013842261
70	0x3fb79a16	1.4343898
71	0x3ed75e47	0.42064115
72	0x3f0ff63f	0.56235117
73	0xbedb3c08	-0.42819238
74	0xbeb68404	-0.35647595
75	0xbe24d418	-0.16096532
76	0xba777c64	-0.0009440838
77	0x3ea90abc	0.33016002
78	0x3f012ac1	0.5045586
79	0x3e843c08	0.2582705
80	0x3e40b398	0.1881851
81	0xbe8df107	-0.27722952
82	0x3ef1d4c7	0.4723265
83	0x3f57a254	0.8423207
84	0xbea80c83	-0.32822046
85	0x3af409c4	0.0018618633
86	0x3f170a6f	0.59000295
87	0x3c0bb173	0.008526194
88	0x3ec59b20	0.38594913
89	0x3f1f0a47	0.62125057
90	0x3c6ba752	0.014383154
91	0xbe120aab	-0.14261882
92	0x3ebf9063	0.37414846
93	0xbe00486d	-0.12527628
94	0xbe05039f	-0.12989663
95	0x3e799caf	0.24376176
96	0x3f56e681	0.8394547
97	0x3eb7a6f5	0.35869566
98	0x3f973bdd	1.1815144
99	0xbdd86b47	-0.105673365
100	0xbdfeec43	-0.12447407
101	0x3edb60ca	0.42847282
102	0x3f540bde	0.8283061
103	0x3f528305	0.8223117
104	0x3e0cfa12	0.13767269
105	0x3f2fb12f	0.68629736
106	0x3e3ac024	0.18237358
107	0x3e70f41b	0.23530619
108	0xbda9b72b	-0.0828689
109	0x3ebd99c0	0.37031364
110	0x3ed56ffb	0.41686997
111	0x3f17f1dd	0.5935343
112	0xbdf5b2e6	-0.11997013
113	0x3ea4a537	0.321573
114	0xbe3085dc	-0.17238563
115	0x3f3cecbd	0.73798734
116	0x3e5ea4f0	0.21742606
117	0x3e4c514a	0.19952884
118	0x3e8d3c8a	0.2758525
119	0xbe1b5666	-0.15169677
120	0xbebefdad	-0.37302914
121	0xbc4b3417	-0.012402556
122	0x3e385764	0.18002087
123	0x3da5f1c2	0.08102752
124	0x3e525d0f	0.20543312
125	0xbf04bebb	-0.5185353
126	0x3eff36df	0.4984655
127	0xbf0419a2	-0.5160161
128	0xbeaf9c45	-0.34298912
129	0xbe81ff4a	-0.25390083
130	0xbdd5cacf	-0.10439073
131	0xbeb3d50c	-0.3512348
132	0x3e3929c0	0.18082333
133	0xbe2b2ebb	-0.16717045
134	0xbe403bf6	-0.18772873
135	0xbe92dbf5	-0.2868344
136	0x3e83254e	0.256144
137	0x3d530777	0.05152079
138	0x3dadfbfe	0.08495329
139	0xbe828c3e	-0.2549762
140	0xbe5e2f58	-0.21697748
141	0x3c0df8d1	0.0086652795
142	0x3cedd3c2	0.029031638
143	0xbf203db4	-0.6259415
144	0x3e95e67f	0.29277417
145	0xbf0207be	-0.50793064
146	0xbeb7b7c0	-0.35882378
147	0x3d45b6c7	0.048270013
148	0xbd7cd62b	-0.061727684
149	0xbe8b32c2	-0.27187163
150	0xbe49fad6	-0.19724593
151	0xbecef2c2	-0.40419585
152	0xbd8ab1a0	-0.067721605
153	0x3ea63baf	0.3246741
154	0xbe58934d	-0.21149941
155	0xb972d7d0	-0.00023159315
156	0x3e4105c4	0.18849856
157	0x3f67fe9a	0.90622866
158	0xbf10adbc	-0.565151
159	0x3d0eda84	0.03487636
160	0xbde51e41	-0.11187411
161	0x3e403896	0.18771586
162	0xbefc7056	-0.49304456
163	0xbe8d8975	-0.27643934
164	0xbe635515	-0.22200425
165	0x3d757c22	0.059932835
166	0x3e94b014	0.29040587
167	0xbe673c07	-0.22581492
168	0xbee4b394	-0.44668257
169	0xbe6d7512	-0.2318919
170	0xbeb43e23	-0.35203657
171	0xbe3f707d	-0.18695255
172	0x3ec64e0a	0.38731414
173	0x3dd72a66	0.10506134
174	0xbd39040a	-0.045169868
175	0x3d8b6cc8	0.06807858
176	0x3d63f47b	0.055653077
177	0xbd9045c8	-0.0704456
178	0x3da9989c	0.08281061
179	0xbe91bda0	-0.28464985
180	0x3e7c1a79	0.24619474
181	0xbe883f35	-0.26610723
182	0x3c943d11	0.018095525
183	0x3f6ff9dc	0.9374063
184	0xbdf86e37	-0.12130397
185	0x3cd408a0	0.025883019
186	0xbe90a50d	-0.28250924
187	0xbdd2ab7a	-0.10286613
188	0xbf1813d2	-0.59405243
189	0xbebf1714	-0.37322295
190	0xbe8785c1	-0.26469234
191	0xbe3be261	-0.18348075
192	0xbe68be8c	-0.22728938
193	0xbd1ed9e3	-0.03878201
194	0x3c731b4d	0.014838052
195	0xbee90dcd	-0.45518342
196	0x3e9508cc	0.29108274
197	0xbe8268b7	-0.25470516
198	0x3ed82923	0.42218885
199	0x3f7657f2	0.96227944
200	0xbbc38acc	-0.0059674736
201	0x3e3e5034	0.18585283
202	0xbe42f55e	-0.19038913
203	0x3e09d68d	0.13460751
204	0xbc391ad8	-0.011297904
205	0xbef4296f	-0.4768786
206	0xbe87d40d	-0.2652897
207	0xbe91dc7a	-0.28488523
208	0xbeb190f9	-0.34680918
209	0x3deae353	0.1146914
210	0x3e5cca63	0.2156158
211	0x3e441422	0.19148305
212	0x3ec2c27d	0.38039008
213	0x3f0e06f0	0.55479336
214	0x3f35f87d	0.7108229
215	0x3f0c8152	0.5488483
216	0xbef16f7a	-0.47155362
217	0xbec1f767	-0.37884066
218	0xbe6c49a5	-0.23074968
219	0xbeb7e57b	-0.35917267
220	0xbebaee14	-0.36509764
221	0xbf48895b	-0.7833459
222	0x3f2483ef	0.64263815
223	0xbecabe8a	-0.39598495
224	0xbf4ce976	-0.80043733
225	0x3ecf56ba	0.40495855
226	0xbe465d0e	-0.19371435
227	0x3e491b41	0.19639303
228	0xbde8daec	-0.11369881
229	0xbcdccfc5	-0.026954541
230	0xbd97ffa2	-0.07421805
231	0xbe85be35	-0.2612168
232	0xbe6f63fc	-0.23377985
233	0xbf3e3abc	-0.7430837
234	0x3dbf2b58	0.09334439
235	0xbf314995	-0.692529
236	0xbf12758c	-0.5721061
237	0xbee3bb42	-0.44478804
238	0xbeedac70	-0.46420622
239	0x3e54037f	0.20704459
240	0xbe31566c	-0.17318124
241	0xbf2659a1	-0.6498051
242	0xbc636c54	-0.013880808
243	0x3ebb9462	0.36636645
244	0xbe66ec2c	-0.2255103
245	0xbeed594f	-0.463572
246	0x3d2df4c5	0.04246976
247	0xbf33f705	-0.70298797
248	0xbd4c4a8f	-0.049875792
249	0xbd847598	-0.06467742
250	0xbe4af8cc	-0.19821471
251	0xbdd548c3	-0.10414269
252	0xbee15c49	-0.4401572
253	0xbe86a96b	-0.2630113
254	0xbd82517a	-0.06363197
255	0xbea12b7c	-0.31478488

feature.weight_ih_l0_reverse f4 [512, 64]
0	0xbf0f2297	-0.55912155
1	0x3e7d5652	0.2473996
2	0x3f62cff7	0.8859858
3	0x3eaa9892	0.33319527
4	0x3f8cd6ea	1.1003087
5	0xbd28bc45	-0.041195173
6	0x3e8744da	0.26419717
7	0xbf1c137f	-0.6096725
8	0xbe3ec84b	-0.18631093
9	0xbf2d334a	-0.67656386
10	0x3f2f88fa	0.68568385
11	0x3f9cebda	1.2259476
12	0x3f634c66	0.8878845
13	0x3f2018b1	0.62537676
14	0xbe86a5a9	-0.26298264
15	0xbf0f3a23	-0.55948085
16	0xbe9d3f31	-0.30712274
17	0xbf5dbe0a	-0.866181
18	0x3f479136	0.7795595
19	0xbf90264b	-1.1261686
20	0xbe711244	-0.23542124
21	0xbf000c8d	-0.5001915
22	0x3f40f67e	0.7537612
23	0xbf004bd8	-0.5011573
24	0x3e150707	0.14553462
25	0x3eab62bc	0.33473766
26	0xbf7519de	-0.95742595
27	0xbea5cf7e	-0.32384866
28	0x3eb5a507	0.35477468
29	0x3f4e2a97	0.80533737
30	0xbf83a1f4	-1.0283799
31	0xbf2c9d9e	-0.67428005
32	0xbdfab576	-0.12241642
33	0xbfa30f31	-1.2739011
34	0x3e3d074e	0.18459818
35	0xbe1c0119	-0.15234794
36	0xbeaa05a9	-0.33207443
37	0xbf4389a3	-0.7638189
38	0xbeadb810	-0.3392949
39	0xbc47ef9f	-0.012203126
40	0x3dec740c	0.11545572
41	0xbeea54bf	-0.4576778
42	0xbe67675d	-0.22598024
43	0xbe5a045d	-0.21290727
44	0xbeceaf74	-0.40368235
45	0xbf0c0ab7	-0.5470385
46	0xbcc5beef	-0.024138896
47	0xbee2a7c0	-0.44268608
48	0x3e3992eb	0.18122451
49	0xbf611ec1	-0.8793755
50	0xbe089e22	-0.13341573
51	0xbf2d6df0	-0.67745876
52	0x3ef6a3e4	0.48171914
53	0x3f991612	1.195986
54	0xbf10fb22	-0.566332
55	0xbc5771af	-0.013149663
56	0x3eca740d	0.39541665
57	0x3f4ed14a	0.807881
58	0x3dc18eb1	0.09451044
59	0x3e38b2b4	0.1803692
60	0x3f3ad5bf	0.729824
61	0x3f305795	0.6888364
62	0xbb8a8b29	-0.004228015
63	0x3e88b91d	0.2670373
64	0xbf620561	-0.8828946
65	0xbf399851	-0.7249804
66	0xbe5f2e19	-0.21794929
67	0x3e4ff961	0.20309974
68	0xbf71ef65	-0.9450591
69	0xbf33689c	-0.70081496
70	0x3eb14e61	0.3463011
71	0xbeb72dd0	-0.3577714
72	0x3e363b1d	0.17795987
73	0x3e071244	0.13190562
74	0x3e8fdcec	0.28098238
75	0xbc94be63	-0.01815719
76	0x3ef38329	0.47561005
77	0x3f3190a2	0.6936132
78	0xbf0a9008	-0.54126024
79	0x3e071c5d	0.13194413
80	0x3eeaab4d	0.45833817
81	0xbd94fb2d	-0.072744705
82	0x3dd803f9	0.10547633
83	0x3e89a257	0.26881668
84	0xbd96f9b0	-0.07371843
85	0x3f1b5515	0.606767
86	0xbd0a0d02	-0.03370381
87	0xbd8a380c	-0.06748971
88	0x3e524fc8	0.20538247
89	0x3ec4e767	0.38457796
90	0x3ef9ee57	0.4881465
91	0xbf1a673e	-0.60313785
92	0x3ee4d093	0.4469038
93	0x3f0c32cb	0.54765004
94	0xbf34f3d0	-0.7068453
95	0x3e048b5a	0.12943783
96	0xbd57cea5	-0.052687306
97	0x3e4b4d49	0.198537
98	0xbf14ec62	-0.5817319
99	0xbf82ee3a	-1.0228951
100	0x3f49a280	0.7876358
101	0xbf1845af	-0.5948133
102	0xbedc8e2c	-0.4307722
103	0xbd8c3de1	-0.0684774
104	0x3ea89702	0.3292771
105	0x3eaa7371	0.332912
106	0xbebd0b35	-0.36922613
107	0x3eee4231	0.46534875
108	0x3e18dfcc	0.14929122
109	0x3ea78d7b	0.3272513
110	0xbf01397b	-0.50478333
111	0xbf8536e7	-1.040738
112	0x3f1329ca	0.5748564
113	0xbf38c90b	-0.7218177
114	0x3f480655	0.7813466
115	0x3cf3c7be	0.02975833
116	0x3db1efb6	0.08688299
117	0x3f1be587	0.60897106
118	0xbebc4cc4	-0.36777318
119	0xbefa2db7	-0.48863003
120	0xbe828f2a	-0.2549985
121	0xbf3f17e4	-0.7464583
122	0xbe490bd1	-0.19633414
123	0x3f44a272	0.7681037
124	0x3f71b8de	0.9442271
125	0xbea1028a	-0.3144725
126	0x3f63cee9	0.88987595
127	0xbf4085eb	-0.7520434
128	0xbf64ee11	-0.8942576
129	0xbec3d0f3	-0.38245353
130	0xbdca6ebc	-0.09884402
131	0x3dc9e756	0.09858577
132	0x3d6f0620	0.05835545
133	0x3e824b88	0.2544825
134	0x3f932e0e	1.149843
135	0x3e2ec8d6	0.170688
136	0xbe379450	-0.1792767
137	0x3f926515	1.1437098
138	0x3e18c551	0.1491902
139	0xbe4b03a4	-0.19825608
140	0xbeb2212e	-0.3479094
141	0x3f8a9282	1.0825961
142	0xbeab611c	-0.33472526
143	0x3eb37838	0.35052657
144	0x3f705176	0.938743
145	0xbe27c6b8	-0.16384399
146	0xbf078cfd	-0.52949506
147	0x3f903dd7	1.1268872
148	0x3f0e4ca7	0.5558571
149	0xbf6a3d14	-0.9149945
150	0x3f744c17	0.95428604
151	0xbf1311f4	-0.5744927
152	0x3e55bc40	0.20872593
153	0xbe9b9972	-0.30390507
154	0x3f46f58f	0.7771844
155	0xbed61ccf	-0.41818854
156	0x3f4afec7	0.7929501
157	0x3f28d859	0.6595512
158	0xbf200d79	-0.6252056
159	0xbe2fc4a7	-0.1716486
160	0xbe772e60	-0.24138784
161	0x3ce9ee67	0.028556062
162	0x3eed013a	0.46289998
163	0xbf9b7717	-1.2145718
164	0x3ef16b7e	0.47152323
165	0xbef93200	-0.4867096
166	0xbe95caaf	-0.29256198
167	0x3eba22a6	0.3635456
168	0xbf7cdc72	-0.9877387
169	0x3f0edc91	0.5580531
170	0xbf4f2d5e	-0.809286
171	0xbe25b823	-0.16183524
172	0x3fb760a9	1.4326373
173	0x3e8bd3a3	0.27309904
174	0xbf0426a7	-0.5162148
175	0x3ffa46de	1.9552877
176	0x3e05de2f	0.13073038
177	0xbd337505	-0.04381277
178	0xbf636e88	-0.8884053
179	0xbe3061f2	-0.17224863
180	0xbf280a6c	-0.656409
181	0xbe99b388	-0.30019784
182	0x3ee04d0c	0.43808782
183	0xbe14d91b	-0.14535944
184	0xbf053a6d	-0.52042276
185	0x3eac772f	0.3368468
186	0x3dd0970c	0.1018506
187	0x3d6a14df	0.05714881
188	0xbeef65b9	-0.46757296
189	0x3f320260	0.69534874
190	0xbdacdefa	-0.08440967
191	0xbe348310	-0.17628121
192	0x3f7f62d8	0.997602
193	0x3d89843b	0.06714674
194	0xbdf9cb58	-0.12196988
195	0xbe84c7a7	-0.25933573
196	0x3e859f60	0.26098156
197	0x3f0406ea	0.5157305
198	0xbe949ea7	-0.29027292
199	0xbf805221	-1.0025064
200	0xbeb74b94	-0.3579985
201	0xbf03c3d4	-0.51470685
202	0xbf379a97	-0.7172026
203	0x3f295e3f	0.66159433
204	0xbdaa69ab	-0.08320936
205	0xbdcb5003	-0.099273704
206	0x3d9f084a	0.07765253
207	0xbf14ee69	-0.58176285
208	0xbebadd22	-0.36496836
209	0xbf0ca3b0	-0.5493727
210	0x3bdf3ea4	0.0068128873
211	0x3eb79412	0.35855156
212	0xbec6469e	-0.38725752
213	0xbead04a2	-0.33792597
214	0xbe92bc0c	-0.28659093
215	0x3f67f9eb	0.9061572
216	0xbf20abb3	-0.6276199
217	0x3f75df81	0.96044165
218	0x3f4f3a20	0.80948067
219	0x3e8175d9	0.25285223
220	0x3e9723dd	0.2951955
221	0x3df13166	0.11777
222	0xbe9fc39a	-0.3120392
223	0xbf54b672	-0.8309089
224	0xbe69a49e	-0.22816703
225	0x3f645664	0.8919432
226	0xbe9ffe54	-0.31248724
227	0xbe20c9a5	-0.15701921
228	0x3dd152ee	0.10220896
229	0xbe95aca4	-0.29233277
230	0xbf16c5fe	-0.5889586
231	0xbe811993	-0.25214824
232	0xbdaa549b	-0.083169185
233	0xbe8321ca	-0.25611717
234	0x3e922e47	0.28550932
235	0x3f0358e2	0.513075
236	0xbdc57ab2	-0.09642543
237	0xbfc6834e	-1.5508821
238	0x3f2b800b	0.66992253
239	0x3f23d3f2	0.6399528
240	0xbea36539	-0.31913164
241	0x3f02ebce	0.5114106
242	0xbe945a36	-0.28975075
243	0x3e96c916	0.2945029
244	0x3dfb891f	0.12282013
245	0xbe96b350	-0.2943368
246	0xbf04d807	-0.5189213
247	0xbdf1801d	-0.11792014
248	0x3e465025	0.1936651
249	0x3f0eb230	0.5574064
250	0xbf071913	-0.52772635
251	0x3e3f4632	0.18679121
252	0x3eb0f1c5	0.34559456
253	0x3f045224	0.51687837
254	0xbf45d769	-0.77281815
255	0xbba83cdb	-0.0051342077

feature.weight_hh_l0_reverse f4 [512, 128]
0	0x3e7b3789	0.24532904
1	0xbf37f9f6	-0.71865785
2	0xbeb6b465	-0.35684505
3	0x3eb34f55	0.35021463
4	0xbc94e277	-0.018174393
5	0x3e234bf5	0.15946944
6	0xbcaf2416	-0.021379512
7	0xbe26fc61	-0.16307212
8	0xbeec7afa	-0.46187574
9	0x3f042a87	0.5162739
10	0x3e5fc13f	0.21851061
11	0x3e53594f	0.20639537
12	0x3e64c103	0.22339253
13	0x3f0a92d8	0.54130316
14	0x3c07d21c	0.00828984
15	0x3e829e4d	0.255114
16	0xbdfb1f7c	-0.122618645
17	0xbcd88d7c	-0.026434653
18	0xbe48d30e	-0.19611761
19	0x3ef9aaf0	0.48763227
20	0xbdbb999a	-0.091601565
21	0xbf60b143	-0.8777048
22	0xbda2085a	-0.07911749
23	0xbeb21bb5	-0.34786764
24	0xbe3f3849	-0.18673815
25	0x3fa0aabb	1.2552103
26	0xbe80fde5	-0.25193706
27	0xbdccfb67	-0.10008889
28	0xbf461049	-0.773686
29	0x3efdb9b4	0.49555743
30	0x3f27317c	0.6530988
31	0xbf20da62	-0.62833226
32	0x3f0f4ada	0.5597359
33	0xbebdfa25	-0.37104908
34	0x3e399b25	0.18125589
35	0x3e5db996	0.21652827
36	0xbed1a21d	-0.40943995
37	0xbe6ed526	-0.23323497
38	0xbf5da978	-0.86586714
39	0xbe163490	-0.14668489
40	0xbea1d55f	-0.31608102
41	0xbedac1da	-0.42726022
42	0xbee77177	-0.45203754
43	0x3ddf18b5	0.10893384
44	0xbe073170	-0.13202453
45	0x3cd34863	0.025791353
46	0x3ebd015c	0.369151
47	0x3dc52a46	0.09627204
48	0xbd44e5df	-0.048070785
49	0x3e8f88ee	0.28034157
50	0x3ee371ff	0.4442291
51	0x3ecd3f8a	0.4008754
52	0xbea9b5b1	-0.33146432
53	0xbeccc6bd	-0.39995375
54	0x3f04f8f6	0.51942384
55	0x3e85ef75	0.26159254
56	0x3f990c09	1.1956798
57	0x3f27b4b1	0.6551009
58	0x3dcef5a2	0.101054445
59	0xbed993b2	-0.42495495
60	0x3f3f7b76	0.7479776
61	0x3ec335ec	0.38127077
62	0x3dc05eb3	0.093930624
63	0xbe3a914a	-0.18219486
64	0x3f0db545	0.5535472
65	0x3d8b73ab	0.06809171
66	0xbe9bb4f6	-0.304115
67	0xbf08b552	-0.5340167
68	0x3df86a5a	0.1212966
69	0x3ed17b2c	0.40914285
70	0x3e1d5491	0.15364291
71	0xbe8408b1	-0.2578788
72	0x3ed3dda7	0.41380045
73	0x3d72b013	0.05924995
74	0xbee63873	-0.44964942
75	0xbecd79b4	-0.40131915
76	0xbf136e6a	-0.57590353
77	0xbeaf0270	-0.34181547
78	0xbe0b8bed	-0.13627596
79	0xbe64e203	-0.22351842
80	0x3efd9746	0.49529475
81	0x3f4c5596	0.79818094
82	0x3d4f4ba2	0.05060924
83	0xbece0998	-0.40241694
84	0x3e5f0596	0.21779475
85	0xbf404f73	-0.7512123
86	0x3e935169	0.2877305
87	0x3e9a129b	0.3009232
88	0xbeb5839b	-0.3545197
89	0x3f53c0d7	0.82716125
90	0x3d77b841	0.060478453
91	0x3e5dffba	0.21679583
92	0x3f2cb965	0.6747039
93	0xbe2e2f0b	-0.17010133
94	0xbf0fe3ef	-0.56207174
95	0x3e2a748a	0.16646019
96	0xbe7d5917	-0.24741016
97	0xbe885a8e	-0.26631588
98	0x3edc3337	0.43007824
99	0xbcbc60a3	-0.022995299
100	0xbd048e3d	-0.03236221
101	0x3e80c651	0.25151303
102	0xbe38ceb5	-0.18047602
103	0xbee1cba5	-0.4410068
104	0x3e81b5a1	0.25333884
105	0x3f0fcbc9	0.56170326
106	0x3c821caa	0.015882809
107	0xbd970567	-0.07374077
108	0xbe3b5f65	-0.18298109
109	0x3e72a1d9	0.23694552
110	0xbd57984e	-0.052635483
111	0x3e8dc9fd	0.27693167
112	0xbe223362	-0.15839913
113	0xbe5a0c55	-0.21293767
114	0xbe8f1975	-0.2794911
115	0xbeff4507	-0.4985735
116	0xbe7cabd6	-0.24674925
117	0xbe5b9aea	-0.21445814
118	0xbc7598cf	-0.014990046
119	0x3daeb0eb	0.08529838
120	0xbea7f4ff	-0.32804105
121	0xbdd476a7	-0.10374194
122	0x3f58f29a	0.8474518
123	0xbe90c912	-0.28278404
124	0x3f60e3c4	0.8784754
125	0xbf474912	-0.7784587
126	0x3f0253f1	0.50909334
127	0x3eb4bcd3	0.3530031
128	0x3f6f3156	0.93434656
129	0xbee4ea55	-0.4471003
130	0xbf90e09c	-1.1318545
131	0xbe0f4cdf	-0.13994168
132	0xbec1bafd	-0.37837973
133	0xbedfabb7	-0.43685696
134	0xbf60d3ab	-0.8782298
135	0xbfc7109b	-1.5551943
136	0xbf8781fd	-1.0586544
137	0xbef1f035	-0.47253576
138	0xbf8402c2	-1.0313342
139	0x3e7631a4	0.24042374
140	0x3dd32ac2	0.1031089
141	0xbea08295	-0.31349626
142	0x3f70e521	0.9409962
143	0xbf3639ae	-0.7118176
144	0xbe7757d9	-0.24154605
145	0x3f5f9491	0.8733607
146	0x3dc9e698	0.098584354
147	0x3e9295ac	0.28629816
148	0x3f5b875d	0.8575342
149	0xbe84b377	-0.2591817
150	0xbd84121e	-0.06448768
151	0xbf284067	-0.6572327
152	0x3da4e17e	0.08050822
153	0xbf4acf80	-0.7922287
154	0x3eb416b5	0.35173574
155	0x3e24a22f	0.16077493
156	0xbec1077a	-0.37701017
157	0xbe7665c5	-0.2406226
158	0x3f016c81	0.5055619
159	0x3dba4080	0.09094334
160	0x3f3363ec	0.70074344
161	0x3ec3e744	0.3826238
162	0x3ea85ffe	0.32885736
163	0x3ea380df	0.31934258
164	0x3ef2e8e6	0.47443312
165	0x3f01cbdc	0.5070169
166	0xbe2852b7	-0.16437803
167	0xbfb783e8	-1.433713
168	0x3f00c80f	0.50305265
169	0xbddaf701	-0.106916435
170	0xbda72bc2	-0.08162643
171	0x3f591b0b	0.8480689
172	0xbec48715	-0.3838431
173	0xbf911f6e	-1.1337717
174	0xbf00e2f9	-0.5034633
175	0x3cfe0b13	0.03101114
176	0x3e479415	0.19490083
177	0xbf17ddf3	-0.5932304
178	0x3fba0f57	1.4535931
179	0x3ec91120	0.39270878
180	0x3f04ac1a	0.51825106
181	0xbe022991	-0.12711169
182	0x3ebf0fb5	0.3731667
183	0xbdd273a3	-0.10275962
184	0xbed01426	-0.40640372
185	0xbe399d5f	-0.18126439
186	0x3cb507c0	0.022098422
187	0xbec47662	-0.3837157
188	0xbf945512	-1.1588461
189	0xbe33d6b4	-0.17562371
190	0xbec83c61	-0.39108565
191	0xbe3e8a30	-0.18607402
192	0xbf1cfd17	-0.61323684
193	0xbc896a25	-0.016774246
194	0xbdbfd7a1	-0.093673
195	0x3f23cf8f	0.63988584
196	0x3be0bad0	0.0068582073
197	0x3da505be	0.08057736
198	0x3ed8198b	0.42206988
199	0x3ed17648	0.40910554
200	0x3f2e22ab	0.6802165
201	0xbf775496	-0.9661344
202	0xbf2fc4a9	-0.68659455
203	0x3f226d81	0.6344834
204	0x3ebda527	0.37040064
205	0xbf7d6bf4	-0.9899285
206	0x3e3e3ae2	0.1857715
207	0x3ea2f9bd	0.3183116
208	0x3e5e74c7	0.21724235
209	0xbf98ef3d	-1.194801
210	0xbf7a900a	-0.97876036
211	0x3f5e50d8	0.8684211
212	0x3f06f1ba	0.52712595
213	0xbf44209e	-0.7661227
214	0x3de07257	0.109593086
215	0x3e2d0563	0.16896586
216	0xbec32504	-0.38114178
217	0x3e86634d	0.26247635
218	0x3e4bef49	0.19915499
219	0x3e97edec	0.29673707
220	0x3e58c950	0.21170545
221	0x3f0cc44f	0.54987043
222	0xbe8165d6	-0.25273007
223	0x3f27e3d9	0.6558204
224	0x3f1e8f39	0.6193729
225	0xbe7bca9b	-0.24589007
226	0xbe768903	-0.24075703
227	0xbf1ee42e	-0.62066925
228	0x3ea38e13	0.31944332
229	0x3f74c40b	0.9561164
230	0xbd4a6cd6	-0.0494202
231	0xbf730435	-0.94928294
232	0xbee03d3d	-0.4379672
233	0xbf2ccfc6	-0.6750454
234	0xbe8ac994	-0.27106917
235	0x3f0f6b6a	0.56023276
236	0x3e27f4c0	0.16401958
237	0x3f0a41ef	0.54006857
238	0xbf3239c9	-0.69619423
239	0x3de798db	0.11308452
240	0xbe6dd212	-0.23224667
241	0xbca20193	-0.019776141
242	0x3de44ed4	0.11147848
243	0xbea507d1	-0.32232526
244	0x3da2afb9	0.07943673
245	0x3eae1c91	0.3400617
246	0xbf0a4947	-0.5401806
247	0x3c2063a8	0.009789385
248	0xbf168620	-0.5879841
249	0x3effe7d9	0.49981573
250	0xbea78cc9	-0.32724598
251	0x3e2ead73	0.17058353
252	0x3f2351dc	0.6379678
253	0x3ee9aa56	0.45637769
254	0xbe46cbaf	-0.19413637
255	0xbf04f8a4	-0.51941895

feature.bias_ih_l0_reverse f4 [512]
0	0x3e5c135a	0.21491757
1	0x3f07e187	0.530785
2	0x3eab878e	0.33501858
3	0x3f4eb056	0.8073782
4	0x3ead3061	0.33825973
5	0x3f203afb	0.6259
6	0x3f212556	0.62947595
7	0x3ea34b19	0.31893232
8	0x3f1b5b2f	0.6068601
9	0x3f42796f	0.7596654
10	0x3f1183e6	0.56841886
11	0x3e0c8f96	0.13726649
12	0x3e972026	0.29516715
13	0xbd996d92	-0.07491602
14	0xbd1506fd	-0.036383618
15	0xbcd21715	-0.025645772
16	0xbd226d53	-0.03965504
17	0x3e27a91e	0.16373107
18	0x3ed77d5a	0.42087823
19	0xbeb2f800	-0.34954834
20	0x3e12323a	0.14276972
21	0xbece0975	-0.4024159
22	0xbedf56d4	-0.43620932
23	0x3ebd96e5	0.37029186
24	0xbebf397a	-0.3734854
25	0xbd88a91d	-0.06672881
26	0xbd82498e	-0.06361686
27	0x3ed98801	0.42486575
28	0x3dd9e1d3	0.10638776
29	0xbdcae656	-0.09907214
30	0x3b4e8697	0.0031513327
31	0x3e018c61	0.12651207
32	0xbd9a67b6	-0.075393125
33	0x3ee6024b	0.44923624
34	0x3e42d7ce	0.19027635
35	0xbc96c408	-0.018404022
36	0x3d83eece	0.06442033
37	0xbf106699	-0.5640655
38	0xbdeb9bf4	-0.11504355
39	0x3eeacf55	0.45861307
40	0x3eefc2e0	0.46828365
41	0xbe4cfeca	-0.2001907
42	0x3d8a6df0	0.0675925
43	0x3c8c7ce3	0.017149394
44	0xbe636382	-0.22205928
45	0xbe6497c6	-0.22323522
46	0x3eea5219	0.4576576
47	0xbd9de8ad	-0.07710395
48	0xbc05ecec	-0.008174162
49	0xbe7c69cc	-0.24649733
50	0x3eb61519	0.3556297
51	0xbeba78bc	-0.36420238
52	0x3eb7d2f8	0.35903144
53	0x3de9ea37	0.11421626
54	0x3db905db	0.0903432
55	0x3e92ecbd	0.28696242
56	0xbdaf9a82	-0.08574392
57	0xbbc5a49d	-0.0060315863
58	0x3f338d26	0.7013725
59	0x3d67b519	0.056569193
60	0x3e8fce4d	0.28087083
61	0x3eb47098	0.35242152
62	0x3e1ec927	0.15506421
63	0x3ebcf56b	0.3690599
64	0x3ef5e1df	0.48023888
65	0xbd8146c1	-0.06312323
66	0x3eb2d466	0.34927672
67	0x3d806009	0.06268317
68	0xbe29b8ff	-0.16574477
69	0x3d9493cc	0.072547525
70	0x3ea6cf16	0.3257987
71	0x3e88b088	0.26697183
72	0x3d98a325	0.07452992
73	0x3d405d3d	0.04696392
74	0x3ed1a806	0.40948504
75	0x3ced86a0	0.028994858
76	0x3ddcfbd2	0.107902184
77	0x3f5f2646	0.87167776
78	0x3d9d4eec	0.07681069
79	0xbc713000	-0.014720917
80	0xbe38f268	-0.1806122
81	0x3d8cb09d	0.06869624
82	0x3e68433b	0.22681896
83	0xbe047b57	-0.12937675
84	0xbcbbacfd	-0.022909636
85	0x3e63fe62	0.22265008
86	0x3e8b471e	0.27202696
87	0x3df24c2d	0.118309356
88	0x3e1afcc1	0.1513548
89	0x3cce47a6	0.025180649
90	0x3f150e2c	0.5822475
91	0xbe3bbc99	-0.18333663
92	0x3dbab3e2	0.09116341
93	0xbc451259	-0.0120283
94	0xbe790208	-0.24317181
95	0x3de983b5	0.11402074
96	0x3eef7b0a	0.4677356
97	0x3e3b427c	0.1828708
98	0x3ebe269a	0.37138826
99	0x3ea52546	0.32255
100	0x3e486b76	0.19572243
101	0xbd7754ed	-0.060383726
102	0x3f275370	0.6536169
103	0xbd12e402	-0.035861976
104	0x3ec876a5	0.3915302
105	0x3e323328	0.17402327
106	0x3db01d39	0.08599324
107	0x3e7c3b3a	0.24631968
108	0x3e905a26	0.28193778
109	0x3cda24d7	0.026628895
110	0x3da96fcb	0.08273276
111	0xbe821247	-0.2540457
112	0x3f6cce86	0.9250263
113	0x3f3645d6	0.7120031
114	0x3cec9ade	0.02888244
115	0xbe1c54a9	-0.1526667
116	0x3de0ce4c	0.10976848
117	0x3e089cb4	0.13341027
118	0x3f0de985	0.5543445
119	0x3e75f895	0.24020608
120	0xbc37e5ed	-0.011224252
121	0x3f353a6e	0.7079228
122	0x3e470fb2	0.19439581
123	0xbd80bc4a	-0.06285913
124	0x3d596ff8	0.053085297
125	0xbebd243e	-0.36941713
126	0x3f0d72e9	0.55253464
127	0xbca053c2	-0.019571189
128	0xbe80473a	-0.25054342
129	0x3cfdb34d	0.030969286
130	0x3dda11c6	0.10647921
131	0xbc9ad417	-0.01889996
132	0xbdeb3f60	-0.11486697
133	0xbe6ab615	-0.22921021
134	0xbe95f3c6	-0.29287547
135	0x3dab9d61	0.08379627
136	0xbefbd4dc	-0.49185836
137	0xbe61bf15	-0.22045548
138	0x3dfbcd0f	0.12294971
139	0x3e26d55a	0.16292325
140	0xbf20d2b6	-0.6282152
141	0xbcd1c8c5	-0.02560843
142	0xbe401bd7	-0.1876062
143	0xbe467cbb	-0.19383518
144	0xbe8c16dd	-0.27361193
145	0xbde96482	-0.113961235
146	0x3dff2ae1	0.124593504
147	0x3bcd24d4	0.006260494
148	0xbd9080d2	-0.070558205
149	0x3e548f09	0.20757689
150	0x3d60ee2a	0.05491463
151	0x3e5958d4	0.21225291
152	0x3ee28d15	0.44248262
153	0xbe29a1d9	-0.16565646
154	0xbd1a10ab	-0.037613552
155	0xbdc974c1	-0.09836722
156	0xbdb92b93	-0.09041514
157	0x3e3a765a	0.1820921
158	0xbea25ee5	-0.31713024
159	0x3e6c93f6	0.23103318
160	0xbebd9189	-0.37025097
161	0xbe358763	-0.17727427
162	0xbe5b0b5e	-0.21391055
163	0x38d45856	0.000101254016
164	0xbf258643	-0.6465799
165	0x3e0f36b0	0.13985705
166	0xbdd63ba4	-0.10460594
167	0x3e855a9a	0.26045686
168	0x3ee2b845	0.44281211
169	0x3a2a68fa	0.0006500628
170	0x3e7369a7	0.23770772
171	0xbc6a5ed3	-0.014304834
172	0x3de9b075	0.1141061
173	0xbdaaa1af	-0.0833162
174	0x3ee7652e	0.4519438
175	0x3e412d61	0.18864967
176	0x3f0b9b96	0.5453428
177	0xbd6eeed1	-0.05833322
178	0xbead2f5a	-0.3382519
179	0xbde55685	-0.11198143
180	0xbe95e2fc	-0.29274738
181	0x3e8b569f	0.27214524
182	0xbe8bb30a	-0.27285033
183	0xbde951eb	-0.11392578
184	0x3e3d2649	0.18471636
185	0xbe94f2bf	-0.2909145
186	0xbc77f7a3	-0.015134725
187	0x3e148a79	0.14505948
188	0xbe8965b0	-0.26835394
189	0xbe0f789d	-0.14010854
190	0xbe87d796	-0.26531667
191	0x3e3849bd	0.17996879
192	0xbeefac0f	-0.46810958
193	0x3d8c39b8	0.068469465
194	0x3de29474	0.110634714
195	0xbddc256a	-0.10749324
196	0xbeed3c7f	-0.46335217
197	0x3db7ff1a	0.08984204
198	0x3db671b1	0.08908404
199	0x3b5c7d5e	0.003364406
200	0x3e38179b	0.17977755
201	0xbee77c25	-0.45211902
202	0xbe7a062e	-0.2441642
203	0xbdcce7e1	-0.10005165
204	0x3f1af5c5	0.60531265
205	0xbf08e12a	-0.53468573
206	0xbd51c7c7	-0.051215913
207	0x3d3b0594	0.045659617
208	0x3f095f19	0.5366073
209	0xbea7f14c	-0.32801282
210	0xbe952a37	-0.2913377
211	0x3dbad97a	0.091235116
212	0x3de28772	0.110609904
213	0xbe4ab46e	-0.19795391
214	0xbe13faa2	-0.14451078
215	0x3e6fbbdd	0.23411508
216	0x3d8b1cce	0.067926034
217	0x3dbbbcfb	0.091669045
218	0xbe89a935	-0.26886907
219	0x3f1e6f6b	0.6188876
220	0xbe7eb35d	-0.24873109
221	0xbe49e09b	-0.19714586
222	0x3ec45349	0.38344792
223	0xbe191dcd	-0.14952774
224	0xbd9aa56e	-0.075510845
225	0xbd0cbb89	-0.034358535
226	0x3de9138b	0.11380681
227	0x3ecf61f5	0.40504423
228	0x3f5d6407	0.86480755
229	0x3eb5e161	0.35523513
230	0x3d83d855	0.064377464
231	0x3e8a5085	0.27014557
232	0x3da5ff89	0.0810538
233	0xbe4e7791	-0.20162798
234	0xbadeea09	-0.0017007004
235	0x3e51a72b	0.20473926
236	0x3dc237d8	0.094833076
237	0xbd8d0d0c	-0.06887254
238	0x3dd1cee0	0.102445364
239	0xbed54d9c	-0.41660774
240	0xbf26ac9e	-0.6510714
241	0xbef81c00	-0.48458862
242	0xbe16348f	-0.14668487
243	0x3cf8bbde	0.03036302
244	0xbecd2960	-0.4007063
245	0x3b9e43a8	0.0048298426
246	0xbea45bdd	-0.32101336
247	0x3e92339c	0.28555
248	0x3eee655a	0.465617
249	0x3baa3d91	0.0051953276
250	0x3dc7ed24	0.09762028
251	0x3e70b5b4	0.23506814
252	0x3c7a54fe	0.015279053
253	0x3f0fdf41	0.56200033
254	0xbea137c7	-0.31487867
255	0x3e5ec2d3	0.21754007
