pretrained_models/comick-15-context-size.pth (torch, 821283 bytes, 10 tensors)

feature.weight_ih_l0 f4 [512, 64]
-0.8786793 0.38521138 1.7553967 1.0615346 0.17070104 0.67781323 1.1249108 -0.46205187
-1.0039228 0.4995073 1.0716547 -0.8451629 0.007849699 0.33907598 -0.05196461 0.50779456
0.015093395 -1.1939373 0.012660602 0.5102015 0.23791726 0.12604342 -0.7216623 1.5451846
0.26407278 -0.41613427 -0.2919659 -1.1076859 -0.4509406 -0.7297476 -0.66775024 -0.38147035
0.65410256 -0.45297572 -0.64864486 1.1006786 -0.5568706 0.24059556 -0.37024337 -0.18241957
0.8361791 -0.1219452 0.28107715 0.7616529 -1.2229576 -0.394847 -1.2498238 0.5076772
-0.27034715 -0.4763051 -0.098023266 -0.55002946 -1.4671048 -0.262032 0.67312986 -0.57974684
-0.53059065 -0.5337231 0.36809602 1.2268536 -0.21414712 -1.5689216 -0.033179328 -0.45906752
-0.6915434 -0.001705107 0.30144805 -0.39285353 0.037795704 -0.102912284 0.36065456 0.33379328
-0.7638181 0.048745435 -0.62010133 -0.1902727 0.86630064 0.15122525 -1.2948937 -0.6629003
0.24325024 0.6717793 0.3473894 -0.33419305 0.20484038 -0.2659192 1.1755009 0.7956986
0.38739085 0.5100027 1.1593348 1.5622413 -0.1147813 0.08097551 -0.5410939 -0.42586243
0.681937 0.10474072 0.4748714 0.7001897 -1.005822 -0.493522 -0.5306542 -0.4126304
-0.00347916 0.44385222 0.049184978 0.17614372 0.7698303 -0.49659112 0.004456949 -0.0160918
-0.11143947 -0.14089082 -0.42556673 -0.36971045 -0.20577313 -0.979256 0.2701043 -0.31416062
-0.3306327 0.7680676 0.8201666 -0.20260161 0.20298573 0.28270623 -0.36071098 0.20925488
-0.043337572 0.75272 -0.60927206 0.014796121 0.27839148 0.4472688 -0.06850351 -0.14282748
0.607536 0.092683874 -0.25300148 -0.51716596 -0.4792397 0.4981429 -0.8649586 -0.3022165
-0.7126629 0.13524306 -0.49271974 0.13193461 0.25267765 -0.66224366 -0.08305441 -0.569238
0.12982999 0.1219019 -0.845131 -0.7614723 -0.3610163 -0.71857977 0.38328943 -1.0936779
-0.046682693 -0.41210458 -0.5288281 0.26324585 0.24284802 1.1936256 -0.91252327 -0.6548799
0.6081503 -1.1585722 -0.63133675 -0.15692571 -0.3508289 -0.24847108 0.30074027 -0.7196279
0.044347122 0.5283438 -0.38279554 -0.37127942 -0.044128206 0.3105003 1.1097744 0.386199
-0.47858465 0.33152044 0.46534598 -0.11407246 -0.28075317 -1.0257996 -0.5520267 -0.88394475
-0.046970077 0.14925168 -0.096000865 0.7458437 0.24349178 -0.24031927 -0.42226344 1.2021387
-0.6301549 -0.2402616 -0.302977 -0.8627495 0.5269305 -0.25704736 -0.4044751 0.40827945
0.10023704 -0.30376938 -0.1473839 0.13844234 -0.59619737 1.9853489 0.6192784 0.1743823
-0.00097306655 -0.39012933 0.6113024 -1.0915252 -0.31433606 0.118379466 -0.009590557 -0.7002538
-0.6784247 0.010917107 1.1708943 -0.3080905 -1.2530713 -0.08747278 -0.08207395 0.6634363
0.34953028 0.23143409 0.1632905 0.3863228 1.1287538 -0.09951922 -0.28634945 -0.21928957
-1.0307153 0.18171751 -0.6920855 0.15598263 0.93343544 -0.18082398 0.43467438 -0.19781047
-0.80015147 0.08570062 -0.43604714 -0.8257979 -0.11872891 -0.15202752 -1.0193886 0.06707801
00000000: 20f1 60bf 6d3a c53e d7b0 e03f 5ee0 873f
00000010: 41cc 2e3e 2b85 2d3f 14fd 8f3f 1092 ecbe
00000020: 8b80 80bf 6cbf ff3e fb2b 893f 995c 58bf
00000030: 069c 003c 5e9b ad3e d8d8 54bd d3fe 013f
00000040: 494a 773c f0d2 98bf 6a6e 4f3c 919c 023f
00000050: 95a0 733e 8711 013e dcbe 38bf 9cc8 c53f
00000060: 8c34 873e 8d0f d5be 8e7c 95be a7c8 8dbf
00000070: b0e1 e6be bdd0 3abf aef1 2abf 1550 c3be
00000080: 4473 273f 6fec e7be 970d 26bf 09e3 8c3f
00000090: 128f 0ebf af5e 763e 8a90 bdbe 32cc 3abe
000000a0: d50f 563f 68be f9bd 58e9 8f3e affb 423f
000000b0: e089 9cbf 6329 cabe 3afa 9fbf 22f7 013f
000000c0: f16a 8abe 43de f3be 6cc0 c8bd bbce 0cbf
000000d0: 17ca bbbf 0f29 86be 3d52 2c3f 4a6a 14bf
000000e0: cad4 07bf 14a2 08bf 1577 bc3e 8a09 9d3f
000000f0: 6249 5bbe 6cd2 c8bf 0ce7 07bd e60a ebbe
00000100: fd08 31bf e67d dfba 6657 9a3e 1924 c9be
00000110: abcf 1a3d adc3 d2bd b7a7 b83e f4e6 aa3e
00000120: 9589 43bf 4ba9 473d f6be 1ebf d9d6 42be
00000130: e1c5 5d3f cbda 1a3e 14bf a5bf d6b3 29bf
00000140: 9716 793e baf9 2b3f 06dd b13e 5a1b abbe
00000150: adc1 513e 9026 88be d076 963f e7b2 4b3f
00000160: 1858 c63e 898f 023f 1565 943f 86f7 c73f
00000170: 7512 ebbd 7dd6 a53d 2185 0abf a40a dabe
00000180: 6c93 2e3f 4d82 d63d 5822 f33e a23f 333f
00000190: c6be 80bf eaae fcbe f4d8 07bf 4b44 d3be
000001a0: 9e02 64bb 9940 e33e 3076 493d 055f 343e
000001b0: 9913 453f 3141 febe 990b 923b f3d2 83bc
000001c0: 603a e4bd af45 10be e2e3 d9be b04a bdbe
000001d0: 31b6 52be 85b0 7abf 1c4b 8a3e a9d9 a0be
000001e0: b048 a9be 14a0 443f 70f6 513f cc76 4fbe
000001f0: 7edb 4f3e dfbe 903e 1caf b8be e946 563e
00000200: bd82 31bd 42b2 403f 41f9 1bbf 6e6b 723c
00000210: 5489 8e3e 6b00 e53e 914b 8cbd 5e41 12be
00000220: 7b87 1b3f 0bd1 bd3d 6989 81be fd64 04bf
00000230: e85e f5be 960c ff3e ed6d 5dbf 1fbc 9abe
00000240: 1371 36bf 287d 0a3e c345 fcbe de19 073e
00000250: f75e 813e cd88 29bf 6e18 aabd 95b9 11bf
00000260: 27f2 043e b4a7 f93d 815a 58bf d9ef 42bf
00000270: 21d7 b8be d8f4 37bf 833e c43e a3fd 8bbf
00000280: 5a36 3fbd 5fff d2be 4761 07bf 29c8 863e
00000290: 27ad 783e b9c8 983f 209b 69bf 36a6 27bf
000002a0: bdaf 1b3f 184c 94bf 499f 21bf 22b1 20be
000002b0: d89f b3be 346f 7ebe a1fa 993e 8939 38bf
000002c0: 54a5 353d 8a41 073f c7fd c3be 5618 bebe
000002d0: c7bf 34bd e5f9 9e3e 160d 8e3f e0bb c53e
000002e0: 0c09 f5be 0cbd a93e d441 ee3e d29e e9bd
000002f0: e1be 8fbe 674d 83bf 9f51 0dbf 344a 62bf
00000300: b263 40bd 6fd5 183e 1a9c c4bd 9def 3e3f
00000310: e955 793e 4116 76be ea32 d8be aedf 993f
00000320: d551 21bf 2307 76be cd1f 9bbe 27dd 5cbf
00000330: ebe4 063f b69b 83be 5c17 cfbe 010a d13e
00000340: 1449 cd3d a987 9bbe ceeb 16be d4c3 0d3e
00000350: 64a0 18bf ea1f fe3f 0789 1e3f 4691 323e
00000360: 6415 7fba 08bf c7be 507e 1c3f 19b7 8bbf
00000370: a8f0 a0be ef70 f23d b621 1dbc d543 33bf
00000380: 3ead 2dbf aadd 323c dddf 953f 0abe 9dbe
00000390: a464 a0bf ee24 b3bd 6316 a8bd f6d6 293f
000003a0: a2f5 b23e 0ffd 6c3e a035 273e 1acc c53e
000003b0: 017b 903f bcd0 cbbd 659c 92be 728d 60be
000003c0: 7bee 83bf 2814 3a3e 842c 31bf e9b9 1f3e
000003d0: a0f5 6e3f ec29 39be a48d de3e d48e 4abe
000003e0: bad6 4cbf cf83 af3d 9241 dfbe 7e67 53bf
000003f0: 2528 f3bd 1aad 1bbe 537b 82bf 3260 893d

feature.weight_hh_l0 f4 [512, 128]
0.26920462 -0.413751 -0.1226105 0.44128656 0.84712493 0.06924834 -0.39444944 -0.006708283
1.2826288 0.100918196 0.005653938 0.06261218 0.3062589 -0.663197 -0.2375087 0.095765345
0.22421513 0.4717931 -0.87010926 0.2732188 0.5549922 0.06879642 -0.38990653 -0.4475171
-0.715884 -0.35255077 -1.0014459 -0.338945 -0.19167575 0.036486816 -0.23986222 -0.9723133
0.040684607 0.6438663 0.7341841 0.8236943 0.037027154 -0.47452992 0.6356603 -0.57083803
-0.7684278 0.58196217 0.4172178 0.4798559 -0.12675685 -0.74982125 -0.18262188 0.63599944
0.28462124 -1.0099528 0.24745175 0.14453086 0.99558246 -0.14631234 0.81256676 0.19224706
-0.041552752 -0.34665838 -0.96241385 -0.10476498 0.25709832 -0.275564 -0.29943034 0.42599782
0.85711676 -0.09309333 0.15545245 -0.19196603 -0.5940909 0.15528102 0.48008084 -0.1548225
-0.15930617 0.24512033 0.49224404 0.33166274 0.49929643 0.07402519 -0.3957834 -0.3629301
1.1117371 -0.18323572 0.5883192 0.13569875 -0.108272456 0.3361715 0.056240194 -0.92987084
-0.7261881 0.15925586 -0.10584837 0.27385122 0.3644028 0.03406269 -0.93134725 0.14297637
-0.41294506 -0.21888322 -0.54831666 -0.5684486 -0.56266546 -0.01685254 0.07314695 -0.19027388
-0.3124502 -0.43913135 -0.44367918 -0.08089518 0.5648959 -0.121824235 -0.6410015 -0.19351433
-0.37255943 -0.20599169 0.57001895 0.16235092 0.3347784 0.1665042 0.3946702 0.047591716
0.31089687 -0.7262211 0.23278204 -0.58204746 0.07847036 0.9272973 0.05359797 -0.43762958
-0.5228461 -0.6733519 -1.139548 -0.95683753 -0.42001802 0.061460163 0.86960256 -0.16922148
-0.28980303 -0.32170442 0.20880663 -0.08385612 0.040160496 -0.6265394 0.009928979 -0.032989398
-0.14816448 0.9400875 -0.26487827 -0.021897595 -0.48207024 0.8211163 -0.4423456 -0.4082822
0.6263096 -0.49090478 -0.09634434 0.04357345 0.08890978 -0.21091808 0.1154557 -0.101433784
0.22690363 0.66963047 -0.30798554 0.9509966 -0.16435356 -0.50346655 0.086113706 -0.4962371
-0.31058377 0.31786093 0.23524423 -0.16642198 -0.61866534 -0.47780162 -0.3591239 -0.54246175
0.10829693 0.7108674 -0.36760142 0.93302405 -0.38157856 0.14263505 0.35018528 1.3485211
1.2384534 -1.027532 0.6197755 -0.49321237 -0.11070309 -0.5473375 0.22329696 0.2965374
0.5125115 1.2226378 -0.2588041 0.17300546 0.56743866 -0.98725057 -0.062299836 -0.3043732
0.44214922 -0.74133307 0.1643275 -0.7295086 -0.15786222 0.14215791 -0.27337012 0.57937056
-0.30268613 -0.4208941 -0.10483564 0.23107514 0.27261868 0.881997 0.36600646 0.08071552
-1.0998663 0.629585 -0.38643426 0.30045763 0.57827723 0.29779032 0.487002 0.0056060194
-0.21077429 -0.1870696 -0.6350113 0.18137729 0.80462134 0.08834236 -0.497162 -0.7409529
0.41103318 0.64774 0.22874555 0.14076257 -0.80152553 0.35374063 0.90779185 1.017468
0.11621851 -0.4250862 -0.1746743 -0.045608036 -0.19838174 -0.060353056 -0.36516416 -0.12768075
-0.034900576 0.03733318 0.6215336 0.52994084 1.0702225 0.36806 -0.28529108 0.14955086
00000000: 30d5 893e 2cd7 d3be 371b fbbd 50f0 e13e
00000010: 2edd 583f 13d2 8d3d 47f5 c9be 28d1 dbbb
00000020: 2e2d a43f 33ae ce3d ab44 b93b d13a 803d
00000030: f7cd 9c3e 47c7 29bf 7b35 73be 9f20 c43d
00000040: a798 653e dd8e f13e 7bbf 5ebf 56e3 8b3e
00000050: f813 0e3f 23e5 8c3d d4a1 c7be f620 e5be
00000060: 2c44 37bf 8981 b4be 612f 80bf 338a adbe
00000070: a646 44be 3373 153d 719e 75be 86e9 78bf
00000080: e7a4 263d 6cd4 243f 7df3 3b3f a1dd 523f
00000090: c9a9 173d 96f5 f2be a2ba 223f 7122 12bf
000000a0: afb7 44bf 79fb 143f 929d d53e acaf f53e
000000b0: 8ccc 01be 49f4 3fbf 3b01 3bbe dcd0 223f
000000c0: e0b9 913e 2246 81bf fe63 7d3e e6ff 133e
000000d0: 7ede 7e3f e7d2 15be 6004 503f 6adc 443e
000000e0: 3833 2abd 357d b1be c160 76bf 068f d6bd
000000f0: 64a2 833e b916 8dbe ef4e 99be 631c da3e
00000100: 016c 5b3f b7a7 bebd ed2e 1f3e be92 44be
00000110: 5716 18bf fd01 1f3e 28cd f53e ca89 1ebe
00000120: 2821 23be d300 7b3e 6907 fc3e b3cf a93e
00000130: c8a3 ff3e 859a 973d 1fa4 cabe f9d1 b9be
00000140: 674d 8e3f 25a2 3bbe 169c 163f 9df4 0a3e
00000150: f3bd ddbd ac1e ac3e 1e5c 663d 040c 6ebf
00000160: 77e7 39bf f813 233e 08c7 d8bd 3a36 8c3e
00000170: 0193 ba3e 5285 0b3d c66c 6ebf 6668 123e
00000180: 896d d3be ec22 60be 7b5e 0cbf d985 11bf
00000190: d80a 10bf 570e 8abc 11ce 953d 28d7 42be
000001a0: 79f9 9fbe d3d5 e0be eb29 e3be 5fac a5bd
000001b0: 059d 103f fc7e f9bd ad18 24bf 9f28 46be
000001c0: 1cc0 bebe 7cef 52be c3ec 113f 523f 263e
000001d0: 1368 ab3e 1480 2a3e 3612 ca3e 88ef 423d
000001e0: e02d 9f3e a0e9 39bf 6a5e 6e3e 1001 15bf
000001f0: 11b5 a03d 5b63 6d3f 8c89 5b3d fc10 e0be
00000200: 3ed9 05bf ca60 2cbf b5dc 91bf 4ef3 74bf
00000210: 9a0c d7be a7bd 7b3d 469e 5e3f 6548 2dbe
00000220: 1061 94be 71b6 a4be 68d1 553e c2bc abbd
00000230: 557f 243d e364 20bf 28ad 223c e41f 07bd
00000240: 6eb8 17be 93a9 703f 209e 87be 9662 b3bc
00000250: e9d1 f6be ae34 523f 1f7b e2be 5d0a d1be
00000260: d355 203f df57 fbbe 2e50 c5bd 137a 323d
00000270: 5516 b63d e9fa 57be 0a74 ec3d 84bc cfbd
00000280: 6d59 683e e76c 2b3f 48b0 9dbe 8374 733f
00000290: 4d4c 28be 2fe3 00bf 625c b03d ca12 febe
000002a0: d604 9fbe abbe a23e dde3 703e 866a 2abe
000002b0: da60 1ebf 6aa2 f4be 16df b7be c6de 0abf
000002c0: c8ca dd3d 68fb 353f 4136 bcbe aada 6e3f
000002d0: 445e c3be ec0e 123e 7c4b b33e 579c ac3f
000002e0: a485 9e3f 2b86 83bf 9ba9 1e3f 5586 fcbe
000002f0: 4db8 e2bd 4f1e 0cbf f5a7 643e c0d3 973e
00000300: f433 033f 657f 9c3f f981 84be 5828 313e
00000310: a943 113f 74bc 7cbf 1d2e 7fbd ced6 9bbe
00000320: 6261 e23e 01c8 3dbf 7845 283e 13c1 3abf
00000330: a2a6 21be d891 113e 2bf7 8bbe a151 143f
00000340: adf9 9abe 6e7f d7be 11b4 d6bd f69e 6c3e
00000350: ad94 8b3e 8eca 613f 3365 bb3e 2e4e a53d
00000360: 6bc8 8cbf 7c2c 213f b6da c5be 95d5 993e
00000370: fa09 143f f977 983e 5358 f93e b3b2 b73b
00000380: 37d5 57be 2c8f 3fbe 1a90 22bf f8ba 393e
00000390: aafb 4d3f d7ec b43d 058c febe 17af 3dbf
000003a0: f172 d23e 4ad2 253f 463c 6a3e 1024 103e
000003b0: c730 4dbf 7e1d b53e 0c65 683f 643c 823f
000003c0: f803 ee3d e6a4 d9be d2dd 32be 7ecf 3abd
000003d0: 9524 4bbe c434 77bd ccf6 babe bebe 02be
000003e0: e8f3 0ebd adea 183d d31c 1f3f 34aa 073f
000003f0: 0dfd 883f 5c72 bc3e ac11 92be dc23 193e

feature.bias_ih_l0 f4 [512]
0.5002672 0.095248364 0.038546164 0.051888373 -0.17412148 0.31438866 0.41300285 0.17190424
-0.18483722 0.16813052 0.11892301 -0.30264428 0.2332289 0.028538553 -0.008727804 0.15679605
0.0034920182 0.13063908 -0.02482756 0.90929705 0.2596042 0.022734389 0.16522607 0.5153273
-0.3299852 0.69074285 -0.21485002 0.34604412 -0.051693488 0.3143008 -0.26225147 -0.16346411
0.027371107 0.76112556 -0.1991851 0.24282755 0.21767798 0.705673 0.90960544 0.09397752
0.31270605 -0.42680296 -0.41587496 0.16507778 0.09347763 -0.067269996 0.041331004 0.09213067
0.18752487 -0.2553527 0.23292974 -0.30385935 0.16698873 -0.18340658 -0.37919056 -0.24406381
0.3011268 0.41493568 -0.09750885 0.77612746 0.08918342 -0.22101311 -0.1835611 0.1863237
-0.20432848 0.55873996 0.5008413 -0.31368625 0.2915398 -0.21690312 0.28105435 0.75175965
-0.012929989 0.8647326 0.64656806 -0.041327912 -0.16996177 -0.09467076 -0.10919025 0.15395026
0.3171306 0.025520848 -0.11593029 0.14479443 -0.11071614 0.23802266 -0.021301446 -0.055397924
0.08620162 0.6379528 0.52095616 -0.41349292 0.21020696 -0.2069117 -0.1459978 1.0566406
0.009471912 0.10695004 0.3604794 0.17356947 -0.3630914 0.060862247 0.7901934 0.81132954
-0.11760734 0.21532607 0.51067966 -0.19821179 -0.080902524 1.2194414 -0.005191148 -0.27990854
1.0013044 1.0540237 -0.1699494 -0.10138228 0.66350824 -0.182357 0.6134627 0.22810118
0.025056096 0.1391045 0.30292174 0.1500747 0.34298605 -0.17359206 0.027338708 0.26251745
-0.63953835 -0.12693566 -0.070256405 -0.14689581 -0.12959899 -0.11650855 -0.5727836 0.12336162
-0.0516777 -0.116666704 -0.35405296 -0.1679248 0.60976046 0.051953454 -0.48077348 -0.18233615
-0.31331208 -0.026830938 -0.19139145 -0.32116053 -0.26622897 -0.1469693 -0.36027196 0.51878965
0.38069665 -0.39777192 0.04322436 -0.30988255 -0.18941809 -0.2688174 -0.6440404 -0.102971226
-0.15080388 -0.30612674 -0.056198474 0.066613086 -0.49966797 -0.4851336 -0.6723208 0.021427287
-0.7199888 0.36187238 0.0023867525 0.057946328 0.43073693 0.120112464 -0.40521201 0.06396888
-0.04783024 -0.09654737 0.05047111 -0.008992878 -0.025697118 -0.090643205 0.062988244 -0.573837
0.28726086 -0.18517414 -0.49179062 -0.40733486 -0.060568932 -0.06686634 -0.08312498 0.2977354
0.42278984 -0.72885334 -0.9889069 -0.4629559 0.11358031 -0.1733567 0.34980032 0.37289557
0.34168607 -0.3771556 -0.004679877 -0.45903707 -0.03881278 0.028840844 0.28006572 0.48504075
-0.2869453 -0.18964593 -0.060201894 -0.2178979 0.021597875 -0.2526914 0.14060447 -0.32367003
-0.017259032 -0.25225118 0.40425348 -0.44330078 0.84584 -0.4045413 -0.49846542 -0.784716
0.15461795 0.30124906 -0.32515422 -0.48586997 0.28651854 0.06662854 -0.14022325 -0.6565439
-0.039517943 -0.34544316 0.069649965 0.14130138 0.23042463 -0.16621318 -0.21218641 -0.5059944
-0.5954914 -0.41133407 -0.10800687 -0.38452372 0.084400445 -0.3060952 -0.018577766 -0.34713814
0.049663637 -0.33133718 -0.445499 -0.306733 -0.2834848 -0.26515415 -0.043666467 0.01991948
00000000: 8311 003f 9311 c33d 95e2 1d3d e788 543d
00000010: e74c 32be 8df7 a03e 1c75 d33e aa07 303e
00000020: f845 3dbe 682a 2c3e e88d f33d 31f4 9abe
00000030: 8fd3 6e3e afc9 e93c 10ff 0ebc 258f 203e
00000040: 58da 643b 40c6 053e 2b63 cbbc b1c7 683f
00000050: d7ea 843e 783d ba3c 0631 293e 7dec 033f
00000060: d2f3 a8be 86d4 303f a501 5cbe b22c b13e
00000070: 8dbc 53bd 09ec a03e d345 86be 2363 27be
00000080: 5f39 e03c 20d9 423f 2ef7 4bbe c9a7 783e
00000090: fae6 5e3e fca6 343f e7db 683f 4977 c03d
000000a0: 021b a03e eb85 dabe 90ed d4be 260a 293e
000000b0: 3371 bf3d dac4 89bd b34a 293d 01af bc3d
000000c0: 8506 403e 97bd 82be 2285 6e3e 7493 9bbe
000000d0: 18ff 2a3e efce 3bbe 4425 c2be ddeb 79be
000000e0: 4b2d 9a3e 7372 d43e b8b2 c7bd 4ab0 463f
000000f0: cca5 b63d 4351 62be 71f7 3bbe a4cb 3e3e
00000100: 7c3b 51be 9509 0f3f 2337 003f 7c9b a0be
00000110: b444 953e da1b 5ebe 5be6 8f3e 5273 403f
00000120: 4ed8 53bc 1e5f 5d3f 7c85 253f 7547 29bd
00000130: 750a 2ebe bee2 c1bd 239f dfbd 23a5 1d3e
00000140: f15e a23e 1911 d13c dc6c edbd fe44 143e
00000150: 25bf e2bd 36bc 733e 5f80 aebc efe8 62bd
00000160: 7a8a b03d e050 233f 625d 053f 58b5 d3be
00000170: 7e40 573e a9e0 53be 7380 15be 0040 873f
00000180: 1430 1b3c 9f08 db3d c290 b83e 32bc 313e
00000190: 1ee7 b9be b14a 793d 1d4a 4a3f 4bb3 4f3f
000001a0: 1edc f0bd 707e 5c3e e7bb 023f 08f8 4abe
000001b0: 39b0 a5bd a816 9c3f 811a aabb 2c50 8fbe
000001c0: be2a 803f 40ea 863f 3707 2ebe 83a1 cfbd
000001d0: addb 293f cbbb 3abe e40b 1d3f 5b93 693e
000001e0: 7142 cd3c 6971 0e3e 8f18 9b3e 2fad 193e
000001f0: de9b af3e 1ec2 31be 6df5 df3c b068 863e
00000200: c9b8 23bf 6cfb 01be 97e2 8fbd db6b 16be
00000210: 99b5 04be 099c eebd f2a1 12bf 04a5 fc3d
00000220: ffab 53bd f4ee eebd 6e46 b5be 7bf4 2bbe
00000230: 4319 1c3f 25cd 543d f127 f6be 54b6 3abe
00000240: 716a a0be 8ecc dbbc 1ffc 43be 276f a4be
00000250: 2a4f 88be 1f7f 16be 9175 b8be 66cf 043f
00000260: acea c23e c3a8 cbbe 070c 313d eda8 9ebe
00000270: d1f6 41be 6fa2 89be d5df 24bf 94e2 d2bd
00000280: 556c 1abe a5bc 9cbe 5f30 66bd 716c 883d
00000290: 7bd4 ffbe 6e63 f8be 371d 2cbf 4788 af3c
000002a0: 3051 38bf 5647 b93e 106b 1c3b 2159 6d3d
000002b0: 8d89 dc3e 86fd f53d f377 cfbe 1e02 833d
000002c0: a4e9 43bd a1ba c5bd cbba 4e3d dd56 13bc
000002d0: c382 d2bc 25a3 b9bd fbff 803d fbe6 12bf
000002e0: db13 933e 4a9e 3dbe fbcb fbbe 328e d0be
000002f0: 2117 78bd 38f1 88bd 6e3d aabd c670 983e
00000300: e977 d83e 2296 3abf 0129 7dbf 8e08 edbe
00000310: cb9c e83d 6b84 31be 0719 b33e 2bec be3e
00000320: 7af1 ae3e 8a1a c1be a759 99bb e806 ebbe
00000330: 26fa 1ebd a243 ec3c c664 8f3e 4357 f83e
00000340: 7fea 92be 8b32 42be 4396 76bd a120 5fbe
00000350: 07ee b03c c460 81be 9efa 0f3e 14b8 a5be
00000360: d062 8dbc 1127 81be 50fa ce3e 52f8 e2be
00000370: f888 583f 0a20 cfbe dc36 ffbe 26e3 48bf
00000380: 2b54 1e3e 513d 9a3e 9d7a a6be f3c3 f8be
00000390: 8fb2 923e 8b74 883d af96 0fbe 4313 28bf
000003a0: 91dd 21bd eddd b0be a4a4 8e3d 4fb1 103e
000003b0: 6ff4 6b3e ca33 2abe 6547 59be d988 01bf
000003c0: 2072 18bf 619a d2be b532 ddbd 4be0 c4be
000003d0: 24da ac3d 83b8 9cbe 6630 98bc 17bc b1be
000003e0: 196c 4b3d 07a5 a9be 7218 e4be 1c0c 9dbe
000003f0: eb24 91be 49c2 87be 9cdb 32bd 2d2e a33c

feature.bias_hh_l0 f4 [512]
0.5058729 -0.0101503115 -0.03225808 -0.0120322425 -0.12771975 0.3227346 0.5237536 0.116970286
-0.007813212 0.29340434 0.04354033 -0.19720338 0.27769095 -0.04516778 0.032368004 0.098521784
-0.10069677 0.20151821 -0.0039694086 0.8710251 0.2585445 -0.01712829 0.05598913 0.4859135
-0.36210042 0.75576884 -0.2766871 0.45820856 -0.094382584 0.24511257 -0.3528768 -0.12247047
0.09990102 0.65756327 -0.20963712 0.10568753 0.112088025 0.66178954 0.9973577 0.027885595
0.41163284 -0.37824908 -0.47196326 0.24124713 0.13454247 0.04054885 0.0816149 0.12619743
0.21706037 -0.21628574 0.048180938 -0.22896945 0.059184693 -0.10578159 -0.20958132 -0.16412142
0.34309793 0.3479827 -0.13923734 0.73666424 0.09527121 -0.05003664 -0.11444543 0.27767885
-0.12480464 0.57697105 0.44982344 -0.27904293 0.23841625 -0.22795494 0.2308823 0.65288883
-0.10334146 0.94720554 0.66288024 -0.0514082 -0.21419948 -0.22124138 -0.00053655816 0.17073157
0.41384748 0.006149229 -0.10568638 0.14552349 -0.13973115 0.26896995 -0.043915566 -0.05811603
-0.004925138 0.68354243 0.42723513 -0.44640708 0.2302916 -0.19587255 0.007993392 1.0260816
0.12158799 0.23954174 0.3979894 0.18991211 -0.32666227 0.16922508 0.8443217 0.8376105
0.068682216 0.2153388 0.5784112 -0.13282256 -0.026051067 1.288715 -0.018274141 -0.20028163
1.0356017 0.894797 -0.16528888 -0.16873504 0.5937872 -0.20296966 0.61293554 0.2110941
0.15056883 0.040581357 0.39077485 0.1588494 0.34243274 -0.32949784 0.09344965 0.35356066
-0.55127627 -0.022520185 -0.066477194 -0.257718 -0.17815311 -0.2050074 -0.42322886 0.10119555
-0.032284673 -0.16258945 -0.37171373 -0.22573525 0.6589097 0.008379012 -0.4911957 -0.1286434
-0.37075385 -0.022639738 -0.33217958 -0.37737677 -0.24755177 -0.18988022 -0.40706334 0.50709784
0.4483738 -0.3799624 0.06176329 -0.30490577 -0.03849334 -0.26918057 -0.54380107 -0.045487903
-0.122160986 -0.2338551 -0.04339938 0.09111746 -0.38061807 -0.3762163 -0.50980073 -0.08575141
-0.6242341 0.17228621 0.07353771 0.035642114 0.3261813 -0.048372023 -0.44438362 0.13218993
0.04662841 -0.17427246 -0.043260813 -0.018336298 -0.020623824 -0.090763696 -0.07037036 -0.5685196
0.24045275 -0.21286544 -0.43908253 -0.43511423 0.12386191 -0.24171822 -0.085589826 0.12523794
0.32481474 -0.58198905 -1.0615774 -0.68849295 0.16987947 0.04082159 0.32858256 0.2280074
0.32473576 -0.4899443 0.00644032 -0.42759657 -0.13282286 -0.0154970065 0.19158925 0.36105356
-0.30050063 -0.1884156 -0.21630688 -0.2425053 -0.01506718 -0.34233025 0.21038392 -0.2999791
-0.04448269 -0.25488654 0.48481843 -0.35386777 1.0512438 -0.43964204 -0.3343995 -0.81261015
0.056249794 0.3262028 -0.33633515 -0.44578922 0.16942109 0.087407276 0.07201648 -0.65767026
-0.06722142 -0.2770374 -0.15866347 0.110127605 0.18413085 -0.1545881 -0.267556 -0.55621326
-0.44345224 -0.43804353 -0.12241484 -0.3755912 0.060903527 -0.10705791 -0.04089363 -0.33086237
-0.120943606 -0.46050784 -0.40403172 -0.2927834 -0.22992864 -0.26227358 -0.056043804 0.20645
00000000: e380 013f 7e4d 26bc 0c21 04bd e222 45bc
00000010: f7c8 02be 783d a53e b714 063f 1e8e ef3d
00000020: fd02 00bc 1839 963e 5857 323d afef 49be
00000030: 822d 8e3e da01 39bd 5094 043d cac5 c93d
00000040: 1c3a cebd ca5a 4e3e d011 82bb 80fb 5e3f
00000050: f25f 843e a150 8cbc dc54 653d a7c9 f83e
00000060: 3a65 b9be 117a 413f eea9 8dbe 509a ea3e
00000070: a84b c1bd cafe 7a3e 45ac b4be ccd1 fabd
00000080: e898 cc3d 1156 283f 1dab 56be b472 d83d
00000090: 688e e53d 0a6b 293f d652 7f3f 5570 e43c
000000a0: 8ac1 d23e dda9 c1be 2ba5 f1be 7d09 773e
000000b0: 80c5 093e 8d16 263d b625 a73d e639 013e
000000c0: 1345 5e3e 027a 5dbe 6059 453d f876 6abe
000000d0: a66b 723d 05a4 d8bd 7c9c 56be 720f 28be
000000e0: 88aa af3e ca2a b23e 3c94 0ebe 0796 3c3f
000000f0: 8d1d c33d 38f3 4cbd 5e62 eabd ec2b 8e3e
00000100: 9399 ffbd 60b4 133f 424f e63e b7de 8ebe
00000110: 6423 743e 056d 69be 696c 6c3e b923 273f
00000120: b0a4 d3bd 107c 723f 85b2 293f 6891 52bd
00000130: 1c57 5bbe 1a8d 62be cfa7 0cba 42d4 2e3e
00000140: d1e3 d33e 797f c93b 1a72 d8bd 1c04 153e
00000150: af15 0fbe 6eb6 893e cfe0 33bd 130b 6ebd
00000160: 0d63 a1bb a3fc 2e3f 90be da3e 788f e4be
00000170: 90d1 6b3e d092 48be b7f6 023c a456 833f
00000180: 2003 f93d 6e4a 753e 44c5 cb3e 5278 423e
00000190: 4740 a7be 5749 2d3e 7825 583f a46d 563f
000001a0: 43a9 8c3d c681 5c3e c212 143f a302 08be
000001b0: 0c69 d5bc 9df4 a43f a7b3 95bc a116 4dbe
000001c0: 998e 843f 6b11 653f 7d41 29be e1c8 2cbe
000001d0: 7002 183f 47d7 4fbe 58e9 1c3f 0d29 583e
000001e0: b72e 1a3e a338 263d a413 c83e 6ba9 223e
000001f0: 5853 af3e f1b3 a8be 8862 bf3d e705 b53e
00000200: 7120 0dbf 407c b8bc 3225 88bd 9df3 83be
00000210: c56d 36be 76ed 51be 74b1 d8be 9d3f cf3d
00000220: ef3c 04bd d97d 26be 4351 bebe 2427 67be
00000230: 4eae 283f 2048 093c 017e fbbe 18bb 03be
00000240: 73d3 bdbe f976 b9bc 7113 aabe 8737 c1be
00000250: 367e 7dbe f66f 42be 9b6a d0be 2ad1 013f
00000260: 4091 e53e 6f8a c2be 81fb 7c3d 9c1c 9cbe
00000270: 31ab 1dbd 09d2 89be 8c36 0bbf 8651 3abd
00000280: 8a2f fabd b677 6fbe 8cc3 31bd ca9b ba3d
00000290: 5fe0 c2be 6c9f c0be 4d82 02bf 6f9e afbd
000002a0: cecd 1fbf cc6b 303e f09a 963d 77fd 113d
000002b0: 3c01 a73e be21 46bd 4086 e3be cc5c 073e
000002c0: 6ffd 3e3d 7b74 32be 4032 31bd 0136 96bc
000002d0: 4bf3 a8bc 51e2 b9bd 561e 90bd 808a 11bf
000002e0: 3f39 763e 66f9 59be 6dcf e0be 4bc7 debe
000002f0: 50ab fd3d fb84 77be b849 afbd 603e 003e
00000300: 1e4e a63e 3cfd 14bf c5e1 87bf 1341 30bf
00000310: e2f4 2d3e 8a34 273d f93b a83e c67a 693e
00000320: c443 a63e fbd9 fabe 5209 d33b f0ed dabe
00000330: b702 08be 28e7 7dbc f92f 443e 03dc b83e
00000340: 38db 99be 05f0 40be 8d7f 5dbe 4f53 78be
00000350: 55dc 76bc e945 afbe e26e 573e dc96 99be
00000360: 7b33 36bd 7d80 82be 1f3a f83e 282e b5be
00000370: 288f 863f c318 e1be 6936 abbe 3807 50bf
00000380: 2f66 663d 0e04 a73e 1f34 acbe 7c3e e4be
00000390: b97c 2d3e 9602 b33d 607d 933d 145d 28bf
000003a0: 62ab 89bd d9d7 8dbe ad78 22be 958a e13d
000003b0: cc8c 3c3e 584c 1ebe 1afd 88be fe63 0ebf
000003c0: 2c0c e3be 3e47 e0be a2b4 fabd 7d4d c0be
000003d0: fa75 793d 2d41 dbbd 1480 27bd cb66 a9be
000003e0: 48b1 f7bd afc7 ebbe 3fdd cebe b5e7 95be
000003f0: 6a72 6bbe b948 86be 308e 65bd a167 533e

feature.weight_ih_l0_reverse f4 [512, 64]
-0.26828372 -0.073928945 0.95283514 0.47924584 0.6306647 0.5007896 0.72015464 0.71769243
0.30737376 0.18093862 0.24783657 -0.37529844 0.5779589 -0.342047 0.9248876 0.14328796
-0.9645234 -0.17883937 -0.06418889 0.69282764 0.36415777 -0.063836984 0.7752275 0.028067155
0.82878876 -0.30446646 -0.14099044 -0.21812356 0.5493968 0.020133615 -1.1235416 -1.2427235
0.36642113 0.48997027 -0.006952392 -0.80696464 0.48825428 -0.064696625 0.3806907 0.67109233
0.33109877 -1.3211634 0.926109 0.01547006 0.74200493 -0.9309195 0.34366083 0.060877703
-0.07750392 0.34330767 -0.81343913 0.4798259 0.13389891 1.0192939 -0.2572751 0.52451545
-0.37372845 0.3024414 0.024838645 0.7171412 -0.18779464 -1.5611967 -0.50173604 -0.775786
0.6833516 0.74242616 0.23924488 1.3111624 0.00047014374 1.6467333 0.6955482 -0.096467264
-0.16509715 -0.3792009 -0.30839726 -0.21808274 0.0060546505 0.17014645 0.21291047 -0.41074863
0.007828381 -0.36862803 -0.19750004 0.28927258 0.12214975 -0.009807172 -0.32549065 0.1798504
-0.17062512 0.42218605 0.49556607 -0.0045440285 -0.3156414 -0.2960586 0.045755964 -0.58968854
-0.47108465 0.24465077 0.62759095 1.3945462 0.5354138 0.195084 -0.4636531 -0.20501226
0.39816996 0.48325336 0.23497277 0.34211376 -0.15590826 -0.23224169 -0.6677988 -0.94020134
-0.17158437 0.07238807 -0.2404737 0.38043797 0.2973535 0.21024236 0.06533502 0.75993943
-0.6422028 -0.14401315 -0.16116561 0.26000443 0.7308487 -0.35043707 -0.073541835 -0.64936143
-0.19579351 0.64568233 0.40781975 0.80062336 -0.3139371 0.76843655 0.23352914 -0.08859257
-0.806831 -0.21715665 -0.8728391 0.29478875 0.34882307 1.0926744 -0.95224345 0.9293841
-0.36644393 -0.74910337 -0.27002653 -0.3826879 0.15119435 0.28157982 -0.64804137 0.212449
-0.09368314 -0.3776989 1.301656 -0.073029414 0.04442132 -0.24258927 -0.91518545 -0.5228901
0.45936593 -0.018912844 0.9199971 0.74226457 -0.002457236 0.85314643 -0.14671065 0.6136015
0.5511577 -0.348052 1.0203805 0.84405357 0.44701058 0.11753409 0.09890022 -0.042303625
-0.15163739 -0.35769284 0.12514032 0.7698698 0.50411105 -0.0009402236 0.05763942 -0.43454036
0.20610335 -0.097411424 0.80096555 -0.83328223 0.4861349 0.0052630645 0.28556973 0.043480195
-0.22664802 -0.26011744 -0.7164518 -0.37858728 -0.63152236 -0.7261687 -0.35709503 0.7603444
-0.31186712 1.1982398 0.34610915 -1.0750383 0.050424658 -0.038925484 0.32816663 0.017489212
-0.6137361 -0.091530055 -0.3202032 -0.24423623 0.48789418 -0.41193873 0.3219129 0.5150702
1.196773 0.047411088 -0.31050485 -1.4502172 0.7253751 -0.41044226 0.0715678 -0.546563
0.35908508 0.6139722 0.27298686 -0.2846695 -0.4616727 0.013928486 0.27038798 -0.49635485
0.2139851 0.0198655 -0.22546723 0.03552457 -0.088970594 -0.68143135 0.739845 -1.1895928
0.5955158 0.5587999 -0.0780469 -0.29533592 1.4712338 -0.04568152 -0.19724609 -0.92537904
-0.87365407 -0.08314331 -0.4737213 0.14463922 -0.73065436 -0.8113174 0.6860999 0.6158071
00000000: 7c5c 89be 0f68 97bd 01ed 733f b65f f53e
00000010: 3e73 213f bf33 003f 0e5c 383f b1ba 373f
00000020: 1860 9d3e f947 393e dfc8 7d3e 1e27 c0be
00000030: 1df5 133f c920 afbe 6fc5 6c3f 14ba 123e
00000040: 01eb 76bf ab21 37be 7775 83bd 275d 313f
00000050: e372 ba3e f7bc 82bd 4f75 463f 17ed e53c
00000060: 802b 543f 07e3 9bbe cc5f 10be c85b 5fbe
00000070: 45a5 0c3f 40ef a43c 36d0 8fbf 9011 9fbf
00000080: 8d9b bb3e 62dd fa3e e4d0 e3bb 3c95 4ebf
00000090: 77fc f93e aa7f 84bd e4e9 c23e b5cc 2b3f
000000a0: c785 a93e e21b a9bf 7b15 6d3f 2276 7d3c
000000b0: 09f4 3d3f be50 6ebf 50f4 af3e e65a 793d
000000c0: 60ba 9ebd 06c6 af3e 8c3d 50bf beab f53e
000000d0: cc1c 093e 3978 823f 90b9 83be a546 063f
000000e0: 5659 bfbe 99d9 9a3e 6a7a cb3c 9196 373f
000000f0: 3d4d 40be 4bd5 c7bf c671 00bf e999 46bf
00000100: 21f0 2e3f a40f 3e3f 9cfc 743e 2bd4 a73f
00000110: a07d f639 28c8 d23f 720f 323f a190 c5bd
00000120: 3a0f 29be 9f26 c2be 3fe6 9dbe 1551 5fbe
00000130: 1766 c63b df3a 2e3e 3405 5a3e a54d d2be
00000140: 9c42 003c d0bc bcbe 733d 4abe 891b 943e
00000150: a629 fa3d 43ae 20bc b6a6 a6be b42a 383e
00000160: 5ab8 2ebe c528 d83e d6ba fd3e 13e6 94bb
00000170: c09b a1be fe94 97be 9b6a 3b3d d4f5 16bf
00000180: 0232 f1be bb85 7a3e cda9 203f 7d80 b23f
00000190: e110 093f 1ac4 473e f063 edbe bcee 51be
000001a0: efdc cb3e fc6c f73e b49c 703e 8929 af3e
000001b0: 6aa6 1fbe c4d0 6dbe ddf4 2abf 09b1 70bf
000001c0: d0b3 2fbe 3240 943d bd3e 76be c4c8 c23e
000001d0: b83e 983e c649 573e 5ece 853d 648b 423f
000001e0: 6767 24bf 2f78 13be 9908 25be 4d1f 853e
000001f0: e718 3b3f 7d6c b3be 1a9d 96bd 8d3c 26bf
00000200: 187e 48be 704b 253f c0cd d03e a7f5 4c3f
00000210: 5dbc a0be 42b8 443f 4322 6f3e 0570 b5bd
00000220: 7a8c 4ebf 505e 5ebe 6272 5fbf 8dee 963e
00000230: f098 b23e c1dc 8b3f 3ac6 73bf 1eec 6d3f
00000240: 8a9e bbbe 3dc5 3fbf eb40 8abe abef c3be
00000250: b1d2 1a3e 3b2b 903e 0ae6 25bf 3b8c 593e
00000260: f2dc bfbd c061 c1be aa9c a63f 7290 95bd
00000270: 21f3 353d 5269 78be 9849 6abf 20dc 05bf
00000280: 0332 eb3e 1cef 9abc ee84 6b3f 0d05 3e3f
00000290: 9409 21bb ce67 5a3f 513b 16be fd14 1d3f
000002a0: ac18 0d3f df33 b2be d49b 823f e513 583f
000002b0: 92de e43e b7b5 f03d 338c ca3d 9146 2dbd
000002c0: d546 1bbe 8423 b7be c924 003e 3016 453f
000002d0: 6c0d 013f 5679 76ba 5017 6c3d 137c debe
000002e0: c20c 533e a47f c7bd 140c 4d3f fc51 55bf
000002f0: ace6 f83e c975 ac3b 3236 923e 4a18 323d
00000300: 6b16 68be 1d2e 85be 6369 37bf 31d6 c1be
00000310: 73ab 21bf 31e6 39bf 29d5 b6be eea5 423f
00000320: 0cad 9fbe ec5f 993f 3835 b13e db9a 89bf
00000330: 168a 4e3d 5470 1fbd 7505 a83e 8945 8f3c
00000340: cf1d 1dbf 1c74 bbbd adf1 a3be 1019 7abe
00000350: 44cd f93e a2e9 d2be c5d1 a43e a4db 033f
00000360: dc2f 993f 2132 423d 7efa 9ebe b8a0 b9bf
00000370: 2fb2 393f 7d25 d2be 2492 923d 8eeb 0bbf
00000380: 00da b73e 482d 1d3f efc4 8b3e 33c0 91be
00000390: 5d60 ecbe 4e34 643c 4b70 8a3e 3922 febe
000003a0: e91e 5b3e f9bc a23c e2e0 66be 3682 113d
000003b0: 3736 b6bd 4972 2ebf 7b66 3d3f 9444 98bf
000003c0: b973 183f 830d 0f3f 0ed7 9fbd 4536 97be
000003d0: 6451 bc3f 8c1c 3bbd e1fa 49be a4e5 6cbf
000003e0: cba7 5fbf 0a47 aabd 998b f2be 4e1c 143e
000003f0: 2a0c 3bbf 7fb2 4fbf 3ea4 2f3f 89a5 1d3f

feature.weight_hh_l0_reverse f4 [512, 128]
0.2809961 -1.1472906 -0.30920452 0.41646332 -0.47524902 -0.20862652 0.2702728 -0.25231194
-0.4891476 0.18618584 0.16527022 0.31734973 -0.44530725 0.58572084 -0.10381983 0.01411906
-0.08430601 1.2008507 -0.8763943 0.104936175 0.77450275 -0.07074775 0.21986367 0.58702636
0.147057 -0.32928702 -0.36172083 -0.77917933 -0.13696578 0.4431484 0.10872592 0.37852004
-0.407734 -0.5102692 -0.20330112 0.023869667 0.06702405 0.33472243 0.29133683 -0.19057721
1.0317994 0.16062273 -0.5361035 -0.5549561 0.77623487 -0.0861472 0.07538069 0.14064038
-0.084539354 0.31874722 0.08350289 -0.24388954 0.41046208 -0.32185802 0.35916522 0.46267682
-0.10949982 -0.64789313 0.28040746 -0.46381912 -0.24780534 0.37204912 -0.15758792 -0.38336813
-0.56819445 0.23301873 0.07349725 0.48321867 0.2645226 0.09772313 0.29455152 -0.45241445
-0.18902916 -0.3465604 -1.0274597 0.23121248 0.060265202 -0.3555733 -0.3805589 -0.6243639
0.09333683 0.62716746 -0.4936875 -1.5163263 -0.2980864 0.32840136 0.031163072 0.016070511
0.60897183 -0.5973301 1.1719681 -0.1822059 -0.26452476 -1.205603 -0.25119013 0.13099907
0.110186845 -0.1076459 -0.6307169 -0.11594148 0.00026738486 0.9062545 0.47395223 0.06167486
0.27682686 0.6540997 0.65787137 -0.096743494 0.84287435 -0.06894232 -0.6487636 1.0071102
0.3750538 -0.112847924 -1.0037028 0.687378 0.46735752 0.8359404 -0.3433433 0.09979272
0.79455066 0.20752129 -0.28954285 0.39857373 0.18561551 0.17458424 -0.078656375 -0.10930583
1.1179819 -0.38246536 0.029130077 0.66918904 0.32844406 -0.083268285 0.076030485 -0.0151013965
0.35427284 0.10202797 -0.16213693 0.4396042 -0.36102635 0.38825196 0.3121548 0.034492105
-0.17825775 0.52546805 -0.30630717 0.35190868 -0.14520139 0.11586696 -0.23377533 -0.12273718
-0.032383945 -0.14880703 0.025022471 -0.5410562 0.2735717 -0.042758945 0.06314272 0.1516899
0.009272784 0.084100544 -0.26532558 -0.42873195 -0.06902961 0.73224294 0.13435039 -0.087827146
-0.19003224 0.49336925 0.013097188 -0.40356976 0.10497713 0.5345353 0.084990926 0.8647078
-0.0033068592 0.31207767 -0.0125401 -0.20636216 0.45963168 -8.104252e-05 -0.25469774 -0.028907288
-0.24994326 -0.86058587 -0.37640488 -0.7913111 -0.1595437 0.021804834 -0.25422195 0.58530164
-0.20743784 -0.035240494 -0.07083469 -0.23275675 -0.10207362 -0.5243024 0.22442338 0.026003003
0.7801222 -0.7530842 -0.054031022 -0.22187936 -0.28508526 -0.12929656 0.2544027 -0.2669864
-0.022890368 -0.094067454 -0.25633144 0.0345595 0.097892076 -0.42751744 -0.69663846 -0.29801318
-0.38418567 -0.5108445 0.12982027 -0.5242638 -0.22290882 -0.05491275 0.33076984 0.23757339
-0.5683651 -0.18907218 -0.7058788 0.33404207 0.36100113 0.50689095 -0.28252375 0.5943673
0.20948707 0.30370378 0.66739225 -0.00932844 -0.22466345 0.19098853 -0.41292408 0.6645068
-0.31444523 -0.10116584 0.48958483 0.29875043 -0.21025802 0.1872726 0.31452337 -0.6791571
0.29287234 0.17276096 0.031166775 -0.33409238 0.22416118 0.33561727 -0.38948166 0.042865373
00000000: b9de 8f3e 6bda 92bf 0e50 9ebe ae3a d53e
00000010: d753 f3be 31a2 55be 3261 8a3e 082f 81be
00000020: 8e71 fabe 80a7 3e3e 993c 293e aa7b a23e
00000030: 50ff e3be cdf1 153f 7e9f d4bd a153 673c
00000040: a1a8 acbd 7ab5 993f 605b 60bf c7e8 d63d
00000050: d045 463f 32e4 90bd f123 613e 5c47 163f
00000060: 1c96 163e 4f98 a8be 7933 b9be 4c78 47bf
00000070: c240 0cbe 59e4 e23e b2ab de3d 61cd c13e
00000080: 83c2 d0be 01a1 02bf 2b2e 50be 528a c33c
00000090: e843 893d bd60 ab3e 1a2a 953e ac26 43be
000000a0: 0112 843f 497a 243e 143e 09bf 9a11 0ebf
000000b0: 54b7 463f f16d b0bd 3161 9a3d 0804 103e
000000c0: f822 adbd d632 a33e 9003 ab3d 2ebe 79be
000000d0: 1628 d23e 93ca a4be 81e4 b73e fae3 ec3e
000000e0: 7141 e0bd 53dc 25bf 9191 8f3e b379 edbe
000000f0: afc0 7dbe 397d be3e ba5e 21be d448 c4be
00000100: 3175 11bf 769c 6e3e ba85 963d 7068 f73e
00000110: 826f 873e 1023 c83d 75cf 963e dea2 e7be
00000120: dc90 41be 5d70 b1be cd83 83bf f7c2 6c3e
00000130: a5d8 763d b40d b6be 9ed8 c2be 50d6 1fbf
00000140: 6127 bf3d 0c8e 203f 9cc4 fcbe fb16 c2bf
00000150: c89e 98be 3924 a83e b349 ff3c 4ea6 833c
00000160: 94e5 1b3f a0ea 18bf 0d03 963f 2f94 3abe
00000170: ca6f 87be 3351 9abf fe9b 80be 9f24 063e
00000180: a4a9 e13d 7475 dcbd aa76 21bf ba72 edbd
00000190: ca2f 8c39 4b00 683f dea9 f23e c79e 7c3d
000001a0: 40bc 8d3e 1473 273f 426a 283f 7421 c6bd
000001b0: 9dc6 573f a231 8dbd 5f15 26bf fde8 803f
000001c0: 0d07 c03e d01c e7bd 5579 80bf 01f8 2f3f
000001d0: 7c49 ef3e 3100 563f b1ca afbe 2060 cc3d
000001e0: ac67 4b3f 7680 543e f63e 94be db11 cc3e
000001f0: fe11 3e3e 36c6 323e 9816 a1bd bcdb dfbd
00000200: 081a 8f3f 80d2 c3be 33a2 ee3c f94f 2b3f
00000210: d229 a83e 9088 aabd dfb5 9b3d d96b 77bc
00000220: 4063 b53e 0af4 d03d 3907 26be cd13 e13e
00000230: 72d8 b8be f6c8 c63e c1d2 9f3e 9847 0d3d
00000240: 3389 36be 1385 063f 4bd4 9cbe 602d b43e
00000250: acaf 14be a84b ed3d cd62 6fbe a15d fbbd
00000260: 07a5 04bd df60 18be edfb cc3c a982 0abf
00000270: 9711 8c3e 0124 2fbd f850 813d 9954 1b3e
00000280: e0ec 173c e83c ac3d c1d8 87be c182 dbbe
00000290: 655f 8dbd 4674 3b3f 2693 093e b8de b3bd
000002a0: d097 42be e59a fc3e 9795 563c b2a0 cebe
000002b0: 40fe d63d 4ed7 083f b90f ae3d 7e5d 5d3f
000002c0: e4b7 58bb a5c8 9f3e fe74 4dbc 9a50 53be
000002d0: d854 eb3e 5ff5 a9b8 be67 82be face ecbc
000002e0: 20f1 7fbe 5b4f 5cbf 24b8 c0be 5d93 4abf
000002f0: 6c5f 23be 0da0 b23c 6129 82be 54d6 153f
00000300: 966a 54be 5658 10bd c711 91bd c957 6ebe
00000310: f90b d1bd af38 06bf 3ecf 653e 4004 d53c
00000320: 17b6 473f 20ca 40bf a24f 5dbd 5834 63be
00000330: b2f6 91be 5166 04be 1241 823e 71b2 88be
00000340: 9584 bbbc 70a6 c0bd e03d 83be 438e 0d3d
00000350: a47b c83d 91e3 dabe e656 32bf 2f95 98be
00000360: fcb3 c4be b5c6 02bf 9bef 043e 2736 06bf
00000370: 3642 64be 31ec 60bd aa5a a93e 7046 733e
00000380: 6080 11bf 239c 41be 79b4 34bf 9007 ab3e
00000390: 24d5 b83e 9bc3 013f f4a6 90be 7528 183f
000003a0: c783 563e 107f 9b3e 38da 2a3f 50d6 18bc
000003b0: 2d0e 66be 7f92 433e c96a d3be 1e1d 2a3f
000003c0: f7fe a0be 0930 cfbd ddaa fa3e d1f5 983e
000003d0: e14d 57be 63c4 3f3e 3509 a13e 3ddd 2dbf
000003e0: 5df3 953e 40e8 303e 7751 ff3c 280e abbe
000003f0: 828a 653e 07d6 ab3e 246a c7be 9a93 2f3d

feature.bias_ih_l0_reverse f4 [512]
0.62010235 0.15496875 -0.6350248 0.33807486 0.31927747 -0.23269404 0.45507202 -0.1330775
0.06802692 0.45942232 0.20621534 0.054556653 -0.37523204 -0.08553896 -0.15654834 0.014445169
0.010805566 -0.3319782 -0.0094324155 0.2552715 -0.1863985 -0.1602915 0.1375633 -0.054968234
-0.004533797 0.24924085 -0.18230295 0.100906014 -0.1875749 -0.19288908 0.1482485 0.55262136
0.27317744 0.056635 0.35688365 0.1931135 -0.080221415 -0.3970988 0.22897588 0.3694967
0.12751333 0.34898624 -0.11981775 0.21504846 0.0061594066 0.3394045 0.029088868 0.052328937
0.25191888 -0.4031181 -0.18379025 0.067175634 0.14372422 0.07746337 0.0455566 -0.22238211
0.10271691 0.6589013 0.79816103 -0.094147876 -0.1438231 0.2615596 0.18306144 -0.14643295
0.40267256 -0.13152906 -0.2282863 0.04066075 -0.2299856 0.60950214 0.42973256 -0.07904779
0.31437156 0.76546025 -0.3249589 0.32374588 -0.07038254 0.5905857 0.7493603 -0.33322927
-0.040970873 0.06997135 -0.6897308 -0.25189176 0.09785298 0.066708036 0.15965265 -0.10980015
0.11110697 0.12658656 0.09740316 0.13231869 -0.19760054 0.20373556 0.06336494 0.4159332
0.17512342 -0.074437805 0.026458245 0.5604603 -0.098492734 -0.21119781 0.63622653 0.28667787
-0.16840653 0.2886304 0.21432285 0.26945007 0.22501472 0.28144783 1.0349766 -0.15562606
0.018550048 -0.08346323 0.08032297 0.09437288 -0.08940581 0.65089023 0.02038943 0.31202003
0.07205378 -0.054772157 0.43709052 0.03144921 0.13197537 -0.035692405 0.19259878 0.048708733
-0.3280965 0.05639385 -0.09196811 -0.092747085 0.0873186 -0.11815293 -0.022437029 0.3493133
-0.25062028 0.14644995 -0.7365891 -0.03817347 0.2767799 0.32142192 -0.073678635 0.115151495
0.05018369 -0.28881285 -0.43049437 -0.044693988 0.30855104 -0.34908435 -0.2745808 -0.05602652
-0.17753494 -0.06825744 0.3539185 -0.338834 0.6080595 0.17043275 0.09365047 -0.49937722
-0.23630777 0.64703584 0.23925611 -0.53793865 -0.4134118 0.10519164 -0.34841892 -0.5419058
-0.1934239 -0.55454004 0.23101242 -0.21618898 -0.33243296 0.17811969 -0.5482825 0.5027601
0.010138435 -0.19119465 -0.17445287 0.30265346 -0.32368287 -0.1559251 0.21942446 -0.02020272
0.024263809 0.039832316 0.03685562 0.47057748 -0.33978707 0.176199 -0.17635207 0.4844313
-0.14821379 0.041726787 0.23481767 -0.43322337 1.0012969 -0.6379358 -0.6426724 0.057036463
-0.008710478 0.121346556 -0.11890403 0.2314064 -0.099201426 -0.60753673 -0.37916115 0.31724325
-0.20152092 -0.12987359 0.45892644 0.396415 0.26418114 -0.25409284 -0.17900428 -0.10529312
-0.2816483 0.27012816 -0.063589215 -0.15809305 0.11253544 0.032715946 -0.0019347067 -0.6715623
-0.4086875 -0.006885518 0.24470924 -0.31420854 -0.52437854 -0.0313775 -0.1081683 0.0772989
0.06492478 -0.07348457 0.0045466786 -0.38118574 0.44106087 -0.40943554 0.4550504 0.51498175
-0.09658836 -0.12853758 -0.62890846 0.3760564 -0.22913781 -0.12149187 0.8216906 -0.43422854
-0.14347336 -0.16006921 -0.45539427 0.14711903 0.23325396 0.11533545 0.1455928 0.12283456
00000000: 07bf 1e3f 21b0 1e3e fc90 22bf 2618 ad3e
00000010: 5678 a33e 5947 6ebe 33ff e83e 7845 08be
00000020: b351 8b3d 6739 eb3e 1d2a 533e cc76 5f3d
00000030: 6a1e c0be 0d2f afbd 354e 20be 6eab 6c3c
00000040: d409 313c 0cf9 a9be 6b8a 1abc f2b2 823e
00000050: 40df 3ebe 7423 24be 65dd 0c3e 5f26 61bd
00000060: 3f90 94bb fe38 7f3e a0ad 3abe d0a7 ce3d
00000070: a213 40be b784 45be 74ce 173e 9878 0d3f
00000080: eadd 8b3e 1afa 673d 74b9 b63e 8cbf 453e
00000090: 204b a4bd 8950 cbbe a778 6a3e ac2e bd3e
000000a0: db92 023e 53ae b23e 0263 f5bd aa35 5c3e
000000b0: d9d4 c93b 6dc6 ad3e c74b ee3c de56 563d
000000c0: 83fb 803e 7f65 cebe 8333 3cbe 6193 893d
000000d0: 712c 133e 1ea5 9e3d 8f99 3a3d 23b8 63be
000000e0: 3e5d d23d c1ad 283f 4854 4c3f 9ad0 c0bd
000000f0: 5d46 13be 24eb 853e 7574 3b3e 85f2 15be
00000100: 192b ce3e 8eaf 06be e2c3 69be e38b 263d
00000110: 5881 6bbe 5508 1c3f e805 dc3e cfe3 a1bd
00000120: 4ff5 a03e 34f5 433f 0361 a6be 05c2 a53e
00000130: b924 90bd a030 173f 14d6 3f3f 079d aabe
00000140: 13d1 27bd 244d 8f3d 3392 30bf f5f7 80be
00000150: 2567 c83d 399e 883d fc7b 233e e7de e0bd
00000160: 0d8c e33d e89f 013e 4f7b c73d 8d7e 073e
00000170: cc57 4abe 0ea0 503e 7ac5 813d 32f5 d43e
00000180: 8e53 333e d972 98bd f6be d83c 547a 0f3f
00000190: 8fb6 c9bd 3d44 58be bedf 223f 71c7 923e
000001a0: c372 2cbe 5dc7 933e 7377 5b3e 5cf5 893e
000001b0: 426a 663e ee19 903e 1d7a 843f 705c 1fbe
000001c0: 45f6 973c c5ee aabd 5f80 a43d 9246 c13d
000001d0: 651a b7bd bea0 263f bc07 a73c 17c1 9f3e
000001e0: ef90 933d c558 60bd 54ca df3e e3d0 003d
000001f0: 8d24 073e 3332 12bd 9d38 453e cf82 473d
00000200: 44fc a7be 3dfd 663d c759 bcbd 2ff2 bdbd
00000210: 18d4 b23d 2afa f1bd dccd b7bc 31d9 b23e
00000220: 4d51 80be faf6 153e 1a91 3cbf c95b 1cbd
00000230: 18b6 8d3e 6a91 a43e d3e4 96bd 8cd4 eb3d
00000240: 6a8d 4d3d 47df 93be c269 dcbe 0b11 37bd
00000250: 67fa 9d3e 2fbb b2be db95 8cbe 107c 65bd
00000260: b8cb 35be 8fca 8bbd ce34 b53e a67b adbe
00000270: caa9 1b3f ec85 2e3e d1cb bf3d 5fae ffbe
00000280: aafa 71be 24a4 253f 8eff 743e 59b6 09bf
00000290: b6aa d3be b76e d73d f763 b2be 57ba 0abf
000002a0: ea10 46be 56f6 0dbf 858e 6c3e a560 5dbe
000002b0: a734 aabe 0265 363e 3e5c 0cbf e3b4 003f
000002c0: ae1b 263c 88c8 43be c6a3 32be 65f5 9a3e
000002d0: c3b9 a5be d4aa 1fbe ceb0 603e 2d80 a5bc
000002e0: e5c4 c63c 3627 233d ebf5 163d 88ef f03e
000002f0: 92f8 adbe 836d 343e a395 34be 6107 f83e
00000300: 5bc5 17be b5e9 2a3d 0b74 703e 74cf ddbe
00000310: 7f2a 803f c34f 23bf 2e86 24bf 119f 693d
00000320: 65b6 0ebc 8b84 f83d f583 f3bd cdf5 6c3e
00000330: 1e2a cbbd 8787 1bbf 6921 c2be b56d a23e
00000340: 805b 4ebe 95fd 04be 68f8 ea3e e8f6 ca3e
00000350: c042 873e 7518 82be e64c 37be eba3 d7bd
00000360: 3534 90be 3d4e 8a3e 103b 82bd 25e3 21be
00000370: fb78 e63d 2801 063d fc95 fdba 82eb 2bbf
00000380: 7d3f d1be e99f e1bb 0f95 7a3e f1df a0be
00000390: ac3d 06bf b285 00bd 5787 ddbd e34e 9e3d
000003a0: 48f7 843d 147f 96bd 4efc 943b c72a c3be
000003b0: bbd2 e13e 89a1 d1be 5efc e83e d8d5 033f
000003c0: 1ed0 c5bd 5b9f 03be 2500 21bf 778a c03e
000003d0: 1aa3 6abe bbd0 f8bd 515a 523f 3453 debe
000003e0: aeea 12be 2fe9 23be 7029 e9be 5fa6 163e
000003f0: 20da 6e3e fe34 ec3d 4716 153e b090 fb3d

feature.bias_hh_l0_reverse f4 [512]
0.42555222 0.19185077 -0.6007205 0.31541067 0.41844684 -0.36767662 0.5127587 -0.17241228
-0.005468932 0.36887005 0.07337545 0.103471406 -0.29060078 -0.14396302 -0.20947999 0.11109348
-0.008178147 -0.26442787 0.056909602 0.14785907 -0.12181301 -0.09615614 0.21418284 -0.046208855
-0.029322263 0.15082128 -0.30187273 0.014601277 -0.15988015 -0.14294638 0.10160932 0.50017554
0.4220195 -0.01573618 0.3354714 0.12249962 0.06415661 -0.3455119 0.2749079 0.23001191
-0.026314273 0.24740985 0.017704884 0.3353947 0.006492932 0.4653923 0.09176493 0.02132184
0.13783826 -0.35044116 -0.38444045 0.0054405485 0.13854766 0.07483761 0.09737588 -0.066847645
0.15816721 0.51215136 0.6875371 -0.113171585 -0.035598967 0.23320535 0.12508471 -0.039941896
0.3481188 -0.14525998 -0.095490724 0.11696119 -0.0867387 0.63224024 0.1680199 -0.021578358
0.35590982 0.65788144 -0.25248298 0.3202288 0.017877067 0.5797446 0.6947461 -0.4720576
-0.046828225 0.096512385 -0.7334362 -0.20829791 0.12549298 -0.06788671 0.10234623 -0.18011832
-0.02564902 0.10198205 0.043659896 -0.0065042926 -0.1767222 0.08842352 0.12588538 0.46704492
0.21815398 0.017934311 -0.04551474 0.62313604 0.0018688823 -0.16574074 0.4360497 0.2803686
-0.08383435 0.24433115 0.2626962 0.24716423 0.17215294 0.14972757 1.0555447 -0.017865222
0.00061047444 -0.084675096 0.08411321 0.13389184 0.003662188 0.8277831 -0.046107426 0.25515786
-0.034425307 -0.1445305 0.46234098 -0.053062532 0.16413102 -0.1096373 -0.03722896 0.12586096
-0.34072948 0.04081689 -0.12102136 -0.24305667 -0.08230064 -0.033874426 0.10119655 0.40576342
-0.12443655 0.22531173 -0.62912786 0.03791586 0.09893839 0.2114111 -0.06504264 0.17301056
0.1277635 -0.4302609 -0.27862886 -0.00765653 0.2677323 -0.2594076 -0.18607509 -0.049386922
-0.1218672 0.060389984 0.3078376 -0.29628572 0.44474787 0.1001024 0.10943077 -0.5947788
-0.34811 0.63105994 0.18309072 -0.42952672 -0.38731807 0.15736094 -0.35098743 -0.5358685
-0.08332813 -0.5704992 0.41390553 -0.1108416 -0.30992377 0.35669488 -0.62329865 0.60307497
0.06227143 -0.04067375 -0.13691501 0.2946283 -0.33662558 -0.14013395 0.2781136 0.035432357
0.02790578 0.13867763 0.06735535 0.45538434 -0.277614 0.21714236 -0.23097901 0.4579622
-0.09208653 -0.088065006 0.1775939 -0.44563586 0.92432755 -0.6541656 -0.52736807 0.09002497
-0.0024679971 0.094084114 -0.2386094 0.24727702 -0.122627825 -0.6904853 -0.2087655 0.21349083
-0.24235673 -0.076861575 0.34011224 0.5061391 0.14140604 -0.24490923 -0.25742897 -0.23792277
-0.14316635 0.2689837 -0.003665836 -0.21194862 0.14371245 0.19076566 0.021414526 -0.7854598
-0.43149218 -0.06550664 0.30834574 -0.24541059 -0.28422955 -0.0007824466 -0.21324646 0.056344982
0.11689711 -0.15594877 0.0695539 -0.33849725 0.45629898 -0.3422024 0.6058171 0.58941525
-0.32452795 0.07797098 -0.5292499 0.27953818 -0.07793342 -0.07411624 0.79667187 -0.37473992
-0.28809607 -0.17068516 -0.46704558 0.12125604 0.32600707 0.0183336 -0.07124883 0.17107402
00000000: fbe1 d93e 8774 443e d2c8 19bf 827d a13e
00000010: aa3e d63e 1c40 bcbe 2744 033f d88c 30be
00000020: ba34 b3bb 89dc bc3e de45 963d d1e8 d33d
00000030: a0c9 94be 0b6b 13be ec81 56be fa84 e33d
00000040: a2fd 05bc 1763 87be 0b1a 693d 5e68 173e
00000050: 1979 f9bd 83ed c4bd bf52 5b3e 7f45 3dbd
00000060: 3e35 f0bc e570 1a3e 108f 9abe 323a 6f3c
00000070: 9fb7 23be 8960 12be 8c18 d03d 810b 003f
00000080: f112 d83e 29e9 80bc e8c2 ab3e 15e1 fa3d
00000090: 8a64 833d f0e6 b0be bac0 8c3e 3e88 6b3e
000000a0: 0891 d7bc 0259 7d3e d509 913c dbb8 ab3e
000000b0: a9c2 d43b e647 ee3e 40ef bb3d 24ab ae3c
000000c0: 7925 0d3e 066d b3be 61d5 c4be a146 b23b
000000d0: 70df 0d3e 7644 993d 016d c73d 6be7 88bd
000000e0: 96f6 213e 5a1c 033f 6e02 303f 81c6 e7bd
000000f0: 39d0 11bd 62cd 6e3e 3516 003e 1d9a 23bd
00000100: a13c b23e 08bf 14be a490 c3bd 5989 ef3d
00000110: 0fa4 b1bd 7fda 213f 690d 2c3e 19c5 b0bc
00000120: d039 b63e eb6a 283f 7345 81be 07f5 a33e
00000130: ed72 923c 246a 143f e1da 313f 89b1 f1be
00000140: f4ce 3fbd 49a8 c53d 7ac2 3bbf 0c4c 55be
00000150: 3b81 003e 3008 8bbd e69a d13d f070 38be
00000160: e51d d2bc f7db d03d b8d4 323d f621 d5bb
00000170: aaf6 34be 6417 b53d 19e8 003e 8320 ef3e
00000180: c263 5f3e faea 923c aa6d 3abd d885 1f3f
00000190: 49f5 f43a f1b7 29be e841 df3e 798c 8f3e
000001a0: 58b1 abbd f231 7a3e 1e80 863e 9f18 7d3e
000001b0: dc48 303e 2f52 193e 171c 873f 165a 92bc
000001c0: 3f08 203a 236a adbd 8c43 ac3d f11a 093e
000001d0: 5201 703b 98e9 533f 24db 3cbd 0da4 823e
000001e0: 8d01 0dbd ceff 13be f5b7 ec3e 1958 59bd
000001f0: f611 283e 8589 e0bd 657d 18bd b2e1 003e
00000200: 1874 aebe 9c2f 273d 0cda f7bd d9e3 78be
00000210: 3d8d a8bd e9bf 0abd 2340 cf3d 39c0 cf3e
00000220: 97d8 febd 1eb8 663e 860e 21bf a94d 1b3d
00000230: 36a0 ca3d 277c 583e 1335 85bd ae29 313e
00000240: 6fd4 023e 284b dcbe 71a8 8ebe a1e3 fabb
00000250: 3514 893e 13d1 84be 788a 3ebe f149 4abd
00000260: 8395 f9bd 7d5b 773d e49c 9d3e c3b2 97be
00000270: feb5 e33e 7d02 cd3d 3d1d e03d 6c43 18bf
00000280: 793b b2be 258d 213f 227c 3b3e edea dbbe
00000290: 8e4e c6be 3a23 213e a0b4 b3be ae2e 09bf
000002a0: f0a7 aabd 3c0c 12bf 6deb d33e ec00 e3bd
000002b0: 54ae 9ebe b6a0 b63e 8090 1fbf 1f63 1a3f
000002c0: 5410 7f3d 8599 26bd 7333 0cbe 85d9 963e
000002d0: 305a acbe 467f 0fbe e864 8e3e 8521 113d
000002e0: aa9a e43c 8201 0e3e 9af1 893d 2328 e93e
000002f0: 6c23 8ebe 915a 5e3e c385 6cbe 057a ea3e
00000300: dd97 bcbd 6d5b b4bd 2ddb 353e 622a e4be
00000310: bba0 6c3f 6677 27bf 9801 07bf 035f b83d
00000320: 1fbe 21bb 2caf c03d 0656 74be 3036 7d3e
00000330: 4c24 fbbd a5c3 30bf a0c6 55be 579d 5a3e
00000340: 5d2c 78be 9a69 9dbd 3123 ae3e 5592 013f
00000350: bfcc 103e 7cc9 7abe bbcd 83be 07a2 73be
00000360: 339a 12be 3bb8 893e 863e 70bb 0f09 59be
00000370: 5b29 133e 1358 433e 846d af3c e513 49bf
00000380: 8bec dcbe 5828 86bd 7edf 9d3e ea4c 7bbe
00000390: 8986 91be 1a1d 4dba 485d 5abe ffc9 663d
000003a0: c167 ef3d 09b1 1fbe 4672 8e3d 834f adbe
000003b0: 05a0 e93e 2735 afbe d416 1b3f ebe3 163f
000003c0: 8728 a6be 40af 9f3d ec7c 07bf a11f 8f3e
000003d0: 8f9b 9fbd 41ca 97bd b0f2 4b3f e9dd bfbe
000003e0: 5481 93be 17c8 2ebe 9920 efbe 1655 f83d
000003f0: 66ea a63e 5930 963c e8ea 91bd 072e 2f3e
