pretrained_models/comick-35-context-size.pth (torch, 821283 bytes, 10 tensors)

feature.weight_ih_l0 f4 [512, 64]
0.15985401 -0.9769312 0.040842444 0.6627622 0.104065366 -0.07259791 -0.91453224 0.14483507
0.6417294 -0.28439024 0.12713759 0.06828775 -0.25035393 0.5798844 2.0804532 -0.45454985
0.49248046 -0.06403965 -0.4585259 -1.4824553 0.6665653 0.03652222 0.053899188 -0.027932
0.1995804 -0.83498144 -0.58661914 -1.150815 -0.5628978 -0.714397 -0.15210655 0.3483805
0.357661 0.2095608 -0.044190098 -0.54116774 0.26657927 0.17600548 0.02561565 -0.13087913
0.094746865 0.07330794 -0.014234718 0.6006998 0.81623775 0.23757268 0.11913439 -0.11666221
0.09054442 -0.8848505 -0.2945575 1.2573539 -0.21191381 -0.3662843 -0.15326627 0.018628702
0.7401215 -0.17855322 -0.6827858 0.0063584354 -0.379317 0.16786824 1.1851773 0.31340083
-0.7356407 0.4807317 0.4750286 0.077264376 0.86236125 0.30397373 -0.51218736 -0.356611
0.07722961 1.503098 0.066033006 0.38825515 1.275048 -0.9696749 0.05999243 -0.1828861
-0.1531164 -0.028622685 -0.21376744 0.38927805 0.32180062 0.62645584 -1.0774581 -1.373
-0.19385824 0.24520762 0.35000724 -0.050440103 -0.93407464 -0.38770446 1.4382838 0.18814053
-0.5519867 -0.27153763 -1.0011214 -0.018318545 -0.30802676 0.8394955 0.7241395 -0.0996452
0.6281558 0.30307367 -0.562769 0.69890636 0.5221417 -1.1809431 -0.8570875 0.5020518
-0.005027202 -0.51574266 -0.37483507 0.55585617 -0.3930666 -0.21019885 0.18164803 -0.1374451
0.025453666 0.76217246 -1.1983234 0.016229877 0.7715271 -0.076606065 0.23896818 -0.2776739
-1.1839614 -0.85207367 -0.5827298 0.14554618 0.8850241 0.59747267 -0.55784714 0.33550358
-0.42883253 1.5797246 -0.64637715 -0.18103386 1.0461993 -1.1666669 -0.14168054 -0.08856281
0.39093414 0.46497488 -0.66605175 -0.25643125 0.28489923 -0.46382588 0.38557893 -0.09039969
0.5943573 0.4476318 -0.04543033 0.20372184 -0.38050872 -0.22151503 1.6749086 -0.937444
-0.28248596 0.51518303 -0.2638517 0.21653312 -1.0648311 -0.47815362 0.2700658 1.1219316
0.5089809 1.0710989 0.44328395 0.6575846 0.46125805 -1.4096119 0.25059536 0.2020786
-0.972747 -0.093132704 0.023790875 -0.7794098 0.8281686 -0.64420396 1.2006662 0.18511845
-0.7131154 0.75466424 1.1603028 0.24432077 -0.1634103 0.21316266 0.9409018 -0.3605963
0.2541445 -0.848217 -0.08806041 -0.36233994 -0.51538056 -0.004290433 0.4364188 -0.61371475
1.1613833 0.47354648 0.74516964 0.7133291 -0.72084624 0.030094262 0.5520325 -0.005666211
-0.10304117 -1.2671013 0.28735906 0.17283666 -0.19969642 -0.35015365 -0.01720406 0.5387025
-0.58215463 0.15769222 0.52894354 -0.3016666 -0.13359675 -0.39373013 -0.40654022 -0.36324224
0.20546229 0.255884 0.5043719 -1.0729444 0.91332775 -1.0106038 -0.20334588 0.13366595
0.113245316 0.037295405 -0.41474602 0.2013483 -0.21782814 0.05697133 -0.31666833 0.52289134
-0.6245023 -0.19294664 -0.4658773 0.029513154 0.428608 0.05275726 -0.58224076 -0.09257149
0.050950326 -0.22912505 0.06548157 0.027317194 -0.6424896 0.21091974 0.44594064 -0.3195379
00000000: c5b0 233e 2a18 7abf 684a 273d c9aa 293f
00000010: 3920 d53d 37ae 94bd c91e 6abf a54f 143e
00000020: 6148 243f 999b 91be 5b30 023e 73da 8b3d
00000030: 642e 80be 4e73 143f 2526 0540 c2ba e8be
00000040: 6626 fc3e 3827 83bd e8c3 eabe 18c1 bdbf
00000050: 06a4 2a3f 5398 153d 65c5 5c3d a6d1 e4bc
00000060: ce5e 4c3e 58c1 55bf ac2c 16bf e84d 93bf
00000070: 121a 10bf b9e2 36bf d2c1 1bbe ee5e b23e
00000080: 581f b73e 1b97 563e ad00 35bd f889 0abf
00000090: 147d 883e c83a 343e e9d7 d13c 2e05 06be
000000a0: a50a c23d 7922 963d bc38 69bc 76c7 193f
000000b0: f5f4 503f 4146 733e bbfc f33d 99ec eebd
000000c0: 5a6f b93d 9085 62bf 3ed0 96be f9f0 a03f
000000d0: efff 58be 9e89 bbbe d5f1 1cbe 389b 983c
000000e0: 9a78 3d3f a8d6 36be 0dcb 2ebf 6c5a d03b
000000f0: d635 c2be a7e5 2b3e e4b3 973f 1376 a03e
00000100: f352 3cbf 7722 f63e f336 f33e c93c 9e3d
00000110: b5c3 5c3f 72a2 9b3e b61e 03bf b895 b6be
00000120: 8f2a 9e3d 8465 c03f 503c 873d 61c9 c63e
00000130: c634 a33f 9d3c 78bf 9fba 753d 7e46 3bbe
00000140: 8cca 1cbe 1f7a eabc dae5 5abe 744f c73e
00000150: 0dc3 a43e 695f 203f 26ea 89bf 77be afbf
00000160: c682 46be b517 7b3e 2634 b33e 489a 4ebd
00000170: 841f 6fbf 3381 c6be af19 b83f e9a7 403e
00000180: 004f 0dbf fb06 8bbe bf24 80bf c610 96bc
00000190: afb5 9dbe 2de9 563f 3561 393f c812 ccbd
000001a0: d2ce 203f 792c 9b3e a111 10bf 87eb 323f
000001b0: 14ab 053f 2529 97bf 166a 5bbf 7786 003f
000001c0: 3abb a4bb b607 04bf 62ea bfbe 974c 0e3f
000001d0: 0740 c9be 5e3e 57be f101 3a3e 69be 0cbe
000001e0: 3584 d03c bc1d 433f a962 99bf 85f4 843c
000001f0: cd82 453f a4e3 9cbd 13b4 743e 462b 8ebe
00000200: 0c8c 97bf 8021 5abf c82d 15bf 0f0a 153e
00000210: f090 623f f8f3 183f 12cf 0ebf 20c7 ab3e
00000220: f08f dbbe 6a34 ca3f f978 25bf f160 39be
00000230: dce9 853f 5755 95bf b414 11be 6b60 b5bd
00000240: 8528 c83e 3011 ee3e 5e82 2abf f54a 83be
00000250: 50de 913e 967a edbe 9a6a c53e 7923 b9bd
00000260: cd27 183f ff2f e53e 2715 3abd 759c 503e
00000270: 0ad2 c2be d6d4 62be 6863 d63f 54fc 6fbf
00000280: 00a2 90be 09e3 033f 9217 87be dcba 5d3e
00000290: 634c 88bf 8dd0 f4be 1146 8a3e 749b 8f3f
000002a0: 924c 023f c519 893f 1df6 e23e 7757 283f
000002b0: 042a ec3e 2a6e b4bf 094e 803e b1ed 4e3e
000002c0: f305 79bf 5cbc bebd 15e5 c23c 6787 47bf
000002d0: db02 543f 8dea 24bf 6eaf 993f b18f 3d3e
000002e0: bb8e 36bf ad31 413f cd84 943f 392f 7a3e
000002f0: 0855 27be 5047 5a3e f1de 703f 14a0 b8be
00000300: 3a1f 823e c024 59bf 0459 b4bd 9f84 b9be
00000310: fbef 03bf c396 8cbb 4972 df3e 691c 1dbf
00000320: 35a8 943f af74 f23e 70c3 3e3f bc9c 363f
00000330: 6189 38bf 3e88 f63c 0052 0d3f 9fab b9bb
00000340: 4007 d3bd 6030 a2bf ba20 933e 18fc 303e
00000350: 387d 4cbe 5747 b3be 87ef 8cbc 68e8 093f
00000360: 1608 15bf 127a 213e d868 073f 0b74 9abe
00000370: 96cd 08be ff96 c9be 0a26 d0be e3fa b9be
00000380: b564 523e 3a03 833e 841e 013f 3e56 89bf
00000390: d9cf 693f 775b 81bf e739 50be badf 083e
000003a0: 29ed e73d 11c3 183d 9759 d4be 402e 4e3e
000003b0: 570e 5fbe c55a 693d 5a22 a2be 35dc 053f
000003c0: 62df 1fbf ce93 45be 7887 eebe 92c5 f13c
000003d0: 8272 db3e ff17 583d bb0d 15bf 1f96 bdbd
000003e0: 4ab1 503d c29f 6abe 341b 863d 4fc8 df3c
000003f0: 337a 24bf 58fb 573e 5552 e43e 799a a3be

feature.weight_hh_l0 f4 [512, 128]
0.38967317 -0.12920839 -0.4076478 -0.12869972 -0.09139078 0.01791043 -1.2538865 0.08107622
-0.15964994 -0.16902088 -0.13106053 0.24940571 -0.20560949 0.3103513 0.48235673 -0.14543508
0.7419358 0.49839884 0.0031789152 0.16021343 0.08425393 0.051665757 0.3979994 0.39567348
0.8180097 -0.12855339 -0.36812556 -0.5115928 -0.22340505 -0.1438243 1.0559739 0.044228476
0.348108 -0.18948399 0.18337727 -0.21580163 0.11189182 -0.57780623 0.5073499 -0.26853514
-0.3096763 0.43282232 -0.1605433 -0.54032713 0.45664987 0.044390343 0.78768134 0.3212266
-0.14094499 0.014620741 0.029168714 0.32030445 0.04101421 -1.0054306 0.45333767 0.02397233
0.30995792 -0.033198293 0.46712863 -1.0733091 -0.6916344 -0.66004115 0.40697706 -0.2464178
0.0370824 0.18164465 0.22497302 0.41295263 0.34421155 0.62990004 -0.21953908 0.9939699
0.2389582 -0.24286121 -0.20531467 -0.41534787 1.4679122 0.27678972 -0.98346984 0.17488468
-1.0308442 0.93906116 -0.3726076 0.09194261 -0.41999027 0.31295985 0.6635933 -0.21626814
-0.46312717 -0.46755633 0.49381065 -0.032867245 0.47318396 -0.6821819 -0.23277889 -1.1646326
-0.10719984 0.22539474 0.14983287 -0.259464 0.2499332 0.35201234 1.0174706 -0.0139309345
0.34017923 -0.043740306 -0.9560999 0.1092633 0.06575017 -0.008156825 0.75804335 0.00028317852
0.84109634 -0.57382756 0.30367714 -0.10421009 -0.7590888 -0.10663358 0.35189748 -0.23221557
-0.9389862 -0.016031092 -0.46938053 -1.3531736 -0.7444714 0.016036296 0.13024363 -0.38565627
1.3633009 0.025767505 -0.411077 0.5986987 -0.31855533 -0.8861 0.8111158 0.5993425
-0.8561495 0.4330238 -0.38153693 -0.8147571 1.6371516 -0.4596375 0.5973435 0.46656594
-0.09228211 -0.4190055 0.6167584 0.24574721 -0.12173078 0.6877548 -0.19464462 0.5739768
-0.40005502 -0.20472036 1.1033235 -0.27955928 0.3011383 1.1969216 -0.7862749 0.5835098
-0.9164153 -0.12135771 -0.33016244 -0.6861931 0.6518531 -0.4090823 -0.24730717 -0.15994097
0.0030972639 0.30621728 0.009405957 -0.42007634 -0.5059599 0.6778229 0.6074953 -0.20907842
-0.16135599 -0.42884392 -0.6148823 0.9812939 0.05099563 0.1959094 0.6273968 -0.42791963
-0.29517335 0.117819905 0.06812066 -0.45623866 -0.2417252 -1.1107956 0.79785925 -0.8375506
-0.54721195 -0.45741853 0.08131765 -0.13606064 -0.7123974 0.11675845 0.11425267 -0.6946287
-0.18453069 0.5184486 -0.10752341 -0.38949576 -0.26292565 0.020097379 0.72850627 0.4260761
-0.15124127 0.8086862 0.32445344 -0.49483994 0.463182 0.5405981 0.6009881 -0.37427786
0.47063306 -0.69740933 -0.6994285 0.57838756 0.7797397 0.06954521 -0.86947495 -0.31694406
0.50114334 -0.3296439 1.1179203 -0.38739455 0.17943347 0.52057564 0.4246993 -0.52057153
0.3244211 -0.9088873 0.89171636 -0.44127342 0.016232174 0.36234346 0.22388566 -0.8649966
1.4277463 0.35919607 -1.0389827 -0.16941206 0.012003412 0.05062108 0.9999993 -0.864645
-0.21862449 0.93245393 -0.68644017 -0.029839514 0.52574193 0.5507955 -0.006095159 -0.05851401
00000000: 3e83 c73e 344f 04be 36b7 d0be dcc9 03be
00000010: 172b bbbd e5b8 923c 5a7f a0bf 4a0b a63d
00000020: 467b 23be cf13 2dbe bb34 06be 3664 7f3e
00000030: 4b8b 52be 5ee6 9e3e 76f7 f63e efec 14be
00000040: 81ef 3d3f 222e ff3e 5955 503b fd0e 243e
00000050: 538d ac3d 799f 533d 94c6 cb3e b795 ca3e
00000060: 1569 513f 80a3 03be f47a bcbe bff7 02bf
00000070: 4bc4 64be ad46 13be 272a 873f eb28 353d
00000080: 363b b23e 1708 42be 40c7 3b3e 1afb 5cbe
00000090: 8a27 e53d 1ceb 13bf afe1 013f 707d 89be
000000a0: e48d 9ebe e39a dd3e 7665 24be e152 0abf
000000b0: 03ce e93e a6d2 353d 7ca5 493f d077 a43e
000000c0: e253 10be d58b 6f3c 3af3 ee3c f2fe a33e
000000d0: 84fe 273d f3b1 80bf e01b e83e 9f61 c43c
000000e0: ceb2 9e3e effa 07bd 7c2b ef3e 3162 89bf
000000f0: f40e 31bf 75f8 28bf 4c5f d03e f354 7cbe
00000100: b7e3 173d 0e01 3a3e 545f 663e 876e d33e
00000110: 7f3c b03e 2141 213f dace 60be d074 7e3f
00000120: 75b1 743e 9cb0 78be 023e 52be 7aa8 d4be
00000130: 8ce4 bb3f 62b7 8d3e aec4 7bbf f814 333e
00000140: b4f2 83bf 5066 703f 6cc6 bebe 684c bc3d
00000150: f708 d7be 463c a03e 40e1 293f 6575 5dbe
00000160: 011f edbe 8b63 efbe c0d4 fc3e ce9f 06bd
00000170: 2b45 f23e 79a3 2ebf 975d 6ebe ae12 95bf
00000180: 978b dbbd e1cd 663e ca6d 193e 77d8 84be
00000190: 7dee 7f3e f63a b43e 7a3c 823f 933e 64bc
000001a0: f92b ae3e 0929 33bd f7c2 74bf 70c5 df3d
000001b0: 06a8 863d 34a4 05bc 210f 423f 9477 9439
000001c0: 1752 573f 5de6 12bf 927b 9b3e 1a6c d5bd
000001d0: a553 42bf b562 dabd e82b b43e ebc9 6dbe
000001e0: 6661 70bf a353 83bc a552 f0be cb34 adbf
000001f0: ad95 3ebf 8d5e 833c 965e 053e bd74 c5be
00000200: a580 ae3f 6016 d33c af78 d2be 5144 193f
00000210: af19 a3be 73d7 62bf 49a5 4f3f 836e 193f
00000220: 9d2c 5bbf 4cb5 dd3e cf58 c3be ec93 50bf
00000230: 2f8e d13f 9b55 ebbe 81eb 183f bbe1 ee3e
00000240: 67fe bcbd e487 d6be e1e3 1d3f 28a5 7b3e
00000250: fd4d f9bd b310 303f eb50 47be 25f0 123f
00000260: 03d4 ccbe 37a2 51be b439 8d3f 6522 8fbe
00000270: cd2e 9a3e ba34 993f 5049 49bf e660 153f
00000280: 319a 6abf 648a f8bd 0d0b a9be 5aaa 2fbf
00000290: d8df 263f 3c73 d1be 173e 7dbe 91c7 23be
000002a0: 77fb 4a3b 83c8 9c3e 711b 1a3c 3f14 d7be
000002b0: 9786 01bf cd85 2d3f d084 1b3f a718 56be
000002c0: 813a 25be 6e91 dbbe ed68 1dbf 1436 7b3f
000002d0: cbe0 503d 799c 483e 149d 203f 4818 dbbe
000002e0: f620 97be 904b f13d d882 8b3d 1d98 e9be
000002f0: d086 77be 8d2e 8ebf 8140 4c3f b769 56bf
00000300: 1516 0cbf c332 eabe de89 a63d 7b53 0bbe
00000310: ad5f 36bf 0e1f ef3d 4efd e93d 30d3 31bf
00000320: 9df5 3cbe 0cb9 043f 3c35 dcbd fd6b c7be
00000330: 319e 86be 42a3 a43c 637f 3a3f a626 da3e
00000340: fede 1abe 0f06 4f3f c31e a63e a95b fdbe
00000350: 3126 ed3e a364 0a3f 5bda 193f 59a1 bfbe
00000360: d1f6 f03e 6b89 32bf bf0d 33bf 3511 143f
00000370: 059d 473f b86d 8e3d e995 5ebf 7e46 a2be
00000380: ee4a 003f 16c7 a8be 0318 8f3f 9458 c6be
00000390: 68bd 373e 7244 053f 3072 d93e 2d44 05bf
000003a0: 861a a63e d7ac 68bf 8647 643f 97ee e1be
000003b0: 56f9 843c 1585 b93e 4842 653e 6b70 5dbf
000003c0: 64c0 b63f 8ce8 b73e 63fd 84bf 5b7a 2dbe
000003d0: f5a9 443c 0d58 4f3d f4ff 7f3f 6059 5dbf
000003e0: 19df 5fbe 4db5 6e3f 8bba 2fbf ff71 f4bc
000003f0: 0697 063f ef00 0d3f e6b9 c7bb 63ac 6fbd

feature.bias_ih_l0 f4 [512]
-0.25177652 0.7420002 -0.080062374 -0.16949916 0.007112227 -0.045327216 0.84978324 0.41301644
0.14900133 -0.081999324 0.2083299 0.021017428 0.15481456 0.19483791 1.0582657 0.21839541
0.08224484 -0.36784935 -0.2699281 1.1982284 -0.018228916 -0.46921408 -0.33524114 -0.14175911
0.55293137 0.15431695 0.5104323 0.32434446 0.60717195 -0.016903682 0.15186329 0.3714245
-0.6270021 0.09986253 -0.29569122 -0.30391836 1.0316881 -0.45872608 0.34687716 0.9287924
0.65987796 0.47288468 -0.32159764 -0.020903671 0.36200443 0.3633716 -0.22108543 0.24785046
0.21271919 0.11064401 0.45138267 -0.394997 -0.20208259 1.3058673 -0.13129206 -0.15838103
-0.108537234 0.4675682 0.391584 0.39697835 0.3098177 0.4727171 0.1478936 0.2145673
0.38474888 0.58828115 0.282156 -0.04087503 -0.12702933 0.5410962 -0.28946537 0.15109256
0.16067018 1.2808487 -0.041509874 1.1955372 -0.31977665 0.8447434 1.3394333 0.3299111
-0.5073824 0.06142715 0.51294225 0.4777826 0.33211982 -0.07218308 0.2789734 0.7880634
0.7412364 0.5082582 0.34553343 -0.043208882 -0.23054448 0.108946085 0.7329461 0.42661744
0.218893 0.048920456 0.38251027 0.44630396 0.4061381 -0.07539399 0.098038904 -0.3875492
-0.11082506 0.2976821 0.33931276 0.2580306 -0.35976097 0.77094847 1.52456 0.6690618
0.20581707 0.18265836 -0.023928277 -0.022287222 0.63942236 -0.14890914 -0.08656385 0.23306534
0.0876734 0.17200823 -0.045648005 -0.17077132 -0.124478154 0.08616809 0.40854245 -0.17164002
-0.25418413 -0.5581779 0.06054822 0.3400112 -0.3804138 -0.0038066192 -0.38842133 0.22251096
-0.07858639 0.21971968 -0.4640092 -0.11095041 -0.1942984 -0.034307484 -0.14233153 -0.58127815
0.2668473 0.37133536 0.04474869 -0.16316502 0.075032145 -0.55023193 0.02674758 -0.4470449
0.113622785 -0.8030452 0.20646808 -0.65950865 -0.64420027 -0.20065168 0.0041255304 -0.20575564
-0.05264502 0.5148323 -0.20914988 -0.11275 -0.6476342 -0.008247052 -0.25247598 0.7596067
0.5024725 -0.22217461 -0.28080627 -0.22383443 -0.11774922 0.2400975 -0.6117954 -0.086327426
-0.21181718 0.010822058 0.008790824 -0.24348162 -0.22736742 -0.8175329 -0.114911176 0.3209924
-0.5931475 -0.25192672 -0.32683575 -0.17474991 -0.19328184 0.02087185 -0.12272499 -0.79929954
-0.05512946 -0.36826798 -0.27512908 -0.63519824 -0.08311301 0.33495447 -0.36791685 -0.3258356
-0.23323101 -0.43908218 0.13175598 -0.5981283 -0.4117029 -1.069317 0.2042572 -0.17370774
0.051553365 0.08016767 -0.8146329 0.09522304 0.46526617 0.06169769 0.018259538 -0.15558629
-0.6910188 -0.2664912 -0.49927804 -0.42652324 -0.23377044 -0.36088327 -0.8038022 -0.12109589
-0.4635931 0.0097603295 0.31075835 -0.1593786 0.053097367 -0.07153986 -0.21402203 -0.3007361
-0.341485 0.21208048 -0.32764372 0.41766515 -0.31474605 -0.47840098 -0.1717666 -0.292254
-0.14841339 -0.09158648 -0.09561255 0.1466423 -0.63861316 0.028630696 -0.10389729 -0.4170109
-0.3872342 -0.22572969 0.0994073 -0.19910438 -0.19698322 -0.6928135 -0.29190144 -0.27879348
00000000: dae8 80be baf3 3d3f bef7 a3bd 3091 2dbe
00000010: af0d e93b 08a9 39bd 658b 593f e476 d33e
00000020: ce93 183e 43ef a7bd 6f54 553e be2c ac3c
00000030: b587 1e3e 9783 473e 4075 873f 0ca3 5f3e
00000040: fc6f a83d c056 bcbe 0434 8abe 8c5f 993f
00000050: cf54 95bc d43c f0be baa4 abbe 4d29 11be
00000060: e98c 0d3f 4305 1e3e b1ab 023f 7a10 a63e
00000070: 9f6f 1b3f 9779 8abc 0d82 1b3e 5a2b be3e
00000080: 3683 20bf ba84 cc3d d764 97be 309b 9bbe
00000090: 5b0e 843f 25de eabe e299 b13e 57c5 6d3f
000000a0: c3ed 283f f11d f23e 72a8 a4be 2d3e abbc
000000b0: a558 b93e d80b ba3e 3864 62be 83cc 7d3e
000000c0: 0fd3 593e 5499 e23d a11b e73e 0c3d cabe
000000d0: bdee 4ebe a926 a73f 6d71 06be a32e 22be
000000e0: c548 debd 1965 ef3e b37d c83e bf40 cb3e
000000f0: 6da0 9e3e fa07 f23e 6b71 173e 88b7 5b3e
00000100: cefd c43e 9899 163f c076 903e 936c 27bd
00000110: fa13 02be 4885 0a3f ce34 94be 02b8 1a3e
00000120: b986 243e daf2 a33f 4206 2abd 5d07 993f
00000130: c4b9 a3be 1a41 583f 8d72 ab3f 1cea a83e
00000140: d0e3 01bf 099b 7b3d 2f50 033f ec9f f43e
00000150: 9c0b aa3e b9d4 93bd 9ad5 8e3e 86be 493f
00000160: abc1 3d3f 361d 023f c2e9 b03e ccfb 30bd
00000170: da13 6cbe 201f df3d 5ba2 3b3f 9a6d da3e
00000180: 7d25 603e d160 483d 63d8 c33e f481 e43e
00000190: 55f1 cf3e 2a68 9abd 9fc8 c83d d96c c6be
000001a0: 40f8 e2bd ca69 983e 67ba ad3e 961c 843e
000001b0: 9732 b8be e15c 453f c824 c33f a247 2b3f
000001c0: b6c1 523e cb0a 3b3e 3c05 c4bc b193 b6bc
000001d0: 2fb1 233f a37b 18be 6348 b1bd aea8 6e3e
000001e0: 1d8e b33d ed22 303e 67f9 3abd adde 2ebe
000001f0: 67ee febd e578 b03d 7a2c d13e 67c2 2fbe
00000200: 6c24 82be bfe4 0ebf 6901 783d f315 ae3e
00000210: 99c5 c2be 7978 79bb 29df c6be ead9 633e
00000220: e7f1 a0bd 32fe 603e 9d92 edbe f839 e3bd
00000230: 29f6 46be 0186 0cbd 5bbf 11be a5ce 14bf
00000240: 36a0 883e ab1f be3e 674a 373d bb14 27be
00000250: 74aa 993d 00dc 0cbf be1d db3c 12e3 e4be
00000260: 10b3 e83d 5f94 4dbf 5e6c 533e 8fd5 28bf
00000270: 4fea 24bf a277 4dbe 752f 873b 9bb1 52be
00000280: 4ea2 57bd 0dcc 033f 632b 56be 79e9 e6bd
00000290: 5bcb 25bf a51e 07bc 8844 81be 9675 423f
000002a0: 0aa2 003f be81 63be d7c5 8fbe da34 65be
000002b0: 8126 f1bd 1edc 753e a09e 1cbf 6fcc b0bd
000002c0: 9ae6 58be 004f 313c 6307 103c 3f53 79be
000002d0: 01d3 68be d649 51bf 8d56 ebbd 1e59 a43e
000002e0: 84d8 17bf 8afc 80be 0457 a7be a4f1 32be
000002f0: adeb 45be 71fb aa3c 3d57 fbbd e59e 4cbf
00000300: 6ecf 61bd 9f8d bcbe b8dd 8cbe 5a9c 22bf
00000310: 2737 aabd 277f ab3e 995f bcbe ecd3 a6be
00000320: 1cd4 6ebe 61cf e0be 0aeb 063e f01e 19bf
00000330: b9ca d2be 61df 88bf cd28 513e 71e0 31be
00000340: 9f29 533d f32e a43d c88b 50bf 4c04 c33d
00000350: 5e37 ee3e b8b6 7c3d 0795 953c 0352 1fbe
00000360: 9ce6 30bf 8971 88be 5fa1 ffbe 4161 dabe
00000370: 8561 6fbe b1c5 b8be fbc5 4dbf 1f01 f8bd
00000380: 135c edbe cae9 1f3c b81b 9f3e 2534 23be
00000390: a07c 593d 7d83 92bd 9728 5bbe 15fa 99be
000003a0: 1fd7 aebe a02b 593e ebc0 a7be 35d8 d53e
000003b0: 6526 a1be f9f0 f4be 95e3 2fbe 51a2 95be
000003c0: aef9 17be b191 bbbd 83d0 c3bd 6629 163e
000003d0: 277c 23bf ec8a ea3c 1ac8 d4bd 7482 d5be
000003e0: 9043 c6be af25 67be 0e96 cb3d 05e2 4bbe
000003f0: f8b5 49be 3a5c 31bf 1b74 95be 05be 8ebe

feature.bias_hh_l0 f4 [512]
-0.22075611 0.54977477 0.03333992 -0.20586422 0.071269356 -0.07010175 0.8681179 0.41387782
0.078144036 -0.08964788 0.31408775 0.19197993 0.16555493 0.22519477 0.9969074 0.24490188
0.033348188 -0.23659301 -0.36208043 1.2120084 0.039561644 -0.38435882 -0.21462806 -0.014063225
0.59876496 0.31264013 0.561062 0.2508323 0.6450323 -0.16615668 0.122417755 0.3877205
-0.5449453 0.16673332 -0.1392201 -0.37752965 0.9561621 -0.41892883 0.3543029 0.9799493
0.6973504 0.48252022 -0.24451692 -0.21374257 0.51414424 0.25133497 -0.021029813 0.13408762
0.1487644 0.048920996 0.5119468 -0.16608852 -0.0755198 1.3970602 -0.052220255 -0.24652447
0.005086528 0.32696375 0.28933382 0.24970044 0.31047878 0.38051105 0.021822212 0.16969475
0.41836867 0.5823272 0.29244742 -0.09566259 -0.19950612 0.45464596 -0.3015342 0.25475693
0.23358458 1.2863016 -0.026338428 1.3524475 -0.263355 0.88873893 1.3209084 0.37541565
-0.43800324 -0.22024235 0.5372851 0.4988529 0.46151474 -0.08013024 0.17273204 0.8575526
0.6849858 0.51505727 0.4611223 -0.11376322 -0.1588813 0.21178283 0.6400989 0.38748416
0.18390746 -0.057577103 0.4219743 0.39204618 0.5263517 -0.055017844 0.22968972 -0.35379568
-0.07511081 0.3809803 0.48754972 0.018146591 -0.35037234 0.83338374 1.5370755 0.48522314
0.28267416 0.28601074 -0.10711703 0.011860403 0.85774636 -0.14652698 -0.070731096 0.21679124
0.044068728 0.10670494 -0.06475155 -0.21532415 -0.1934902 -0.0047563096 0.41746864 -0.3350124
-0.3371466 -0.5421601 0.08000811 0.43498886 -0.3346733 0.06608093 -0.5393305 0.17430505
-0.10496687 0.2708845 -0.39509976 -0.15138906 -0.115277655 0.037121445 -0.09778737 -0.5835566
0.28211144 0.38886923 0.0032492701 -0.21524866 0.07200056 -0.49343082 -0.07042124 -0.40793878
0.24341807 -0.8388278 -0.07456273 -0.75872296 -0.40814015 -0.43678895 -0.018567752 -0.09039243
-0.22845134 0.39767945 -0.27169716 -0.15927246 -0.67264855 -0.04379778 -0.20173144 0.8508331
0.3092815 -0.20182131 -0.23990613 -0.19193049 -0.15510032 0.18356554 -0.5527683 0.07605831
-0.24089967 -0.113559425 0.04914225 -0.16175096 -0.0771768 -0.8788098 -0.19546898 0.31428328
-0.5221371 -0.106941864 -0.36014977 -0.13862094 -0.040568117 -0.036070995 -0.1229356 -0.83224714
-0.12136716 -0.3972201 -0.052710008 -0.61279374 -0.062890075 0.33023286 -0.36143878 -0.25009474
-0.42020288 -0.5082911 0.19344778 -0.513732 -0.5943316 -1.0640577 0.038320884 -0.18895413
-0.15725048 0.029151095 -0.655861 0.22113235 0.44177756 0.13484167 -0.06414295 -0.076110214
-0.7375959 -0.24281804 -0.6402196 -0.4091136 -0.24876533 -0.47133827 -0.7740575 -0.21394396
-0.48476934 -0.01143861 0.24818954 -0.1685116 -0.013067604 0.03183426 -0.15811265 -0.50096375
-0.48511073 0.05576281 -0.30577177 0.32030585 -0.24412401 -0.3816538 -0.22074094 -0.42131063
-0.20295064 -0.10066906 -0.056476325 0.25499824 -0.68235713 0.008153198 -0.058981266 -0.35586333
-0.42876256 -0.18450138 -0.083007626 -0.06780732 -0.2806959 -0.5749599 -0.3293988 -0.36038592
00000000: e40d 62be 0abe 0c3f 718f 083d 12ce 52be
00000010: abf5 913d 8291 8fbd fa3c 5e3f cbe7 d33e
00000020: fb09 a03d 4f99 b7bd 1cd0 a03e 6396 443e
00000030: 3b87 293e 7599 663e 5335 7f3f 8fc7 7a3e
00000040: 1c98 083d 7045 72be 9b62 b9be 1723 9b3f
00000050: 640b 223d aeca c4be 75c7 5bbe 7169 66bc
00000060: a948 193f 5e12 a03e c2a1 0f3f 176d 803e
00000070: d620 253f fa24 2abe 29b6 fa3d 4d83 c63e
00000080: 8981 0bbf 24bc 2a3e b78f 0ebe 914b c1be
00000090: 0ac7 743f d77d d6be 3167 b53e f5dd 7a3f
000000a0: 8e85 323f e40c f73e a562 7abe 55df 5abe
000000b0: f59e 033f faae 803e b746 acbc 444e 093e
000000c0: b255 183e 6261 483d f20e 033f 1c13 2abe
000000d0: 20aa 9abd ded2 b23f e8e4 55bd e970 7cbe
000000e0: e4ac a63b cb67 a73e 9023 943e 79b1 7f3e
000000f0: 13f7 9e3e 58d2 c23e 7fc4 b23c 76c4 2d3e
00000100: 6b34 d63e 6513 153f abbb 953e bfea c3bd
00000110: 554b 4cbe 5bc7 e83e b162 9abe 806f 823e
00000120: cc30 6f3e 88a5 a43f b0c3 d7bc 001d ad3f
00000130: 77d6 86be 6584 633f 8713 a93f 7b36 c03e
00000140: f641 e0be 3687 61be 848b 093f a669 ff3e
00000150: a94b ec3e 531b a4bd abe0 303e 9188 5b3f
00000160: 3b5b 2f3f cbda 033f 3918 ec3e b1fc e8bd
00000170: c8b1 22be 99dd 583e 86dd 233f 5364 c63e
00000180: 3d52 3c3e f8d5 6bbd 040d d83e 47ba c83e
00000190: fcbe 063f 645a 61bd c833 6b3e b524 b5be
000001a0: b2d3 99bd da0f c33e 1ea0 f93e 29a8 943c
000001b0: 0164 b3be a358 553f e4be c43f 2b6f f83e
000001c0: abba 903e 0070 923e 2c60 dbbd 2352 423c
000001d0: 4495 5b3f 2b0b 16be 77db 90bd 86fe 5d3e
000001e0: 6981 343d 1f88 da3d 769c 84bd ef7d 5cbe
000001f0: 4c22 46be d1da 9bbb 73be d53e bf86 abbe
00000200: 7b9e acbe 01cb 0abf 4bdb a33d dcb6 de3e
00000210: 4c5a abbe 7055 873d 9011 0abf 067d 323e
00000220: dff8 d6bd 60b1 8a3e 844a cabe bc05 1bbe
00000230: b116 ecbd a80c 183d bf44 c8bd f763 15bf
00000240: e970 903e de19 c73e b5f1 543b 256a 5cbe
00000250: 0875 933d f7a2 fcbe 0339 90bd 5add d0be
00000260: 9642 793e 6bbd 56bf 58b4 98bd ab3b 42bf
00000270: bff7 d0be cda2 dfbe 661b 98bc ab1f b9bd
00000280: 26ef 69be a49c cb3e e41b 8bbe 5218 23be
00000290: b232 2cbf 4d65 33bd b092 4ebe 33d0 593f
000002a0: 255a 9e3e 3faa 4ebe f4a9 75be 6d89 44be
000002b0: 9ed2 1ebe 9bf8 3b3e 3982 0dbf 76c4 9b3d
000002c0: 67ae 76be d891 e8bd 6249 493d 0ba2 25be
000002d0: df0e 9ebd aef9 60bf 0529 48be bde9 a03e
000002e0: c7aa 05bf 5604 dbbd 8d65 b8be a6f2 0dbe
000002f0: c12a 26bd 2ebf 13bd a9c5 fbbd 260e 55bf
00000300: 588f f8bd 6f60 cbbe 73e6 57bd 0de0 1cbf
00000310: 83cc 80bd 4814 a93e 810e b9be 6b0c 80be
00000320: d524 d7be 5e1f 02bf 2d17 463e f183 03bf
00000330: 1e26 18bf 0b33 88bf 5cf6 1c3d 317d 41be
00000340: 4506 21be 47ce ee3c 82e6 27bf 8570 623e
00000350: ab30 e23e ef13 0a3e 615d 83bd acdf 9bbd
00000360: 16d3 3cbf 4ba5 78be 6fe5 23bf 5677 d1be
00000370: 57bc 7ebe 4053 f1be a228 46bf 2014 5bbe
00000380: b033 f8be 0269 3bbc 6625 7e3e 4e8e 2cbe
00000390: 8119 56bc a464 023d 48e8 21be 293f 00bf
000003a0: 6f60 f8be 8b67 643d 1e8e 9cbe 21ff a33e
000003b0: a5fb 79be 2068 c3be ea09 62be 07b6 d7be
000003c0: 4bd2 4fbe 952b cebd b853 67bd 218f 823e
000003d0: f5ae 2ebf fe94 053c 5796 71bd b833 b6be
000003e0: c486 dbbe eeed 3cbe e7ff a9bd 90de 8abd
000003f0: 5fb7 8fbe 9230 13bf f6a6 a8be 8184 b8be

feature.weight_ih_l0_reverse f4 [512, 64]
-0.07136975 -0.54335815 0.22587451 0.91185987 1.0931334 -0.43813697 -0.41505456 -0.7098889
0.24987154 0.761322 -1.0627702 0.20598459 -1.0667925 0.859357 0.39456925 -0.6282713
-0.15780617 -0.77312547 -0.15740705 0.99103177 -0.66955185 -0.5856468 0.6736307 0.44372338
-0.49195233 -0.51004106 -0.40922818 0.5767496 0.5344116 0.6618075 -0.19458027 -0.115584314
0.21043043 0.9595991 0.57378894 -0.42997247 0.60389924 -0.56631166 -0.15085496 0.8345397
-0.3609543 0.09263525 -0.7597167 -0.37964115 0.0340215 0.40961227 -0.24067664 0.41350994
0.3404965 -0.5142354 0.18428953 -0.37263834 -0.017257214 -0.09673504 -0.79379094 -0.2876471
-0.21175398 -0.18191597 -0.3485474 -0.06592501 0.21417454 -0.17302287 0.5261334 0.43951175
0.9044053 -0.13354878 0.7963305 1.3843471 -0.6896399 0.1651097 0.6373707 0.7999803
0.07814496 0.009491822 -0.54228526 -0.5279198 -0.84966 0.40885982 0.40506023 1.0109435
-0.10164321 -0.61108804 -0.7919787 0.6203418 0.7084349 0.5694413 -0.10602538 -0.1831451
-1.1251041 -0.05241806 -0.050665252 -0.0007475694 0.68960845 -0.29809606 0.11861682 0.9857657
-0.8151815 0.6245005 0.16426694 0.040627573 0.64123935 0.9522885 0.14461526 0.6200959
-0.53242385 -1.2548767 -0.552537 0.2879313 0.5629499 -0.6940248 0.43266952 -0.25144467
1.3312466 -0.20857777 0.005013891 -0.21649121 0.65452546 0.6723075 -0.27114353 0.3195369
-0.46964276 0.48033398 -0.7078162 -0.8772243 1.1122156 -0.8918865 0.00915153 -0.619362
-0.124050625 0.36628142 -0.1361469 -0.5606727 -0.43493983 -0.66137785 -0.78822786 0.06768595
-1.1379291 -0.32906273 -0.4001999 0.5631703 0.563082 -0.45228973 0.41230878 -0.35498738
0.5109506 0.40011534 -1.1111028 0.2680835 1.3113062 -0.4999273 0.46165055 0.14838858
0.23450074 -0.14374447 0.023054192 -1.4843607 -0.2861872 0.77072656 -0.255995 0.30011365
-0.577888 0.6060561 0.09112971 -0.31545657 -0.88263184 0.12137813 0.027753104 -0.7765274
0.19810222 -0.480588 0.20677057 0.308631 -0.6747471 -0.051132932 0.12640366 -0.8911236
-0.11012306 0.11882307 -0.22174808 0.3244196 -0.07017429 -0.07190459 -0.9325103 -0.14781639
-0.54378015 0.9387703 -0.08701755 -0.59536475 -0.41040194 0.4535204 0.6673511 -1.1311978
0.53778976 -0.596057 1.2737252 -0.9460635 0.91758865 0.4246754 0.81645167 0.042182922
0.8712667 -0.005577637 0.024693146 -0.72891736 0.041179158 0.30840698 -0.007103508 -0.06801692
0.2868705 0.53392816 0.6961077 -0.16577604 -0.055936985 0.2007735 0.71895057 0.9170773
0.36130306 0.013714551 0.2977195 -0.27906156 0.24323425 0.36034614 0.27122456 -0.32053268
0.8004495 -0.11845486 -0.68961376 0.6813567 -0.4143019 0.28203496 -1.0016663 -0.4663629
-0.2362447 0.0033069192 0.124399684 0.18352401 -0.58994347 0.449713 0.8816795 0.54489917
0.4623954 -1.015527 0.028462801 -1.0993013 -0.7425753 -0.70447767 -0.14770366 -0.39127257
0.81145495 0.06142136 0.4724356 0.334707 0.21845108 -0.23807804 -0.019569807 0.5244616
00000000: 4e2a 92bd 8519 0bbf a64b 673e a66f 693f
00000010: cceb 8b3f 7d53 e0be 0882 d4be 47bb 35bf
00000020: 53de 7f3e 00e6 423f db08 88bf a0ed 523e
00000030: a88c 88bf d2fe 5b3f fb04 ca3e 63d6 20bf
00000040: f197 21be 8deb 45bf 502f 21be 42b4 7d3f
00000050: c067 2bbf f3ec 15bf 1073 2c3f b62f e33e
00000060: 2de1 fbbe 0d92 02bf 5b86 d1be dda5 133f
00000070: 33cf 083f 376c 293f 0d40 47be 78b7 ecbd
00000080: 137b 573e 49a8 753f d5e3 123f 5a25 dcbe
00000090: 2499 1a3f cdf9 10bf b979 1abe 65a4 553f
000000a0: 01cf b8be 8db7 bd3d cb7c 42bf 5360 c2be
000000b0: 215a 0b3d b3b8 d13e f073 76be 93b7 d33e
000000c0: 8f55 ae3e eea4 03bf 65b6 3c3e 74ca bebe
000000d0: 005f 8dbc 051d c6bd e235 4bbf 7b46 93be
000000e0: 09d6 58be 2e48 3abe ce74 b2be b103 87bd
000000f0: 9250 5b3e e82c 31be aeb0 063f af07 e13e
00000100: 1b87 673f 03c1 08be 51dc 4b3f 4932 b13f
00000110: 3e8c 30bf 8412 293e ba2a 233f 82cb 4c3f
00000120: 770a a03d 9683 1b3c 35d3 0abf c125 07bf
00000130: 5183 59bf 1356 d13e 0e64 cf3e 9966 813f
00000140: 512a d0bd 4470 1cbf 1ebf 4abf b8ce 1e3f
00000150: fd5b 353f e8c6 113f d623 d9bd 648a 3bbe
00000160: 6903 90bf 52b4 56bd 5e86 4fbd 88f8 43ba
00000170: 2e8a 303f 0ca0 98be 60ed f23d 245b 7c3f
00000180: bcaf 50bf 44df 1f3f 9835 283e 1969 263d
00000190: 4328 243f 2ec9 733f 0616 143e 9bbe 1e3f
000001a0: ee4c 08bf cd9f a0bf 1173 0dbf bb6b 933e
000001b0: 7c1d 103f 9cab 31bf dc86 dd3e 5bbd 80be
000001c0: 4a66 aa3f 6995 55be 914b a43b dfaf 5dbe
000001d0: fb8e 273f 581c 2c3f 53d3 8abe 579a a33e
000001e0: 0475 f0be 56ee f53e 7133 35bf c691 60bf
000001f0: 155d 8e3f ac52 64bf 4df0 153c 828e 1ebf
00000200: 410e febd 3d89 bb3e 186a 0bbe 3f88 0fbf
00000210: 6fb0 debe 0f50 29bf 4dc9 49bf ee9e 8a3d
00000220: a9a7 91bf e97a a8be 00e7 ccbe ee2b 103f
00000230: 2426 103f 8592 e7be 231a d33e e8c0 b5be
00000240: a9cd 023f ebdb cc3e 9e38 8ebf 3e42 893e
00000250: e2d8 a73f 79f6 ffbe 765d ec3e 2df3 173e
00000260: f620 703e c031 13be 25dc bc3c 88ff bdbf
00000270: 2187 92be 564e 453f c711 83be 7fa8 993e
00000280: 78f0 13bf 7e26 1b3f 37a2 ba3d 8683 a1be
00000290: 29f4 61bf 1995 f83d 7a5a e33c 80ca 46bf
000002a0: 4fdb 4a3e a10f f6be aabb 533e e204 9e3e
000002b0: 3abc 2cbf c470 51bd f66f 013e ad20 64bf
000002c0: 3388 e1bd 8259 f33d ee11 63be 531a a63e
000002d0: 8ab7 8fbd b742 93bd ffb8 6ebf 2e5d 17be
000002e0: 2d35 0bbf 4053 703f 4236 b2bd d369 18bf
000002f0: 3420 d2be d333 e83e 86d7 2a3f 17cb 90bf
00000300: 97ac 093f 3197 18bf 6d09 a33f 3831 72bf
00000310: 17e7 6a3f 0e6f d93e fa02 513f 00c8 2c3d
00000320: 560b 5f3f 9cc4 b6bb 4849 ca3c 549a 3abf
00000330: 7aab 283d 85e7 9d3e 8bc4 e8bb 744c 8bbd
00000340: b1e0 923e 84af 083f 1d34 323f 32c1 29be
00000350: 2e1e 65bd 9297 4d3e 250d 383f 94c5 6a3f
00000360: b7fc b83e ffb2 603c b16e 983e 28e1 8ebe
00000370: 6612 793e 4a7f b83e f2dd 8a3e dc1c a4be
00000380: 42ea 4c3f 7698 f2bd 878a 30bf 656d 2e3f
00000390: 611f d4be e366 903e 9a36 80bf 1ec7 eebe
000003a0: 21ea 71be e6b8 583b 43c5 fe3d b8ed 3b3e
000003b0: 8906 17bf c840 e63e bfb5 613f 837e 0b3f
000003c0: 17bf ec3e cafc 81bf d22a e93c e8b5 8cbf
000003d0: 6a19 3ebf a658 34bf a13f 17be e154 c8be
000003e0: 83bb 4f3f f794 7b3d 14e3 f13e b75e ab3e
000003f0: a4b1 5f3e bbca 73be dc50 a0bc 1e43 063f

feature.weight_hh_l0_reverse f4 [512, 128]
-0.69547987 0.1083271 -0.70010054 -0.28514183 -0.018944725 -0.7426101 0.15958141 -0.42309675
0.010647753 0.071705155 -0.016010247 0.11696931 -0.5072588 0.21140286 -0.3934923 -0.12915505
0.330879 0.24261475 0.050522864 -0.51927257 0.2204091 0.0886981 0.59273833 0.21986924
-0.5978185 0.34338307 -0.097744904 -0.0662461 -0.4298321 -0.18976377 -0.57790476 -0.103669904
-0.0062563405 -0.01986729 -0.28773165 0.6437251 -0.034850363 -0.5237338 0.5741276 -0.22286129
0.6013565 -0.14954887 -0.52769834 -0.2794044 0.5757915 -0.528174 -0.03570281 -0.2562872
0.8338477 -0.50455236 -0.4235112 -0.23483787 0.19673124 0.15194808 -0.0411006 0.06784664
0.05385181 0.3051744 -0.04432952 -0.32384056 -0.067945875 -0.013200647 0.0008675361 -0.5315493
-1.2296023 -1.0586019 -0.07031859 -0.34591922 0.2884807 0.080727234 -0.015624897 0.53510076
-0.3362911 0.09964118 -0.21641085 0.32835242 0.4856771 0.4930735 0.18940578 -0.100907706
-0.15231052 0.7138834 -0.61853516 -0.17922705 -0.20061927 0.71501976 0.14339547 -0.5419614
0.14162044 0.5029181 0.033060048 -0.03348324 -0.12788527 0.7673676 -0.18698625 -0.072794
-0.049235202 -0.0607797 0.48270997 0.0016711802 -0.23786257 0.061466817 -0.08506116 -0.5701575
-0.04199867 -0.5852068 -0.07627508 0.6546742 0.0742194 -0.19849746 0.30001792 0.4943683
0.9914382 -0.91155994 0.15705895 -0.18403679 -0.33239225 -0.3107327 0.07330891 0.64337754
0.24641262 0.92679214 0.14467894 0.19251145 0.31026918 -0.7987105 -0.17964654 0.40257782
0.4047942 -1.0511173 0.04425367 -0.37639856 0.6573978 -0.35246512 -0.6249464 1.5156032
-0.4218584 0.05019763 0.77024 -0.62559557 0.23161383 -0.5288894 -0.013628264 -0.36784682
-0.8697019 0.16177626 0.2700746 -0.5809472 0.21123089 -0.095820755 0.16484106 -0.62765026
-0.29285884 0.8509448 -0.74528056 0.4171955 -0.7266634 0.6294234 0.5289413 -0.4990623
-0.45042974 0.06104092 -0.2959698 0.07968509 0.008518564 0.15132326 0.2990916 0.29034218
-0.98631173 0.5247313 0.32386735 0.008422467 0.4761447 -0.827244 0.094850615 -0.92735744
1.094886 -0.68282497 -0.106291816 0.079610325 -0.11390303 -0.301068 0.362081 -0.5828572
0.08951692 0.49105296 0.73545283 -0.6688186 0.438314 0.3189664 -0.07440202 -0.3363061
-0.32304215 -0.26162738 -0.22929412 0.3423832 -0.30319476 0.40964243 0.06482563 -0.06718155
-0.7262777 0.036396094 0.06302548 0.17426848 0.42758998 -0.679647 -0.5241192 0.17876792
-0.54495585 -0.06243102 0.98526543 0.02287078 0.2615395 -0.26139587 -0.40562698 -0.61521006
-0.7548391 -0.1957736 0.35509872 -0.18797715 -0.6490818 0.032497022 0.07479001 0.18348122
-0.27302548 -0.9199961 0.20618045 -0.45561495 -0.008104621 -0.09497946 -0.13657698 -0.15369928
-0.6800499 0.43883914 -0.025774097 -0.25936598 0.61833286 -0.18334028 0.45889503 0.35552004
0.014816818 -0.49500272 -0.21643102 0.6814642 0.6370077 -0.64485365 0.28936443 -0.03785025
-0.22009827 0.30493817 -0.08853633 -0.28359416 0.49412528 -0.42358997 0.7490851 0.6549943
00000000: f80a 32bf 99da dd3d ca39 33bf 1cfe 91be
00000010: f831 9bbc b21b 3ebf 4f69 233e 23a0 d8be
00000020: ea73 2e3c 27da 923d ec27 83bc 9b8d ef3d
00000030: b6db 01bf fe79 583e d377 c9be 3941 04be
00000040: f968 a93e 0070 783e 10f1 4e3d 0cef 04bf
00000050: ecb2 613e 59a7 b53d b3bd 173f 6725 613e
00000060: a20a 19bf e8cf af3e 7b2e c8bd 09ac 87bd
00000070: f412 dcbe 6f51 42be 91f1 13bf e350 d4bd
00000080: fd01 cdbb bac0 a2bc 9051 93be 2bcb 243f
00000090: 41bf 0ebd 6b13 06bf 07fa 123f c035 64be
000000a0: 80f2 193f 5723 19be 3d17 07bf 180e 8fbe
000000b0: 1267 133f 6936 07bf 1c3d 12bd 1338 83be
000000c0: 0b77 553f 582a 01bf 76d6 d8be 5779 70be
000000d0: ea73 493e 4798 1b3e 1a59 28bd 2ef3 8a3d
000000e0: b793 5c3d d23f 9c3e df92 35bd 6ece a5be
000000f0: 3527 8bbd 8747 58bc 5d6b 633a 9d13 08bf
00000100: 9c63 9dbf 4480 87bf 3103 90bd 531c b1be
00000110: beb3 933e 5254 a53d 91ff 7fbc 5dfc 083f
00000120: 592e acbe ad10 cc3d ce9a 5dbe cf1d a83e
00000130: abaa f83e 2174 fc3e 97f3 413e b3a8 cebd
00000140: 4af7 1bbe 10c1 363f 5258 1ebf 4c87 37be
00000150: 236f 4dbe 890b 373f 43d6 123e fbbd 0abf
00000160: f304 113e 3ebf 003f f969 073d b925 09bd
00000170: 5bf4 02be 3472 443f 5379 3fbe 0515 95bd
00000180: daaa 49bd 22f4 78bd c325 f73e 810b db3a
00000190: 3f92 73be a1c4 7b3d 8c34 aebd d8f5 11bf
000001a0: cc06 2cbd 1dd0 15bf 1c36 9cbd ba98 273f
000001b0: 5700 983d eb42 4bbe f39b 993e d81d fd3e
000001c0: e5ce 7d3f fe5b 69bf 10d4 203e 2474 3cbe
000001d0: 512f aabe 5b18 9fbe fb22 963d 64b4 243f
000001e0: 9753 7c3e 4042 6d3f b726 143e b921 453e
000001f0: 9adb 9e3e 4b78 4cbf 43f5 37be ae1e ce3e
00000200: 2f41 cf3e 038b 86bf 5643 353d 50b7 c0be
00000210: 394b 283f 4f76 b4be 7dfc 1fbf 49ff c13f
00000220: d3fd d7be 089c 4d3d 732e 453f 0827 20bf
00000230: 2d2c 6d3e 4c65 07bf 1549 5fbc 6b56 bcbe
00000240: c9a4 5ebf ada8 253e 3847 8a3e f5b8 14bf
00000250: e94c 583e ac3d c4bd 18cc 283e b0ad 20bf
00000260: 98f1 95be 85d7 593f b5ca 3ebf a69a d53e
00000270: 9d06 3abf e421 213f b268 073f 1885 ffbe
00000280: ba9e e6be 0b06 7a3d 5b89 97be f031 a33d
00000290: 7291 0b3c 7cf4 1a3e 8922 993e bba7 943e
000002a0: ed7e 7cbf ca54 063f f1d1 a53e 63fe 093c
000002b0: 3dc9 f33e 43c6 53bf 0a41 c23d 4c67 6dbf
000002c0: 3925 8c3f 9ecd 2ebf 86af d9bd bd0a a33d
000002d0: fe45 e9bd 9625 9abe ae62 b93e 2136 15bf
000002e0: a654 b73d 4b6b fb3e a346 3c3f b237 2bbf
000002f0: b16a e03e 904f a33e 1660 98bd 5030 acbe
00000300: c865 a5be 06f4 85be 14cc 6abe da4c af3e
00000310: 583c 9bbe a7bc d13e 4dc3 843d 7b96 89bd
00000320: 56ed 39bf 1214 153d 8113 813d 7073 323e
00000330: 13ed da3e 59fd 2dbf ad2c 06bf f00e 373e
00000340: 3a82 0bbf abb7 7fbd 5b3a 7c3f 815b bb3c
00000350: 81e8 853e aed5 85be 57ae cfbe 687e 1dbf
00000360: 233d 41bf e078 48be 80cf b53e 157d 40be
00000370: 3a2a 26bf 991b 053d 812b 993d 80e2 3b3e
00000380: ffc9 8bbe dd84 6bbf f820 533e 5d46 e9be
00000390: 3fc9 04bc 9784 c2bd d6da 0bbe 5863 1dbe
000003a0: c017 2ebf 86af e03e 3324 d3bc 9ecb 84be
000003b0: 104b 1e3f 8ebd 3bbe 4af4 ea3e b906 b63e
000003c0: 3dc2 723c ff70 fdbe 18a0 5dbe 7074 2e3f
000003d0: f012 233f 2115 25bf 9327 943e dd08 1bbd
000003e0: 7161 61be db20 9c3e 8952 b5bd 4133 91be
000003f0: fdfd fc3e c9e0 d8be 0bc4 3f3f b5ad 273f

feature.bias_ih_l0_reverse f4 [512]
0.35958633 0.37565565 0.040175308 0.28989688 -0.22968605 0.2995882 -0.10536393 -0.00883634
0.14949086 0.07514976 0.035331883 -0.12588406 0.65805215 0.0064282166 0.39142382 -0.5316701
-0.022212561 0.28120682 -0.20925349 0.14923926 0.11872601 0.3382899 0.5664116 0.19124357
0.39849898 -0.18875548 0.2270685 0.04699627 0.2540514 0.28543723 0.44757873 0.5774466
0.031564776 0.02340319 -0.13435477 0.43487713 -0.029062161 0.09998518 -0.30195624 0.5332723
0.5836692 0.07419198 0.29934904 -0.18775603 0.30522507 -0.14521028 0.13935822 -0.25187975
-0.2069328 0.15303802 -0.07352925 0.16143873 -0.044619475 0.7212369 -0.21220943 0.47438297
0.23714888 0.2963351 0.19612496 0.7387591 0.16327675 0.2712527 0.77935773 0.00062294526
0.09240676 -0.11861585 -0.1290448 0.48245504 0.11786973 0.14718817 0.36103734 -0.12405561
0.3210304 0.50359595 -0.28881884 -0.2444257 -0.37876603 0.08336448 0.1919017 0.8270539
0.44180706 -0.15401496 0.06469067 0.0686401 -0.27133435 -0.051544454 0.31741083 0.32237384
0.13590014 0.7825708 -0.1865235 0.20212533 0.107542 0.0049766162 0.31218728 -0.1774078
0.02412254 -0.044679925 0.3528536 0.03065775 -0.27595192 -0.080064505 0.3858922 0.43647107
-0.07620246 -0.25780046 -0.052211795 -0.17595233 0.5779149 0.17252462 -0.39477035 0.6818327
0.000108232074 0.010828067 0.17219263 0.51993936 -0.21624868 0.11593301 -0.06631049 -0.19389191
-0.09867304 0.23448832 0.10733933 -0.2736397 0.08959771 0.86066324 0.07128995 0.12147167
-0.31611043 -0.54852074 0.07080137 -0.13380487 0.0562468 0.51218456 0.08670888 -0.039212927
-0.4017963 -0.28687778 -0.246225 0.41125485 -0.3966147 -0.15913843 0.3009037 -0.48897633
-0.057442907 -0.22844766 -0.40594435 0.27323598 -0.31951725 -0.10365728 -0.57526064 0.35277462
0.011188723 0.06491247 0.14934501 -0.14987563 0.006628827 -0.22721232 -0.41844487 0.012540619
-0.054709405 -0.05696859 -0.3229447 -0.19710831 -0.58675426 -0.027373703 -0.17725399 -0.27141225
-0.41124937 -0.34478498 -0.25289539 0.14281444 0.055754527 0.70476496 -0.17771128 0.22489414
0.21309486 0.5565495 -0.2395172 0.19242892 -0.053657968 0.7795973 -0.30186048 0.5041646
0.059780985 -0.6454941 0.27647704 0.6763231 -0.065268494 -0.28494263 -0.29022843 0.45885518
-0.031142218 0.15762848 -0.017371701 -0.092407286 -0.039197013 -0.27641618 -0.35136768 -0.27268776
-0.3332329 0.7826138 0.40541533 0.070829615 -0.11311205 -0.5364029 0.10107649 -0.31518993
-0.35184014 -0.0021679236 0.10039249 -0.39564365 -0.17664696 0.037842292 -0.21975563 -0.11518016
-0.61809945 -0.1957628 -0.0180522 0.11968355 0.32053784 -0.068128236 0.042454287 -0.106239624
-0.11660806 0.22566871 0.007993382 0.11743281 0.009146001 -0.29663077 -0.2456168 -0.4114943
-0.1923484 -0.36590233 -0.038499866 0.08759771 -0.4985497 -0.033776447 0.021637747 -0.38234615
0.18311572 -0.0028537705 0.00032619716 -0.19199724 -0.06922063 0.041957594 -0.027022516 0.19952704
-0.29796115 -0.22567944 -0.2914238 0.0736137 -0.16396788 -0.1083916 -0.38447586 -0.19322182
00000000: b31b b83e f055 c03e dd8e 243d 5d6d 943e
00000010: d232 6bbe a063 993e 0bc9 d7bd 4cc6 10bc
00000020: 2214 193e 1ee8 993d 2ab8 103d c0e7 00be
00000030: 1b76 283f caa3 d23b b468 c83e 881b 08bf
00000040: 1ef7 b5bc 57fa 8f3e 8c46 56be 2dd2 183e
00000050: 9f26 f33d 5534 ad3e 5a00 113f 5bd5 433e
00000060: 0f08 cc3e 1e49 41be a584 683e 297f 403d
00000070: 0613 823e d424 923e 0a29 e53e 8ad3 133f
00000080: 114a 013d 0cb8 bf3c 4c94 09be 37a8 de3e
00000090: c513 eebc 08c5 cc3d 029a 9abe 8984 083f
000000a0: 586b 153f f7f1 973d 4744 993e 1e43 40be
000000b0: 7646 9c3e 01b2 14be ecb3 0e3e 62f6 80be
000000c0: 31e6 53be 00b6 1c3e 8196 96bd 3250 253e
000000d0: e9c2 36bd fba2 383f 6e4d 59be 53e2 f23e
000000e0: 28d7 723e 3cb9 973e fbd4 483e 511f 3d3f
000000f0: 0532 273e a2e1 8a3e fd83 473f 264d 233a
00000100: c13f bd3d deec f2bd 5224 04be 5904 f73e
00000110: af65 f13d 7fb8 163e e3d9 b83e de10 febd
00000120: 195e a43e aaeb 003f 10e0 93be bb4a 7abe
00000130: 9fed c1be ffba aa3d e181 443e ceb9 533f
00000140: 8934 e23e 19b6 1dbe 8b7c 843d 2e93 8c3d
00000150: 56ec 8abe 4720 53bd ac83 a23e 2f0e a53e
00000160: 6829 0b3e 8f56 483f 0400 3fbe f1f9 4e3e
00000170: fb3e dc3d e212 a33b 03d7 9f3e 64aa 35be
00000180: a29c c53c 4c02 37bd 3aa9 b43e f625 fb3c
00000190: 9249 8dbe dcf8 a3bd aa93 c53e 2379 df3e
000001a0: 0910 9cbd 6cfe 83be 09dc 55bd d92c 34be
000001b0: 3bf2 133f 4baa 303e 571f cabe 968c 2e3f
000001c0: a7fa e238 3468 313c 4453 303e bf1a 053f
000001d0: 4b70 5dbe 496e ed3d cbcd 87bd 9a8b 46be
000001e0: 1715 cabd b51d 703e b9d4 db3d 811a 8cbe
000001f0: 017f b73d 6d54 5c3f 7700 923d 24c6 f83d
00000200: 3ad9 a1be db6b 0cbf 4f00 913d 2504 09be
00000210: 0b63 663d 871e 033f 6d94 b13d bc9d 20bd
00000220: 3fb8 cdbe a5e1 92be 6822 7cbe ff8f d23e
00000230: 1511 cbbe 2ff5 22be 0d10 9a3e 1b5b fabe
00000240: 4149 6bbd 2fee 69be f0d7 cfbe 96e5 8b3e
00000250: c497 a3be 454a d4bd 4844 13bf e09e b43e
00000260: e850 373c d4f0 843d e6ed 183e ff78 19be
00000270: a236 d93b 59aa 68be 683e d6be 2b77 4d3c
00000280: f816 60bd e557 69bd 0259 a5be c3d6 49be
00000290: 8735 16bf d13e e0bc 1282 35be 8cf6 8abe
000002a0: 478f d2be a887 b0be 817b 81be f33d 123e
000002b0: dc5e 643d 7a6b 343f f2f9 35be a64a 663e
000002c0: 8a35 5a3e 077a 0e3f ff43 75be 160c 453e
000002d0: 75c8 5bbd b093 473f 758d 9abe ee10 013f
000002e0: e8dc 743d 1a3f 25bf 668e 8d3e 8323 2d3f
000002f0: 7dab 85bd 00e4 91be d298 94be 11ef ea3e
00000300: f71d ffbc 5c69 213e 194f 8ebc 0840 bdbd
00000310: 0c8d 20bd 6c86 8dbe 77e6 b3be bb9d 8bbe
00000320: 819d aabe 6159 483f 9992 cf3e 1e0f 913d
00000330: 4aa7 e7bd b351 09bf 3101 cf3d 9360 a1be
00000340: 6424 b4be b913 0ebb 949a cd3d ce91 cabe
00000350: f1e2 34be 8500 1b3d 9f07 61be 93e3 ebbd
00000360: c43b 1ebf 0b76 48be 35e2 93bc a61c f53d
00000370: 891d a43e d186 8bbd 8ce4 2d3d 2994 d9bd
00000380: 35d0 eebd b315 673e adf6 023c 9d80 f03d
00000390: 1cd9 153c fddf 97be f882 7bbe 62af d2be
000003a0: fbf6 44be 8d57 bbbe 09b2 1dbd 6e66 b33d
000003b0: e841 ffbe 2c59 0abd a541 b13c e0c2 c3be
000003c0: b082 3b3e 5306 3bbb 7105 ab39 ed9a 44be
000003d0: 8cc3 8dbd badb 2b3d 535e ddbc d150 4c3e
000003e0: 5d8e 98be 8318 67be 8035 95be c8c2 963d
000003f0: 32e7 27be 6afc ddbd 05da c4be f1db 45be

feature.bias_hh_l0_reverse f4 [512]
0.27502143 0.43872702 0.16166292 0.3541641 -0.07472876 0.28187865 0.0030117787 -0.02336371
0.12666842 0.1284243 0.019724064 -0.26304734 0.75463736 0.06904568 0.42676455 -0.6519192
0.10790126 0.41168612 -0.17605604 0.081033155 0.13721152 0.45953792 0.5273557 0.28330472
0.41895404 -0.10825484 0.13359721 -0.049952067 0.39685977 0.2521962 0.42788175 0.5947483
0.04173646 -0.007300427 -0.22089627 0.44169012 -0.049560286 -0.025467584 -0.1350254 0.40032837
0.5275285 -0.083795875 0.18057363 -0.26325822 0.49105597 -0.17625913 0.23167065 -0.05615939
-0.12568763 0.19855908 0.045952734 0.071492955 -0.16968209 0.722881 -0.21192645 0.43341753
0.18565105 0.31522232 0.160338 0.78260326 0.19059396 0.302868 0.7028627 -0.04793078
0.0620835 -0.13253483 -0.04923999 0.3004023 0.19674706 0.14284843 0.32767856 -0.20644364
0.2902745 0.486082 -0.20858988 -0.2873588 -0.23443289 0.22239622 0.022425652 0.80618876
0.32270887 -0.27602696 0.06421668 -0.042082034 -0.3020016 -0.06875202 0.36750188 0.27059454
0.29790902 0.67023045 -0.052021116 0.064000405 0.03999984 0.023164483 0.3442769 -0.2066138
-0.029048324 -0.10283759 0.250171 -0.004698237 -0.16931085 -0.23998791 0.34043384 0.44172233
-0.1713939 -0.14047748 -0.2173575 -0.13820153 0.5751188 0.14749649 -0.22274573 0.6273422
0.07271581 -0.066719495 0.18281385 0.434343 -0.30979505 0.0825745 -0.21269137 -0.19501086
-0.097099796 0.21187368 0.03267809 -0.3068814 0.1532832 0.84745276 0.057940044 0.037299547
-0.22508058 -0.5176124 -0.03662104 -0.16650552 0.030327957 0.47893527 0.044245075 -0.19907124
-0.45645788 -0.267864 -0.20450787 0.57693815 -0.50079846 -0.17701177 0.28292066 -0.32388556
0.00435057 -0.19363745 -0.47922382 0.29319823 -0.32399398 -0.14443539 -0.5074121 0.25248677
0.11519839 0.17210919 0.11127249 -0.060129706 -0.10736695 -0.21627086 -0.3627125 -0.05250821
-0.022811752 -0.09290089 -0.27820343 -0.20024331 -0.46190172 -0.029036932 -0.29796645 -0.1987056
-0.37093157 -0.35291412 -0.30440995 0.15040055 0.013882323 0.55184627 -0.16153248 0.22375765
0.24206354 0.39757964 -0.18061143 0.15618524 0.04902496 0.7999593 -0.34947348 0.6144547
0.017464971 -0.65141994 0.4283011 0.8270029 0.005517241 -0.25729048 -0.3706216 0.61292124
0.04386439 0.21366398 0.03868039 -0.030224288 0.04818109 -0.27562478 -0.24648397 -0.11528312
-0.29379505 0.7027351 0.55971014 0.008573975 0.14492647 -0.4730649 -0.033813916 -0.39220878
-0.18857704 -0.11114678 0.066493765 -0.25263605 -0.25037202 0.056754574 -0.2962405 -0.1967987
-0.6297227 -0.023606671 -0.13129137 0.15198205 0.33467892 -0.025092514 -0.12266289 -0.05949432
-0.3246248 0.25464988 0.087465964 0.214644 -0.08652961 -0.27848354 -0.25261384 -0.3306154
-0.24754795 -0.41837853 0.051052365 0.07594407 -0.4314185 -0.084397584 -0.0013906028 -0.3251649
0.21448015 0.15406866 0.01734746 -0.16856629 0.014241904 -0.09699552 0.17614087 0.2908688
-0.27451715 -0.25516745 -0.30938438 -0.028993333 -0.22791551 -0.1873851 -0.3515426 -0.19898205
00000000: 9ccf 8c3e d4a0 e03e f78a 253e ff54 b53e
00000010: 640b 99bd 6652 903e 4361 453b 4065 bfbc
00000020: 5eb5 013e a981 033e 5c94 a13c 24ae 86be
00000030: ea2f 413f d267 8d3d e280 da3e 2de4 26bf
00000040: 56fb dc3d 86c8 d23e 0948 34be b6f4 a53d
00000050: 2d81 0c3e 8e48 eb3e c800 073f 510d 913e
00000060: 2581 d63e b7b4 ddbd b5cd 083e 8a9a 4cbd
00000070: 3431 cb3e dc1f 813e 5113 db3e 6d41 183f
00000080: daf3 2a3d 6c38 efbb a232 62be 3525 e23e
00000090: baff 4abd 65a1 d0bc 1944 0abe d7f7 cc3e
000000a0: 1c0c 073f 2c9d abbd 4be8 383e c8c9 86be
000000b0: b06b fb3e 467d 34be 123b 6d3e 6307 66bd
000000c0: 42b4 00be 1253 4b3e ef38 3c3d e66a 923d
000000d0: 24c1 2dbe bb0e 393f 3f03 59be e7e8 dd3e
000000e0: 4f1b 3e3e d264 a13e a52f 243e b058 483f
000000f0: 102b 433e 8411 9b3e cfee 333f 1153 44bd
00000100: 454b 7e3d 36b7 07be dfaf 49bd 55ce 993e
00000110: 1078 493e dc46 123e 7cc5 a73e f665 53be
00000120: dc9e 943e bddf f83e 9698 55be b120 93be
00000130: 2d0f 70be d6bb 633e 00b6 b73c 6362 4e3f
00000140: 193a a53e 6853 8dbe 0984 833d 365e 2cbd
00000150: f49f 9abe dccd 8cbd 3529 bc3e 5e8b 8a3e
00000160: 8887 983e 3994 2b3f 1814 55bd a512 833d
00000170: dfd6 233d 71c3 bd3c 1045 b03e 9192 53be
00000180: c0f6 edbc 849c d2bd 6a16 803e abf3 99bb
00000190: d35f 2dbe 64bf 75be 584d ae3e 6e29 e23e
000001a0: e281 2fbe 54d9 0fbe f792 5ebe b484 0dbe
000001b0: fc3a 133f 5209 173e 7517 64be 8099 203f
000001c0: 07ec 943d 3ba4 88bd 8e33 3b3e 3562 de3e
000001d0: 759d 9ebe d21c a93d c4cb 59be edb0 47be
000001e0: 42dc c6bd 6af5 583e 76d9 053d 8f1f 9dbe
000001f0: 45f6 1c3e aaf2 583f 8a52 6d3d 69c7 183d
00000200: 867b 66be 3f82 04bf f2ff 15bd 6c80 2abe
00000210: 5672 f83c 0137 f53e 533a 353d 55d9 4bbe
00000220: d9b4 e9be 7825 89be 836a 51be 38b2 133f
00000230: 5434 00bf 9342 35be fada 903e 54d4 a5be
00000240: 3a8f 8e3b e548 46be d35c f5be 141e 963e
00000250: 8ae2 a5be dfe6 13be c2e5 01bf f245 813e
00000260: 22ed eb3d 643d 303e d5e2 e33d 914a 76bd
00000270: 34e3 dbbd 1c76 5dbe 74b5 b9be d912 57bd
00000280: b6df babc d242 bebd ae70 8ebe 950c 4dbe
00000290: 627e ecbe dcde edbc 0f8f 98be 7b79 4bbe
000002a0: beea bdbe 29b1 b4be 9fdb 9bbe 9a02 1a3e
000002b0: af72 633c cc45 0d3f c568 25be ba20 653e
000002c0: 81df 773e 8f8f cb3e 34f2 38be 06ef 1f3e
000002d0: 65ce 483d 22ca 4c3f 30ee b2be e74c 1d3f
000002e0: b312 8f3c 75c3 26bf 484a db3e 76b6 533f
000002f0: f9c9 b43b 94bb 83be 1dc2 bdbe 68e8 1c3f
00000300: 26ab 333d bbca 5a3e 546f 1e3d ed98 f7bc
00000310: 8959 453d b11e 8dbe 4b66 7cbe 8e19 ecbd
00000320: 4e6c 96be 73e6 333f 2a49 0f3f dc79 0c3c
00000330: 9b67 143e 9035 f2be 7680 0abd 97cf c8be
00000340: 571a 41be eca0 e3bd e22d 883d 8359 81be
00000350: c330 80be 7c77 683d d6ac 97be 9985 49be
00000360: 8235 21bf c762 c1bc 3f71 06be 2fa1 1b3e
00000370: 095b ab3e d18e cdbc ae36 fbbd 51b0 73bd
00000380: 3935 a6be 7861 823e 5b21 b33d a3cb 5b3e
00000390: 7036 b1bd 6595 8ebe 9a56 81be 6c46 a9be
000003a0: 367d 7dbe b635 d6be 491c 513d 9188 9b3d
000003b0: e3e2 dcbe a4d8 acbd e344 b6ba 047c a6be
000003c0: afa0 5b3e 2dc4 1d3e 431c 8e3c a49c 2cbe
000003d0: e056 693c 96a5 c6bd 465e 343e c1ec 943e
000003e0: 838d 8cbe 4fa5 82be a167 9ebe 6d83 edbc
000003f0: af62 69be e1e1 3fbe 64fd b3be f3c1 4bbe
