pretrained_models/comick-79-context-size.pth (torch, 821283 bytes, 10 tensors)

feature.weight_ih_l0 f4 [512, 64]
0	0xbea74e51	-0.32676938
1	0x3e47ed2a	0.19524065
2	0xbf7d4889	-0.98938805
3	0x3e0eeec9	0.13958277
4	0xbf17859e	-0.5918826
5	0xbe26d7bc	-0.16293234
6	0x3f36ac0d	0.7135628
7	0xbebf8ecf	-0.37413642
8	0xbe2da037	-0.16955648
9	0x3f09f2d4	0.5388615
10	0xbf3290bf	-0.69752115
11	0xbf4336b8	-0.7625537
12	0x3f1cc6d0	0.61240864
13	0xbd8db44b	-0.06919154
14	0xbed486bc	-0.41509044
15	0xbf97fc86	-1.1873939
16	0x3d753cbc	0.059872374
17	0x3e7c15f4	0.2461775
18	0xbe68b688	-0.2272588
19	0xbed8c6d5	-0.42339197
20	0xbf638a4c	-0.888829
21	0xbca7d793	-0.020488536
22	0xbf5a3a25	-0.8524497
23	0xbf3696a0	-0.71323586
24	0xbee4db55	-0.44698587
25	0xbf0e9210	-0.55691624
26	0x3f1256f7	0.5716395
27	0x3f8010ed	1.0005165
28	0x3ea31af6	0.31856507
29	0xbebd26d5	-0.3694369
30	0x3f854738	1.0412359
31	0xbee9af0b	-0.4564136
32	0x3f041dbf	0.5160789
33	0x3f994a3e	1.1975782
34	0xbf22cdda	-0.63595355
35	0x3f0b48c9	0.54407936
36	0x3fbab128	1.4585314
37	0xbf1a9572	-0.60384285
38	0xbf65ad98	-0.8971801
39	0x3ff709f2	1.929991
40	0x3eb90fc6	0.36144847
41	0x3ed8afc4	0.423216
42	0xbf61d827	-0.8822045
43	0x3fd5cf20	1.6703835
44	0x3f118bd3	0.5685398
45	0xbfb41300	-1.4068298
46	0x3f27e40e	0.6558236
47	0x3d7a028e	0.061037593
48	0xbf7f4099	-0.99707943
49	0xbecfa830	-0.40558004
50	0xbf487941	-0.7831002
51	0x3dbe1e2f	0.09283101
52	0x3e4ea286	0.20179185
53	0xbfd8d406	-1.6939704
54	0x3e9f7fd8	0.31152225
55	0xbf788bc9	-0.97088295
56	0xbebf7629	-0.37394837
57	0x3e91b83a	0.28460866
58	0x3f260c81	0.6486283
59	0x3ea0a444	0.31375325
60	0x3e0ea3d7	0.13929687
61	0xbf86148a	-1.0475018
62	0xbf09f823	-0.5389425
63	0x3de15335	0.110021986
64	0xbefc25a7	-0.49247476
65	0x3f0945f2	0.53622353
66	0xbefef403	-0.4979554
67	0xbf4a8008	-0.7910161
68	0x3e9b4f3b	0.30333886
69	0x3e36011e	0.17773864
70	0x3ed3ac42	0.4134236
71	0x3e2023f7	0.1563872
72	0x3d00f6dd	0.031485427
73	0x3fd324df	1.6495627
74	0x3e68b1a9	0.22724022
75	0x3ee55d99	0.44797972
76	0xbe70de09	-0.235222
77	0xbf7e27d9	-0.9927955
78	0xbfae4e05	-1.361756
79	0xbe1aab7a	-0.15104476
80	0xbe8723b3	-0.26394424
81	0x3f400a45	0.7501567
82	0x3e4a088b	0.19729821
83	0xbe59df6f	-0.2127664
84	0x3ed1e441	0.40994456
85	0xbd98a642	-0.07453586
86	0x3f0565ea	0.52108634
87	0xbe2f9540	-0.17146778
88	0x3eb98c1a	0.36239702
89	0x3eb313e5	0.34976116
90	0xbe293738	-0.1652497
91	0x3ea0c06b	0.31396803
92	0xbf098ac1	-0.53727347
93	0xbf49dc4b	-0.78851765
94	0x3ed1a4de	0.40946096
95	0xbeb48c6a	-0.35263377
96	0x3f260d7b	0.6486432
97	0xbeba4d83	-0.36387262
98	0x3f324faf	0.6965284
99	0x3fb8d18c	1.4438949
100	0xbf30e91a	-0.69105685
101	0xbe7690b0	-0.24078631
102	0x3f9efe56	1.2421367
103	0xbe6eb9dc	-0.23313087
104	0x3df57b29	0.119863816
105	0xbf1e03e7	-0.61724705
106	0xbe587a8f	-0.21140502
107	0x3f1b11e7	0.6057419
108	0xbfa5f561	-1.2965509
109	0x3f1e9a34	0.61954045
110	0xbf98c7b3	-1.1935943
111	0x3ee9bac1	0.45650294
112	0xbea7241f	-0.32644746
113	0x3e02c4f7	0.12770449
114	0xbef4f8ff	-0.4784622
115	0xbf79e5d0	-0.9761629
116	0xbddc64a3	-0.107613824
117	0xbedeae88	-0.43492532
118	0x3f63eed6	0.8903631
119	0x3f143dde	0.579069
120	0xbe0d5869	-0.13803257
121	0xbf214294	-0.62992215
122	0x3e12c580	0.14333153
123	0xbe5e0ec1	-0.21685316
124	0x3f3b5a3a	0.7318455
125	0x3fa5d87b	1.295669
126	0x3e4f8895	0.20266946
127	0x3f817eef	1.0116862
128	0x3eebe36a	0.4607194
129	0xbe9e3323	-0.3089839
130	0x3dc79ca7	0.09746676
131	0x3f0b33cf	0.5437593
132	0x3ecad26b	0.3961366
133	0xbe94b76d	-0.29046193
134	0xbd7ddc43	-0.061977636
135	0x3e388801	0.18020631
136	0xbea3b808	-0.31976342
137	0x3eaad90c	0.3336872
138	0xbeba1762	-0.36345965
139	0x3f4f7415	0.810365
140	0xbee39fb8	-0.44457793
141	0x3ee2ec3e	0.44320863
142	0xbe159ef4	-0.14611417
143	0xbfa517e2	-1.2897913
144	0xbf0efbb0	-0.55852795
145	0x3cdf1dfc	0.027235977
146	0xbc93a67c	-0.018023722
147	0x3f17993a	0.5921818
148	0xbf506590	-0.8140497
149	0x3e600a42	0.21878913
150	0x3d8d37be	0.068953976
151	0x3e3c4c89	0.18388571
152	0xbeb55a9e	-0.35420698
153	0x3ca61cd4	0.020277418
154	0xbd84e3dd	-0.06488774
155	0xbf5ab378	-0.854301
156	0x3e7846a9	0.24245705
157	0x3f7d2951	0.9889117
158	0xbe0a9e58	-0.13536966
159	0x3e5b8f61	0.21441413
160	0xbe90f3ea	-0.28311092
161	0x3c8db4a9	0.01729806
162	0x3f2baabd	0.670574
163	0xbf534ce6	-0.8253921
164	0x3e6210de	0.22076747
165	0x3e584a7c	0.21122164
166	0x3d3cd8d0	0.046105206
167	0xbf11ad8b	-0.5690543
168	0xbe76bda5	-0.24095781
169	0xbe3d4171	-0.18481995
170	0x3cf94814	0.030429877
171	0xbead304f	-0.3382592
172	0xbf5af778	-0.8553386
173	0x3e26141e	0.16218612
174	0xbf7c6254	-0.98587537
175	0x3ec3deb9	0.3825586
176	0x3f8f9221	1.121647
177	0xbec046eb	-0.37554106
178	0x3e83ab61	0.2571669
179	0xbe954f54	-0.29162085
180	0xbddbb870	-0.10728538
181	0x3f41216d	0.7544163
182	0xbfa55c2f	-1.2918757
183	0x3f073025	0.5280784
184	0x3d9b98f6	0.07597534
185	0x3fc03fa5	1.5019423
186	0x3d8a1562	0.0674236
187	0xbeeaf4af	-0.45889804
188	0xbf09139d	-0.5354555
189	0xbf3b33dd	-0.7312601
190	0x3d1c3518	0.03813657
191	0x3f434363	0.762747
192	0xbe907922	-0.28217417
193	0xbfc17bbb	-1.5115885
194	0xbe8d9e13	-0.27659664
195	0xbdd6eb74	-0.10494128
196	0x3f0550b9	0.520763
197	0x3ef0f1c4	0.47059453
198	0x3d39a560	0.04532373
199	0xbc163026	-0.009166753
200	0x3dc88590	0.097911
201	0x3f421d9c	0.7582643
202	0xbf03842d	-0.5137356
203	0x3f4eb8d1	0.8075076
204	0xbf5cd8e0	-0.86268425
205	0xbf23d387	-0.6399464
206	0xbf9bacda	-1.2162125
207	0x3e6dc904	0.23221213
208	0xbe9c41a7	-0.3051884
209	0x3f046d82	0.51729596
210	0x3e11ec2e	0.14250252
211	0x3e9c0404	0.30471814
212	0x3ea5290d	0.32257882
213	0x3b00d94d	0.0019660771
214	0x3dda4674	0.10657969
215	0x3e36c9ae	0.17850372
216	0x3e9a1e52	0.30101258
217	0xbe927fbc	-0.2861308
218	0x3f001dbb	0.50045365
219	0xbee52f6b	-0.4476274
220	0xbcfccc71	-0.030859204
221	0xbf7607c7	-0.9610562
222	0x3e35a9a3	0.17740493
223	0xbfa0bf70	-1.2558422
224	0xbef5c68b	-0.4800304
225	0xbf2f94ba	-0.68586314
226	0x3fddcf29	1.7328845
227	0x3e04a700	0.1295433
228	0xbf532754	-0.82481885
229	0x3f61bdf1	0.8818045
230	0xbe8cf581	-0.27531055
231	0x3e9cb7a6	0.30608863
232	0xbe06d2fd	-0.13166423
233	0xbef3db14	-0.4762808
234	0x3f77dbc6	0.9681972
235	0x3e60580a	0.21908584
236	0x3e900f53	0.2813669
237	0xbf371904	-0.71522546
238	0xbe6d2481	-0.23158456
239	0x3ef01f8f	0.46899077
240	0xbfe2cff1	-1.7719709
241	0xbd773d3f	-0.060361143
242	0x3f2d3c7f	0.67670435
243	0xbf3c36af	-0.7352094
244	0xbe99443d	-0.29934874
245	0x3e800285	0.25001922
246	0x3ee31983	0.443554
247	0x3f963c49	1.1737148
248	0x3eb91bb3	0.36153945
249	0xbd0edac7	-0.03487661
250	0x3e8a23ec	0.2698053
251	0xbf834dc8	-1.0258112
252	0xbdf0798c	-0.11741933
253	0x3e08812c	0.13330525
254	0xbf582e6c	-0.84445834
255	0x3f105d84	0.56392694

feature.weight_hh_l0 f4 [512, 128]
0	0x3f1f4c15	0.62225467
1	0x3e48befc	0.19604105
2	0xbd2e5ecc	-0.042570874
3	0xbe4707b6	-0.19436535
4	0x3eba2748	0.36358094
5	0xbd1a7f7c	-0.037719235
6	0x3f2a7a94	0.6659329
7	0xbef1c82b	-0.4722303
8	0x3de7c384	0.113165885
9	0xbe97e2af	-0.29665133
10	0xbe9352dd	-0.28774157
11	0xbf9ee46a	-1.2413456
12	0x3ebe7fd7	0.3720691
13	0x3e9bf234	0.30458224
14	0x3d230a0d	0.039804507
15	0xbf3022fb	-0.68803376
16	0xbe86601f	-0.2624521
17	0xbd50ad6f	-0.05094665
18	0x3eacf446	0.33780116
19	0x3f973fcd	1.1816345
20	0x3f951bb9	1.1649085
21	0x3f025084	0.5090411
22	0xbdf4e870	-0.119583964
23	0x3e722ff3	0.23651104
24	0xbd992411	-0.07477582
25	0xbf4fd9e2	-0.8119184
26	0xbeaa16d4	-0.3322054
27	0xbec9c094	-0.39404738
28	0x3c725f5b	0.014793242
29	0xbe203066	-0.15643463
30	0x3e6bba39	0.23020257
31	0xbd9beab1	-0.07613123
32	0x3e1032b9	0.14081849
33	0x3e613504	0.2199288
34	0xbd5e5daa	-0.054288544
35	0x3f688608	0.90829515
36	0xbf654d70	-0.89571285
37	0x3f42b9a3	0.7606451
38	0xbf047cca	-0.51752913
39	0x3f17f098	0.5935149
40	0x3f0e8a1a	0.55679476
41	0xbe25d0ed	-0.1619298
42	0xbebc9f30	-0.368402
43	0xbe177fb6	-0.14794812
44	0x3ef574c9	0.47940663
45	0xbf0350a9	-0.5129495
46	0x3eea2ce5	0.45737377
47	0xbda375ef	-0.079814784
48	0xbf5c4b46	-0.8605236
49	0xbe9ed7f6	-0.3102414
50	0x3f456148	0.77101564
51	0xbefa3189	-0.48865917
52	0x3f517d11	0.8183146
53	0x3f38629a	0.72025454
54	0xbf44ac7b	-0.76825684
55	0x3eabc70a	0.33550292
56	0x3ed20887	0.4102213
57	0xbe1e11a5	-0.15436418
58	0x3e375e9d	0.17907186
59	0xbecb3f9c	-0.39696968
60	0xbe8c1413	-0.27359065
61	0xbf60a4a3	-0.87751216
62	0xbf36668a	-0.7125021
63	0x3e93da44	0.2887746
64	0x3e93c4f3	0.28861198
65	0x3df67f08	0.12035948
66	0x3f3f7182	0.74782574
67	0xbf10ef87	-0.5661549
68	0xbedf07ff	-0.43560788
69	0x3ea28c45	0.31747642
70	0xbe30e773	-0.17275791
71	0xbf13a03c	-0.57666373
72	0x3f76caf9	0.9640346
73	0xbf4a6a7d	-0.7906874
74	0xbd07ef2b	-0.033187073
75	0x3dd1194d	0.10209904
76	0x3e9ad2af	0.30238864
77	0x3f86e1f6	1.0537708
78	0xbca3b671	-0.019984456
79	0x3e5184eb	0.2046086
80	0xbeb83e78	-0.3598516
81	0x3f1ac9d6	0.6046423
82	0xbea15fc0	-0.31518364
83	0x3e93fefc	0.28905475
84	0x3f20cbbd	0.6281088
85	0x3ef66d08	0.4813006
86	0xbf8c8f79	-1.0981284
87	0x3f85c1a2	1.0449717
88	0xbef89b95	-0.485562
89	0xbe66fbb3	-0.22556953
90	0x3e3b85a1	0.18312694
91	0xbd82211e	-0.06353973
92	0x3df5a789	0.119948454
93	0x3eb2cdd7	0.34922668
94	0xbc2e2632	-0.010629224
95	0xbeb65f59	-0.3561962
96	0xbe348453	-0.17628603
97	0xbe0cafb0	-0.13738894
98	0xbea3aeb4	-0.31969225
99	0xbe2fafc6	-0.17156896
100	0x3f2b23d0	0.6685152
101	0xbf073902	-0.5282136
102	0xbe2b3118	-0.16717947
103	0xbf953a4b	-1.1658415
104	0xbf08fb3d	-0.5350836
105	0xbf2aea70	-0.66763973
106	0xbf05b889	-0.52234703
107	0xbef3fac6	-0.47652262
108	0xbee5aaa6	-0.44856757
109	0xbf009f8d	-0.50243455
110	0xbeeba34d	-0.46023026
111	0xbd8264d0	-0.06366885
112	0xbf66966c	-0.90073276
113	0xbdc7108b	-0.09719952
114	0xbe2050bc	-0.15655798
115	0x3de903ce	0.11377679
116	0x3a903f2c	0.0011005155
117	0x3f462c4a	0.7741133
118	0xbdcc5af6	-0.09978287
119	0x3ed7d284	0.42152798
120	0xbe9c03fe	-0.30471796
121	0x3d8051ec	0.06265625
122	0x3d88924f	0.06668531
123	0xbf848621	-1.0353433
124	0xbf90a607	-1.1300668
125	0x3e9fbcde	0.31198782
126	0x3ed635df	0.41837975
127	0xbe096742	-0.13418296
128	0x3e835b7d	0.25655738
129	0xbe14411a	-0.1447796
130	0xbea80575	-0.32816663
131	0x3e16ec7c	0.14738649
132	0xbdc7f62e	-0.09763752
133	0xbecc629f	-0.39918992
134	0xbc77ad39	-0.015116983
135	0x3f115849	0.5677534
136	0xbef12fd4	-0.47106802
137	0x3cec786d	0.028866017
138	0xbeb0ae73	-0.34508094
139	0x3ef03254	0.46913397
140	0x3de90b1d	0.11379073
141	0xbc154492	-0.009110587
142	0xbecc8ba5	-0.3995029
143	0xbf068778	-0.5255046
144	0x3e50bc99	0.20384444
145	0x3c20a165	0.009804104
146	0x3e429a8d	0.19004269
147	0xbfc292dd	-1.5201069
148	0x3f3c84c9	0.73640114
149	0xbe92a882	-0.28644186
150	0xbe115047	-0.1419078
151	0xbe817538	-0.25284743
152	0xbe4ecdc0	-0.20195675
153	0xbd470f8c	-0.04859881
154	0xbf2c65b9	-0.67342716
155	0xbf17d200	-0.5930481
156	0xbe9f86e6	-0.31157607
157	0x3bd25793	0.006419131
158	0xbc9679c0	-0.018368602
159	0xbcfd7fec	-0.030944787
160	0xbe9652b2	-0.29359967
161	0x3f0c0113	0.5468914
162	0x3ea49d1f	0.32151124
163	0x3de54f01	0.111967094
164	0x3f379899	0.7171722
165	0x3e3246cb	0.17409818
166	0x3e1fa8fb	0.15591805
167	0x3cd01d77	0.025404675
168	0x3efe7998	0.49702144
169	0x3f0d8d29	0.5529352
170	0xbec65f28	-0.38744473
171	0x3ee9bfe2	0.45654207
172	0x3f3c1bc8	0.7347989
173	0x3ca1f88b	0.019771835
174	0x3ce7ecc8	0.028311148
175	0x3eccfb7a	0.4003561
176	0xbebd6720	-0.3699274
177	0x3f4585db	0.7715737
178	0x3ec64f7a	0.3873251
179	0xbdb190d0	-0.08670199
180	0xbe317616	-0.17330202
181	0x3f6a841c	0.9160783
182	0xbf686a0c	-0.90786815
183	0x3fa55789	1.2917339
184	0x3e3ddbcb	0.18540876
185	0xbed22c57	-0.41049454
186	0x3e878798	0.26470637
187	0x3f90948a	1.129533
188	0x3e089ef5	0.13341887
189	0x3e21be27	0.15795194
190	0xbec6ed7a	-0.38853055
191	0x3f263466	0.64923704
192	0xbe79aad4	-0.24381572
193	0x3db68459	0.08911962
194	0xbe6ff286	-0.23432359
195	0xbea01694	-0.31267226
196	0xbe911592	-0.2833677
197	0x3d906d20	0.07052064
198	0x3f41530d	0.7551735
199	0x3f301c0b	0.6879279
200	0x3dff4def	0.124660365
201	0x3ea3e9e5	0.32014385
202	0x3df3c00c	0.119018644
203	0x3f0f0092	0.55860245
204	0xbe57303d	-0.21014495
205	0x3e575c97	0.21031414
206	0x3cae078c	0.021243833
207	0xbe1800f3	-0.14844112
208	0x3f2b17b4	0.66833043
209	0x3e20c5d6	0.15700468
210	0xbecaefbf	-0.39636037
211	0xbf4fbb87	-0.8114552
212	0x3f0c6840	0.5484657
213	0xbf0a6f15	-0.5407575
214	0xbd5c3436	-0.05376073
215	0xbf7ec716	-0.9952253
216	0xbea19ff2	-0.3156734
217	0xbfcf35f6	-1.6188343
218	0x3f69f58d	0.91390306
219	0x3e88134e	0.26577228
220	0xbf1c952c	-0.6116512
221	0xbefdc9a2	-0.49567896
222	0x3e2ecd8a	0.17070594
223	0xbd8d75fd	-0.0690727
224	0x3f37c11c	0.71779037
225	0xbee7ba45	-0.452593
226	0xbed8b261	-0.42323592
227	0x3efe0df8	0.49620032
228	0xbea2a4f4	-0.31766474
229	0x3dcc26d6	0.09968345
230	0x3e5a867f	0.21340369
231	0xbec88297	-0.39162132
232	0xbf5a8b60	-0.8536892
233	0x3e415c0e	0.18882772
234	0xbdefa916	-0.117021725
235	0x3e4448e0	0.19168425
236	0xbf38ec18	-0.7223525
237	0xbf2f9708	-0.6858983
238	0xbdb5ffdd	-0.08886693
239	0xbf215f16	-0.63035715
240	0xbea57265	-0.3231384
241	0xbf0a4b7c	-0.5402143
242	0xbdc93630	-0.098247886
243	0x3ebcbc6b	0.36862502
244	0xbe9dda46	-0.30830592
245	0x3f07fa05	0.53115875
246	0x3f131cbb	0.57465714
247	0x3efe058d	0.4961361
248	0xbf26b766	-0.65123594
249	0xbf2c97c1	-0.6741906
250	0x3f0d2a4b	0.5514266
251	0x3ccb7a02	0.024838451
252	0xbe44be00	-0.19213104
253	0x3f25d41c	0.6477678
254	0x3ee5e971	0.44904664
255	0x3ee4edcc	0.44712675

feature.bias_ih_l0 f4 [512]
0	0xbe681fee	-0.2266843
1	0xbd861339	-0.06546635
2	0x3e9dc982	0.308178
3	0xbcc1c67e	-0.023654219
4	0x3e657674	0.22408468
5	0x3d8d42a0	0.06897473
6	0xbe742097	-0.23840557
7	0xbe27c961	-0.16385414
8	0x3e11aae5	0.14225347
9	0xbe3d960f	-0.18514274
10	0x3e54ce3a	0.20781794
11	0xbdd7a752	-0.10529961
12	0xbdc3aa26	-0.095539376
13	0x3e89fc60	0.2695036
14	0x3e0749df	0.13211773
15	0x3c84a760	0.016193092
16	0x3f3eac03	0.7448122
17	0x3df8f997	0.121569805
18	0x3e96361f	0.29338166
19	0x3e37e461	0.17958213
20	0x3d99258a	0.07477863
21	0x3eb65f7a	0.35619718
22	0x3db193de	0.086707816
23	0xbee8c568	-0.4546311
24	0xbdb3a659	-0.08771963
25	0xbd9e6d95	-0.07735745
26	0x3d6bbed5	0.05755504
27	0x3dc7caca	0.09755476
28	0x3d8a0ed3	0.06741109
29	0xbe810a40	-0.25203133
30	0xb9a9cad5	-0.00032385314
31	0x3e25063a	0.16115656
32	0x3d4694ed	0.04848187
33	0xbedf669b	-0.4363297
34	0xbd287b94	-0.04113348
35	0xbd42a175	-0.04751726
36	0x3e8d60a1	0.27612785
37	0xbe190337	-0.14942633
38	0x3e5f3d2b	0.21800677
39	0xbd70d023	-0.058792245
40	0xbf2f247f	-0.68415064
41	0xbe42c375	-0.19019873
42	0xbdb01abe	-0.08598851
43	0x3e08c23c	0.13355345
44	0x3d4c1243	0.049822103
45	0x3efe5edf	0.49681756
46	0x3e049d04	0.12950522
47	0x3ef6e291	0.4821973
48	0x3f22a2da	0.6352974
49	0x3e85be94	0.26121962
50	0x3e9851f0	0.29750013
51	0x3ee9cebc	0.45665538
52	0x3ebab2ea	0.36464626
53	0xbf31f2cc	-0.69511104
54	0x3f29d4ee	0.6634053
55	0xbd6c0c88	-0.05762914
56	0xb971b0d9	-0.00023049432
57	0xbc326e6c	-0.010890584
58	0xbe21744d	-0.15767021
59	0x3f9366d5	1.1515757
60	0x3ecc2e12	0.398789
61	0x3dd35d59	0.10320539
62	0xbd74b6be	-0.05974459
63	0xbc1a6b7f	-0.009425043
64	0xbec6236d	-0.38698903
65	0x3e3389a5	0.17532976
66	0x3e194b3e	0.14970109
67	0xbdb7b5b7	-0.08970206
68	0x3f08a9a6	0.5338386
69	0xbe611f7c	-0.21984667
70	0x3f1ccdfb	0.612518
71	0xbe73802a	-0.2377936
72	0x3eb25cac	0.34836328
73	0x3f5e6cae	0.8688458
74	0x3f0573ef	0.52130026
75	0xbe72939e	-0.23689124
76	0x3eb370ab	0.35046896
77	0xbed00afe	-0.40633386
78	0xbca7ceff	-0.020484446
79	0x3dfc23ad	0.12311492
80	0xbed1226c	-0.40846574
81	0x3da20e05	0.0791283
82	0x3e4ea1c2	0.20178893
83	0x3ee69a4a	0.45039588
84	0xbe877b3f	-0.26461217
85	0xbec51f4e	-0.38500446
86	0xbd3353af	-0.04378098
87	0xbec99fda	-0.3937977
88	0xbbc4a330	-0.006000899
89	0xbe089b8b	-0.13340585
90	0xbec01d6a	-0.3752244
91	0x3d95981e	0.07304405
92	0x3f82ee96	1.0229061
93	0x3e55b514	0.20869857
94	0x3f1df9ad	0.617091
95	0x3f322f11	0.6960307
96	0xbedbd3bf	-0.42934987
97	0xbcdee583	-0.02720905
98	0xbe822afa	-0.25423414
99	0x3eaa48ad	0.33258572
100	0x3e772e5d	0.2413878
101	0x3f110efe	0.566635
102	0x3f321153	0.69557685
103	0x3e2c1ab8	0.16807067
104	0x3e390120	0.18066835
105	0x3efe80f5	0.4970776
106	0xbe062b54	-0.13102466
107	0x3e7d09ce	0.24710771
108	0x3e2a302d	0.1661994
109	0x3e9dd3c3	0.30825624
110	0x3e9e3b23	0.30904493
111	0x3f0eb68f	0.5574731
112	0x3e90c274	0.28273356
113	0xbeb36bd6	-0.3504321
114	0x3f4f8a02	0.8106996
115	0x3ed4e1af	0.41578433
116	0x3e4d583c	0.2005319
117	0x3df26e05	0.11837391
118	0x3efcce0a	0.49375945
119	0x3f367d02	0.71284497
120	0xbe61d172	-0.22052553
121	0xbe0bc747	-0.13650237
122	0xbdc2de58	-0.09515065
123	0x3f023518	0.50862265
124	0xbe533596	-0.2062591
125	0x3f44bc40	0.76849747
126	0xbda1d76d	-0.07902417
127	0x3f356d2f	0.70869726
128	0xbef8314e	-0.48475116
129	0x3c191e4f	0.009345605
130	0xbe4b2102	-0.1983681
131	0xbdef5f18	-0.116880596
132	0xbdb69c2b	-0.089165054
133	0xbdae46a6	-0.08509569
134	0xbf2ab186	-0.6667713
135	0xbd9df6cc	-0.077130884
136	0xbe618900	-0.22024918
137	0xbe9495c3	-0.2902051
138	0xbed59985	-0.4171869
139	0xbee1c1c5	-0.44093147
140	0x3dff3300	0.12460899
141	0xbecd2896	-0.40070027
142	0xbe6d1fd8	-0.23156679
143	0xbf2d9cfe	-0.67817676
144	0xbe7757e4	-0.24154621
145	0xbe6c9dd1	-0.23107077
146	0xbe199431	-0.14997937
147	0xbd2639fe	-0.04058265
148	0xbdabd80a	-0.083908156
149	0xbe82777a	-0.25481778
150	0xbc698209	-0.014252194
151	0x3d7bc1a2	0.06146396
152	0xbe29bea7	-0.16576634
153	0x3e030f57	0.1279882
154	0xbdf4bdfb	-0.119502984
155	0x3e88b255	0.26698557
156	0xbe362d96	-0.17790827
157	0xbdb9230e	-0.09039889
158	0xbefe6e6b	-0.49693617
159	0x3e00bf97	0.12573086
160	0xbda95e4b	-0.08269938
161	0xbea4d64e	-0.32194752
162	0x3d992708	0.07478148
163	0xbd9bfb8e	-0.076163396
164	0xbea5bdda	-0.32371408
165	0x3ded0841	0.1157384
166	0xbeedcd22	-0.46445566
167	0xbeeb9dd0	-0.4601884
168	0xbbd178fb	-0.006392596
169	0xbeb04d49	-0.34433964
170	0x3dab660e	0.08369075
171	0xbdc7f685	-0.09763817
172	0xbec89043	-0.39172563
173	0xbe7d2c19	-0.24723853
174	0xbed0b0a5	-0.4075977
175	0xbf222343	-0.63335055
176	0xbe8363f3	-0.25662193
177	0xbe29d43b	-0.16584866
178	0xbf669180	-0.90065765
179	0xbe46de5f	-0.19420765
180	0xbe23e418	-0.1600498
181	0xbc4aebc1	-0.01238531
182	0xbeda95b2	-0.42692333
183	0xbe20da14	-0.1570819
184	0x3d892c0a	0.06697853
185	0x3ba7791d	0.0051108734
186	0x3dc9c971	0.09852875
187	0xbedfd74d	-0.4371895
188	0xbe471fdb	-0.19445746
189	0xbde15cdb	-0.11004039
190	0x3e246e53	0.1605771
191	0xbec86e87	-0.39146826
192	0x3b82c7ec	0.0039911177
193	0xbef430d6	-0.4769351
194	0x3e262453	0.16224794
195	0x3eac8b19	0.33699873
196	0x3d013b73	0.031550836
197	0x3e7df519	0.24800529
198	0xbec5e952	-0.38654572
199	0xbe1b59ef	-0.15171026
200	0x3e529685	0.20565231
201	0x3d29aa71	0.04142231
202	0xbe3e93e2	-0.186111
203	0xbe225360	-0.15852118
204	0xbee57fdd	-0.44824114
205	0x3c303e18	0.010756992
206	0xbe8cc5a1	-0.2749453
207	0xbf3828d4	-0.719373
208	0x3d0e8232	0.034792133
209	0xbe9f0f01	-0.31066135
210	0xbec3a8f3	-0.38214836
211	0xbf1162e1	-0.567915
212	0xbed9e1d4	-0.42555106
213	0xbe035cda	-0.12828389
214	0x3d622d05	0.055218715
215	0xbe16e8b8	-0.14737213
216	0x3e3827b3	0.17983894
217	0xbe1950ca	-0.14972225
218	0x3d30fcbb	0.043209773
219	0xbe3f23ff	-0.18666075
220	0xbf71a7b8	-0.94396544
221	0xbecace1c	-0.39610374
222	0xbe50970b	-0.20370118
223	0xbeebabb3	-0.46029434
224	0x3d69943b	0.05702613
225	0xbdd42065	-0.10357741
226	0xbe1a1559	-0.15047206
227	0xbdf3d151	-0.11905158
228	0xbe87b2b8	-0.2650354
229	0xbec81155	-0.39075723
230	0x3ee2eed6	0.44322842
231	0xbda814bb	-0.08207079
232	0xbed1f88d	-0.41009942
233	0xbf652d94	-0.8952267
234	0xbe3b74c5	-0.18306263
235	0xbf2d63cd	-0.6773041
236	0xbe2c8ed9	-0.16851367
237	0xbedfff38	-0.43749404
238	0xbe27219c	-0.16321415
239	0xbed7893f	-0.42096898
240	0xbe367bfc	-0.17820734
241	0xbeac1003	-0.33605966
242	0xbe269148	-0.16266358
243	0xbec0344c	-0.375399
244	0x3de2493b	0.11049124
245	0x3e5b39c0	0.21408749
246	0x3e22f86e	0.15915081
247	0xbf13ae90	-0.57688236
248	0xbdf7efbd	-0.12106273
249	0xbea4150a	-0.32047302
250	0x3df971f6	0.121799394
251	0xbf23d384	-0.6399462
252	0xbd891be4	-0.06694773
253	0x3f2583bf	0.64654154
254	0xbdafb88b	-0.08580121
255	0xbec34202	-0.38136297

feature.bias_hh_l0 f4 [512]
0	0xbe901467	-0.28140566
1	0xbca8b909	-0.020596044
2	0x3ec5b272	0.38612705
3	0x3de83c3d	0.113396145
4	0x3e6a24a6	0.22865543
5	0xbdf551d8	-0.11978501
6	0xbe551e25	-0.2081228
7	0xbe333df4	-0.17504102
8	0x3e03c321	0.12867405
9	0xbe8774c9	-0.26456288
10	0x3e39d469	0.18147434
11	0xbdf7da71	-0.12102211
12	0xbe2e4160	-0.17017126
13	0x3ec9375a	0.39300042
14	0x3dd83c62	0.10558392
15	0x3d51a7b1	0.051185314
16	0x3f4e939e	0.80693996
17	0x3d551fad	0.05203216
18	0x3ec9471c	0.39312065
19	0x3e8b4f57	0.2720897
20	0xbc36a55c	-0.011147823
21	0x3eaa1e62	0.33226305
22	0x3e7101a3	0.2353578
23	0xbebfe8d1	-0.37482312
24	0xbded93cd	-0.116004564
25	0xbcfd1adb	-0.030896595
26	0xbd27c582	-0.040959843
27	0x3df5868a	0.11988552
28	0x3e77d1fe	0.242012
29	0xbe01d5a4	-0.12679154
30	0x3c86d17f	0.016457317
31	0x3e766a90	0.24064088
32	0x3dba1044	0.09085134
33	0xbebc51d4	-0.3678118
34	0xbe355660	-0.1770873
35	0x3b53a9f3	0.0032297343
36	0x3eb4cd96	0.353131
37	0xbe238abf	-0.15970896
38	0x3e4d5e4f	0.20055507
39	0xbd7a5c2c	-0.06112306
40	0xbf00ba5f	-0.5028438
41	0xbdb1ced2	-0.08682026
42	0xbdf9b827	-0.121933274
43	0x3dcf6e5f	0.101284735
44	0x3d951b70	0.07280624
45	0x3ecb8f86	0.39757937
46	0x3e987224	0.29774582
47	0x3f24d46a	0.6438662
48	0x3f410729	0.7540155
49	0x3e2f4797	0.17117153
50	0x3e8ecefd	0.27892295
51	0x3ee308fa	0.44342786
52	0x3e39939c	0.18122715
53	0xbf243be2	-0.64153874
54	0x3f156cd1	0.58369166
55	0xbe26bd4b	-0.16283147
56	0xbd1cca74	-0.03827901
57	0xbd4cf9f9	-0.05004308
58	0xbe11efa2	-0.14251569
59	0x3f86b3d2	1.0523627
60	0x3edc7aef	0.4306254
61	0x3e14dc6f	0.14537214
62	0xbd81a94f	-0.06331121
63	0x3e1bbb14	0.15208083
64	0xbe874c68	-0.2642548
65	0x3e41f7a9	0.18942131
66	0x3cf8ddf1	0.030379267
67	0xbe8482d7	-0.25881073
68	0x3f0e5931	0.55604845
69	0xbe10cc0a	-0.14140335
70	0x3edbe9d0	0.42951822
71	0xbeb5bb68	-0.35494542
72	0x3eb185c0	0.34672356
73	0x3f4fb0f4	0.81129384
74	0x3eea6b07	0.4578478
75	0xbe8362ac	-0.25661218
76	0x3eb64e32	0.35606533
77	0xbf02f808	-0.51159716
78	0x3e02e7cf	0.1278374
79	0x3e231839	0.15927209
80	0xbf08def6	-0.5346521
81	0x3d3810d8	0.04493794
82	0x3e089ce6	0.13341102
83	0x3eca4152	0.3950296
84	0xbe4cf0fc	-0.20013803
85	0xbedef111	-0.43543294
86	0xbae2d314	-0.0017305338
87	0xbe96cb4a	-0.29451972
88	0xbd0aafa1	-0.0338589
89	0xbe11f56c	-0.14253777
90	0xbe46805c	-0.19384903
91	0x3d979038	0.074005544
92	0x3f589aaa	0.84611
93	0x3ea2a455	0.31766
94	0x3ef34b7f	0.47518536
95	0x3f272e7e	0.65305316
96	0xbedf8aa8	-0.43660474
97	0x3db9b5cc	0.09067878
98	0xbe532317	-0.20618854
99	0x3d9f2d28	0.07772285
100	0x3e7b261e	0.2452626
101	0x3f287882	0.6580888
102	0x3f3b4d76	0.7316507
103	0x3db023d3	0.08600583
104	0x3c40af93	0.01176061
105	0x3efca019	0.49340895
106	0x3c863707	0.016383661
107	0x3e5e46b2	0.21706656
108	0x3e8cf2ab	0.2752889
109	0x3ebf0dea	0.37315303
110	0x3e979d84	0.29612362
111	0x3f0ed953	0.5580036
112	0x3e450ba6	0.19242725
113	0xbe9f2997	-0.31086418
114	0x3f437881	0.7635575
115	0x3ec3b159	0.38221243
116	0x3e74313b	0.23846905
117	0x3e062071	0.13098313
118	0x3f03dc62	0.5150815
119	0x3f2c94e1	0.6741467
120	0xbe915dca	-0.28391868
121	0xbe43cca3	-0.19121031
122	0xbe51c5d9	-0.20485629
123	0x3eefc239	0.46827868
124	0xbe187853	-0.1488965
125	0x3f54efe6	0.83178556
126	0xbe2aa9ca	-0.16666332
127	0x3f4ff3db	0.8123147
128	0xbed68709	-0.418999
129	0x3d999d55	0.07500712
130	0xbe5bcfb2	-0.21465948
131	0xbe56af25	-0.2096525
132	0xbe3dcc05	-0.18534859
133	0xbe1d94a0	-0.15388727
134	0xbf1d30ca	-0.6140257
135	0xbc2633b0	-0.010144159
136	0xbe58c6ed	-0.21169634
137	0xbe2f462e	-0.17116615
138	0xbed50a97	-0.41609642
139	0xbf170d30	-0.590045
140	0x3eb76acb	0.35823664
141	0xbeb235d0	-0.3480668
142	0xbe571ec9	-0.21007837
143	0xbf5de37d	-0.86675245
144	0xbeb3d4de	-0.35123342
145	0xbe98ff3e	-0.29882234
146	0xbd8d1713	-0.06889167
147	0xbc003be9	-0.007826784
148	0x3ca257fe	0.019817349
149	0xbe2b145b	-0.16706984
150	0xbe51c41e	-0.20484969
151	0x3d8e27e7	0.069412045
152	0x3af57aab	0.0018728575
153	0x3de18648	0.1101194
154	0xbe3d8bba	-0.18510333
155	0x3e6b47b6	0.22976574
156	0xbe12324c	-0.14276999
157	0xbab86224	-0.0014067334
158	0xbf157526	-0.5838188
159	0x3df01f1a	0.11724682
160	0x3de58cd2	0.112085
161	0xbe857944	-0.2606908
162	0x3dd8965e	0.10575555
163	0xbc6895e8	-0.014195897
164	0xbed9f919	-0.4257286
165	0x3dc65696	0.09684484
166	0xbedcf89f	-0.43158433
167	0xbeed7c18	-0.4638374
168	0x3de0ce62	0.109768644
169	0xbe9f5aa4	-0.3112384
170	0x3e51770c	0.20455569
171	0xbca009d6	-0.01953594
172	0xbec9c51e	-0.394082
173	0xbe96c349	-0.29445866
174	0xbe7f4990	-0.24930406
175	0xbf1a8658	-0.6036124
176	0xbe9cee25	-0.3065044
177	0xbdb39b6a	-0.08769877
178	0xbf57a907	-0.8424229
179	0xbe64c0b0	-0.2233913
180	0xbd8d5e84	-0.06902793
181	0x3e158150	0.1460011
182	0xbeb5cc29	-0.35507324
183	0xbdce59b0	-0.100757
184	0x3e256c53	0.16154604
185	0xbe3f3672	-0.18673113
186	0x3e2b48a1	0.16726924
187	0xbf0270d8	-0.50953436
188	0xbdeea5d8	-0.11652726
189	0xbdfcde0e	-0.12347041
190	0x3e8735dc	0.2640828
191	0xbec54812	-0.38531548
192	0x3e79bfcc	0.24389571
193	0xbef55b54	-0.4792124
194	0x3e0e51f1	0.13898446
195	0x3eb19248	0.34681916
196	0x3de21a66	0.11040191
197	0x3ea44c27	0.3208935
198	0xbeed8267	-0.46388552
199	0xbd7817db	-0.060569625
200	0x3e4e45a1	0.20143749
201	0x3dc2ebf8	0.09517664
202	0xbe9b2b7f	-0.30306622
203	0xbe4fdb10	-0.2029841
204	0xbef3d0bb	-0.47620186
205	0xbe22c6c2	-0.15896133
206	0xbec21595	-0.3790709
207	0xbf4ab18a	-0.79177153
208	0x3d96a6fb	0.07356068
209	0xbe2e6644	-0.17031199
210	0xbf04a430	-0.5181303
211	0xbf050e2b	-0.51974744
212	0xbf073a87	-0.5282368
213	0xbdcc95a0	-0.09989476
214	0x3d52d9da	0.05147729
215	0xbe61fb4a	-0.22068515
216	0x3e409ad9	0.1880907
217	0xbe4f7196	-0.20258173
218	0x3b8045f3	0.0039145886
219	0xbe8942d9	-0.26808813
220	0xbf57ef13	-0.84349173
221	0xbec56f5d	-0.38561526
222	0x3d833f0c	0.064085096
223	0xbe9f80cc	-0.31152952
224	0x3df1a8a9	0.117997475
225	0xbe041a7d	-0.1290073
226	0xbe160e34	-0.14653856
227	0x3da750ec	0.081697315
228	0xbeba8369	-0.36428383
229	0xbedd7a09	-0.43257168
230	0x3f039033	0.51391906
231	0xbe329c9d	-0.17442556
232	0xbf06acab	-0.5260722
233	0xbf3f6c33	-0.74774474
234	0xbd5acf20	-0.053420186
235	0xbf2c4f97	-0.67308944
236	0xbda75a82	-0.0817156
237	0xbeda594d	-0.42646256
238	0xbd55b09e	-0.05217039
239	0xbebf679b	-0.37383732
240	0xbe18215b	-0.14856474
241	0xbe8db250	-0.27675104
242	0xbe7c5ddd	-0.24645181
243	0xbe8fa683	-0.28056726
244	0x3e32cdf0	0.17461371
245	0x3e46d1e3	0.19416003
246	0x3d81ed90	0.063441396
247	0xbf28468a	-0.65732634
248	0xbda6a3b5	-0.081366934
249	0xbead8da6	-0.33897132
250	0x3ce18cd7	0.027532978
251	0xbf3513cb	-0.70733327
252	0xbdfd0ee6	-0.12356357
253	0x3f2c3f27	0.6728386
254	0xbe4ecefa	-0.20196143
255	0xbeeeee92	-0.4666639

feature.weight_ih_l0_reverse f4 [512, 64]
0	0x3f7ac601	0.9795838
1	0x3d9284ec	0.07154259
2	0x3eca43c9	0.3950484
3	0xbe2f24bb	-0.17103855
4	0x3e4893c7	0.19587623
5	0xbf3986fc	-0.72471595
6	0x3d99cdf4	0.075099856
7	0xbe207972	-0.15671328
8	0xbf2c766f	-0.67368215
9	0xbca1e222	-0.019761149
10	0x3e5cb433	0.21553116
11	0x3ec40a5e	0.3828916
12	0x3e9a908e	0.3018841
13	0xbf2b291c	-0.668596
14	0xbec74846	-0.38922328
15	0x3f06e466	0.5269226
16	0xbecc1ec0	-0.3986721
17	0xbce74af3	-0.02823398
18	0xbe549e05	-0.20763405
19	0xbeef0fd3	-0.4669176
20	0xbeb72d8d	-0.3577694
21	0xbf8b074b	-1.0861601
22	0x3f3f4619	0.74716336
23	0xbd9d1076	-0.07669155
24	0x3e1a7aac	0.15085858
25	0x3f194610	0.5987253
26	0xbd549aa4	-0.05190529
27	0xbe46069c	-0.19338459
28	0x3e52bce7	0.20579873
29	0xbf827665	-1.0192381
30	0xbf26da47	-0.65176815
31	0x3c08e6bc	0.008355793
32	0xbe4d0c58	-0.2002424
33	0x3dbe3a12	0.0928842
34	0x3e101f8a	0.14074531
35	0x3e66c18c	0.2253477
36	0x3e34d623	0.17659812
37	0xbf092a3a	-0.5358006
38	0x3f768b2b	0.96306103
39	0xbe625f98	-0.22106779
40	0x3d97eea1	0.07418562
41	0x3f093a5a	0.5360466
42	0x3f236ae1	0.6383496
43	0xb983b36a	-0.0002511994
44	0xbf717e1a	-0.9433304
45	0xbe1d8cee	-0.15385792
46	0x3ea573b7	0.32314846
47	0xbe872e04	-0.26402295
48	0x3f3b859e	0.7325076
49	0x3f4d2fc6	0.8015102
50	0x3e5ddfd4	0.21667415
51	0xbdb1075e	-0.08643983
52	0x3ee0c9ca	0.43903953
53	0xbe876248	-0.2644217
54	0xbe807581	-0.25089648
55	0x3e77f953	0.24216203
56	0xbf178990	-0.5919428
57	0x3f0e63a4	0.5562079
58	0xbe22ac0b	-0.15885942
59	0x3f285017	0.6574721
60	0xbebf15de	-0.3732137
61	0xbf1c0a7c	-0.609535
62	0x3d0d7336	0.0345337
63	0x3e7aa2c1	0.24476148
64	0x3df33e07	0.11877065
65	0xbe24e94f	-0.16104625
66	0x3e5bc08b	0.21460168
67	0x3ea358f1	0.31903794
68	0x3db5c3a0	0.08875203
69	0xbefe8178	-0.49708152
70	0x3e29831e	0.16553923
71	0xbec2f5b4	-0.38078082
72	0xbd0ab7a9	-0.03386656
73	0xbf0e7c43	-0.5565836
74	0xbf329433	-0.69757384
75	0xbf4c9f7a	-0.7993084
76	0x3e270717	0.16311298
77	0x3f0435fc	0.51644874
78	0xbdd61e2e	-0.10454975
79	0xbf7144f8	-0.9424586
80	0xbe1e4d48	-0.15459168
81	0xbf6c461b	-0.9229447
82	0xbe22101d	-0.15826459
83	0xbd9d2d9d	-0.07674716
84	0xbe985654	-0.29753363
85	0xbeda1392	-0.42593056
86	0xbe7b1251	-0.24518706
87	0xbe1e8f1f	-0.15484284
88	0xbf17a0d6	-0.5922979
89	0xbea862f6	-0.32888
90	0x3d7ae454	0.061252907
91	0x3f033ef3	0.5126793
92	0x3f34ad61	0.70577055
93	0x3d2ea0e8	0.04263392
94	0x3f2b9d44	0.67036843
95	0xbe80ecf4	-0.2518078
96	0xbf5313a9	-0.82451874
97	0x3f158389	0.5840383
98	0xbf12f5d3	-0.5740635
99	0xbf0ff674	-0.5623543
100	0x3f1b3635	0.6062959
101	0xbf1df372	-0.61699593
102	0x3ef9a9fb	0.48762497
103	0xbe9d3cdc	-0.30710495
104	0x3e956dc3	0.29185304
105	0xbd2783c6	-0.040897153
106	0x3ac36eec	0.0014910377
107	0xbee57254	-0.44813788
108	0xbefbd568	-0.49186254
109	0xbdfa36e5	-0.122175016
110	0x3f474f6a	0.7785555
111	0x3fac119c	1.3442874
112	0x3ec53e30	0.38524008
113	0x3ea17ef4	0.3154217
114	0x3d7ee446	0.062229417
115	0x3e6abf21	0.22924472
116	0xbf5069b0	-0.81411266
117	0xbf389ef9	-0.72117573
118	0xbf07c187	-0.53029674
119	0xbf36d225	-0.71414405
120	0x3e576507	0.21034633
121	0x3f8276d3	1.0192512
122	0x3e84ff8c	0.25976217
123	0xbe2a002f	-0.16601633
124	0x3d73c57f	0.05951452
125	0x3e00ecea	0.12590376
126	0xbea2279a	-0.3167084
127	0x3da0beca	0.0784889
128	0x3ea653bd	0.32485762
129	0xbe3b7cbc	-0.18309301
130	0x3db83526	0.08994512
131	0x3ee37158	0.44422412
132	0x3e8f3da5	0.2797672
133	0x3fe17e3e	1.7616651
134	0xbc97e976	-0.01854394
135	0x3f248e6f	0.64279836
136	0x3f1292cc	0.57255244
137	0x3f9393dd	1.1529499
138	0x3f2bb0cb	0.6706664
139	0x3f311ad3	0.69181556
140	0xbf316628	-0.69296503
141	0xbecf55ac	-0.4049505
142	0xbeaf3ec6	-0.3422758
143	0x3e38cda9	0.18047203
144	0x3fb375bf	1.4020308
145	0x3e1a5e38	0.15075004
146	0xbf2ad9e5	-0.6673873
147	0xbe109af7	-0.14121614
148	0xbe626672	-0.22109392
149	0x3f1c811f	0.61134523
150	0x3d67cc5b	0.056591373
151	0x3ed7b3d4	0.42129385
152	0xbe5000d7	-0.2031282
153	0xbf8298e1	-1.0202905
154	0xbf97fe10	-1.1874409
155	0xbf74598d	-0.95449144
156	0xbf0337a6	-0.5125679
157	0x3e2e5ab8	0.17026794
158	0x3f1a5a6a	0.6029421
159	0xbdf33b0a	-0.11876495
160	0x3e6c2f1c	0.23064846
161	0xbf2ba1e1	-0.6704388
162	0x3f785e7e	0.97019184
163	0x3e67e28b	0.22645013
164	0xbee20f4d	-0.441523
165	0x3d9140fc	0.07092473
166	0xbf10c7f7	-0.5655512
167	0x3c21a0bc	0.009864982
168	0x3f49e8da	0.7887093
169	0xbde69c40	-0.11260271
170	0x3e4783a1	0.19483806
171	0x3dd50bc6	0.10402636
172	0xbe130207	-0.14356242
173	0x3dfe0583	0.12403395
174	0xbe38641a	-0.18006936
175	0xbd0edee5	-0.034880538
176	0xbd9402f3	-0.07227125
177	0xbf0541cf	-0.5205354
178	0x3ea70fd1	0.32629254
179	0x3cbe3d80	0.023222685
180	0x3d257ce4	0.040402308
181	0x3f2aca90	0.66715336
182	0x3ea66722	0.3250056
183	0x3e80dedc	0.25170028
184	0x3f135d7e	0.5756453
185	0x3eeb7102	0.45984656
186	0xbe73cae8	-0.23807871
187	0xbda56b9c	-0.080771655
188	0xbec0706f	-0.3758578
189	0xbc1de7db	-0.009637798
190	0x3e74e637	0.23915945
191	0x3e71faac	0.2363078
192	0xbf570e7d	-0.8400648
193	0xbe71c8b3	-0.23611717
194	0x3ca26f54	0.019828476
195	0x3f97c0a4	1.1855664
196	0x3f4c540d	0.7981575
197	0x3f800baf	1.0003566
198	0xbeeff0d5	-0.46863428
199	0xbfe9682a	-1.8234913
200	0xbe67cc02	-0.22636417
201	0x3d986a44	0.074421436
202	0x3ec71486	0.38882846
203	0x3e56ea54	0.20987827
204	0x3c97b799	0.018520163
205	0x3de9ee10	0.1142236
206	0xbf5c5365	-0.8606475
207	0xbd9e5209	-0.07730491
208	0xbf21f4e7	-0.63264316
209	0xbf9997d1	-1.1999456
210	0xbf1cf7cb	-0.613156
211	0x3e21afc3	0.15789704
212	0x3ed335ea	0.4125207
213	0xbf9d237e	-1.2276456
214	0x3eba2f1d	0.3636407
215	0xbd863022	-0.06552149
216	0x3f523bff	0.82122797
217	0xbe5cc41e	-0.21559188
218	0x3dbb90ec	0.09158501
219	0x3f1639b2	0.58681786
220	0xbf0a47d8	-0.54015875
221	0xbeae08b5	-0.33991018
222	0x3c7b6386	0.015343552
223	0xbe03149c	-0.1280083
224	0x3f880ec4	1.0629506
225	0xbf96e9a6	-1.1790054
226	0xbf1bd75e	-0.608755
227	0xbdada5b3	-0.0847887
228	0xbe34ac15	-0.17643769
229	0xbf458542	-0.7715646
230	0xbf77fb7b	-0.96868104
231	0x3dde3d62	0.108515516
232	0xbce2a224	-0.027665205
233	0xbf3f39d3	-0.7469761
234	0x3e217c9a	0.15770188
235	0x3e53cfea	0.20684782
236	0xbe3f8ee3	-0.1870685
237	0xbd44a753	-0.048011135
238	0xbecbbb5f	-0.3979139
239	0xbf48b044	-0.7839396
240	0xbe560da8	-0.20903647
241	0xbd914496	-0.0709316
242	0xbe3e9b37	-0.18613897
243	0x3efed9e6	0.49775618
244	0xbd3ac246	-0.04559543
245	0xbf158e76	-0.58420503
246	0xbf8c3afd	-1.0955502
247	0x3ec27a53	0.3798395
248	0x3f0bfa0a	0.54678404
249	0xbf9892a4	-1.1919751
250	0x3e85f98d	0.26166955
251	0xbe8d7334	-0.27626956
252	0xbf74daf8	-0.9564662
253	0xbe7d5b2a	-0.24741808
254	0x3e44e99d	0.19229741
255	0x3f305e45	0.68893844

feature.weight_hh_l0_reverse f4 [512, 128]
0	0x3d951081	0.072785385
1	0xbeacaadd	-0.33724108
2	0x3ed7b091	0.42126897
3	0x3e030cec	0.12797898
4	0x3dcd9b9f	0.10039448
5	0x3f23c85c	0.639776
6	0xbf1222f0	-0.5708456
7	0x3ea8086e	0.3281893
8	0x3dce2a4b	0.100666605
9	0x3d6f794f	0.0584653
10	0xbf1da142	-0.61574185
11	0xbea55e3c	-0.32298458
12	0xbe45054a	-0.19240299
13	0xbbe4ebb7	-0.006986107
14	0x3f5d001e	0.86328304
15	0x3eedae0f	0.4642186
16	0x3f31d029	0.6945825
17	0xbf03632f	-0.5132322
18	0xbecedbab	-0.40401968
19	0xbf20b322	-0.62773335
20	0xbcbc37d0	-0.022975832
21	0x3f8051ee	1.0025003
22	0xbe830d35	-0.25596014
23	0x3e06f16a	0.1317803
24	0x3e296d41	0.16545583
25	0xbf915065	-1.135266
26	0x3eb08e1b	0.34483418
27	0x3d4670b6	0.048447333
28	0xbed83883	-0.42230615
29	0xbe8517c7	-0.25994703
30	0xbecd2059	-0.40063742
31	0x3e63b58a	0.2223722
32	0xbe8fd49d	-0.280919
33	0xbe89d62b	-0.2692121
34	0x3f486ea8	0.7829385
35	0xbe1cc634	-0.15309983
36	0xbf34bbac	-0.70598865
37	0xbec631a4	-0.38709748
38	0xbf54cbf2	-0.83123696
39	0x3d79b070	0.06095928
40	0xbd0d8366	-0.03454914
41	0x3f1addbd	0.60494596
42	0x3e5bb695	0.21456368
43	0xbe85a6b7	-0.26103756
44	0xbea19d8e	-0.31565517
45	0x3d4ce149	0.050019536
46	0xbe2ab183	-0.16669278
47	0xbf837c10	-1.0272236
48	0x3c58d446	0.013234204
49	0xbd9f4b6b	-0.07778057
50	0x3cf2fac7	0.029660596
51	0x3f320819	0.69543606
52	0x3f48cd0f	0.78437895
53	0xbbea091f	-0.0071422006
54	0xbe300915	-0.17190965
55	0xbf0d5379	-0.55205494
56	0x3eb2be8a	0.34910995
57	0xbe67671a	-0.22597924
58	0x3ca60ad7	0.02026884
59	0xbeb88355	-0.36037698
60	0xbdf6acb3	-0.120446585
61	0x3ddd5d9f	0.108088724
62	0xbd706f9b	-0.058700185
63	0x3f1cb3d6	0.6121191
64	0x3e33f16a	0.17572561
65	0x3e0935d3	0.13399439
66	0x3eea5ae6	0.45772475
67	0xbf506bf8	-0.8141475
68	0x3f32a4b9	0.69782597
69	0xbe7c6a61	-0.24649955
70	0x3f0aaf0f	0.5417337
71	0x3e93aa64	0.28840935
72	0xbf6ea141	-0.93214804
73	0xbd0f9354	-0.035052612
74	0x3e864241	0.26222423
75	0xbd6d907a	-0.05799911
76	0x3f144b43	0.5792734
77	0xbf38c5f5	-0.7217706
78	0x3e08e500	0.13368607
79	0x3cc6c070	0.024261683
80	0x3f45f745	0.7733043
81	0xbd9733ea	-0.07382949
82	0x3f281b7a	0.65666926
83	0x3caf5aee	0.021405663
84	0x3f62a184	0.88527703
85	0x3e5557b5	0.20834239
86	0xbec1e742	-0.37871748
87	0xbc36af44	-0.011150185
88	0x3db65068	0.08902055
89	0x3e087f06	0.13329706
90	0xbe8675e5	-0.2626182
91	0xbf22f1a0	-0.6364994
92	0xbe8d6730	-0.27617788
93	0xbea62858	-0.32452655
94	0x3f04b6bf	0.5184135
95	0xbf6c66ba	-0.9234425
96	0xbda793bb	-0.08182474
97	0x3da06d79	0.0783338
98	0x3dd36431	0.10321844
99	0xbf2f6d6a	-0.6852633
100	0xbe30a400	-0.17250061
101	0x3f071588	0.5276723
102	0xbf5bfe7f	-0.85935205
103	0x3f34dc14	0.7064831
104	0x3eb78a3c	0.35847652
105	0x3e8c7891	0.27435735
106	0x3ccb4575	0.024813393
107	0x3ec383e4	0.38186562
108	0x3dd14a9a	0.10219307
109	0xbec57f57	-0.38573715
110	0x3ea0071b	0.3125542
111	0x3db7e91b	0.08980008
112	0x3eeb1cd3	0.4592043
113	0x3f0e38b4	0.5555527
114	0xbe66c3e4	-0.22535664
115	0x3ba8b585	0.005148592
116	0x3da8882c	0.08229098
117	0x3ee9cd8a	0.45664626
118	0x3f13d2e3	0.5774366
119	0xbec16fb6	-0.3778054
120	0xbf015e9f	-0.50535005
121	0x3ca12c4a	0.019674439
122	0x3d18e751	0.037329976
123	0x3dbd13e4	0.092323095
124	0xbcbcd652	-0.023051415
125	0x3dbb632b	0.09149774
126	0xbebeb7e2	-0.37249666
127	0xbf2c0daf	-0.6720838
128	0xbd77845d	-0.060428966
129	0x3d8a49d5	0.067523636
130	0xbe9b392e	-0.30317062
131	0xbd526d37	-0.051373687
132	0xbcc96e8f	-0.024588851
133	0x3e4c9de9	0.19982113
134	0xbe26e8ee	-0.16299793
135	0x3edcedd7	0.43150207
136	0xbda3a33d	-0.079901196
137	0xbe26b28b	-0.16279046
138	0xbe9968fc	-0.2996291
139	0x3e7cd619	0.24691047
140	0x3e112671	0.1417482
141	0x3e1c51db	0.152656
142	0x3ee06d57	0.4383342
143	0x3f13b0e6	0.576918
144	0x3edc8582	0.43070608
145	0xbf34ec73	-0.7067329
146	0x3eeab18a	0.45838577
147	0xbea5abf9	-0.32357767
148	0x3e8965ca	0.2683547
149	0x3eebc893	0.46051463
150	0xbec3e2e4	-0.3825904
151	0xbf02961b	-0.5101029
152	0xbe1dba1a	-0.15403023
153	0xbea1c2ba	-0.31593877
154	0xbd90207f	-0.07037448
155	0x3ecd0bd6	0.40048093
156	0xbe7672a1	-0.24067165
157	0xbeaa9596	-0.3331725
158	0x3ea3c89a	0.31988984
159	0x3f64484e	0.8917283
160	0x3d3b795a	0.045770027
161	0xbe0e7cf8	-0.1391486
162	0xbf47e6f7	-0.780868
163	0xbecaf15a	-0.39637262
164	0xbe81cc87	-0.25351354
165	0xbf12f3a5	-0.5740302
166	0xbec1a27a	-0.37819272
167	0x3de05051	0.10952819
168	0x3edfbdfc	0.43699634
169	0xbdf382d9	-0.118901916
170	0xbd8de132	-0.06927718
171	0x3d9386a6	0.072034165
172	0xbdc23c66	-0.09484176
173	0x3f40be70	0.75290585
174	0xbe5b3875	-0.21408255
175	0xbe21886e	-0.157747
176	0x3d9a10d2	0.075227395
177	0xbdce7995	-0.10081784
178	0x3f24f5e5	0.64437705
179	0x3e6c2cd6	0.23063979
180	0x3e8dee9b	0.27721104
181	0x3c572557	0.013131461
182	0x3ea1f75e	0.3163404
183	0xbe4f1452	-0.20222595
184	0x3eb0496a	0.3443101
185	0xbdcd7792	-0.10032572
186	0xbc4344d1	-0.011918263
187	0xbe0e9701	-0.13924791
188	0xbee64e9d	-0.44981852
189	0x3b2ede8b	0.002668294
190	0xbe185922	-0.14877751
191	0x3ee39527	0.44449732
192	0x3d7a9374	0.06117578
193	0xbdbcc0d0	-0.092164636
194	0xbe3ecfa4	-0.18633896
195	0x3ec36417	0.381623
196	0xbd62e7ce	-0.055396847
197	0xbe0fdf9f	-0.14050148
198	0x3f200f8e	0.62523735
199	0xbefe73a6	-0.49697608
200	0xbdf126a7	-0.117749505
201	0xbd9af418	-0.075660884
202	0xbf88be9b	-1.0683168
203	0xbec96db1	-0.393415
204	0xbd494b32	-0.049143977
205	0xbf675c06	-0.9037479
206	0xbe60cd1f	-0.21953247
207	0xbe6ebf07	-0.23315059
208	0xbb87108c	-0.0041218456
209	0x3d295b67	0.041346934
210	0x3e18d472	0.14924791
211	0x3e7feed7	0.24993454
212	0x3db5e32b	0.088812195
213	0xbe95ff27	-0.29296228
214	0x3eee33b5	0.46523824
215	0x3eebf08f	0.4608197
216	0xbf04015b	-0.5156457
217	0x3ea22754	0.3167063
218	0x3dec94fa	0.115518525
219	0xbedd69cd	-0.43244782
220	0xbe5d43b1	-0.21607853
221	0xbdd0b915	-0.101915516
222	0xbd358942	-0.044320352
223	0xbcfae299	-0.030625628
224	0xbdf0f18e	-0.11764823
225	0x3dfc1c84	0.123101264
226	0xbd6459e9	-0.055749808
227	0xbdad57f9	-0.08464045
228	0x3e0af09e	0.1356835
229	0xbb7b2870	-0.0038323663
230	0x3e219648	0.15779984
231	0x3de8d7f7	0.11369317
232	0xbdcdae4f	-0.10043012
233	0xbec6431a	-0.3872307
234	0xbe8b85e2	-0.27250582
235	0xbde1685b	-0.11006232
236	0xbeb6fedd	-0.3574132
237	0xbe2ee1f7	-0.17078386
238	0x3f1abfa8	0.60448694
239	0xbd1e0029	-0.03857437
240	0x3f4c26c5	0.7974666
241	0xbe32f093	-0.17474584
242	0xbd0b1842	-0.03395868
243	0xbe1165f1	-0.14199044
244	0x3e88ddfd	0.26731864
245	0x3ce64361	0.0281083
246	0x3ededd65	0.43528286
247	0x3dad2234	0.08453789
248	0xbeede1fa	-0.4646147
249	0xbf19718a	-0.5993887
250	0xbe714b82	-0.2356396
251	0xbe6e8766	-0.23293838
252	0x3e44b097	0.19207989
253	0xbf44a820	-0.7681904
254	0xbedd8747	-0.4326727
255	0xbf4220a4	-0.75831056

feature.bias_ih_l0_reverse f4 [512]
0	0x3f3d312d	0.7390316
1	0x3d540606	0.051763557
2	0xbe477635	-0.19478686
3	0xbce3637b	-0.027757397
4	0x3ebf9d89	0.37424877
5	0xbe0d9f54	-0.1383031
6	0x3e3c7854	0.18405277
7	0x3ee3a81b	0.44464192
8	0x3e2eb249	0.17060198
9	0xbe03b821	-0.12863208
10	0x3e013f04	0.12621695
11	0x3e51bea4	0.2048288
12	0x3ca88b7b	0.020574322
13	0x3eefa9f9	0.46809366
14	0x3de49dd3	0.11162915
15	0xbeaca776	-0.33721513
16	0xbacfd432	-0.0015856086
17	0x3f5cb83a	0.8621861
18	0xbe16eafc	-0.14738077
19	0x3ec307c6	0.38091868
20	0x3e65e865	0.22451933
21	0x3d92c126	0.071657464
22	0x3cd85578	0.026407942
23	0xbd3294f8	-0.0435991
24	0xbd316fb1	-0.043319408
25	0xbc6d92eb	-0.01450036
26	0x3e64413f	0.22290514
27	0x3d8964ed	0.06708703
28	0x3e95d8f0	0.29267073
29	0x3e9fe65c	0.31230438
30	0x3ef3acbd	0.47592726
31	0x3e4c8534	0.19972688
32	0xbe33bf44	-0.17553431
33	0xbe9a721a	-0.30165178
34	0x3f50d37f	0.8157272
35	0xbe0650e3	-0.13116793
36	0xbd38c6b4	-0.045111373
37	0x3e2f28be	0.17105386
38	0xbeab5d7d	-0.33469763
39	0x3c55ffaa	0.013061443
40	0x3ea25b8a	0.31710464
41	0x3e23342f	0.15937875
42	0x3edb7146	0.42859858
43	0x3f02c0a9	0.51075226
44	0x3e4d22d9	0.20032825
45	0x3f0882b5	0.53324443
46	0xbd96bf54	-0.07360712
47	0x3efdc1e8	0.49562
48	0x3e68bc0e	0.22727987
49	0xbeabea2a	-0.3357709
50	0xbe930e9f	-0.28722093
51	0x3e988691	0.29790166
52	0xbb200102	-0.0024414663
53	0x3d089704	0.033347145
54	0x3e9eef82	0.31042105
55	0x3d9703c8	0.07373768
56	0xbd107d94	-0.03527601
57	0x3ec21e7a	0.37913877
58	0x3ea6755c	0.32511413
59	0xbe3fc72d	-0.18728323
60	0x3f5ec35f	0.8701686
61	0xbe3e8cfc	-0.18608469
62	0x3f994cbb	1.1976541
63	0xbe9f6ad5	-0.31136194
64	0xbf0aeacc	-0.5426452
65	0x3c9e50e9	0.01932569
66	0x3d103cce	0.035214238
67	0x3de9d285	0.114171065
68	0x3ebba387	0.366482
69	0x3e96694d	0.29377213
70	0x3f848eee	1.0356119
71	0x3ecd90ca	0.40149528
72	0x3d9d0211	0.0766641
73	0x3dd19c6c	0.10234913
74	0x3f52b0af	0.8230085
75	0x3cd33669	0.02578278
76	0x3ea6826f	0.32521388
77	0xbdb9b7c9	-0.09068257
78	0x3f43916d	0.7639378
79	0xbdcadcd6	-0.09905402
80	0xbde1ee63	-0.11031797
81	0xbf01ff37	-0.5078005
82	0xbe594190	-0.21216416
83	0x3ef2c736	0.4741761
84	0x3f27f0f2	0.6560203
85	0xbd6a77ef	-0.057243284
86	0x3d9bd979	0.07609839
87	0x3df61edf	0.12017607
88	0xbe9274eb	-0.28604826
89	0xbe4eecc1	-0.20207502
90	0x3f1237b0	0.5711622
91	0xbddc53dd	-0.10758183
92	0x3d8f52b9	0.069982
93	0xbd4a4563	-0.04938258
94	0x3ed84da7	0.42246744
95	0xbf03e423	-0.51519984
96	0x3e7ffb91	0.24998309
97	0xbd493163	-0.049119364
98	0x3e935ad1	0.28780225
99	0x3da70e76	0.08157055
100	0x3ec06cbf	0.37582967
101	0xbe2408d5	-0.16018994
102	0x3e8881d3	0.26661548
103	0x3dddc632	0.108288184
104	0x3f366ce4	0.71259904
105	0x3f39d292	0.7258693
106	0x3e23fa92	0.16013554
107	0x3ebb7a19	0.3661659
108	0x3ec48180	0.3838005
109	0xbda9c5cd	-0.08289681
110	0xbea5b2bf	-0.32362935
111	0x3e8a35ea	0.26994258
112	0x3e70f9a7	0.23532735
113	0x3d344bcf	0.04401761
114	0x3d4b2c43	0.04960276
115	0x3dc6301b	0.09677144
116	0x3e36aa84	0.17838484
117	0xbea111b8	-0.3145883
118	0xbe4f1fe4	-0.20227009
119	0x3e3b6088	0.18298542
120	0x3f1c75b1	0.6111708
121	0x3e48e76b	0.19619529
122	0xbe95b3e8	-0.2923882
123	0x3eacffdb	0.33788952
124	0x3e1a53c9	0.15071024
125	0x3ede1feb	0.43383726
126	0x3f058f9d	0.5217226
127	0x3d8d9b12	0.06914343
128	0x3ee3afa9	0.44469956
129	0x3e43fe4f	0.1913998
130	0x3f06f70b	0.5272071
131	0xbd992082	-0.074769035
132	0x3e86787a	0.2626379
133	0xbe352a62	-0.17691949
134	0xbe3ac05c	-0.18237442
135	0xbf1a2553	-0.602132
136	0x3d55b429	0.052173767
137	0xbea45f1c	-0.32103813
138	0xbdfe3aa2	-0.12413527
139	0xbe933a9e	-0.2875566
140	0xbe470707	-0.19436274
141	0x3f45bed1	0.7724429
142	0x3cb41f2e	0.021987524
143	0x3e6c510c	0.23077792
144	0x3d4c64dc	0.049900874
145	0x3fe95e87	1.8231972
146	0x3e6fb873	0.23410206
147	0x3dfd353f	0.123636715
148	0xbe80e780	-0.2517662
149	0x3e930039	0.28711107
150	0xbdfa900a	-0.122345045
151	0x3eb736e8	0.35784078
152	0x3d03ab57	0.032145824
153	0x3def3a69	0.11681063
154	0xbe1656cc	-0.14681548
155	0xbeacf455	-0.3378016
156	0x3e1d2e3b	0.15349667
157	0xbf0c4868	-0.54797983
158	0x3f19c944	0.6007273
159	0x3ce73675	0.02822421
160	0x3e531ea7	0.20617162
161	0x3e5ced78	0.21574962
162	0xbf0c8542	-0.54890835
163	0x3dbeee46	0.09322791
164	0x3f11024c	0.5664413
165	0xbea5d458	-0.32388568
166	0x3eea5de0	0.45774746
167	0x3ef85ab8	0.48506713
168	0xbcbb46b0	-0.022860855
169	0xbecfcd7e	-0.40586466
170	0xbdbdf852	-0.09275879
171	0xbe4998b9	-0.19687165
172	0x3bbffd0c	0.005859023
173	0xbeccaba4	-0.399747
174	0x3e0f9e0c	0.14025134
175	0x3e82bbfb	0.25534043
176	0xbdd13834	-0.10215798
177	0xbe92bce0	-0.28659725
178	0x3f02c8ae	0.5108746
179	0x3e89da27	0.2692425
180	0x3f151bca	0.5824553
181	0x3e8b0c6b	0.27157912
182	0xbeb800b9	-0.3593805
183	0xbb87a9a3	-0.0041400953
184	0x3d55f02f	0.05223101
185	0x3edf5b36	0.43624276
186	0x3cc538cc	0.024074934
187	0xbd372bb4	-0.044719413
188	0xbee628c3	-0.44952974
189	0x3ef3d408	0.47622705
190	0xbf31b41d	-0.69415456
191	0x3ed6c977	0.4195058
192	0x3e46a99e	0.19400641
193	0xbe5b90bf	-0.21441935
194	0x3e12f089	0.1434957
195	0xbe8aa901	-0.27082065
196	0x3d9eb8aa	0.077500656
197	0xbd2c7e17	-0.042112436
198	0xbef199c1	-0.47187617
199	0xbe1a1c63	-0.15049891
200	0x3e16c1f9	0.14722432
201	0x3e4809b4	0.19534951
202	0xbf12b3b2	-0.57305443
203	0xbedb2611	-0.4280248
204	0xbe2a635f	-0.1663947
205	0x3e759070	0.2398088
206	0x3f4df8fe	0.80458057
207	0x3df8139b	0.121131144
208	0x3da743df	0.08167242
209	0xbe9532fb	-0.29140458
210	0xbdd1fb87	-0.10253053
211	0x3df26e07	0.11837392
212	0xbe9aae7d	-0.3021125
213	0x3dcb2915	0.09919945
214	0xbdea685a	-0.11445685
215	0xbe8c20ed	-0.2736887
216	0x3cecc6eb	0.028903445
217	0x3d982a4e	0.07429944
218	0xbd9381ee	-0.072025165
219	0x3e8a3b97	0.26998588
220	0xbcb79bbc	-0.022413127
221	0xbe2d79a0	-0.16940928
222	0xbecf7bf4	-0.40524256
223	0xbe6d608a	-0.23181358
224	0xbe253c7b	-0.16136353
225	0xbe9dbb71	-0.3080707
226	0xbe9a1b2b	-0.30098853
227	0x3e071b17	0.13193928
228	0xbeb68fed	-0.35656682
229	0x3b45865f	0.0030139906
230	0xbeb319d2	-0.34980637
231	0x3ed97f93	0.42480144
232	0x3f04f0f9	0.51930195
233	0x3f0264cd	0.5093506
234	0xbc9695f9	-0.01838206
235	0x3da62706	0.08112912
236	0xbe221ee3	-0.15832095
237	0x3e2fc528	0.17165053
238	0xbef8e1e1	-0.48609832
239	0x3dd769ec	0.1051825
240	0xbd6a378c	-0.05718188
241	0xbcb21ef9	-0.021743285
242	0x3d48d2b1	0.049029056
243	0xbe811e88	-0.25218606
244	0x3e911594	0.28336775
245	0x3d74a22b	0.059724968
246	0x3e0310eb	0.12799422
247	0x3da6df19	0.08148021
248	0xbe370a5d	-0.17875047
249	0xbf02c1ef	-0.5107717
250	0xbe55790f	-0.20846961
251	0x3d6867c5	0.056739587
252	0xb99f0d03	-0.00030336538
253	0xbc88aba6	-0.01668341
254	0xbea86c8b	-0.32895312
255	0xbe2b07ce	-0.16702196
