pretrained_models/comick-5-context-size.pth (torch, 821283 bytes, 10 tensors)

feature.weight_ih_l0 f4 [512, 64]
00000000: 0213 8d3e 793a fb3e 6a82 cb3d 8363 633f
00000010: 7d67 6a3e 7bf5 68be 93b1 55bf 1a74 29bd
00000020: f44a 483f 3c15 063f ff25 ffbe 7f91 b33c
00000030: af53 533f ef71 5e3f 8898 f83e 2dff e8be
00000040: 5cb7 673f 69ca d9bc f789 3a3f 0586 d43d
00000050: 8760 49bf 23c4 2bbe dbf0 a63d f0dc 353f
00000060: b878 e8be 27e7 ccbe e41e c33e 319e 4fbf
00000070: 2f18 afbe 8e46 cd3d 3835 453f f034 19be
00000080: 2b8b 36bf dba2 833f 916a edbe 0646 a43e
00000090: 9644 25bf 6dc0 a8be c87f 45bf d526 41bd
000000a0: 858d 8dbf 1da4 63bf 657b 243e bcbc 083e
000000b0: 616a 85bf ea06 ed3e d3c5 6f3d 2792 01bd
000000c0: 487d 96be f114 bc3d ec90 3dbf c58d babc
000000d0: 74f5 c03a 92b4 1dbf a23d 513f ebc0 e5be
000000e0: 4c3e 08bf 93a5 03be a2a7 cc3d 0213 203f
000000f0: 41a7 b83e 8203 28be 33d0 abbf d118 8fbe
00000100: fbe0 d0be 2381 833d 4448 70bf c506 453d
00000110: e8de 993d 217a 3fbf 9cd8 84be b2e9 0e3e
00000120: 88c8 573f 7d2b 313f e0e0 b7be ca19 353f
00000130: 3e28 48bf e686 b0be 0589 37bf d8bf ff3d
00000140: 158a c13f 54a7 e1be 0c3c e9bd 068e 00be
00000150: 262e 2cbf 4dfb 81bf 48fa abbd d51d 623f
00000160: fd4d 993e 0495 c4bf e90a 0cbf 68cb 5dbf
00000170: 4e87 ddbe 0056 043f 2eee 91be fffa 37bf
00000180: 3bb5 303f 498f f83d 84af 9ebf ea1c 163f
00000190: c3fb 99bf 3a6e 5dbc 3f57 5fbd b3cb 9abf
000001a0: d4a3 bdbf f274 cb3e fc04 1abe ef1f acbe
000001b0: efb6 d33e 6276 2bbd c429 243e dc1f 2a3f
000001c0: 39d8 e33f 58f5 9ebe cee7 bebe 2ec1 e2bd
000001d0: 4200 fd3e 8744 49bf b7c8 a0be 426d 0f3e
000001e0: bed5 3a3e e2d3 0b3f e999 fa3d df05 5f3f
000001f0: 79e3 2cbf ff4a 203d 3c89 49be 4d75 f53d
00000200: 9726 da3e f76f 0e3b 2c2c 02bc 48b5 a2be
00000210: d114 2cbf 2bb4 3e3e f2a8 8bbc 2517 f7bd
00000220: b0a9 2fbf f4d0 a1be 9bcc d3be 6b2b f6bd
00000230: b932 6b3e e0cf 5bbf 205d b13f f5de 2bbf
00000240: f04e 5a3c 9758 4b3f ccd2 6c3f 016f 6f3f
00000250: 7a14 b9be a10c 153e fa89 26bf 6821 ec3f
00000260: c8a7 013e e004 4d3f 2d51 813f 1801 0dbf
00000270: ed84 92bd 38f0 813e 4662 843f a2d2 8bbe
00000280: 0ac0 f63e df1b a4be 0205 c5be f1fc 0b3e
00000290: 9b6c eabe d38c 4f3d 5f30 253e 042c 9a3e
000002a0: 29af ec3d a49a 793d 18f5 553f 8046 e53e
000002b0: f96d 1fbd 08e6 88bf fe58 963e bae7 063e
000002c0: dc60 8cbc d053 86bd 3538 01bf e1e4 b6be
000002d0: 9f56 373f 7099 f9be 7be8 29be 85dc 0c3f
000002e0: 5277 473d cead 073f 81f5 3b3f e448 733f
000002f0: c99f 4f3f 5fe5 04bf c10f 853e 94dd 8fbf
00000300: 4eba 153f cca9 373d fa4f ed3e c9e3 0cbf
00000310: 4e29 0ebd f863 963e 969f 2a3d dcf3 59bf
00000320: 0aee ebbd 3c84 a53e 588a 51bf b5eb 28be
00000330: 930a 803e 16ee 31bf c741 bf3c 4242 77bf
00000340: 0ca8 923c 9926 803e d941 963f a69d d33e
00000350: f97d 583f b8e4 613f c410 89bf e869 4b3e
00000360: 1daf 91bf fcab 30be 8c35 73be 1de7 b23e
00000370: e010 c43e 5d31 453e dbff f0bd 4508 453f
00000380: c20e adbe b0d9 533e e1e0 b2be 6ac7 193f
00000390: 35f1 d83e 66ec f93e 09da 70bf 86b0 77be
000003a0: dd05 32be 16fe de3d c850 123f 8148 d8bc
000003b0: 6ba5 96be 2156 4f3f 24b5 a73e 23ba 05bf
000003c0: 2b78 35be 4de7 913e d101 963d d108 04bc
000003d0: c101 afbe b51a 643d 9014 9f3f f9a7 bc3e
000003e0: 117a a7be 4ed9 a7bf c7cd ad3e d885 e13e
000003f0: c4a6 04be 297d 483e 8344 c93e 23ab 62bf
0.27553564 0.4906805 0.09936984 0.8882372 0.2289104 -0.22749893 -0.8347408 -0.04137049
0.7823937 0.5237615 -0.49833676 0.021919964 0.82549566 0.868926 0.48553872 -0.45507184
0.9051416 -0.026585774 0.7286677 0.10377125 -0.78662914 -0.16774039 0.08151408 0.7104025
-0.454046 -0.40020105 0.38109505 -0.81100756 -0.34198138 0.10023223 0.7703433 -0.149616
-0.71306103 1.0284075 -0.46370366 0.32084674 -0.6455778 -0.3295931 -0.77148104 -0.047156174
-1.1058813 -0.8892229 0.16062696 0.13353246 -1.0423089 0.46294338 0.05853827 -0.031633522
-0.29392457 0.09183682 -0.7404926 -0.02277268 0.0014721588 -0.61603653 0.8173467 -0.44873747
-0.5322006 -0.1285613 0.09992911 0.62529004 0.36065105 -0.16407588 -1.3422912 -0.2794862
-0.40796646 0.06421115 -0.9386027 0.04810216 0.07513219 -0.7479573 -0.2594651 0.13956335
0.8429036 0.6920698 -0.35913754 0.70742476 -0.78186405 -0.3447792 -0.7169345 0.12487763
1.5120264 -0.44072974 -0.11388406 -0.12554178 -0.67257917 -1.0154816 -0.08397347 0.8832677
0.29942313 -1.5357976 -0.5470415 -0.866385 -0.43267292 0.51693726 -0.2850203 -0.71867365
0.69026536 0.121367045 -1.2397313 0.5863787 -1.2029957 -0.01351505 -0.054526564 -1.2093414
-1.4815621 0.3973766 -0.15040964 -0.33618113 0.41350505 -0.041860946 0.16031557 0.66454864
1.7800361 -0.31046557 -0.37286228 -0.11072002 0.4941426 -0.7862019 -0.31403133 0.14006522
0.18245599 0.5462018 0.12236387 0.87118334 -0.67534596 0.03913402 -0.19681257 0.11985264
0.42607567 0.0021734217 -0.007945102 -0.31778932 -0.67219263 0.18623416 -0.017048333 -0.12064961
-0.686183 -0.3160473 -0.4136704 -0.1202 0.22968568 -0.8586407 1.3856544 -0.6713708
0.013324484 0.7943205 0.9250915 0.93528754 -0.36148435 0.14555599 -0.65054286 1.8447695
0.1266166 0.80085564 1.0102898 -0.55079794 -0.0715426 0.25378585 1.0342491 -0.27309138
0.4819339 -0.32052514 -0.38480383 0.13670708 -0.45785984 0.05067141 0.16131733 0.30111706
0.11556847 0.060938492 0.8357711 0.4478035 -0.038923237 -1.06952 0.2936477 0.13174334
-0.01713603 -0.06558955 -0.5047639 -0.35721496 0.7161655 -0.48749876 -0.1659259 0.55023986
0.048697777 0.5299958 0.73421484 0.950331 0.8110319 -0.5191249 0.25988582 -1.1239495
0.58487403 0.044839665 0.4635008 -0.5503507 -0.03470736 0.29373145 0.0416561 -0.85137725
-0.11520012 0.3232745 -0.8185172 -0.16496165 0.25008067 -0.69503915 0.023346795 -0.96585476
0.017902397 0.25029448 1.1738845 0.41331214 0.8456722 0.8823962 -1.0708241 0.19864619
-1.1381565 -0.17253107 -0.23750895 0.3494195 0.38294125 0.19257112 -0.117675506 0.76965743
-0.33800322 0.2068851 -0.34937194 0.60069907 0.42371526 0.4881317 -0.94082695 -0.24188432
-0.17385049 0.10888307 0.5715451 -0.02640176 -0.2942308 0.809908 0.32755387 -0.5223715
-0.17721622 0.2849678 0.07324565 -0.008058743 -0.34181026 0.055689532 1.242815 0.36846903
-0.32710317 -1.3113191 0.33946058 0.44047427 -0.12954241 0.19578995 0.39310083 -0.88542384

feature.weight_hh_l0 f4 [512, 128]
00000000: d4e7 ab3e 6e2a c5be 3c61 52be 14fe 41bf
00000010: ea46 373e c354 983e 0349 40bf 5aa9 04be
00000020: b868 c8be da4c 183e 1276 7bbe 5ec2 3b3f
00000030: a0c1 9b3e c415 0e3f 67e6 873f 68fe 9e3e
00000040: 32f5 633a c087 3f3e 1576 81be 0d60 f83e
00000050: 7e71 e9be 3b71 0c3f 4bf8 0fbf a6ac 773e
00000060: a954 81be 8c37 95bf 3cee 8abf 55a6 733f
00000070: 4da7 2a3f 7103 03bf 3d41 2fbe 5bbf 24bf
00000080: 3d5a 81bf d1fc f8be 46ea 8f3e 15ef 8d3e
00000090: d3ca 7f3e 42bb 4b3e 030e 6d3e 3c5b dfbd
000000a0: 1eb4 b33e 3cd2 04be 6206 063f 14d3 a0be
000000b0: 5c87 67bf 2200 d53d 480b 1ebe b75f 323f
000000c0: 08d4 08bf 2dfb 25bf 95e5 20bf c675 a73d
000000d0: 6ccc 0e3d 310b 963f 8ea2 9a3d a3db f6be
000000e0: c8b2 b4be 5ec8 21bf fdcf 873e 38c0 a8bd
000000f0: a376 18bf c204 c03e 16ac 36be 82a0 673e
00000100: 1061 cc3d fda7 74bf 7cbf 3d3e 98b3 3cbe
00000110: f519 86bd d871 fb3e a3d8 7cbf 4001 113f
00000120: 523c d13e 804b a7be 6600 f53d 419d b23e
00000130: c5d9 853d 9191 2cbf d3ed d4be 1e60 3b3f
00000140: 28d7 77bf 20a7 923a 4053 f9be c084 413e
00000150: 4465 9e3f 8d58 73be 1934 aabe 9934 113f
00000160: 2f9b 083e 2ff8 5bbe 01e1 6c3d 86b8 c9be
00000170: 70dd 7f3e 4a71 853d 8660 04bf c5d7 9bbe
00000180: f4de 01bd 90b4 3cbe f7c2 31bf c259 e7be
00000190: 255d a63f d41b 043e d19e c83e 8c41 cf3e
000001a0: 5cc6 58be ab34 f73e df16 a8be e193 813d
000001b0: 1952 ccbc 956b bc3e d983 6c3c 0ba1 b13d
000001c0: d5c7 f23e 5948 8f3e 280e 5ebe 2c4d 42bf
000001d0: f45b d03c 4c71 1bbd 7f79 9c3e c818 adbe
000001e0: 6389 1abf 3163 153c 931c 5cbe 2db4 653d
000001f0: 54fd eb3d 0acf 533b c17d 2d3f 32c4 a93e
00000200: ee32 05bf 2e7a febc 104d b13e a4e7 1cbd
00000210: 34bc 42bf 2e90 163e 9297 78be 2a22 45be
00000220: 531b afbe 362b 84bd db97 dbbe 7780 40bf
00000230: 534c 6d3f bf24 51bf f72a 583f b620 d83e
00000240: 78a3 e13e 9685 d33e 04b0 fbbe 9f2a 80be
00000250: 3c1b fdbe cd72 0d3f cc3b 8cbe 3324 c3bc
00000260: fe87 153f eb4e bbbf 8e5e 3dbe 8253 873e
00000270: 14ee 17bf d9dc ca3e 7887 e63e 7008 a23e
00000280: 4eaa 583f c610 d9bd 10ab cebe c5e1 a93f
00000290: fb24 aa3e 13e9 833e 214a 603f d577 a3bc
000002a0: 37da c5be 464d 003f 46cf e03d 92e4 22bd
000002b0: 20bb a8be 99f0 d73e 84e0 0c3e 6f3f 5abf
000002c0: a289 26bf 2898 263f 6cca 753c f674 af3e
000002d0: f19f af3c 254b 933f 5c7b 5bbd 409e 6fbf
000002e0: 6698 c93e 9b67 383d 3ba1 6d3e 9199 fd3e
000002f0: 4252 0bbf 494c a33e 0e9b 333c 8382 a2bf
00000300: a77c 27bf 2af6 10bf 2748 94bf 7964 cf3e
00000310: 9cf8 79bf a378 26be 9f95 f03e 3dfc 21bd
00000320: 34db 5dbe 7c21 293f 88ed 16bf 8186 33bf
00000330: be8f 1fbf 285a 30bf 4794 6bbe 63a4 acbe
00000340: fe27 01be 1bc1 1c3d 648b 8c3f 3a92 51be
00000350: 72cc 8f3e d3b1 4bbf 2db9 343d 4daa bb3e
00000360: 393a f73e 7940 35bf 2654 e93e 281f ca3e
00000370: 0dc7 923e 8b11 73be 3553 203f 974c 31bd
00000380: 785c 91be 0102 283f 33f9 3fbf 020e cc3d
00000390: 7e9c 8a3d 9a6d e13e e07e 973d c728 2a3f
000003a0: 5fb3 0bbe e60b e5bd f3ce 733e 6fe9 bebe
000003b0: 7c97 82be eaa2 2c3d 149c c8be 7292 df3e
000003c0: f4bb b1bc 8b42 b43e ee95 b63c 802e 84bf
000003d0: 0865 a9bb 857d 82bf 8a5b 02bf 1915 e23e
000003e0: c84c 013e 1a2d f33e fa4b c63d 10da 4f3f
000003f0: a619 ddbd 7e1c c53d 5503 16bd ca9c 083f
0.33575308 -0.38508934 -0.20544904 -0.7577832 0.17898145 0.29752168 -0.7511141 -0.12955227
-0.39142394 0.14873067 -0.24556759 0.73343456 0.30421162 0.5550196 1.0617188 0.31053472
0.00086959 0.18704128 -0.25285402 0.4851078 -0.455944 0.54860276 -0.5623824 0.24186954
-0.25259903 -1.1657577 -1.0853953 0.9517568 0.6666153 -0.51177126 -0.1711473 -0.64354485
-1.0105664 -0.48630384 0.28108424 0.27721468 0.24979715 0.19895652 0.23149876 -0.109060735
0.35098356 -0.12970823 0.5235349 -0.3141104 -0.90440917 0.10400416 -0.15433991 0.696773
-0.53448534 -0.6483639 -0.62850314 0.081767604 0.03486292 1.1722165 0.07550536 -0.48214445
-0.3529265 -0.6319636 0.2652587 -0.08239788 -0.59556025 0.3750363 -0.17839083 0.22619823
0.09979451 -0.9556883 0.18530077 -0.18427885 -0.0654792 0.49110293 -0.9876806 0.5664253
0.40866333 -0.3267479 0.119629666 0.348856 0.06535677 -0.67409617 -0.41587695 0.7319354
-0.9681268 0.0011188723 -0.48696327 0.18898296 1.2374654 -0.23764248 -0.33242872 0.5672088
0.13340448 -0.21481393 0.057831768 -0.39398593 0.24986815 0.06515749 -0.51709783 -0.30438057
-0.031706765 -0.18428254 -0.6943812 -0.45185667 1.2997175 0.1290124 0.39183667 0.40479696
-0.21169418 0.4828237 -0.3282995 0.06327034 -0.024941491 0.3680083 0.014435732 0.08673295
0.47418085 0.27984884 -0.21685088 -0.75899005 0.025434472 -0.037949845 0.30561444 -0.3380797
-0.60365885 0.009117887 -0.21495275 0.056080032 0.11522928 0.003231945 0.6777001 0.33157498
-0.5203084 -0.03106412 0.34629107 -0.038306847 -0.76068425 0.14703438 -0.2427657 -0.19251314
-0.34200534 -0.06453554 -0.42889294 -0.7519602 0.92694587 -0.81696695 0.8444056 0.42212456
0.4407003 0.41312855 -0.49157727 -0.25032517 -0.4943484 0.552533 -0.2738937 -0.023820972
0.5841063 -1.4633459 -0.18493101 0.264309 -0.59347653 0.39621618 0.4502523 0.31647062
0.84634864 -0.105989024 -0.40364885 1.3272024 0.3323134 0.2576376 0.8761311 -0.019954601
-0.38643047 0.5011791 0.10977034 -0.039768763 -0.32955265 0.4217575 0.13757521 -0.8525304
-0.6505376 0.6507592 0.015001874 0.34268922 0.02143857 1.1507307 -0.05358444 -0.93600845
0.39374083 0.04502068 0.23206036 0.49531224 -0.5442239 0.31894138 0.010962261 -1.2696079
-0.6542458 -0.56625617 -1.1584519 0.40506342 -0.9764497 -0.16256957 0.46989152 -0.039547194
-0.2166565 0.6606672 -0.58956194 -0.7012711 -0.6232871 -0.6888757 -0.23005782 -0.33719167
-0.12612912 0.038270097 1.0980039 -0.20465937 0.28085667 -0.79568213 0.04412191 0.36653367
0.48286608 -0.708015 0.45572013 0.39476895 0.2866749 -0.23737161 0.62626964 -0.043285932
-0.2839086 0.6562806 -0.7498962 0.09963609 0.0676813 0.44028932 0.07397246 0.6646847
-0.13642643 -0.1118391 0.23809414 -0.3728747 -0.25506198 0.042147554 -0.39181578 0.43666416
-0.021696068 0.35207018 0.022288289 -1.0326691 -0.0051695146 -1.0194556 -0.5092093 0.4415672
0.12626946 0.47495347 0.0968246 0.8119211 -0.10795908 0.09624575 -0.03662427 0.5336424

feature.bias_ih_l0 f4 [512]
00000000: 6a68 d93d e05e 4c3e 68e8 223e 98c3 503f
00000010: 359c 753e 2a7d 87bd 2d72 313f 3527 1c3f
00000020: 1f21 d13e da15 b53d 239c 8f3d a6f5 abbd
00000030: da30 3d3e 0c17 d73d dfe2 93bd 120d ebbe
00000040: 5e17 cd3e cc5c d4be 9eb2 01be 5283 ef3d
00000050: c803 293f a7fc 02be e386 103e 4e51 2f3f
00000060: 478c bf3e bc31 b33e 33b5 6d3f 9a58 c13e
00000070: 76d6 1e3e 0777 ab3e d049 7c3e 2449 0abe
00000080: 5427 c83e a496 a3bd b856 343e 85b6 933e
00000090: ab40 503e 275f 9e3c 776c ccbe 4da2 90be
000000a0: d214 5a3e 4653 7b3e 3e6d 27be 7b07 203e
000000b0: 4e8a a93e ab90 443e 9941 9bbe c1df 23be
000000c0: 95fc 4ebe 189b ca3e fdc1 ca3e aaee 013f
000000d0: 3e08 2e3f 58bc 63be bfe8 d13c 87ff a93e
000000e0: 8776 61be 573d 0dbe c7e0 bfbe f4ac 543e
000000f0: 07d7 a93e e5d6 91be 2a3d 263c 78b9 5c3e
00000100: bb0c 76be 75b8 303d c11f 5a3d 59e8 093f
00000110: a747 82bd 1dca 363f d85b 0cbe 4995 7e3f
00000120: 4fbb aa3f c2fa dfbd adf0 51be 94e5 a93e
00000130: 6ae7 8d3d 4718 31be 9d77 e23f 3432 a43d
00000140: 7e51 2a3e ec77 b0be 0886 173f 6469 863d
00000150: 40ff bcbe 9d95 6b3f 129c 2cbe 3d75 10be
00000160: 413c 253f dbfb 71be d2d3 92be a634 c73e
00000170: ec01 bb3e 639c 9cbd c808 ecbd 9409 9d3d
00000180: 0b6e dc3e 45d0 893e 6cff 5a3e 1361 0f3f
00000190: 2315 ad3e 05be 223f 9a4f 30be fa6f 98be
000001a0: ec1c 723d 4aac b03e 916c bfbc 8aa9 00be
000001b0: 7871 83be 8357 cd3e 0258 653e 3874 763e
000001c0: 9c19 783e d3f8 8dbe 03c0 d63e 6ea6 fc3e
000001d0: 91f6 50be e7ea 35be 50d8 cd3c c0d5 703e
000001e0: 837e 273f d1af 7f3e 1057 193e f52d 7d3f
000001f0: 9efa 5a3e 51a5 d5be 0223 8c3e f12b 243f
00000200: 76ba c0be a827 013e 8eb1 643d 5de6 08bf
00000210: ce65 1f3e c49f 9e3e 724a 51bf 4a9c cebe
00000220: f2dc 76be ae2f 263e 7d21 803d 317a 9cbe
00000230: f58f 6f3d 6717 263d 3b85 e0be 12c8 373e
00000240: f1c8 89be c46d 483d 5979 00bf 7dc1 923d
00000250: 66e8 1ebf f238 6dbe cc33 43be 4f61 09bf
00000260: e09c 09bf db74 50bc adf7 c1be 704f bf3d
00000270: 671b 84bc 2877 f1be 1e88 85be 3633 9b3d
00000280: 61e8 e9be 79ef 02bf 35fd 23be 44c5 28bd
00000290: affe febd b039 e23d 4ce8 d23e 0a7f b1bd
000002a0: 6b44 92be 6bde 93be e479 773e b63a 8abe
000002b0: 3b79 1abf 40ed a83e 8182 273e f568 48bf
000002c0: 809a c6be 6717 86be 7899 c23d 417e 5ebe
000002d0: 98a8 5cbe 74d5 b43d 4311 d3be 76f2 ebbe
000002e0: 48fd b8bd 330d d2be 35d4 7c3e 2b4a c43b
000002f0: 710b 14bf 37a1 bbbe 89fc 51be 8e13 babe
00000300: 5965 0bbf 0c9d 8c3d f32a 003d 81cd 20bd
00000310: 8ec9 0f3e a48f 30bf c2b3 823e f6a4 efbe
00000320: 011b d3be 4190 bd3d 0ec5 7d3e 040a 143e
00000330: 45c6 b03b 2dda 483e 47c1 cfbe 7318 30bf
00000340: b703 28bf fc9e e23c e79f aebe 23c3 c8be
00000350: 6484 a1bd 189a cdbe 079e 23be a3de e8bd
00000360: 755d 88bc ba58 25be 18d7 34bd 03c6 c8bd
00000370: 98e9 30be 6994 e5be 4dba 65bb 3288 38be
00000380: d058 38bf 379f b4be 7635 4fbe df59 e53d
00000390: 4834 13be 6769 05bf ffd8 6fbe 8aca 92bd
000003a0: d0fd 08bd e9a3 a3be e5c3 163e 98a6 c83d
000003b0: e867 813e 049d 89be 11c5 81be 65db 6a3e
000003c0: 5433 033e e8a7 293d 3bdc 75bf 8520 dabe
000003d0: 54f2 26be 868c 30be 7f85 2d3e 733e c6be
000003e0: 5094 5dbf 6538 5bbe 3d81 b1be 4b80 ae3d
000003f0: 511d 92be 6c16 0a3e 690f bcbe 6c4c c4bd
0.106156185 0.19958067 0.15908968 0.8154845 0.2398537 -0.0661567 0.69314843 0.60997325
0.40845582 0.088420585 0.070122026 -0.08396463 0.18475667 0.10502443 -0.072210066 -0.4590841
0.4005689 -0.41477048 -0.12665793 0.11694969 0.66021395 -0.12791692 0.14113955 0.68483436
0.3741171 0.34998882 0.92854613 0.3776291 0.15511498 0.33489248 0.24637532 -0.13504463
0.39092505 -0.07987717 0.17611206 0.2885019 0.20337169 0.019332482 -0.39926502 -0.28248826
0.21297005 0.24543485 -0.16350266 0.15627854 0.3311333 0.19195811 -0.30323485 -0.16003324
-0.2021354 0.39571452 0.39601126 0.507548 0.67981327 -0.22239816 0.025623677 0.33202764
-0.22017871 -0.1379293 -0.3747618 0.20769101 0.33171865 -0.28484264 0.010146419 0.21555126
-0.24028294 0.043144662 0.05325294 0.5387016 -0.06361323 0.7140215 -0.1370691 0.9944654
1.3338412 -0.109365 -0.20501967 0.33182967 0.06928904 -0.17294417 1.7692753 0.08017388
0.1663265 -0.34466493 0.5918889 0.065630704 -0.3691349 0.92025167 -0.16856411 -0.14107223
0.64545065 -0.23631231 -0.2867723 0.38907355 0.36524904 -0.07647016 -0.115251124 0.076678425
0.43052706 0.2691671 0.21386498 0.560075 0.3380519 0.63571197 -0.17217866 -0.2977293
0.059109613 0.34506446 -0.023367198 -0.12564674 -0.25672507 0.4010583 0.22396854 0.24067771
0.24228519 -0.277289 0.41943368 0.49345726 -0.20406558 -0.1776539 0.02512756 0.23519039
0.65427417 0.24969412 0.14974618 0.9889825 0.21384665 -0.4172769 0.2737046 0.6412955
-0.37642258 0.12612784 0.05583339 -0.53476506 0.15566179 0.30981266 -0.8175422 -0.40353614
-0.24107721 0.16229126 0.062563874 -0.30561975 0.058486897 0.040549662 -0.43851647 0.17947415
-0.2691112 0.048932806 -0.5018516 0.07165811 -0.6207336 -0.23166254 -0.19062728 -0.53664106
-0.53755 -0.012723173 -0.37884274 0.093413234 -0.016126348 -0.47161222 -0.26080412 0.07578127
-0.45685104 -0.51146656 -0.1601456 -0.041203752 -0.12450921 0.11046159 0.41192853 -0.08666809
-0.28567824 -0.2888063 0.24167591 -0.26997918 -0.60341233 0.32993507 0.16358377 -0.7828515
-0.3878975 -0.2618973 0.09501928 -0.2172785 -0.21548688 0.088297755 -0.41224107 -0.4608342
-0.090326846 -0.41025695 0.24690326 0.005990287 -0.5782996 -0.36646435 -0.20506491 -0.36343044
-0.5445152 0.06865892 0.03129096 -0.039258484 0.14041731 -0.6896918 0.2552777 -0.46805543
-0.4123154 0.0925603 0.24782202 0.14456946 0.0053947293 0.19614477 -0.40577146 -0.68787307
-0.6563067 0.0276637 -0.3410637 -0.39211378 -0.0788658 -0.40156627 -0.15978251 -0.113705896
-0.016646126 -0.16147128 -0.044150442 -0.09803393 -0.17276609 -0.4483979 -0.003505367 -0.18020704
-0.7201052 -0.3527772 -0.20235237 0.11198782 -0.14375412 -0.52113956 -0.23422621 -0.071675375
-0.03344518 -0.3196099 0.14723165 0.097974 0.25274587 -0.26877606 -0.25345662 0.22935255
0.12812549 0.041419894 -0.9603917 -0.42602935 -0.16303378 -0.17241105 0.16945456 -0.3871952
-0.8655443 -0.21408232 -0.34668913 0.08520564 -0.28537992 0.13485116 -0.36730507 -0.09584889

feature.bias_hh_l0 f4 [512]
00000000: 61bc 143d 36ee 803e 3af4 223e e0f2 533f
00000010: a1fd 7c3e 9d8e 713d 0fd2 2e3f 8190 2c3f
00000020: 5f73 eb3e 861d ffbd d3e4 17bc 2731 fd3c
00000030: 5994 383e 8b8e 053d 4a77 703c 7c9f d0be
00000040: e9e0 1c3f ce66 dcbe 1944 dcbd ad11 653d
00000050: fbcf 1d3f 258d 0bbe c4df 2c3e a716 273f
00000060: 0f3e f73e 0f7a c03e 74a1 543f 1428 af3e
00000070: 648e 433e b3cb 9c3e f238 6f3e ccac b0be
00000080: 4629 d93e 5c6a e0bd 5e4b cb3e a963 863e
00000090: 27e5 363e 7ceb 8abd f41f adbe e03a a1be
000000a0: 01d9 ad3e 1209 9f3e 4a1d 1abe f9cb 2b3e
000000b0: fea5 6b3e 8723 af3e ef9b 64bd 8b9c 5bbe
000000c0: d78e 77be 01c4 973e aa6a bd3e f7e6 193f
000000d0: a0c8 1c3f bb3e 3ebe 96be 2abd c075 863e
000000e0: 58ed 90be 41cb c6bd 8370 f2be 25f5 573e
000000f0: b556 dd3e ceb2 54be fb14 e23d 9152 a43e
00000100: 0db9 3ebe f424 373e aa06 f73d 2efe e83e
00000110: 74a1 cebd e01e 053f 469b fabd 9bfb 5c3f
00000120: 906e 9d3f 8eeb 84bd 45bc d5bd a603 9d3e
00000130: 87a6 923c a7fa f0bd 26a9 ee3f edae c13d
00000140: 7c82 5f3e d476 ebbe ff71 0b3f 175d 85bc
00000150: 63cc 9bbe e3ec 3e3f af42 52be 688e b5bd
00000160: 365a d43e 816f 74be ea63 c8be 8666 d13e
00000170: dfdb 9a3e 032d 50be 9787 2dbd 4cec e73a
00000180: 6a2c 013f a12d 683e fbf9 623e f283 1e3f
00000190: fd5d c23e 473b 383f da71 73be c489 9fbe
000001a0: 6b96 bc3d 32a9 b03e 552c 1e3d 8e38 0ebc
000001b0: 9542 21be 0446 863e 5cf2 7c3e d24d ba3e
000001c0: 4218 d43d cc07 d0be 949b 103f a339 fb3e
000001d0: 0a59 97be 551e 35be 8248 733c 87f1 463e
000001e0: 18e1 3b3f 1bc9 0c3e e647 02bd f6f7 7b3f
000001f0: 71e2 2c3e ea7c b4be 223a 873e fce4 1f3f
00000200: d68b dabe ec8d 163d dee2 2fbb 3d75 d2be
00000210: fb1e 613e 483b c13e 5d56 64bf 03b5 d5be
00000220: 4dc7 8bbe 9739 e13d 5df7 023d 440d b1be
00000230: 2d84 343d 4ef3 3fbd 3091 dbbe 4d68 403d
00000240: 8393 97be 88f8 5a3e 77c4 00bf 2cf2 183c
00000250: 6788 10bf cac9 6fbe 7d97 6bbe 6811 fcbe
00000260: 1fae 15bf 10d9 1a3b 50fc dabe af77 2e3e
00000270: 7f31 99bd 4ed2 efbe b342 b3be 06eb 5a3e
00000280: 497d e7be 9709 0abf 1ba5 67be fe23 a2bd
00000290: 9b3b b5bd 19b4 c83d 60b2 963e 7490 8ebd
000002a0: 1506 1ebe 31cc 39be 7cb9 883e dfd9 c7be
000002b0: 936b 09bf 7091 cd3e b5bf d83d 25cc 2fbf
000002c0: b380 85be 2f81 09bd af53 523d c5fe 71be
000002d0: 4aee a9be f5f9 683e d0b0 00bf d5f5 e2be
000002e0: 2a1f dcbd 9413 debe e432 893e e242 4c3c
000002f0: ecf9 12bf ed3a 11bf fb81 5fbe 653d 9abe
00000300: 9862 06bf fb59 11bd 9ee5 17be 912b 123d
00000310: 9027 6b3e 6189 50bf 6c48 1f3e 6f1a e9be
00000320: db8e 0cbf 3701 f1bc f73d 2f3e f93a 603e
00000330: becc 53bc e192 693e abf9 b0be fdd5 41bf
00000340: f326 efbe 5542 013d cdb4 cebe 36cc d2be
00000350: 9f3c 55bd 1ac1 10bf 0c1b 1bbe 4e4d b9be
00000360: 2f13 b43d 2531 84be a8d5 26be db6c 84be
00000370: 446a cbbc 2396 f6be 58ef 783c 31f3 d2bd
00000380: 4255 3fbf c565 a1be 0067 21bc bcf0 3e3e
00000390: 062f 7fbe 0ca3 07bf b9f7 46be 0d72 02be
000003a0: e154 1a3d bc1d 28be ac44 823d dd38 123d
000003b0: cbc9 973e 61d6 61be ede5 ebbe 391a c03e
000003c0: c61b e93d 4ca7 aebd 8fad 86bf 321a b6be
000003d0: 8042 42be 3efc 98bc fd20 c43d 6216 febe
000003e0: f9dc 46bf 80b0 bfbe 7843 b8be cca9 bb3c
000003f0: 50a8 b5be 71c2 783d 563d 11bf 1bf1 34be
0.036312465 0.2518174 0.15913478 0.8279247 0.24706127 0.058973897 0.68289274 0.67407995
0.4598646 -0.12456803 -0.009270865 0.030907227 0.1802534 0.032606643 0.014676878 -0.40746677
0.61280686 -0.43047184 -0.10755176 0.05592506 0.6164548 -0.13628061 0.16882235 0.6526894
0.48289534 0.37593123 0.8305886 0.34210265 0.19097286 0.3062416 0.23361567 -0.34506834
0.42414302 -0.109577864 0.39705938 0.2624791 0.17860852 -0.06783196 -0.3381344 -0.3149023
0.33954623 0.31061608 -0.15050235 0.16777028 0.2301254 0.34206793 -0.055812772 -0.21446435
-0.24175583 0.29641727 0.3699544 0.6011805 0.6124363 -0.18578617 -0.041685663 0.2626171
-0.2830608 -0.09706736 -0.47351465 0.21089609 0.43230215 -0.20771334 0.11039158 0.32094243
-0.18625279 0.1788519 0.12061818 0.45506424 -0.100893885 0.52000237 -0.12236647 0.8632142
1.2299366 -0.06490241 -0.104363 0.30666846 0.017901672 -0.11766558 1.864537 0.094571926
0.2182712 -0.45989096 0.5447082 -0.01627974 -0.30429372 0.7458021 -0.2053325 -0.088650525
0.41475075 -0.2387066 -0.39138728 0.40898532 0.30245873 -0.2032967 -0.042365637 0.0017694323
0.50458395 0.22673656 0.22165672 0.6192008 0.37962332 0.7196545 -0.237739 -0.31159794
0.092083775 0.34504086 0.038616497 -0.008680476 -0.15748055 0.26225293 0.24701828 0.36387497
0.10356189 -0.4063095 0.56487393 0.4906741 -0.2956012 -0.17687352 0.01484883 0.19428073
0.7339034 0.1374859 -0.03180685 0.98425233 0.16883256 -0.35251552 0.2641154 0.6245878
-0.4268481 0.03675644 -0.0026838104 -0.4110507 0.21984474 0.3774054 -0.8919428 -0.41739663
-0.27300492 0.109973125 0.031974185 -0.34580433 0.044071365 -0.046862893 -0.42884207 0.04697447
-0.2960473 0.2138387 -0.5029978 0.009335082 -0.56458133 -0.2341682 -0.23007007 -0.4923203
-0.5846881 0.0023627914 -0.42770624 0.17037843 -0.07480144 -0.46840137 -0.35011825 0.21378717
-0.45212772 -0.5392088 -0.22621576 -0.07917021 -0.088492595 0.09799976 0.29432964 -0.06961146
-0.15432008 -0.18144299 0.26704013 -0.3903341 -0.5367977 0.40150023 0.1058344 -0.68670875
-0.26074752 -0.033570465 0.05134934 -0.23632343 -0.33189613 0.22751601 -0.50269794 -0.4432818
-0.107481316 -0.43374312 0.2679664 0.012467118 -0.574126 -0.5673054 -0.21826927 -0.30124965
-0.5249419 -0.035486203 -0.14833686 0.03568608 0.2296431 -0.81459624 0.1555497 -0.4552798
-0.5490548 -0.029419525 0.17113481 0.21897496 -0.012927232 0.22809936 -0.34565482 -0.75717145
-0.46709403 0.0315574 -0.40372315 -0.41171426 -0.052059766 -0.5654465 -0.15147036 -0.3619179
0.087927215 -0.25818744 -0.16292441 -0.258643 -0.024830945 -0.4816142 0.015193783 -0.10300291
-0.7473947 -0.31522956 -0.009851217 0.1864652 -0.24920282 -0.52983165 -0.19430436 -0.1273882
0.037678603 -0.16417593 0.06360754 0.03569876 0.29646143 -0.22054435 -0.46073857 0.37520006
0.113822505 -0.08528003 -1.0521716 -0.3556686 -0.1897068 -0.018674966 0.095766045 -0.49626452
-0.7768093 -0.37439346 -0.35988975 0.022908114 -0.35479975 0.06073231 -0.56734216 -0.176701

feature.weight_ih_l0_reverse f4 [512, 64]
00000000: 8444 0abf 9b23 94bf f7c5 d33e d06b e63e
00000010: f97e 563f a252 783e 4547 ad3e f4ec f6be
00000020: 2bbe 88bd 06b9 10bf 23c1 06bf 31a9 afbf
00000030: 083b 023e 8951 f83d 798f 473f eca0 333f
00000040: 3b70 703e e22c 983e 6035 a2bd 0c4e 2e3f
00000050: 5ddf 2e3f 1f2f 81be 6063 0c3f 2c69 8cbe
00000060: a461 903d 0a6b 3cbf dde9 2e3d fda4 533f
00000070: 550a 62bf f8c2 83be 3c3c 81be 7330 193a
00000080: 3545 d5be 2f9c d9be e999 15bf 6fdb d2bd
00000090: 522f 87be 0d13 053f fd89 6bbd f9ce 27be
000000a0: a591 83be bb2a 17bf 0fa8 f3be b11c 34be
000000b0: d696 c73e 8a25 99bf eccd 63bf 9545 9f3e
000000c0: 7a43 10bf ebd1 16be 3dae 81be fb28 03bf
000000d0: bab9 d13e 49fa 7a3e 81a5 0bbf 175c 82be
000000e0: 274e 44be c123 41bf 0b68 c6bd 98b0 27bf
000000f0: bc51 54bf d4ad 7f3d 7d88 753e 44ed 143e
00000100: 301b 99bf 5ade 323d 02e0 edbe df97 b83e
00000110: 3814 0fbf aa35 0f3e 9358 42be b7b6 74be
00000120: caf6 583e f8a6 253f 0753 54bf ce7f 0fbf
00000130: c0a3 55be e7d2 e5be 4ab0 553e 613a 64be
00000140: c8fa bbbe 7dc8 b43f e7c8 b43e 4156 b63e
00000150: afab b7bc 75ae 063f e916 50be 46da ca3e
00000160: 2944 da3c 0225 fc3e c641 703f e601 6fbe
00000170: e3e9 47be 6794 513f b4da 953f 3707 203f
00000180: 5178 883f e97c d2bd 54dd 8a3e 0754 e73e
00000190: b8c1 953e b002 91be c792 743d 1816 333f
000001a0: 6baa 6a3d 9e60 c63e 8508 08bf cbf1 2fbd
000001b0: f61b 62be a0ae 86be f0e7 833e bacb 8bbf
000001c0: c36b cebe f881 5ebf 0723 a03f 54fa d93e
000001d0: 5d71 fb3e 3758 3bbf 7813 60bf 17c0 053f
000001e0: b560 4fbf 3633 eabe 724d fcbe 6286 123f
000001f0: 5bd1 85be 62b0 c1bc 00d1 9a3f bc70 4bbf
00000200: 8648 013f bef6 f8be 0a87 b93c 9703 4fbf
00000210: 38f5 073e a0a3 a0be 345a 203e 1c04 b83e
00000220: ed68 25bf c778 7a3f 9649 10bf 5f1e 33bf
00000230: deaf c53e 8271 9bbe 5c96 3c3e 0992 87be
00000240: 64ed 9cbd 609e 8abe 090a 0dbe b9e6 c93d
00000250: 88b4 25bf d5ee e0be a0f8 f23e c412 94be
00000260: 8640 1d3f 109c b63e 8cf4 83bf fa18 eb3f
00000270: 97fe 7abe dc81 24bf 9120 13bf 6424 1b3e
00000280: 682e 933e f7cf 963f 2c62 d93d ff1d 8dbe
00000290: 9b83 a0be 2f88 10bf aa59 fe3c a42f dfbc
000002a0: 37f2 6dbe aac4 26bf 5b24 d03e 8b2e 0cbf
000002b0: bbb0 1abe abd5 113f 43a7 3e3f 6736 a7bf
000002c0: b8c4 853d 8669 533e 1164 c2be 22bb 7ebd
000002d0: 6273 b7be 2f99 3cbf 2694 5d3f 3858 2abe
000002e0: 7f12 963e 5f40 c3be 73d6 2f3f 6ef6 2bbe
000002f0: 8b3b a73e a684 433d 6045 66be 2c19 05bf
00000300: ac0b 17bf 62b6 18bf 9224 9e3e 62a9 44bd
00000310: 02a5 e33c 38cd 17bf 4b0f a33e e2cb c83e
00000320: c275 f23e 91cc 753e d788 803e c328 77bd
00000330: edde 033f 6b2f 123f 2957 063d 3c58 26bf
00000340: eef9 eb3d ab8b 8cbe 717e 3d3e 0fd3 62be
00000350: 6536 573f 33dc 3cbe 200d 57bd 5437 123e
00000360: fb08 55bf 557c a0be 3747 263f c819 3fbf
00000370: c0b3 edbe 1feb 633f 3800 7fbe f813 9e3f
00000380: f0e2 5f3f 5a19 053e bd0c 8ebe 2cca 5a3e
00000390: f105 8e3f 312c e0be e385 b03d 479c fd3d
000003a0: b50d 543f b26e c0be 3356 a4bc 215d 1b3f
000003b0: 0baa 5cbf b2df 27be 106c 843e d110 b9bd
000003c0: ad5c a3bd dc67 083f 9eff 643e e277 0a3f
000003d0: c072 153f 2ea3 873f 8e43 623f ec47 b6bd
000003e0: 8901 fabe bf40 8a3e 1c9e ebbe c7c9 1f3f
000003f0: af11 8fbe 0b0e 13be 8784 0f3f ba78 7cbe
-0.54010797 -1.1573366 0.41361973 0.4500413 0.83787495 0.24250272 0.33843437 -0.48227656
-0.06676897 -0.56532323 -0.52638453 -1.3723508 0.12717831 0.121249266 0.77953297 0.7016742
0.23480313 0.29721743 -0.07920337 0.6808784 0.68309575 -0.25231263 0.54839134 -0.2742399
0.070498735 -0.7360083 0.0427035 0.8267363 -0.88297015 -0.25734687 -0.25241268 0.00058437063
-0.41654363 -0.4250197 -0.58437973 -0.1029576 -0.2640329 0.51982194 -0.057504643 -0.16387548
-0.25697055 -0.59049577 -0.47589156 -0.1758907 0.38982266 -1.1964581 -0.88986087 0.31107774
-0.5635296 -0.14728515 -0.25328246 -0.51234406 0.4096201 0.24509539 -0.54549414 -0.25460884
-0.19170438 -0.7544518 -0.09687813 -0.65503836 -0.82937217 0.062421635 0.23977847 0.14543635
-1.1961422 0.043669082 -0.46459967 0.36053368 -0.55890226 0.13985315 -0.18979101 -0.23897825
0.21187893 0.647079 -0.8293919 -0.5605439 -0.20863247 -0.44887468 0.2086803 -0.22287895
-0.36714768 1.4123684 0.35309526 0.35612682 -0.022420732 0.5260995 -0.2032124 0.39619654
0.02664383 0.49246985 0.9385036 -0.23340568 -0.19522814 0.8186707 1.1707368 0.6251101
1.0661718 -0.10277731 0.27121985 0.45181295 0.29249358 -0.28322363 0.05971029 0.6995559
0.05729143 0.38745588 -0.53138 -0.0429552 -0.22080979 -0.26305103 0.25762892 -1.0921547
-0.4031659 -0.86917067 1.251069 0.42573798 0.49109927 -0.7318148 -0.87529707 0.5224623
-0.8100694 -0.45742196 -0.49277836 0.572363 -0.26136288 -0.023643676 1.2095032 -0.79468894
0.50501287 -0.4862575 0.0226474 -0.8086485 0.13277137 -0.31374836 0.1565941 0.35940635
-0.6461323 0.9784054 -0.56362283 -0.6996822 0.3861074 -0.30360037 0.18416733 -0.26478603
-0.07662466 -0.27073956 -0.1377336 0.0985846 -0.64728594 -0.43932214 0.4745531 -0.28920567
0.6142658 0.3566594 -1.0309005 1.8366997 -0.24511181 -0.6426065 -0.5747157 0.151506
0.28746343 1.1782216 0.10614428 -0.27561948 -0.31350407 -0.564578 0.031048615 -0.027244397
-0.23236929 -0.65143836 0.40652737 -0.5475852 -0.1510648 0.56966656 0.7447397 -1.3063477
0.06531662 0.20645723 -0.3796697 -0.062190183 -0.35830218 -0.7367124 0.8655418 -0.16635215
0.29310986 -0.3813505 0.686866 -0.16793224 0.32662615 0.047733925 -0.22487402 -0.51991534
-0.59002185 -0.59653294 0.30887276 -0.0480131 0.027788643 -0.59297514 0.31847605 0.3921805
0.47355467 0.24003817 0.251044 -0.060341608 0.5151203 0.57103604 0.032797966 -0.64978385
0.1152228 -0.27450308 0.18505265 -0.22150825 0.84067374 -0.18443374 -0.05250275 0.14278919
-0.8321683 -0.31344858 0.64952415 -0.74648714 -0.464262 0.8903064 -0.24902427 1.2349844
0.87455654 0.12997952 -0.27744094 0.21366185 1.1095563 -0.43783715 0.08619287 0.12383323
0.82833415 -0.37584454 -0.020060634 0.6068898 -0.86196965 -0.16393927 0.25863695 -0.090364106
-0.07976661 0.53283477 0.22363135 0.54089177 0.5837822 1.0596673 0.8838433 -0.08900437
-0.48829296 0.27002522 -0.46019065 0.6241726 -0.2794318 -0.14360826 0.56061596 -0.24655429

feature.weight_hh_l0_reverse f4 [512, 128]
00000000: cbfd e53e 547d 91bd 6376 93bf 9b3f 6d3f
00000010: 0cd7 003c f843 9dbe fcdf f3be cdc4 6ebe
00000020: 4494 883e 111a 3d3f 1e67 83be 8ca0 dd3e
00000030: 0fa3 b73e c162 5d3d 04c3 e2be 283a 87be
00000040: 596f b4be 558b 07bf 6f92 27bf 7ade a7be
00000050: 21c5 023d 4d02 9a3e 4cb8 e93c 9c93 363e
00000060: 0e10 23bf e35c 8e3e 88fe 3dbe c9ff c13d
00000070: 1aec 373e e216 8cbe 198a 17bf 897f fdbb
00000080: deec fe3e 9874 6cbe ec60 42be e9bd 98be
00000090: 0233 693d 5551 32bf 0890 a5be 0c03 30bf
000000a0: 2848 d63d d85f 79bd f261 323e 806a 37bf
000000b0: 833a c1be 2be9 193f b9dd 6b3d e966 423f
000000c0: 2e73 8a3d 78c1 47bd fcba 823d cd66 f0bd
000000d0: 8ab3 19bd 3876 cebd 7c78 aabf 2ad7 6abe
000000e0: e1aa 57be 77b3 793e 5f55 a93f 7453 823e
000000f0: 3527 ab3d f85e 393e 0832 193f 43ee 363f
00000100: 853e 87bf 83c3 043f 9660 dc3d 85b7 73be
00000110: 1ec2 a4bc a045 76bf 5e74 d73e 0a2e f73d
00000120: 915d 49bc eeed cc3e a66a cf3f a6c7 743e
00000130: 1588 c2bd 55d6 46bd 1852 7e3e 64a4 423f
00000140: 729c c83e 0f5c e73e 331c f6be 5c78 853e
00000150: 9bb7 bcbd 922e 9a3c 95c3 153d 9b26 923e
00000160: 2f73 35be 16d3 a63e 25b8 d9be 4aa7 b33f
00000170: 0443 9b3f 52cd 98be c80d a6b9 4193 ab3e
00000180: 3aa4 3abf 178f 513f ccfc 9b3e 2e0f a53e
00000190: 29ce 90bf 62b7 973e 9f4a e03e 7b91 173f
000001a0: 6063 8ebe 7bdd 86be bed9 1c3f 716b ba3e
000001b0: 5fc1 7fbd 3205 06be 9e23 b03d c6a0 a4be
000001c0: 4436 5b3f 78b4 32be 63cc 8c3e 25c7 ddbe
000001d0: efc6 0c3d cd7a 1cbf 6e66 13bf 1c80 bf3e
000001e0: 9f05 763e 4734 a23e 7486 30bf 8aa9 2abe
000001f0: f4fd 903e affd 003f e3eb b83e 9a58 fbbd
00000200: b25e f7be c83d 6b3f 59e3 523f 68c3 3c3f
00000210: f7aa 503f e044 cfbe 55de a03e a932 dfbe
00000220: b8b5 893e 1317 87be d25d be3f 0dbf 4bbe
00000230: 4537 3c3f a9c2 a43f 7f71 13bf 73a5 8dbf
00000240: 84fe 413e 6f31 aa3e 0d8e ddbe b1d7 b03e
00000250: a1b2 173e d3f4 69bf 00e8 fcbe c2e7 923e
00000260: ee58 e6bd d689 06bd f633 b7bd 7e18 f0bd
00000270: f15d 54bf 7a5d 383f 90d6 48be 7655 6abf
00000280: 1ca4 c6be e975 a13e 2794 6abe 3943 c3be
00000290: 931e fbbe ae8f 4fbf 4025 c7bc a779 e1be
000002a0: ec89 ebbe 3a3f 183f eb6d debe 6e47 663f
000002b0: 2bbf f13e 099e 96be 3da4 b43d dc91 28be
000002c0: 95ee 0b3e e48e 8dbe e605 e13f 6c0d 963e
000002d0: 8920 f63c 497e 073e 48a2 adbe 8846 75bd
000002e0: 829f 0bbf 7660 c0be e2d9 19bf 65d8 5cbe
000002f0: a961 353f c14c 24be 5cb1 bf3e 67da be3e
00000300: b719 84be 75aa 03bf 05ef 023f 92fb 653f
00000310: fdcb 363f b3ec 9abe 9699 b8be 0264 8fbe
00000320: 3e98 b43d 634d 15bf db03 70be 9b5a 9dbe
00000330: eabf 633f e706 f63e ccd8 d23e 718b 47bb
00000340: 46b7 033d 5066 13bf 495f 673f a203 1dbf
00000350: 53e0 223e 76f8 1ebf d308 d23e 2524 13bf
00000360: 4589 86bf 7755 0b3e 2e7c c9be a30b 32bf
00000370: be25 70bf 6430 42bf 0442 283f 89f0 133f
00000380: 2353 ad3d 40fd 40bf 9390 1cbf 1b5d 17bf
00000390: 4e90 973d 16b5 553f 30fe 18be 9910 dfbe
000003a0: a946 64bf 56f3 71bf ffa5 54be cd7a 923e
000003b0: d4cf 07bd 12a7 a6be 6f75 1cbe 7e6a 68bf
000003c0: 1d36 4abe d610 ad3e 243a a9be 52a7 a33e
000003d0: 1762 4d3e 4825 a3be fcd8 af3e 6b34 6ebf
000003e0: 76c5 7abf 22be 65bd ff7b a53f e6be 7bbf
000003f0: baed 63be a9d2 0cbf 2492 abbe 0d85 3fbe
0.4492019 -0.071039826 -1.1520504 0.9267518 0.007863771 -0.3071592 -0.47631824 -0.23317261
0.26675618 0.738679 -0.2566461 0.4328655 0.3586659 0.054049257 -0.4428941 -0.26411557
-0.35241202 -0.5294698 -0.65457815 -0.32786924 0.031926278 0.3007988 0.028530262 0.17829746
-0.6369637 0.27805242 -0.18554127 0.09472615 0.1796116 -0.27361208 -0.59195095 -0.0077361506
0.4979009 -0.23091352 -0.18982285 -0.2983239 0.05693341 -0.6965535 -0.3233645 -0.6875465
0.104629815 -0.06088242 0.17420176 -0.7164688 -0.37739953 0.6012141 0.057584498 0.7593828
0.0676025 -0.04876849 0.06383321 -0.11738358 -0.037524737 -0.10081142 -1.3318019 -0.22933641
-0.21061279 0.24384867 1.3229178 0.25454295 0.083570875 0.18102634 0.59841967 0.7145731
-1.0565954 0.5186083 0.1076061 -0.23800476 -0.020112094 -0.9619999 0.4208097 0.12069328
-0.012290374 0.40025276 1.6204422 0.23904285 -0.09498612 -0.048544247 0.24836004 0.7603209
0.39181858 0.45187423 -0.4806839 0.2606839 -0.092147075 0.018821035 0.036563475 0.2854508
-0.1771972 0.3258292 -0.42523304 1.4035428 1.2129827 -0.29844147 -0.00031672255 0.33510783
-0.7290684 0.8185896 0.30466306 0.32238144 -1.1312915 0.29632097 0.4380693 0.5920636
-0.27810192 -0.2634085 0.6126975 0.36410096 -0.062440272 -0.1308792 0.086005434 -0.3215391
0.8562968 -0.17451656 0.27499685 -0.43315998 0.034369405 -0.6112488 -0.5757817 0.37402427
0.24025582 0.3168051 -0.6895516 -0.16666237 0.2831875 0.5038709 0.36117467 -0.12272759
-0.48314434 0.91891146 0.82378155 0.73735666 0.8151087 -0.40482235 0.31419626 -0.43593338
0.26896453 -0.26384792 1.4872382 -0.19897099 0.73521835 1.2871906 -0.57595056 -1.1066116
0.18944746 0.3324084 -0.4327244 0.3453956 0.14814235 -0.913892 -0.49395752 0.28692442
-0.11247431 -0.032846294 -0.08945458 -0.117234215 -0.82955843 0.72017634 -0.19613099 -0.91536653
-0.3879708 0.3153527 -0.22908078 -0.38137224 -0.49046764 -0.8107861 -0.024309754 -0.44038126
-0.46003664 0.59471476 -0.43443236 0.89952743 0.47216162 -0.29417446 0.088203885 -0.16461891
0.1366523 -0.2764808 1.7579925 0.29307115 0.03004481 0.13231768 -0.33912873 -0.059881717
-0.54540265 -0.37573594 -0.6009809 -0.21566923 0.7085214 -0.16044904 0.37440002 0.37276003
-0.2580087 -0.5143197 0.51145965 0.8983699 0.7140501 -0.30258712 -0.36054677 -0.28005987
0.088181004 -0.5832121 -0.2343897 -0.3073319 0.8896471 0.4805214 0.41181028 -0.0030448104
0.032157205 -0.5757799 0.9037977 -0.6133367 0.15905885 -0.6209787 0.41022357 -0.5747703
-1.0510641 0.13606821 -0.39352554 -0.69549006 -0.9380759 -0.7585509 0.6572573 0.577889
0.08463123 -0.7538643 -0.611581 -0.5912644 0.07400571 0.8347944 -0.14940715 -0.4356735
-0.8917032 -0.94511926 -0.20766447 0.28609315 -0.033157185 -0.3254934 -0.15279172 -0.90787494
-0.19747205 0.33801907 -0.3305217 0.31963593 0.2005695 -0.3186438 0.34345233 -0.93048733
-0.9795755 -0.056089528 1.2928466 -0.9833816 -0.22258654 -0.5500894 -0.33509934 -0.18703099

feature.bias_ih_l0_reverse f4 [512]
00000000: 841e 0a3f 30c0 42bf dfa3 223f 73ae ccbe
00000010: 2537 3e3e b1fd b53b cf28 203f 62af c63e
00000020: f649 07be b865 ee3d 86ae 58be b0e5 afbe
00000030: 6c1f df3d 323c 283c f099 ef3d 4b0f c13e
00000040: cc30 3fbe 01e7 5b3e 91c6 89be b7b6 ba3e
00000050: 45fa 4dbe e6ee 8cbd 0dbb 9dbd 43b2 e53d
00000060: ac03 31be d81b 98bd 20b4 763e c051 0a3f
00000070: 85f5 62be efc6 d4be 5626 fb3c 9230 00be
00000080: db63 77bd 4cc5 01bf 425c 50bf 4da4 833e
00000090: 3323 8f3e f284 12be 28cf 923e 59f1 c83e
000000a0: 3937 693e 3cac b23e dad4 dc3e 8a0f 2ebe
000000b0: cf6a 42be dd19 fd3d 4519 acbe 2057 53be
000000c0: d57a a63e 5749 80be 6af5 043f 86ef ec3c
000000d0: c968 4f3d 2743 393e ad9a 303e 8b1e 073e
000000e0: e1cb 7c3c 78c5 6cbc bfe8 8bbd 53af 023f
000000f0: 686e 603e 8f66 8a3e fb54 cf3e 206f d73e
00000100: 7d51 8b3e 3d41 553d c23c 1dbf c2a2 de3e
00000110: 9425 373c caa8 b93e 1463 063f 9f20 34bd
00000120: 8d60 87bc 2bfa 98be e6aa 003e eb53 a53e
00000130: 7f8a 0d3c 1c55 9d3e 8cfb 933d aea8 803e
00000140: 30f6 593e 6c1d c03b 8e64 1e3e 8163 663d
00000150: b3d0 2c3f 6064 e1bd ab9f f23d 9228 de3d
00000160: ce7b c5be 0d2f e63c 862d 133e 13f7 3bbe
00000170: d6ea e53e 5e09 53be 5746 1ebd dd9b d13e
00000180: 3d7f bd3b 4c88 c6be cbe6 e13c 8154 cbbd
00000190: e32e 18bd 35f8 aebd 3c1b 5a3f b857 be3d
000001a0: a7f6 3ebe f349 a0bd 5955 bf3e 970e f7bd
000001b0: 5bb9 1f3e cba8 e6bd f26a 9a3e ca2b 4dbe
000001c0: 092c 19bd ea32 36bf 502c bbbd 17a3 e73c
000001d0: ac9d 35be 9584 4cbe ead8 c53e 8099 abbe
000001e0: 0395 473e 65f0 65be cc2b 303e f914 683e
000001f0: 22e8 2bbd 6b86 2abe 3d00 88be 5d59 e53d
00000200: d2a1 f93d de2d b0bb d218 b7be c611 b43d
00000210: d769 67bd b924 08be b014 623e 2822 9ebe
00000220: d608 93be 4155 a7be 0a30 20be 7ef2 cebe
00000230: ca3e 653e eb2d 863d 0a6f 0abf 5530 74be
00000240: 4de8 8dbd fe39 4c3f 2612 5ebe 9eb6 8dbe
00000250: a5fb 9f3d 65d6 bbbe 4655 923e 3e53 36be
00000260: 70eb f7bd 915c fd3d 5a9d f8bd 5b63 29bf
00000270: 7ab5 7cbd 7966 99bb ab17 c9be fc66 91bc
00000280: f740 043e 0111 12bd ab81 503f 088f 13be
00000290: 834f e4be 2784 a53e 54a7 4a3f 1a1a 8ebd
000002a0: a560 dcbe af93 dc3d 0696 903e f8fc 4fbe
000002b0: 8ce2 aebb a1ad cabd a794 d33e d841 43be
000002c0: f108 a4bd e438 a0be aabe ac3e e356 c9bd
000002d0: b97c b9be 003c c43e 64b5 a63d 679c f83e
000002e0: 81f4 b1be a836 fdbd b086 a03e 4cce 203f
000002f0: 49e3 eabe ca8f 4dbe debb e8be fee7 4ebe
00000300: d6cb d5be cf4b 503e fa54 2fbe 9722 bd3e
00000310: 380a d23d ce68 5ebe 0659 aebd edee 1dbe
00000320: d1e2 69be 110a 9e3d cd75 e8be 5c4b 74be
00000330: 3b87 dabc b7ed 97be b1d3 8f3e b258 f23b
00000340: b80c e4be e47e eebd 6c45 afbe 1eb6 593e
00000350: ecab 4cbe 8be1 07be 8ee9 6c3e aa2f ed3c
00000360: e49d e4bb 819a 51bf dd29 c6be 6da5 80bb
00000370: b595 1c3f 47cc 7d3e 3976 d8be dd18 a3be
00000380: d066 23bf 5aa4 483e 650e 4bbd a57b c1be
00000390: 706a bebd e86a 8dbe 7380 0dbf caca 13be
000003a0: 68be 9fbe 8cc3 033e 107f 5fbf 38f0 5cbe
000003b0: bd08 57be 1e85 c13d d773 84bd ea14 7d3e
000003c0: 347f 33be d60d 993d 794c c33a d30d dcbe
000003d0: 949c 483e 95ac e63d f985 dcbe 7153 2e3d
000003e0: 9000 273d 98c9 8fbd 9fd1 f4be 46cf 8bbe
000003f0: 31ad ec3e 09e1 75bd 6535 a23e d1c0 72be
0.53952813 -0.76074505 0.635313 -0.39976844 0.18575723 0.005553924 0.6256227 0.3880568
-0.13211808 0.11640495 -0.21160325 -0.34354925 0.10894665 0.010268258 0.11699283 0.3770698
-0.18670958 0.2147484 -0.26909307 0.36467525 -0.20115001 -0.06881504 -0.07701693 0.11215641
-0.17286557 -0.07427186 0.2409215 0.5403099 -0.22163971 -0.41558024 0.030657928 -0.12518528
-0.060397964 -0.50691676 -0.81390774 0.2571129 0.27956542 -0.14308527 0.28673673 0.39246634
0.22774972 0.3489703 0.43131143 -0.16998115 -0.18986057 0.12358449 -0.3361303 -0.20638704
0.32515588 -0.25055954 0.5193697 0.028922807 0.05063704 0.18092023 0.17246504 0.13195245
0.015429468 -0.014451377 -0.06831502 0.51048774 0.21917117 0.2703137 0.40494522 0.4207697
0.27210608 0.05206417 -0.61420834 0.4348355 0.011178393 0.36261588 0.5249493 -0.043976422
-0.016525531 -0.29878363 0.12565193 0.32290587 0.008638977 0.30728996 0.07225713 0.25128692
0.2128532 0.0058628824 0.15468046 0.056247238 0.6750595 -0.11005473 0.118468605 0.10847582
-0.38571018 0.028098607 0.14372835 -0.1835597 0.44905728 -0.20609042 -0.0386413 0.40939227
0.0057829903 -0.3877586 0.027575871 -0.09928227 -0.03715409 -0.085434355 0.85197806 0.09294075
-0.18648778 -0.07826605 0.37369803 -0.1206333 0.15598051 -0.112626635 0.30159718 -0.20036235
-0.03739551 -0.7117144 -0.09139311 0.02827601 -0.17735928 -0.19972451 0.38642055 -0.3351555
0.19490437 -0.22454984 0.17204207 0.2266425 -0.041969426 -0.16652839 -0.26562682 0.11198685
0.12189068 -0.0053765615 -0.35761124 0.087924525 -0.05649742 -0.13295259 0.22078204 -0.30885434
-0.2871768 -0.3268223 -0.15643325 -0.40419382 0.22387233 0.06551727 -0.5407568 -0.23846562
-0.069290735 0.7977599 -0.2168661 -0.27678388 0.07811669 -0.36687008 0.28580683 -0.17805192
-0.12105453 0.12371171 -0.121393874 -0.6616723 -0.061696507 -0.004681405 -0.3927587 -0.017749302
0.12915407 -0.035660747 0.8144786 -0.14410031 -0.44591913 0.32327387 0.7916157 -0.06938572
-0.43042484 0.10770356 0.2823946 -0.20311344 -0.005337065 -0.09896398 0.4132435 -0.19068086
-0.08009518 -0.31293404 0.33739215 -0.098310255 -0.36227968 0.38327026 0.08140066 0.48556826
-0.34756854 -0.123639405 0.31352758 0.62814784 -0.4587653 -0.20074382 -0.4545583 -0.20205685
-0.41757077 0.20341419 -0.1712226 0.36940452 0.10255855 -0.21719667 -0.085130736 -0.15423174
-0.2284043 0.07716764 -0.45402375 -0.23856872 -0.026675811 -0.2967355 0.28091195 0.007395827
-0.44540954 -0.11645296 -0.34232652 0.21260878 -0.19987458 -0.13269632 0.23135969 0.028953392
-0.00697683 -0.8187638 -0.38703814 -0.0039259703 0.61165935 0.24784957 -0.42277697 -0.31854907
-0.63828754 0.19593945 -0.049574275 -0.37789646 -0.09297645 -0.27620625 -0.5527412 -0.14432827
-0.31199956 0.12867564 -0.87303257 -0.21576011 -0.20999427 0.09449218 -0.06467407 0.2471501
-0.17528993 0.07473342 0.001490011 -0.42979297 0.1959098 0.11263386 -0.43070963 0.042560045
0.04077202 -0.07020873 -0.47816178 -0.27306575 0.46225885 -0.060029063 0.31681362 -0.23706366

feature.bias_hh_l0_reverse f4 [512]
00000000: 01bc 0d3f 07c2 62bf 3053 1e3f 8de9 5bbe
00000010: 67c8 103e f9e4 00be 61a9 313f 2cec da3e
00000020: ee22 3fbb cf0c c33c 3a00 1ebe c13d 9dbe
00000030: 1901 403d 32bb acbb a5d0 dfbc db4f 903e
00000040: ab14 01be 9fea 853e 2a72 bbbe 8a6d d03e
00000050: fb31 53be d6e5 91bd 0745 8cbd 7c1a 173e
00000060: 75fa 43bd 7a3c febd 1438 923e 7f34 313f
00000070: 04fc 38be ab6b adbe f8d4 283d af2f c6bd
00000080: 2ea8 4b3d b54d 8dbe 29ef 59bf 7656 873e
00000090: 14f7 4f3e 225f d9bd 4473 bf3e 9c5d a83e
000000a0: 316e 8b3e d8ad de3e 6411 853e 3ccf 55be
000000b0: 0f11 04be fd35 8c3d 1bb9 a8be d403 a6be
000000c0: 24ec 723e bf68 96be cd95 0d3f 807b 7ebb
000000d0: 756a 883d 78b8 2a3e 26e0 4f3e baf0 98bd
000000e0: 939b fe3c 937c a0bd 357f 1dbe 0294 073f
000000f0: 41a0 003e cd06 fd3d 794d 223f 30e8 e33e
00000100: 9f2f e33d 85d2 50bd e56c 34bf 71c8 d13e
00000110: e76f d1bc 18c0 fa3e 0327 f33e 5122 bb3c
00000120: 682d 043e 9bba 71be 4442 ff3d b513 a43e
00000130: ad30 9a3d 83fb a33e c6e5 2cbd 9a70 3b3e
00000140: 9ce8 8a3e 33f4 f6bd 5917 533e 4947 5a3e
00000150: 5146 223f 04e2 97be 4c30 af3d 20ff 953d
00000160: 2384 9abe 71dd 1a3e de48 4f3d cbdf 73be
00000170: eb7b e93e 7181 98be 4a5d b4bc 7470 d43e
00000180: e6e3 d1bc da68 95be 5a54 d13d 5f9f d6bc
00000190: 33cf d6bd 43dc e5bc 2f93 4f3f 823d bf3d
000001a0: 9539 66be 21d4 a6bd 7a3d 043f 07c4 91be
000001b0: 4920 393d 4fc9 46be 0b33 8e3e f75c a6be
000001c0: 8154 0ebd c061 23bf 611f f4bd 61a5 173d
000001d0: 6df2 3ebe e54c aebd 0cba e13e d9e4 84be
000001e0: 9156 ed3d 7237 73be 1661 fe3c 5c86 2b3e
000001f0: 66a3 fdbc bb4a b7bd 651f 1ebe 4ca4 2a3e
00000200: 5820 fc3c a0d8 33be 9d05 d8be d6f9 a0bd
00000210: 5b12 b3bb 7476 5abd ec88 c03e 5033 a7be
00000220: f946 d6be b6fd cdbe d418 9ebc a1b0 edbe
00000230: bab4 013e e22d 773e 7fdb 16bf 2693 e5bd
00000240: 3e25 6e3d 0fc2 4b3f 2a83 67be 64cb c0be
00000250: 504c 893d 9fd8 9ebe 8995 1e3e fca3 68be
00000260: 4228 3fbe 1c2f 4d3e 138d e8bc 9d1e 25bf
00000270: c4ef ffbc b9f6 f03c cbcf c6be 3adc 73be
00000280: ff15 933c a4ce 13be 219a 553f 1451 3ebe
00000290: a2ab 95be 5b33 ba3e 2329 4d3f a8d7 6c3c
000002a0: d4c2 dbbe 5aba 6a3e 3cf0 933e 9912 98be
000002b0: d456 163e 0678 ecbc 99c8 b43e 2fd2 29be
000002c0: 0e0d f8bd 3ee9 54bd 2c4c 9e3e c01b f8bd
000002d0: f0a6 f6be 4562 ac3e 3eb1 153d 86d0 f93e
000002e0: a5a1 aebe 7116 29bd e602 523e 61b2 323f
000002f0: 2556 19bf 0106 80be eee6 b4be 6559 89be
00000300: 212e eabe f2d4 703e df24 82be fc4a f33e
00000310: 3e66 013e 08d0 8dbe 6a53 babd 6e88 69be
00000320: 999f a0be 5dca 283d edaa 0dbf 06fc 92be
00000330: b17f d0ba 8d0f 37be 6259 b03e 184a c53d
00000340: 3e44 00bf 07bb 2abe 2947 b4be 1de7 603e
00000350: 327d 63be 2781 70be 3f87 263e 3a80 9a3d
00000360: 5fe9 7bbd e873 21bf 407c 6dbe e34c 18bc
00000370: 8bbc f43e 4825 a53e 8305 e7be e1a0 9bbe
00000380: 914d 39bf 3e21 8b3e a5d6 3cbe 3894 9fbe
00000390: 85f2 21be 2573 32be 6b24 f9be 4145 a3be
000003a0: 666e 6ebe b10d 6f3d 0c86 49bf 9574 15be
000003b0: 15b6 0ebe 7e2f 423e 98b4 f9bd 2483 793e
000003c0: 37fd 36be af45 cbbc 2e00 b83d 6e7e d5be
000003d0: 9578 0f3e 3499 fd3d ad21 c4be 412b 273c
000003e0: 283a c13d 049e 87bd b611 0ebf 40fb 52be
000003f0: c99d ac3e b125 0b3d b519 bb3e cc74 58be
0.55364996 -0.8857731 0.61845684 -0.21475811 0.14138947 -0.12587346 0.69399077 0.4275831
-0.0029165107 0.023809819 -0.15429774 -0.30711177 0.046876047 -0.005271339 -0.02732117 0.28185925
-0.1260554 0.26155564 -0.36610538 0.40708572 -0.20624535 -0.07123916 -0.068491034 0.14756197
-0.047846276 -0.12413879 0.2855841 0.6922073 -0.18064886 -0.33871207 0.041218728 -0.09677064
0.049720936 -0.27598348 -0.85130554 0.26433152 0.20309097 -0.10613848 0.37392628 0.32883918
0.27232507 0.43492007 0.2598983 -0.20879835 -0.12897132 0.06846235 -0.32953724 -0.32424796
0.23722893 -0.2937679 0.553067 -0.0038830936 0.0666093 0.16671932 0.2030035 -0.0746779
0.031080043 -0.07836261 -0.15380557 0.52960217 0.12561132 0.12354813 0.63399464 0.44513083
0.110930674 -0.050982017 -0.7047866 0.40973237 -0.025566055 0.4897468 0.474907 0.022843512
0.12907946 -0.2360634 0.12463811 0.32046285 0.075288154 0.32027826 -0.042211317 0.18304673
0.27130592 -0.12058296 0.20614375 0.21316256 0.63388544 -0.29664624 0.08554134 0.07324052
-0.30178937 0.15123536 0.0506066 -0.23815839 0.45602354 -0.29786256 -0.02201714 0.41492045
-0.025621366 -0.29181558 0.10221167 -0.026199041 -0.10488739 -0.02805913 0.8108396 0.093379036
-0.22482903 -0.08145929 0.51656306 -0.2846987 0.045196805 -0.1941273 0.27773318 -0.32492802
-0.034748558 -0.6382103 -0.119200476 0.037022952 -0.18647166 -0.0851076 0.44087255 -0.25955847
0.11588777 -0.2375162 0.031052154 0.16750473 -0.030961704 -0.089498006 -0.15441664 0.16664237
0.030777141 -0.17563105 -0.42191783 -0.078601524 -0.0054648346 -0.053335622 0.37604463 -0.32656336
-0.41851023 -0.4023263 -0.019298948 -0.4642382 0.12666598 0.24138597 -0.58928674 -0.11209707
0.058140986 0.79592985 -0.22608629 -0.37655175 0.067040086 -0.31024644 0.1548673 -0.22718805
-0.18667701 0.20037502 -0.028387582 -0.6449984 -0.031242259 0.029414522 -0.38830408 -0.23814479
0.017954824 -0.14434296 0.8343831 -0.18585616 -0.29232508 0.36367306 0.80140895 0.014455713
-0.4292208 0.2292265 0.28894222 -0.2970169 0.1468156 -0.028865825 0.35309294 -0.16584085
-0.12111865 -0.05198025 0.3091749 -0.12114668 -0.48174238 0.33668724 0.036545984 0.48791903
-0.341077 -0.041281167 0.20508918 0.69803435 -0.5989707 -0.2500458 -0.35332435 -0.26826015
-0.4573832 0.23518732 -0.25418755 0.47518146 0.12636659 -0.27697778 -0.09097941 -0.2280595
-0.31371763 0.041208614 -0.5533894 -0.28707904 -0.0015907196 -0.17877026 0.34443194 0.09633273
-0.5010413 -0.16672908 -0.3521054 0.21963163 -0.22215727 -0.23486768 0.1626253 0.075439885
-0.061501857 -0.63067484 -0.23191929 -0.009295675 0.47800097 0.32255006 -0.45121393 -0.30396178
-0.7238398 0.271738 -0.18441255 -0.3116777 -0.1581517 -0.17426737 -0.48660597 -0.31888774
-0.23284301 0.058362667 -0.78720164 -0.14595254 -0.13936646 0.1896343 -0.12192649 0.24366432
-0.17870031 -0.024813501 0.08984409 -0.4169802 0.14010842 0.12382737 -0.38306943 0.010203184
0.094349205 -0.06621936 -0.55495775 -0.20603657 0.3371413 0.033971492 0.3654305 -0.21138304
