pretrained_models/comick-70-context-size.pth (torch, 821283 bytes, 10 tensors)

feature.weight_ih_l0 f4 [512, 64]
000000 05 89 c6 3f f0 ca f7 be 74 5b 2e bf 50 44 f7 3e
       1.5510565 -0.48397017 -0.68108296 0.48294306
000010 f2 44 f5 be 01 4a 25 bf 80 db 8e 3d f2 a1 58 3f
       -0.47904164 -0.64566046 0.0697546 0.8462211
000020 7e 9a 0e 3e dd a4 ec be 7f 6e 1a 3f 03 ad 18 be
       0.13926122 -0.4621953 0.60324854 -0.14909749
000030 3c f1 1f bf 50 0a c6 3d 43 73 3e 3f 28 64 a3 bd
       -0.6247747 0.09669936 0.74394625 -0.07978088
000040 69 47 3e bb 1e 79 4c 3d 37 b1 e2 be b2 39 2f 3f
       -0.0029034263 0.049920194 -0.4427583 0.6844741
000050 7e 30 9a bd 5d c1 c3 bf 2b 7c 33 3f 2b df b8 3f
       -0.075287804 -1.5293385 0.7011134 1.4443105
000060 15 9a 16 bf 46 50 20 bf bd e3 b0 3f 67 8a fd be
       -0.5882886 -0.6262249 1.38195 -0.49519655
000070 58 47 4e 3e 54 ab 48 be 79 af 93 be 2d 58 5b 3f
       0.20144403 -0.19596606 -0.28844813 0.8568142
000080 1f a2 eb bd bf eb ca 3e f7 5c 04 3e 2a ee 2b bf
       -0.115055315 0.39632985 0.12926088 -0.67160285
000090 63 f3 8a 3e e0 0d 03 bf 6e 9b 03 bf 9a 32 ab be
       0.27138814 -0.51193047 -0.5140904 -0.33437043
0000a0 e1 dc a8 be 24 33 23 bf 19 56 1c 3e 8e 46 18 bf
       -0.32981017 -0.6374991 0.15267219 -0.5948266
0000b0 04 82 e9 3e 19 99 e2 bd dd f6 6b be 53 a9 93 be
       0.45607007 -0.11064357 -0.2304339 -0.28840122
0000c0 30 3f 49 bf 4c d1 54 bf e3 81 2e be 18 af c1 bf
       -0.7861204 -0.8313186 -0.17041735 -1.5131559
0000d0 b4 be ab be 00 b8 ec 3e 38 6c 87 3f 9c 68 af bc
       -0.33543932 0.4623413 1.0579901 -0.021412186
0000e0 99 3a 04 bf e0 19 ba be ab 06 52 be c1 2d b6 3e
       -0.5165191 -0.36347866 -0.20510356 0.35581782
0000f0 05 e5 a6 3e f6 65 00 bf bb 8c 9c bd 22 d0 cc 3e
       0.32596603 -0.5015558 -0.0764403 0.40002543
000100 b7 4a 26 3f 50 1c eb be f3 fe 7a 3e 5d 80 61 3e
       0.64957756 -0.45920038 0.24511318 0.22021623
000110 2d 1b bb 3e 71 0e 0f bf be bb 8f bf 7d dd d7 3c
       0.3654417 -0.5588141 -1.1229169 0.026350731
000120 bf 0e 18 be cd 1e b0 bd de a8 e9 3d 24 b7 b3 be
       -0.14849375 -0.08599625 0.11409162 -0.35100663
000130 29 5d 09 3f 41 54 93 3f a7 77 8c 3f 18 1e 18 bf
       0.53657776 1.1510087 1.0974015 -0.5942092
000140 98 30 28 3e a0 22 da 3c 57 e9 00 3e 93 9f 2b be
       0.16424787 0.026627839 0.12589012 -0.16760091
000150 d3 70 a8 bd 3c 25 df 3c c9 8a 34 be d8 9e 12 bf
       -0.082246445 0.027239434 -0.17631067 -0.57273626
000160 87 b9 0e bf ef d2 05 bf 91 b7 8e 3f 28 ca 99 be
       -0.5575184 -0.52274984 1.114977 -0.30037045
000170 f7 37 36 bd a6 2e 98 be ac a0 97 3f c2 18 f9 bf
       -0.044486966 -0.2972309 1.1845908 -1.946068
000180 43 83 32 bf d9 e1 3a be 83 95 fa bd d5 b2 c3 3e
       -0.6973154 -0.18250217 -0.12235548 0.38222376
000190 d8 4f 53 bf 26 2c 7a 3d cc 2e 9b bf 59 3e fe be
       -0.82543707 0.06107726 -1.2123656 -0.49656942
0001a0 d5 c9 15 3f d7 97 33 3e f3 68 07 3f 91 03 e7 3e
       0.58511096 0.17538391 0.52894515 0.45119908
0001b0 92 ca 87 be a1 79 d1 bd 38 d5 63 be a5 7e 45 bf
       -0.26521736 -0.10228277 -0.22249305 -0.7714637
0001c0 1a dd ae 3c 2a ea de bd 03 21 13 3f b2 8f 3b bf
       0.021345664 -0.10884507 0.57472247 -0.73266137
0001d0 3c 1b e7 be 62 70 b9 3d 08 b5 4e be 36 3c 13 bf
       -0.45137966 0.090546384 -0.20186245 -0.5751375
0001e0 2c 08 db 3e 29 d6 a7 3d 18 f6 bf be 07 b2 22 3e
       0.42779672 0.08195145 -0.37492442 0.15888225
0001f0 59 fa 29 bf c2 bd 64 3d 8d 72 b5 be e0 50 0d 3e
       -0.66397625 0.05584503 -0.35438958 0.13800383
000200 37 08 97 3e d3 6d 61 3e 3c bb 17 bf 36 79 c7 be
       0.29498455 0.22014551 -0.5927007 -0.38959664
000210 24 e1 28 3d 80 d4 de 3e c1 13 54 be d7 70 fc bd
       0.041230336 0.435215 -0.2071066 -0.1232621
000220 af 05 80 be f8 70 2b 3e 1d 57 04 3f 00 25 8c 3e
       -0.25004336 0.16742313 0.51695424 0.2737198
000230 73 05 e5 3e 0e f0 df 3e 4f 17 1e bc 29 54 ae bf
       0.4473072 0.43737835 -0.009649112 -1.3619434
000240 1f cd b9 3f 12 47 c2 3d 2a cb cc 3c fa a0 ea be
       1.4515723 0.09486212 0.02499922 -0.4582594
000250 37 6d 32 3e 94 cf d4 be 1e 97 05 3e 4b de a9 3e
       0.17424475 -0.4156462 0.13045928 0.3317741
000260 ea 12 36 bf 8e 89 e5 bc 02 7a 02 3f ea 21 2a 3e
       -0.7112261 -0.028019693 0.5096742 0.166145
000270 a8 e0 0d be 25 4a 4e 3e 74 0e b7 3e f3 cb 57 3f
       -0.13855231 0.20145471 0.35753214 0.84295577
000280 ce d7 58 bf 66 ae 20 bf b2 a7 01 3f 35 27 9d 3e
       -0.8470429 -0.6276611 0.5064651 0.30693975
000290 27 c0 09 3b 04 12 e3 be 45 ea 00 bf d6 08 99 be
       0.0021019073 -0.44349682 -0.50357467 -0.29889554
0002a0 e7 2e 95 be e8 72 98 be 6c 00 3d 3e ec 78 4c be
       -0.29137346 -0.29775167 0.18457192 -0.19968003
0002b0 61 7a 16 3d eb d6 5b 3d fa 06 0e 3f 64 b0 f7 be
       0.036737803 0.05367176 0.55479395 -0.48376763
0002c0 bb d7 84 bf 10 63 82 3f e7 3d 67 bf e5 02 73 bf
       -1.0378336 1.0186481 -0.9032883 -0.9492629
0002d0 c8 5f ba 3c 28 16 2e bd 07 7e df 3d 54 40 7f be
       0.02275075 -0.0425016 0.1091271 -0.24926883
0002e0 62 55 01 3f 42 80 13 bf ca ba 4c bf ad 08 92 3d
       0.5052091 -0.5761758 -0.7997252 0.07130561
0002f0 83 f2 1c bf 0d 3e 47 3e 8f 7a 67 3e 1e d8 d1 be
       -0.61307544 0.19457264 0.22605346 -0.40985197
000300 8b ae ef bc a1 af fc 3e 3f ca 3e 3f cb ad e9 3e
       -0.029258033 0.49352744 0.74527353 0.45640406
000310 68 32 5c be 17 8a ae be 97 19 52 be bd dc de 3e
       -0.21503603 -0.3408973 -0.20517574 0.43527785
000320 55 43 85 3e 51 78 8e be 35 27 7d be ce 09 ba be
       0.26027933 -0.2782617 -0.24721988 -0.36335605
000330 2a 05 21 3f fe 64 c5 3e 25 ce 4d 3f 1f fd b8 3d
       0.62898505 0.38553613 0.80392677 0.09032654
000340 00 7c 9c 3e 59 31 c8 3e 60 9f ed be 2a 63 1e bf
       0.30563354 0.3910015 -0.46410656 -0.6187006
000350 ff eb 65 3f 90 ac 1a bd 18 d9 bc be 3c bb b7 3e
       0.89813226 -0.037762225 -0.3688438 0.35885036
000360 92 c9 11 3e ad f7 b0 3d 78 83 c4 be ce f8 c2 3d
       0.14237049 0.086409904 -0.38381553 0.09520112
000370 8b 79 e4 3d ef 0d 4a bf 11 b2 25 3e 38 4d bf be
       0.11155995 -0.7892751 0.16181208 -0.373636
000380 70 18 52 be 60 48 76 be 93 39 c1 3e 2f c4 7b 3e
       -0.20517135 -0.24051046 0.37739238 0.24586557
000390 20 f6 16 bf 22 ec 02 bf 3b 65 00 3f e4 a0 44 bf
       -0.58969307 -0.5114156 0.50154465 -0.76808
0003a0 ba c8 55 bc 92 54 cf 3e 8b 6c 23 3f a4 b1 05 3f
       -0.013048345 0.4049421 0.638375 0.52224183
0003b0 24 4b 2a bf 97 15 56 bf 27 a7 89 3e 34 56 53 bf
       -0.66520905 -0.83626693 0.2688534 -0.8255341
0003c0 aa 34 45 be d3 3f 51 bf ff 27 2b 3e ad 02 b3 3e
       -0.19258371 -0.81738013 0.16714476 0.3496298
0003d0 e4 78 29 bf 89 1c ff bd 93 43 69 be d0 72 48 3f
       -0.6620009 -0.124566145 -0.22779684 0.7830019
0003e0 e3 00 aa be 6b 3d d7 bd 9c c7 22 bf 6e 1e b4 3e
       -0.33203802 -0.105097614 -0.6358583 0.35179466
0003f0 e9 52 96 3d 82 f6 e5 3e bb e1 f2 be 1e d8 1b 3f
       0.073400326 0.44914633 -0.47437844 0.60876644

feature.weight_hh_l0 f4 [512, 128]
000000 a9 ee ff bd c4 c7 08 3e c6 88 8d 3e 87 51 09 bf
       -0.12496693 0.13357455 0.27643412 -0.53640026
000010 47 46 52 be fd db 31 be 8c 32 8d 3f a5 4c b8 3c
       -0.20534621 -0.17369075 1.1031051 0.022497484
000020 1d e9 85 be ab 12 82 3e 21 70 08 3e d8 3e 9f be
       -0.26154414 0.25404868 0.13324024 -0.31102633
000030 c0 ce fa 3d a7 51 19 3f f8 a2 2c 3f 1d da 6a 3f
       0.12246466 0.59890217 0.6743617 0.91739064
000040 63 75 45 3e f0 fb c0 3e 2f 60 40 3f e6 6f 94 3e
       0.1928306 0.37692213 0.75146765 0.28991622
000050 b3 97 9d 3e 8f 8d b5 3e b9 6b f6 3e 25 be 64 bf
       0.307798 0.35459563 0.4812906 -0.8935264
000060 f1 23 cf be 94 07 90 bd d0 c4 7d bf 55 66 8e 3f
       -0.4045711 -0.070326954 -0.9912844 1.1124979
000070 ba 43 74 be ef ee 22 3f 81 1f be 3e 57 ba fd be
       -0.2385396 0.63645834 0.3713341 -0.4955623
000080 20 1b 05 be b5 f5 a6 be f8 41 10 3e 9f 2f e2 bf
       -0.12998629 -0.32609335 0.14087665 -1.7670783
000090 6c 62 e6 be 18 b8 40 be ba 04 94 3e 99 3d 61 bf
       -0.44996965 -0.18820226 0.28909856 -0.87984616
0000a0 e4 ad ee 3d 98 9f 93 3f 1e ea 16 3f c3 d3 04 bf
       0.11654261 1.1533079 0.58950984 -0.5188562
0000b0 33 50 c7 3e 23 b3 d6 3d 83 45 71 3f 7a c4 66 bf
       0.38928375 0.10483386 0.9424669 -0.9014355
0000c0 9c dc 81 bd 3e 37 aa 3e 6d 2e 75 bd 93 8f 6c 3f
       -0.06340906 0.3324527 -0.05985873 0.92406577
0000d0 eb 3f b3 3e 6e 34 75 3e 19 cf af be c4 99 9e 3e
       0.35009703 0.23945782 -0.3433769 0.3097669
0000e0 91 c3 1d 3f 90 38 bb be 8d 14 90 3f 79 16 eb 3e
       0.61626536 -0.3656659 1.1256272 0.45915583
0000f0 e0 18 7f be 17 b5 27 bf bb 8a 11 3f 97 37 de be
       -0.24911833 -0.65510696 0.5685231 -0.43401787
000100 39 e7 2e bf ce b1 c5 3d 85 95 b9 3e 51 64 2c 3f
       -0.6832157 0.09653054 0.36246887 0.6734057
000110 3f 23 3c bf fa c2 b7 3e 8f 29 92 be a5 ce 8b 3e
       -0.7349128 0.35890943 -0.28547332 0.27306095
000120 3b f8 02 3f 96 e0 ec 3e 67 93 f7 be 96 1a a9 bd
       0.5116002 0.46265095 -0.48354647 -0.08257024
000130 5a fc 79 be de b9 2c bf 7f b0 2c 3f b4 09 99 bf
       -0.2441267 -0.6747111 0.6745681 -1.1956086
000140 32 7b dd 3d de d2 9b be 14 7e 37 bc 92 57 a2 3e
       0.10814513 -0.30434316 -0.011199493 0.31707436
000150 ca 62 a5 be 08 e3 9d bd de 76 5e 3e 8d f5 4d bf
       -0.32301933 -0.077093184 0.21725032 -0.80452806
000160 b0 4a 9f bf 9b a4 27 be 60 27 b2 3f f5 18 fe bd
       -1.2444668 -0.16371386 1.3918266 -0.12407104
000170 c3 71 86 3f 5b 19 d9 be 40 6a 22 bf e1 72 12 3f
       1.0503467 -0.42402157 -0.63443375 0.5720654
000180 67 6b a3 bd f7 9b 87 3f f4 fa e0 be 3a 8e 2e 3f
       -0.0797947 1.0594472 -0.43941462 0.6818577
000190 12 fa b4 3f 96 41 98 bb 34 87 ec 3e 02 52 3c be
       1.4138815 -0.0046464903 0.46196902 -0.18390658
0001a0 e1 0a ed 3e 5c 5a 93 3f 54 9d 1f 3f 7c 3e 7f bd
       0.46297362 1.151195 0.6234944 -0.06231545
0001b0 1a 3a 7c bf ea c4 e7 3e 7e e7 94 bf 32 5a cc be
       -0.98526156 0.4526742 -1.1633146 -0.39912564
0001c0 38 aa 80 3e dc 0f 20 bf 2f 3b 2b 3c 26 b9 15 3f
       0.25129867 -0.625242 0.010451122 0.5848564
0001d0 11 e0 b6 be 41 41 00 bf 49 42 97 be 4d f6 04 3e
       -0.35717824 -0.5009957 -0.2954276 0.12984581
0001e0 08 33 4f 3d 57 7d a8 be 70 ee 41 3f a5 19 20 3f
       0.050585777 -0.32908127 0.7575445 0.6253913
0001f0 02 33 eb be d7 2f 5e bf 2d 88 cf 3e ae 22 53 bf
       -0.45937353 -0.8679175 0.4053358 -0.8247479
000200 bd d3 0e 3f 59 9b 07 be 43 f8 80 3e 5e cc 21 3d
       0.55791837 -0.13242854 0.2518941 0.03950154
000210 14 a1 13 bf 1c 5e 92 3e f6 bc 2f be 8e 35 b5 3e
       -0.5766766 0.28587425 -0.17161927 0.3539242
000220 0b 74 6f 3f c2 0d a6 3e ab 72 a9 bc a5 67 47 3d
       0.9353644 0.3243237 -0.02068456 0.048682828
000230 1f c7 cb bc aa ab c3 3e 32 d6 10 3f 58 7b cb 3e
       -0.024875222 0.38216907 0.56576836 0.3974254
000240 11 8f 59 3e 01 d8 72 3f 45 94 13 bf e3 d6 80 3e
       0.21245982 0.94860846 -0.57648116 0.25163946
000250 36 d9 77 be b6 39 7f be f6 4b 5d bf 90 a3 98 3e
       -0.24203953 -0.24924359 -0.8644403 0.29812288
000260 65 08 20 3e bd 66 33 bf 69 da 73 3e eb 8b 06 bf
       0.15628202 -0.7007864 0.23813786 -0.5255725
000270 c5 ed e6 3e 07 da 0b be 6a 3b b3 be 52 eb 67 3e
       0.4510328 -0.1365739 -0.35006267 0.22648361
000280 4d b9 2b 3e a3 72 be be 2a 26 62 be bb 8e a9 3e
       0.16769905 -0.37196836 -0.22084871 0.33116707
000290 67 31 86 be 92 ac 14 be 2e 9f 87 bd 61 c3 87 3f
       -0.26209566 -0.14518955 -0.06622158 1.06065
0002a0 14 f9 fd 3e a1 b2 21 3f 2f 7b 2b 3f 69 5d cd be
       0.49604094 0.6316319 0.6698484 -0.4011033
0002b0 ce 7c 6c be f4 68 21 3f 7b cd 1a be 10 a4 85 3e
       -0.23094484 0.6305077 -0.15117447 0.26101732
0002c0 62 94 88 3e 58 7a 4d bf 54 4e 25 be 8f fa 8f be
       0.26675707 -0.80264807 -0.16143161 -0.2812085
0002d0 8e f8 97 3d 11 9d d7 3d f7 2f 4b be f3 3a 7f ba
       0.07420455 0.10528005 -0.19842516 -0.0009736262
0002e0 f5 5c 70 3e 64 df 66 bf 53 af 5e be 5b 46 56 bd
       0.2347296 -0.9018462 -0.21746568 -0.05231319
0002f0 30 4f d4 be 81 f9 ff be bf 5b f2 3e 88 81 0e 3f
       -0.41466665 -0.49995044 0.47335622 0.556664
000300 9e aa 28 be e2 c7 e3 be 15 cf c1 3d cb 58 11 bf
       -0.16471335 -0.44488436 0.09463326 -0.5677611
000310 39 34 63 3e 4c 05 1d bf 53 c7 8e 3e 71 5f 12 3f
       0.2218789 -0.6133621 0.27886447 0.5717688
000320 eb f1 b3 bd 4c 63 07 be c9 8f 36 3d 4d 0d e4 be
       -0.087863766 -0.13221473 0.044570718 -0.44541398
000330 70 a3 9b 3e ca 64 10 bf c7 8c 87 3f de 1a c0 3e
       0.3039813 -0.5640379 1.0589837 0.37520498
000340 72 1e 98 3e e7 45 f7 3e 73 20 8d 3e 2c e9 fd 3d
       0.29710728 0.4829552 0.2756382 0.1239799
000350 fa 42 a6 3e 26 9f db 3e 38 b8 e3 3e 3c a1 00 bf
       0.32472974 0.42894858 0.44476485 -0.50246024
000360 1d 6b ac be 2d e9 9f be 89 23 5d 3e 65 f7 70 3f
       -0.3367547 -0.31232587 0.21595587 0.94127494
000370 69 5c be 3d 32 55 21 3b 0b b3 52 be 0e 2c cd be
       0.092949696 0.002461743 -0.20576112 -0.40072674
000380 38 0d 36 3e 9e 5c f0 be b3 06 e0 3d 50 06 55 bf
       0.1777848 -0.4694566 0.10938778 -0.8321276
000390 e5 fa 4a bf 24 d5 f9 3e 16 35 e0 3e 48 9d 9a 3e
       -0.79289085 0.48795426 0.437905 0.3019812
0003a0 50 cd 2d 3f 51 80 3d 3d 48 0b 63 3f 8e a5 27 bf
       0.67891407 0.04626495 0.8868909 -0.6548699
0003b0 39 5d ed 3d 1e bd 25 bf 63 bc 9a bf 06 d3 da be
       0.115900464 -0.64741695 -1.2088741 -0.42739123
0003c0 1a 7c 9f bd 7e 1b a1 3e 65 13 bf be a9 18 1a bf
       -0.07787342 0.31466287 -0.37319484 -0.6019388
0003d0 d9 60 d5 bd 02 19 24 be 31 22 2a bf 39 a9 3f be
       -0.10418863 -0.16025165 -0.6645842 -0.18716897
0003e0 8a 0d 1a be ca 22 f6 be 2d ec cb bd f2 71 08 bb
       -0.15044227 -0.48073417 -0.09957156 -0.002081987
0003f0 81 28 0b be b8 31 a1 bc 95 ee 84 3e 30 c5 87 3e
       -0.1358967 -0.019677028 0.25963274 0.2651763

feature.bias_ih_l0 f4 [512]
000000 67 92 3b be 23 3f 44 be c3 05 3e 3e 70 9a 1a be
       -0.18317567 -0.1916471 0.18556885 -0.15097976
000010 4a 7d 4b 3c 6a 78 e0 bc 5a 69 50 3e 75 c6 a8 bd
       0.012420008 -0.027401168 0.20352688 -0.08240978
000020 fa 93 7b 3f fe 86 79 3e b9 bd 79 3f b0 e5 0a 3e
       0.9827267 0.24367902 0.9755512 0.13564181
000030 a3 bb 8f 3e 64 36 5f 3e 60 3a f7 3e 53 64 0f be
       0.28072843 0.21798092 0.48286724 -0.14003114
000040 f4 11 00 3f 53 7c ee be d0 a5 53 be b2 ab 07 be
       0.50027394 -0.46579227 -0.20668721 -0.1324909
000050 40 c5 69 be 76 f2 74 3f b7 64 64 3f c4 e5 f7 3e
       -0.22829151 0.95682466 0.8921618 0.48417485
000060 bc 43 96 3e aa c2 7a 3e 76 de bf be de a9 13 3e
       0.29348552 0.24488321 -0.37474412 0.14420268
000070 c3 50 8c 3e a9 79 40 3e 20 97 18 3f c5 9f 54 3e
       0.27405366 0.1879641 0.596056 0.20764072
000080 2a 6e 09 bf 54 87 5e 3d 9f ec e8 3e b8 06 ba bd
       -0.5368372 0.054328278 0.45493028 -0.09083313
000090 35 57 15 be f6 fc a3 bd 94 70 14 3f 48 38 87 3d
       -0.14584048 -0.08007233 0.5798428 0.06602532
0000a0 ee b8 2f bd 46 f1 12 3d ab 50 19 3f 78 27 e8 3b
       -0.042900972 0.035874628 0.59888715 0.007084783
0000b0 28 24 f7 be 9a ec 8e 3e 12 7e 8a 3e 80 50 a5 3f
       -0.48269773 0.27914888 0.2704931 1.2915192
0000c0 10 35 1b bd 3f 19 d7 3e c6 86 84 3e 08 1f b3 be
       -0.0378924 0.4201145 0.25884074 -0.34984612
0000d0 5c 6c 25 3e 0a 29 ad be 8e 09 60 3d 3a b6 61 3f
       0.16154617 -0.33820373 0.054696612 0.8816868
0000e0 24 75 a6 3e fe c2 f0 3e 4c 5b 25 3e 53 e7 3f bd
       0.32511246 0.47023767 0.16148108 -0.046851467
0000f0 66 ea 81 3f d2 7f 5b 3f 19 b4 68 3d 34 cd 00 3f
       1.0149658 0.85741913 0.05681238 0.50313115
000100 e0 91 ba 3d 51 90 e7 bb 5a 65 d9 3e b8 af b9 be
       0.09109855 -0.0070667644 0.42460138 -0.36266875
000110 33 fe 0f 3f 52 7e a0 3e c2 61 8f 3c 6b d2 53 3d
       0.5624725 0.31346375 0.01750267 0.051714342
000120 c2 05 97 3e 8b 2c 9c 3b 08 33 f0 3d 2f 12 79 3f
       0.2949658 0.004766052 0.117284834 0.9729337
000130 e0 47 24 be d6 1a 03 3f aa 97 a2 bc 25 53 c8 be
       -0.16043043 0.51212823 -0.01984771 -0.39125934
000140 01 bc 82 be c7 91 7a 3e bd 3f 8d bd 89 1a 28 3e
       -0.2553406 0.24469672 -0.06896923 0.16416372
000150 48 9d 2c 3f 78 42 d1 3e 1a fb b0 3e 01 a9 7e be
       0.6742749 0.40871024 0.34566575 -0.24869157
000160 30 71 1d 3f 54 a1 3e be ca ec f4 3e d6 50 e4 3e
       0.61500835 -0.1861623 0.47836906 0.44592923
000170 2f 58 06 3f 7f 04 9a be 92 20 55 3f d7 39 db bc
       0.5247831 -0.30081555 0.83252823 -0.026760979
000180 cb 2e 0a 3f 42 80 a1 3e 23 68 05 3d b7 9a 42 3f
       0.5397765 0.31543165 0.032570016 0.76017326
000190 fe a9 e8 3d ca b8 db 3e ff e0 4f 3d 04 4c 2b bf
       0.113605484 0.4291442 0.050751682 -0.66912866
0001a0 33 e7 39 bd aa 23 30 3e a1 b2 ae 3d 3e 09 4a bc
       -0.045386504 0.17201105 0.085301645 -0.012331305
0001b0 56 2d b7 be af d1 85 be 67 9d 86 3d 91 f3 7f 3d
       -0.35776776 -0.26136538 0.06572991 0.062488142
0001c0 11 8b 25 3e 49 73 14 3f cb 32 8e 3b 6b e6 b0 3e
       0.16166331 0.5798841 0.004339551 0.34550795
0001d0 7c 9b 7b 3e 62 e1 95 3f f0 f4 85 3e 7c 64 d3 3d
       0.24571031 1.1709406 0.26163435 0.103219
0001e0 90 bb 91 3e 5a 8a 4e be ec 4d 85 3e 6a 75 b3 bc
       0.2846341 -0.20169964 0.26036012 -0.021906573
0001f0 8a f7 9d bd d1 0a 8c be 26 17 aa bc 1b f2 47 3d
       -0.0771323 -0.27352002 -0.020762991 0.048814874
000200 66 94 00 bf 1c 31 13 3d fa 5b da be 45 ca 53 3e
       -0.5022644 0.035935506 -0.42648298 0.20682628
000210 14 9a 02 3b e5 93 82 3d a4 0a af 3d 90 8c 0c 3e
       0.0019928264 0.06375865 0.085469514 0.13725495
000220 fe c3 0c bf 4b 25 d3 bc 53 bc 3f be b6 66 1a 3e
       -0.5498656 -0.025774619 -0.18724184 0.15078244
000230 4e e7 4a be 0a 46 2a bf 5b 0e 8e 3e 09 05 97 be
       -0.19814798 -0.6651312 0.27745327 -0.2949603
000240 f1 cf c4 be 75 c4 2a be 5a ca 81 be dc aa 0d bf
       -0.38439897 -0.16676505 -0.25349694 -0.55338836
000250 aa 29 b2 be 73 55 ec be 3a 95 d8 be f6 b5 eb bd
       -0.34797412 -0.46158943 -0.4230135 -0.11509316
000260 38 02 d4 bd 8d 29 f3 3d 91 87 b5 be d4 68 d3 3d
       -0.10351986 0.118731596 -0.3545499 0.10322729
000270 10 85 95 be f0 12 59 be 27 6f 6d be d1 12 1d bf
       -0.2920308 -0.2119863 -0.23186933 -0.61356837
000280 7d 02 50 bc 48 2f a2 3d 6f 71 aa 3e 1c 17 19 be
       -0.012695906 0.079191744 0.33289668 -0.14950222
000290 2b 26 47 be bf f9 2f 3e 65 c6 2f bf f2 32 0f be
       -0.19448154 0.17185114 -0.686621 -0.13984278
0002a0 3a 46 2a bf f0 ae 56 bf 24 d8 0e bf 8a b9 ac 3d
       -0.6651341 -0.83860683 -0.55798554 0.08433826
0002b0 1a 58 49 3e b9 75 8d be 62 3b 1d 3f 8a 60 8c be
       0.19662514 -0.27628878 0.61418736 -0.27417403
0002c0 82 51 ee bd 07 b0 29 be e4 c2 15 3f 1d 44 de 3d
       -0.1163664 -0.16571055 0.58500504 0.10852835
0002d0 3e f4 53 be 83 d1 12 be 70 b1 14 bf 37 90 3c bf
       -0.2069864 -0.14337735 -0.5808325 -0.73657554
0002e0 43 87 8f bd 78 f7 fb be 0a 27 f4 be a0 5c e2 bd
       -0.07008221 -0.4921224 -0.47686034 -0.11052823
0002f0 96 b1 18 be b1 d6 0c bf 0c 3b bb be 18 d9 c2 3d
       -0.14911494 -0.55015093 -0.36568487 0.095140636
000300 f7 7a 1f bd be 14 73 3e 1e b3 94 be ee 4d 9d 3e
       -0.038935628 0.23738381 -0.29042906 0.30723518
000310 69 eb 32 3e 0c 52 81 be 99 66 2f bf df 8d 1e 3c
       0.17472614 -0.2525791 -0.68515927 0.009677379
000320 83 2d 91 be a2 cb a7 3d 2f 50 3a be cc 9d 59 bd
       -0.28355035 0.08193137 -0.1819465 -0.053129002
000330 bb a2 9d be fc 37 d4 bd 23 11 51 bc cf 08 a9 bd
       -0.30788216 -0.10362241 -0.012760433 -0.08253633
000340 28 b5 74 be 0d d4 ea bd 16 81 05 bd 62 a6 bd be
       -0.2389723 -0.11466227 -0.03259381 -0.37041003
000350 97 cf 36 3f 74 5b b9 be 73 ec dd 3d d5 2d f7 3e
       0.71410507 -0.36202586 0.10836115 0.48277155
000360 c9 40 ab 3e 3f c6 97 bd 78 b2 1c bc d4 bc f6 3d
       0.33447865 -0.07410859 -0.009564035 0.12047735
000370 3d f3 76 3d a0 bb eb 3d 45 97 98 be 00 08 c5 bc
       0.060290564 0.11510396 -0.2980291 -0.024051666
000380 86 48 5f be 41 b6 a7 be 1b b4 09 bf 0c ba c2 be
       -0.21805009 -0.32756236 -0.53790444 -0.38032568
000390 fd 8a a7 be 07 9e a4 ba be 98 76 bd 8e 0e 11 bf
       -0.32723227 -0.0012559303 -0.06020426 -0.56662834
0003a0 01 75 71 3d cc d7 64 be 9d 89 c0 3d b1 f7 a5 3d
       0.058949474 -0.22347945 0.09401248 0.08103884
0003b0 d8 39 94 3e eb 5d 89 be b4 9e 8f be 5d 25 cc be
       0.2895038 -0.26829466 -0.28050768 -0.39872256
0003c0 20 9b 60 bc d6 eb 0c bf 8a ca 75 3c 73 ec 2e be
       -0.01370886 -0.5504736 0.015001902 -0.17082386
0003d0 cb f4 c2 be 48 6d 3f bf 99 b7 98 bc b7 54 e4 be
       -0.38077387 -0.74776125 -0.018642234 -0.44595882
0003e0 e0 bd ee be 3a 18 38 be 64 34 9e bd 46 82 c6 be
       -0.46629238 -0.17977992 -0.077248365 -0.38771266
0003f0 97 45 d2 be f6 92 e1 bc 4f e7 41 3e 39 68 10 be
       -0.41068718 -0.027535897 0.18935893 -0.14102258

feature.bias_hh_l0 f4 [512]
000000 b1 ab 2c be 58 fa 09 be ad 67 79 3e 7e 21 47 be
       -0.1686237 -0.13474405 0.24355955 -0.1944637
000010 b9 41 84 3d 01 66 0f be 1b d9 3a 3e ab 26 f2 bd
       0.06457848 -0.14003755 0.18246882 -0.118237816
000020 1d 48 77 3f 97 ea a7 3d 08 b6 8b 3f ca 98 3b 3e
       0.9659441 0.08199041 1.0914927 0.18320003
000030 50 64 b5 3e 72 9f 9d 3e 4a f9 cf 3e bd c1 0d bd
       0.35428095 0.3078571 0.4061988 -0.03460859
000040 62 21 13 3f 13 20 e0 be 22 79 28 be 23 46 30 be
       0.57472813 -0.4377447 -0.16452459 -0.17214255
000050 39 3a 83 be fd 66 55 3f af f6 6e 3f 2b e4 bf 3e
       -0.25630358 0.8336027 0.9334516 0.37478766
000060 53 e1 90 3e 7d 66 83 3e 47 e4 b0 be 71 a8 d5 3d
       0.2829691 0.2566413 -0.34549162 0.10432518
000070 2a 78 08 3e d9 a0 47 3e 1f 05 0a 3f 75 18 a5 3e
       0.13327089 0.19494952 0.53914064 0.32245222
000080 88 6b e5 be d9 1e c5 bd cd da 03 3f 4b 3d 39 be
       -0.44808602 -0.09625024 0.5150574 -0.18089788
000090 11 0a 03 be 48 43 a7 bd 9d 36 2b 3f 72 f9 f9 3d
       -0.12796809 -0.0816713 0.6688021 0.12205781
0000a0 7c e4 79 bb 17 03 68 bd 5b 62 35 3f 3c ee 89 3c
       -0.0038130572 -0.05664357 0.70853204 0.016837232
0000b0 bc 43 fd be b4 83 81 3e 09 d4 f8 3e db 61 8f 3f
       -0.4946574 0.25295794 0.4859927 1.1201738
0000c0 86 83 e1 3d da 8d fd 3e 4b e9 9b 3e 5a b9 ae be
       0.11011414 0.49522287 0.30451426 -0.34125787
0000d0 70 fe 74 3e e7 84 ba be d0 4f b7 3d 1a e7 4d 3f
       0.23925185 -0.3642952 0.0895077 0.8043076
0000e0 23 39 06 3f 4e db e6 3e fa d7 99 3c 05 fd 9d 3b
       0.52430934 0.4508919 0.018779743 0.004821422
0000f0 7b 8d 7b 3f 5d 3e 55 3f 2c 53 02 3e 01 f3 ff 3e
       0.9826276 0.83298284 0.1272704 0.49990085
000100 b6 81 84 bd 01 5b b6 bd a9 0a 22 3f 10 9a b5 be
       -0.06470053 -0.08904076 0.63297516 -0.35469103
000110 b7 2c eb 3e ff 01 8e 3e 3d a8 45 3d d8 4d d6 3d
       0.45932552 0.27735898 0.048256148 0.10464066
000120 05 18 3c 3e 2b 6e a0 3b c7 b0 c4 bc 66 38 62 3f
       0.18368538 0.0048959455 -0.024010075 0.8836731
000130 57 e1 24 be 03 f5 fd 3e e5 ad d0 bd 71 7d 82 be
       -0.16101585 0.49600992 -0.10189418 -0.2548633
000140 24 a0 aa be 83 b4 73 3e da be d9 3d c2 9c 81 3e
       -0.33325303 0.23799329 0.10632105 0.2531491
000150 94 35 1e 3f f8 c8 b5 3e 4c a0 cf 3e 04 12 42 be
       0.61800504 0.3550489 0.40551984 -0.18952185
000160 66 3e 26 3f 12 4c 81 be 7e 2b b8 3e 59 88 fa 3e
       0.6493896 -0.2525335 0.35970682 0.4893215
000170 c2 f0 14 3f 2b 2d 71 be 0e 18 61 3f 1c c7 56 bd
       0.5817987 -0.23552386 0.8792733 -0.05243598
000180 1f 61 0d 3f 4a 85 ba 3e a7 6f b7 bd d8 60 53 3f
       0.5522632 0.36429816 -0.08956843 0.82569647
000190 6b 26 54 3e 00 5c bb 3e 9f c0 6f 3e b9 d7 25 bf
       0.2071778 0.36593628 0.23413323 -0.6478229
0001a0 d7 bc 99 bc 92 c4 14 3e 94 0d 6d 3e 95 70 e5 bc
       -0.018766804 0.1452811 0.23149711 -0.028007785
0001b0 89 11 ce be 85 86 b5 be d1 f6 71 3d 44 84 da 3d
       -0.40247753 -0.35454193 0.059073273 0.10669759
0001c0 ba 4a 08 3e 76 d4 34 3f 79 2c 68 3d 72 9e 78 3e
       0.13309756 0.7063669 0.056683037 0.24279192
0001d0 04 ba a6 3e 21 29 96 3f 65 11 44 3d 8f e2 18 3e
       0.32563794 1.1731302 0.04786815 0.14930175
0001e0 5b 97 a5 3e a3 a8 b6 bd cc 07 59 3d a0 ef 39 be
       0.32342038 -0.08918884 0.05298595 -0.18157816
0001f0 d5 36 f4 bb 4f 24 11 be 23 86 10 be 77 41 98 3d
       -0.0074528255 -0.14174007 -0.14113669 0.074343614
000200 06 e8 0e bf f6 22 04 bb 08 49 c8 be 7c 18 a4 3e
       -0.5582279 -0.002016244 -0.39118218 0.3204993
000210 c1 fc 50 3c 32 ff c7 3d 20 34 14 3e 17 2d df 3d
       0.012755574 0.097654715 0.14473009 0.10897272
000220 78 e1 0d bf 67 3f 99 bc 0c 4c 88 be 57 8b 14 3e
       -0.55422163 -0.01870699 -0.2662052 0.14506279
000230 f0 59 0a be 05 89 2e bf 2a 72 07 3e f6 8f 88 be
       -0.13510871 -0.68177825 0.13227144 -0.26672333
000240 c6 b7 ed be 9b 0d 52 be 63 f1 85 be 6c 47 df be
       -0.4642927 -0.20513003 -0.26160726 -0.43609178
000250 64 5b bc be c0 1d eb be fa f3 de be e0 62 24 be
       -0.36788476 -0.45921135 -0.43545514 -0.16053343
000260 2a 27 21 bd 71 cf fd 3d b0 95 94 be 43 3c 23 3e
       -0.03934399 0.12393082 -0.29020452 0.15940957
000270 2d 16 8d be 65 62 be bd b2 f6 0f be 1f 1c 35 bf
       -0.2755598 -0.09296111 -0.1405895 -0.70746034
000280 c3 3c d7 3c 4b fd 4f 3d d6 ab b6 3e 59 0d 04 be
       0.02627409 0.05077867 0.35677975 -0.12895717
000290 6e c5 e1 bd 59 78 c5 3d b4 47 38 bf d1 f1 cd bd
       -0.11023985 0.09642095 -0.7198441 -0.100558884
0002a0 9a 93 f2 be 9c a4 42 bf e2 b5 da be 9f 15 c5 3d
       -0.47378236 -0.76032424 -0.4271689 0.096232645
0002b0 8d 58 16 3e 06 91 68 be b4 66 22 3f 3f 49 bd be
       0.14682217 -0.22711572 0.6343796 -0.36969945
0002c0 c3 03 29 bd 00 98 16 bd bc f6 ee 3e 23 5b 74 3d
       -0.041263353 -0.036766052 0.46672618 0.059657227
0002d0 6d e5 01 be 5e 69 c8 ba 3a 3f 02 bf f2 fe 1d bf
       -0.12685175 -0.0015290191 -0.50877726 -0.6171714
0002e0 2b 84 e6 bc 3e cd 16 bf 34 50 e1 be 96 ac 3e be
       -0.028139194 -0.58906925 -0.44006503 -0.18620524
0002f0 10 8b 86 be e9 86 1b bf fe 9c 8a be 63 62 11 3e
       -0.2627797 -0.6075273 -0.270729 0.14197688
000300 fb bc 5b bd 4f 45 ae 3e 83 20 9c be b1 14 a9 3e
       -0.053647023 0.34037253 -0.30493554 0.330236
000310 fe c7 c4 3d 81 35 72 be a5 a4 4d bf 7e 23 7e bc
       0.09608458 -0.23653223 -0.8032935 -0.015511392
000320 e3 aa 74 be b5 93 16 3c da d2 2d be 8e 29 8b bd
       -0.23893313 0.00919049 -0.16974965 -0.06795035
000330 4b 9c af be d9 6f 23 bd 03 8b 35 3c 13 b4 54 bc
       -0.3429893 -0.039901588 0.011080506 -0.012982386
000340 db a7 fd bd 78 53 1a be 5b b0 fb bd 1f 57 b2 be
       -0.123855315 -0.15070903 -0.122894965 -0.34832093
000350 29 09 78 3f 26 1e b4 be c2 df 05 3e 76 3a 0e 3f
       0.9688898 -0.3517925 0.13073638 0.55557954
000360 bd 4e d2 3e 3f 84 2c 3e 7a 07 23 3d 44 50 e6 bb
       0.41075698 0.16847323 0.039802052 -0.0070286114
000370 3b cb e7 3c 77 12 b5 3c 89 7f 4a be 04 2f 42 bd
       0.02829515 0.022103531 -0.19775213 -0.04740812
000380 ce 85 11 be c1 f3 dd be 0d 8e 1f bf 95 3b c9 be
       -0.14211199 -0.43350032 -0.6232613 -0.3930327
000390 f0 b9 ba be 36 58 df 3c b0 1c 7e be b7 bb 16 bf
       -0.36469984 0.027263742 -0.24815631 -0.5888018
0003a0 5a 74 34 3e 5f c3 88 be 00 f6 a3 3d 7e 71 03 3d
       0.1762251 -0.26711556 0.08005905 0.032090656
0003b0 c4 a2 b0 3e cc 31 f8 bd 57 98 bb be 6e 20 ea be
       0.3449918 -0.12118873 -0.36639664 -0.45727867
0003c0 04 c2 95 3c 6d ec e1 be de aa d9 bd 09 1a 27 be
       0.01828099 -0.4412569 -0.106282935 -0.16318525
0003d0 c7 ab c6 be f4 49 37 bf f9 ed fb 3d 6f 24 e4 be
       -0.3880293 -0.7159722 0.12301249 -0.44559047
0003e0 46 d1 14 bf 50 fe 33 bd 69 78 c1 bc 4e 64 b1 be
       -0.58131826 -0.043943703 -0.023616986 -0.3464684
0003f0 eb bd ed be e2 d9 48 bd 7b e5 33 3e 3b e1 db bd
       -0.46433958 -0.049035914 0.17568009 -0.10736319

feature.weight_ih_l0_reverse f4 [512, 64]
000000 ec bf d2 be a3 ee be bf b0 c5 6d bc ce 1d 0c 3f
       -0.4116205 -1.4916576 -0.014512464 0.5473298
000010 26 bc 15 3f f9 0d 3c 3d ee c4 f8 bd 10 f1 0c 3b
       0.58490217 0.045911763 -0.12146936 0.002150599
000020 5a 13 b1 3b 11 02 cb bd e1 85 2c 3f 4c d1 09 3f
       0.005403918 -0.099125035 0.67391783 0.53834987
000030 da ad ac be 3b 1b 2c be 70 b2 8d be 6a 80 3b be
       -0.33726388 -0.16807263 -0.276752 -0.18310705
000040 b5 49 a5 bd fe 1a 85 bf 33 46 54 bd 25 7f be 3d
       -0.08070699 -1.0398862 -0.05182476 0.09301595
000050 9d 83 9d bc 75 b8 7e 3e 7b ce 6a be 5e 0a 02 bf
       -0.019227797 0.24875052 -0.22930329 -0.5079707
000060 d0 58 47 bd 21 46 ec 3e 67 04 37 3f 09 2d fe be
       -0.048668683 0.46147254 0.7149109 -0.49643734
000070 e8 8e 2a be 28 c6 26 3e 93 3f 0c bf ee ec 8c be
       -0.16656077 0.16286528 -0.54784507 -0.27524513
000080 41 1e 7e bf ef 83 e3 bd ed 93 8d 3e 07 81 83 3f
       -0.99264914 -0.11109149 0.2765192 1.0273751
000090 06 73 8b 3f 61 a7 11 3f 31 95 c5 bf 83 1b aa 3f
       1.0894477 0.56896025 -1.5436155 1.3289646
0000a0 b5 2c ad 3d 21 49 23 bf fe a6 96 3e e5 71 0c bf
       0.08455793 -0.6378346 0.2942428 -0.5486129
0000b0 f4 09 e4 3d 80 ca b6 bd 06 4c 87 3d 41 3f 11 be
       0.11134711 -0.089253426 0.06606297 -0.14184286
0000c0 87 15 aa 3d 22 4e 31 3f 89 7a 47 3e a5 ed ce bd
       0.08304887 0.69259846 0.19480337 -0.10103921
0000d0 21 28 07 bf 11 f6 88 3e 6c f8 6b 3f 6b 2e 27 3e
       -0.52795607 0.26750234 0.92175937 0.16326301
0000e0 0e 28 14 c0 84 a7 74 3d a6 df a5 3e 37 31 f0 be
       -2.3149447 0.059730068 0.32397193 -0.46912548
0000f0 14 0b b9 be 51 fd 2e be 61 94 99 bd 1b b3 6c bf
       -0.36141264 -0.1708882 -0.07499004 -0.92460793
000100 eb 6f 86 3d d5 db c0 3e a4 c7 57 3f 8a d5 c7 be
       0.065643154 0.3766772 0.84289 -0.39030105
000110 d6 78 0e bf c9 b8 eb 3e 0e b2 3f 3f 67 64 1a 3f
       -0.5565313 0.46039417 0.74881065 0.6030945
000120 0b 9d d4 3e b6 9a 8e 3d 08 aa 12 3d b4 a1 c2 3e
       0.41526064 0.069631025 0.035806686 0.38013995
000130 8d e8 8a 3e 4d 27 98 3e af 12 8e 3d 88 62 9b be
       0.27130547 0.29717484 0.06937157 -0.3034861
000140 68 15 54 3e 51 00 30 3f 48 ab d7 3e 22 7f 43 3f
       0.20711291 0.6875048 0.42122865 0.76365864
000150 5d 93 8f bf 27 bf 98 bd f3 46 2f 3e e6 7c c3 bd
       -1.1216847 -0.074583344 0.17116909 -0.09545307
000160 69 3c c4 bc d6 99 86 be ea 41 d7 bd 1c 93 6e be
       -0.023954587 -0.26289243 -0.10510619 -0.23298305
000170 e3 42 17 be bd 3b 79 3f 6f 1e e9 3e f9 d6 45 be
       -0.14771609 0.9735678 0.4553103 -0.19320287
000180 5b f6 1a bf 4a 83 e7 bd ee 56 92 3f 1c 54 93 be
       -0.6053216 -0.11304338 1.1432779 -0.28775108
000190 11 cd 88 be 16 4d 37 3e 1c 79 7f 3f c2 9e ef be
       -0.26718953 0.179005 0.99794173 -0.4680081
0001a0 b3 48 ef bc f9 c4 97 3e 72 15 54 3e eb 86 f3 3e
       -0.02920947 0.29642466 0.20711306 0.47563872
0001b0 e4 bf d4 be 44 3f a6 3e e1 36 1f bf 51 57 5c 3f
       -0.4155265 0.32470143 -0.62193114 0.86070734
0001c0 68 85 84 be 6e 5a f9 3e b4 62 fd bd a1 40 13 3f
       -0.2588303 0.48701805 -0.12372342 0.5752049
0001d0 d1 76 fd 3e 7e 32 5f 3f f0 74 2d 3f 94 d8 95 3f
       0.49504712 0.8718642 0.6775656 1.1706719
0001e0 b6 5e 70 be da cf 0d bf 14 c3 9e bf d9 ce 48 be
       -0.2347363 -0.5539528 -1.2403283 -0.19610156
0001f0 bd fd 4b bf 4a e3 6d bf b7 bd 32 bd 34 17 37 3f
       -0.7968405 -0.9292494 -0.043637957 0.7151978
000200 13 e1 ef 3e bd 2b 66 3e f3 7d d5 3f e8 c8 88 be
       0.46851406 0.22477622 1.6679062 -0.2671578
000210 a3 9c ef be ab 0a 86 be ed ec 51 bf d2 aa 08 bd
       -0.46799192 -0.26180014 -0.82002145 -0.033366032
000220 9c 44 bc be 34 7b 57 bf 99 35 0e 3d e4 3c 0e 3e
       -0.36771095 -0.8417237 0.034719083 0.13890415
000230 b9 ef a8 3d ac 35 09 3f 97 44 13 3f 9b a8 a0 bc
       0.082488485 0.5359752 0.57526535 -0.019611647
000240 19 76 ee bd 85 24 07 bf e8 35 0b 3f 63 84 8d bf
       -0.11643619 -0.527901 0.5437913 -1.1056026
000250 66 1a 8e be 4f 3d 32 be c8 14 a9 be d6 35 73 be
       -0.27754515 -0.174062 -0.33023667 -0.23751006
000260 bf d6 c9 3e 7c 30 72 3d 77 e3 27 3f 28 e0 d8 bc
       0.3942165 0.05912827 0.6558146 -0.026474074
000270 6d 86 68 bf d3 f4 89 be 20 81 f7 3d c4 1e a7 be
       -0.9083012 -0.269446 0.120851755 -0.3264066
000280 bc 2c 33 bf 6d 47 1c 3f 8c 09 93 3e 80 07 62 3f
       -0.69990134 0.6104649 0.2871822 0.88292694
000290 a6 52 0b bf 59 75 2e bf 68 74 85 3e 97 52 d1 3e
       -0.54422987 -0.6814781 0.26065373 0.40883324
0002a0 1d 16 1b 3f 5e 7c b8 be fc 8e 96 be e6 56 a7 3e
       0.6058062 -0.36032385 -0.29405963 0.32683486
0002b0 21 6d 1a 3d b9 4c 51 3e 81 d3 09 bf c7 e0 43 3f
       0.03770173 0.20439424 -0.53838354 0.7651486
0002c0 bf b5 8b bb 92 44 b5 be ae 9d 5c bf 9b 3e 73 be
       -0.004263609 -0.35403877 -0.861781 -0.23754351
0002d0 fd f8 07 3e bf 42 06 3e 00 fc a6 3e fb 7e c5 3e
       0.13278575 0.13111399 0.32614136 0.3857344
0002e0 15 35 03 3f 7e 4c 28 bf ca 7b 4d bf e8 64 6f bf
       0.5125287 -0.6574172 -0.8026701 -0.93513346
0002f0 fb a0 0e bf 44 dc 07 3f 04 94 c2 bf 89 5b 99 be
       -0.55714387 0.53070474 -1.5201421 -0.29952648
000300 06 c4 c1 be b1 28 33 bf ef ef 6f 3f 76 3a 3b be
       -0.37844867 -0.69983965 0.93725485 -0.1828402
000310 a6 55 43 3e 91 24 a4 be 37 51 5d bf d4 13 c7 3e
       0.19075641 -0.32059148 -0.8645205 0.38882315
000320 54 15 20 3e 2a 87 e0 3d 71 4e 5d bf 52 9b 4d be
       0.15633136 0.109632805 -0.8644782 -0.20078781
000330 0a 03 61 be 96 e7 a9 3e 17 7e 36 3f 0b 57 4b bf
       -0.21973816 0.331845 0.7128615 -0.7942969
000340 c7 62 64 bf 5a 8b f5 3d 25 ea 61 3e 8c 97 c6 be
       -0.8921322 0.1198947 0.22061975 -0.38787496
000350 01 55 98 bf ca b6 8b 3d 18 05 a4 3f 66 33 7f 3e
       -1.1900941 0.068219736 1.2814054 0.2492195
000360 05 c1 27 be 15 60 72 bf 7a 7f 6c 3e a6 c2 f7 3e
       -0.16382225 -0.9467786 0.23095503 0.48390692
000370 b8 c0 16 3f e9 a7 e1 bb 09 00 85 bd 29 02 81 bc
       0.58887815 -0.0068864715 -0.06494147 -0.0157481
000380 4b e9 0b bf 5d 8e 97 bd 76 02 ff 3d 76 08 74 be
       -0.5465285 -0.074002005 0.12451641 -0.23831353
000390 a2 ae c0 3e 47 d5 a1 3f a5 76 54 bf 20 6b 50 3f
       0.37633234 1.2643212 -0.8299354 0.8141346
0003a0 0c f1 1f 3f 8b ae 44 bf ba 4c 82 3f 96 a9 c6 be
       0.62477183 -0.7682883 1.0179665 -0.3880126
0003b0 67 77 58 bc bb 08 82 3f 54 d0 1d be dc ae b0 bf
       -0.0132120615 1.0158914 -0.15411502 -1.3803363
0003c0 88 87 d6 be 92 ab 43 3c d3 78 8a 3e 97 48 18 3f
       -0.41900277 0.011942761 0.27045307 0.59485763
0003d0 f6 f2 df be 31 a2 dd 3e ab 9d ac bd 40 0d 42 3e
       -0.43740052 0.43287805 -0.0842851 0.18950367
0003e0 83 70 4e 3f ef cd b2 be a4 e1 fc 3e 2a e6 cf bd
       0.8064043 -0.3492274 0.493909 -0.10151322
0003f0 2a 82 52 be f7 e9 fb be d9 a6 99 3f e6 8c a4 be
       -0.20557466 -0.4920194 1.2004043 -0.32138747

feature.weight_hh_l0_reverse f4 [512, 128]
000000 c3 58 10 3f d9 ce 83 3d 2e 98 32 be 03 d2 8f 3d
       0.5638544 0.064359374 -0.17440864 0.070224784
000010 8c ca c2 bf 8b 3f d2 bd 40 87 28 bf 4f 2a 81 be
       -1.5218062 -0.10266026 -0.65831375 -0.2522759
000020 45 d6 a0 3e fc 5e b1 3f ac 00 44 3e 8b 9d 33 be
       0.31413475 1.3857112 0.19140881 -0.17540567
000030 a1 1c 0a bf 50 ad de be 3e fa 04 bf 4b c2 ae bf
       -0.53949934 -0.43491602 -0.5194434 -1.3653044
000040 da 27 41 3f 7e ac 58 bf 41 b9 bc 3e 36 a6 23 bf
       0.75451434 -0.846382 0.36860088 -0.6392549
000050 fa ef 80 bd 0f f0 d2 3e bc 8f 18 bd 55 c0 38 3f
       -0.06295772 0.41198775 -0.03724645 0.72168475
000060 61 c9 24 be f9 59 33 be 35 9a 54 bf 37 9e b6 3e
       -0.16092445 -0.1751479 -0.830478 0.35667583
000070 b9 cd 36 be 87 55 61 3e 1a 35 02 bd b1 b7 f4 3d
       -0.17851914 0.22005282 -0.031788923 0.11949099
000080 7b aa e1 3d dd bb 68 3e e5 e8 af 3c 3f 54 9e be
       0.11018845 0.22727914 0.021473357 -0.3092365
000090 be b9 5d 3d e6 84 87 be 6f 76 79 3d c3 af 2e 3f
       0.054132216 -0.2646858 0.060903963 0.6823694
0000a0 5c 90 f4 be 84 ea ec 3d 2d fc 89 bd fc 40 7e 3d
       -0.47766387 0.11568168 -0.06737552 0.062073693
0000b0 af 77 1c 3f eb 83 62 be 16 76 ac be 76 dc 6b 3f
       0.6112012 -0.22120635 -0.33683842 0.9213327
0000c0 a1 e1 bb 3d 9f 85 3f 3f f3 f0 93 be f8 26 b8 3e
       0.09173895 0.74813265 -0.28894767 0.3596723
0000d0 de c2 b0 3e 61 16 2a bf 88 f4 6a 3e 18 f9 8a be
       0.34523672 -0.664404 0.22944844 -0.27143168
0000e0 d8 06 36 3f 6a 43 ba 3e 16 f9 22 bf b7 c5 81 3e
       0.7110419 0.36379558 -0.63661325 0.25346157
0000f0 0b 78 13 3f fa 82 d7 3e 24 4c a2 bd bf f6 fc 3e
       0.57605046 0.42092115 -0.07924679 0.49407002
000100 cb c0 80 3e a1 b6 72 bf 5a 1e 82 be c0 9c 1a 3e
       0.2514709 -0.9480992 -0.2541378 0.15098858
000110 b7 95 27 bf 1c bd ec be 9e 13 a4 3d d0 66 a9 bf
       -0.6546282 -0.4623803 0.08011554 -1.3234501
000120 1c 91 1d 3f b8 a1 8f be d5 4f f4 3e 83 e5 6a bf
       0.61549544 -0.2805307 0.47717157 -0.9175646
000130 07 f7 8e 3d fd 15 23 be 0d 1f 48 3e 44 1b 6f bd
       0.069807105 -0.15926357 0.19543095 -0.058375612
000140 f6 d4 2d bf 28 8a c4 bb 01 85 8f be 15 7d a6 3f
       -0.6790308 -0.005997915 -0.2803116 1.3006922
000150 1c f9 3d be f9 fd 68 3f 76 f9 24 be f8 3d 6a 3e
       -0.18552059 0.9101253 -0.16110787 0.22875202
000160 55 c1 2d be cf 8c 9c 3f 5a 8c 05 3f c8 63 92 be
       -0.16968282 1.2230471 0.52167284 -0.28591752
000170 87 99 cc be 53 57 7a 3e c7 90 a1 3d 26 c4 03 be
       -0.39960882 0.24447374 0.07888942 -0.12867793
000180 b9 7e 5b 3e b3 e1 4c 3f c1 21 4a 3e 74 13 1f bf
       0.2143506 0.8003189 0.19739439 -0.6213906
000190 c1 53 0b 3e a2 d6 06 be 3e 55 d0 3e 2b 59 7c bf
       0.13606168 -0.13167813 0.40690035 -0.9857356
0001a0 da 28 ad 3e a0 99 02 3f e3 c6 ed 3e fc 8f c4 bd
       0.3382023 0.51015663 0.464408 -0.09597775
0001b0 85 bd b6 bd 25 57 a9 3e 50 f9 20 3f c1 a5 47 3b
       -0.08922867 0.33074299 0.6288042 0.0030463787
0001c0 9c f2 bf 3c 48 99 ed bd 0e 83 09 be a3 6e a1 be
       0.023431115 -0.11601502 -0.134289 -0.31529722
0001d0 1c 20 3a be c8 46 39 bf 80 7b de be ee db e3 bd
       -0.18176311 -0.7237363 -0.43453598 -0.11125933
0001e0 f4 2d 7f 3f 2f 19 75 3e 07 93 9e 3e 8d 62 e2 3d
       0.99679494 0.23935388 0.30971548 0.11053953
0001f0 0c fd 86 3d 57 c1 f8 3e 4f fe 73 bd 80 5a 2b 3f
       0.065912336 0.48585007 -0.0595687 0.6693497
000200 53 07 c7 bd 6d 69 e0 bd 2d f3 d3 3e 19 3a 29 3f
       -0.09718194 -0.10957608 0.41396466 0.66104275
000210 17 b9 4e 3e 3e 5e 1f be 63 ec 24 3f e2 db bc 3e
       0.20187794 -0.15563294 0.644232 0.36886507
000220 8c 17 f8 be 20 da e2 be c7 c4 7d be c4 86 db 3e
       -0.48455465 -0.4430704 -0.24782096 0.42876256
000230 6c d4 3b bd a2 18 85 3e 95 20 02 bf 40 c1 e8 be
       -0.04585688 0.25995356 -0.50830966 -0.45459938
000240 a6 72 20 3d 88 0e 71 3e 53 8b 41 be 04 c9 05 3f
       0.039171837 0.235407 -0.18900804 0.5225985
000250 42 28 37 3f cf 00 0d bf 4a ba 03 3e 28 82 db bc
       0.71545804 -0.5507936 0.12864032 -0.026795462
000260 c6 6c 93 3e 5f fd 3c bd 39 0d 9c 3f 34 38 33 3e
       0.28793925 -0.04614007 1.2191535 0.17501909
000270 59 10 0b be 71 90 ef be 61 dd ef 3e 33 49 01 be
       -0.13580455 -0.46789888 0.46848586 -0.1262558
000280 ec f2 4a bf f3 39 0f bf a7 ee ca be 64 6d 6d be
       -0.7927692 -0.559478 -0.39635202 -0.2318626
000290 11 af 57 be a4 cf 68 3f 21 72 17 3f 89 e1 1a 3e
       -0.21062876 0.90941834 0.5915852 0.15125097
0002a0 a4 14 0d 3f 1f b5 a8 3f 18 45 46 3e 08 94 dc 3e
       0.5510962 1.3180274 0.19362295 0.4308169
0002b0 04 ce 60 be c5 4c c6 3e 1c 2e 1e be db 24 e2 3e
       -0.21953589 0.38730446 -0.15447277 0.44168743
0002c0 5d 01 82 3e c6 0b 21 3f 48 86 ab be f0 e9 09 3e
       0.25391665 0.6290859 -0.33500886 0.13468146
0002d0 6b 6a f4 3d a9 43 7e 3f 4b 6c d0 be 13 72 c5 3e
       0.1193436 0.9932199 -0.4070762 0.38563594
0002e0 4e 73 80 be a9 55 a1 be a2 72 21 3e 1c 45 05 3f
       -0.2508797 -0.31510666 0.15766385 0.5205858
0002f0 55 27 35 be 46 5b 11 3f 82 d6 ef 3e e4 26 6a be
       -0.17690785 0.567799 0.46843344 -0.22866398
000300 7e e6 49 be 36 d2 57 3f ab 59 bb be 43 51 38 be
       -0.19716832 0.8430513 -0.3659185 -0.17999749
000310 92 39 81 3d 6d 4b 82 3e 10 17 a2 bd ca cf ac 3c
       0.06309809 0.2544817 -0.07914555 0.021095175
000320 eb 09 43 be bd 44 ae 3d 9b a4 85 be f5 6d c4 3e
       -0.19046752 0.085092045 -0.26102147 0.3836514
000330 4d 09 c3 be 13 47 10 3f 74 32 bb 3e 57 ca 58 bf
       -0.38093033 0.5635845 0.3656193 -0.84683746
000340 b2 30 93 3e 14 ef 86 be 41 5b d1 3e a2 7b 2e 3f
       0.2874809 -0.26354277 0.40889934 0.681574
000350 d0 ab 8a be 9a 10 0d be 4a a3 f0 bd 69 ec bd 3e
       -0.27084208 -0.13775864 -0.11749895 0.3709443
000360 61 f1 5f 3f 9c 12 b3 be cc 99 1e bf 96 44 84 be
       0.8747769 -0.34975135 -0.61953425 -0.25833577
000370 93 04 f7 3e 98 d4 6e bf f9 46 1a bf aa e1 d9 bd
       0.48245677 -0.9329314 -0.60264546 -0.10638745
000380 de a1 73 bf c6 5b 65 3e 1c e1 a1 be c0 2b 49 3f
       -0.95168865 0.2239829 -0.31617057 0.7858238
000390 d5 ac d2 be c4 7c cb be e9 c3 10 be fe f1 27 be
       -0.41147485 -0.39743626 -0.14137234 -0.16400906
0003a0 92 e5 af bc 14 79 e0 bd 51 64 67 3f 73 ec bd 3e
       -0.021471772 -0.10960594 0.90387446 0.3709446
0003b0 57 2b 00 3c 4e 9a d6 3e 71 98 3b bd 2b 8b bd be
       0.007822833 0.419146 -0.045799676 -0.3702024
0003c0 75 85 d3 3e bd 85 80 be 95 dd 59 bf da 8b 3d bf
       0.41312757 -0.25102034 -0.8510373 -0.7404152
0003d0 1d 0a 2b bf e2 a5 8c 3e 47 2c 82 be 37 f5 90 be
       -0.66812307 0.2747031 -0.25424406 -0.28312084
0003e0 a7 93 f3 be a7 5f 74 3c 34 37 16 be f3 45 4d 3d
       -0.47573587 0.014915383 -0.14669496 0.050115537
0003f0 4f f5 92 be 50 9d ed bd c5 4d 1b 3f 98 a4 28 3f
       -0.2870278 -0.116022706 0.6066554 0.6587615

feature.bias_ih_l0_reverse f4 [512]
000000 5a 37 fc 3e 2e 2a b9 3e a2 c8 06 be 2b cd 39 3f
       0.4926098 0.36164993 -0.13162473 0.72578686
000010 32 87 d7 bd 2c f1 d0 be 98 ba 25 be 2a 9f 68 bd
       -0.10523833 -0.40809 -0.16184461 -0.056792416
000020 41 a6 9e 3e 84 23 4d bd 82 fc a5 bb e4 be 22 3e
       0.30986217 -0.0500827 -0.0050655017 0.15893131
000030 1b 83 8e 3e ea 3d 09 3b 7d 91 3a 3e 7a 29 5d bf
       0.278344 0.0020941445 0.18219562 -0.86391413
000040 53 9a 52 be d8 84 8d 3e 1f 1e 65 be da 0b b1 3d
       -0.20566683 0.27640414 -0.22374772 0.08644839
000050 fc 6a 20 3e c5 4b 88 3e e5 88 b4 bd 00 c3 b3 3e
       0.15665811 0.26620308 -0.08815173 0.3510971
000060 21 8e 52 3e c6 e8 1c 3f 66 31 99 3e f4 a3 36 3e
       0.2056203 0.61292684 0.299205 0.1783598
000070 c9 47 af be 8a bf c1 be 22 8f ed 3e cc 5b 57 3e
       -0.34234455 -0.37841445 0.46398264 0.21031111
000080 dc 24 48 3e 79 63 18 3e 53 9c 53 3e 3d fb e5 3d
       0.1954531 0.14881696 0.20665102 0.112295605
000090 61 2f 05 bc f0 9d 62 be b4 08 87 3e cd 55 97 3e
       -0.008128972 -0.22130561 0.26373827 0.29557648
0000a0 95 6c df 3e 03 5a 9c 3e 1a 25 d6 ba 22 07 fa bd
       0.4363753 0.30537423 -0.0016337961 -0.12208392
0000b0 66 0c e1 3d 65 0b 0a 3f 6c 61 ca 3e c9 dc 93 be
       0.10988693 0.53923637 0.39527452 -0.28879383
0000c0 0c 21 0a 3e b1 d1 4e 3d 91 57 02 3e e1 84 21 3e
       0.13489169 0.050492946 0.12728716 0.15773346
0000d0 0a fe a4 be f4 1d ca 3d c3 85 18 3e b5 2a 0e 3f
       -0.32225066 0.09868994 0.14894776 0.55533916
0000e0 cc f7 0e be 9d 21 98 bb c2 80 6d 3e e0 98 4a be
       -0.13961715 -0.004642679 0.23193648 -0.1978488
0000f0 c8 ac 9e bd 8f d8 0f 3f 85 d3 88 3c ed 23 1c 3f
       -0.07747799 0.5618982 0.016702423 0.6099232
000100 87 41 8d 3d b1 ef ab 3e f2 77 48 be e7 33 8e 3d
       0.06897264 0.33581308 -0.19577006 0.06943493
000110 0f a9 d9 3d af f6 ae 3e be 99 b2 3c f8 5b 89 bb
       0.106279485 0.3417258 0.021801826 -0.0041918717
000120 cb 2c f0 3e 9b db 16 bd 68 a5 ad 3c b5 08 c4 3e
       0.46909174 -0.036830526 0.021197036 0.38287893
000130 4b e8 d3 bd 06 81 97 3e 93 5e 9a be 81 6a ee 3e
       -0.10347041 0.29590625 -0.3015028 0.4656563
000140 c6 77 46 3e 22 41 a5 3d 50 7e 5d bd 5f 57 5a be
       0.19381627 0.08069064 -0.05407554 -0.21322392
000150 16 2d b5 bc 3a 5b c6 3d 19 1f c3 3e e5 72 e3 3c
       -0.022116225 0.09685369 0.38109663 0.027764747
000160 30 d6 c2 3e b6 f7 70 3d b1 2e 6d 3e d5 bf d4 bd
       0.38054037 0.058829986 0.23162343 -0.103881516
000170 ff 06 cd bd 28 ec 04 bf 81 16 cc 3d 8c 29 f7 be
       -0.100111 -0.51922846 0.0996523 -0.48273885
000180 42 85 9d 3e 4f 53 b2 bd 1a 79 2f bd fa 40 a0 3d
       0.3076573 -0.08707296 -0.0428401 0.07824893
000190 c8 56 27 3e ed f0 53 3f 93 6a 51 be 06 fb ac 3e
       0.16341698 0.827895 -0.20450811 0.33785266
0001a0 c9 64 da bd a3 b0 e9 3e b1 d0 ef be 02 71 2b be
       -0.106637545 0.45642576 -0.46838906 -0.16742328
0001b0 71 cd 10 be a1 58 9d 3e c7 e2 1a 3d a0 1b 7b be
       -0.1414087 0.3073168 0.037813928 -0.24522257
0001c0 7c ca a3 3e b6 64 d9 3e a9 2b 0c 3f dc a2 5e 3e
       0.3199042 0.4245965 0.5475412 0.21741813
0001d0 45 60 3a 3e bf 4f 8b 3e f1 5c b8 be 2c 16 9e 3d
       0.18200786 0.2720928 -0.3600841 0.07719073
0001e0 d3 47 1f 3f ac 8f be 3e e4 1e d3 bd 86 3f 95 3e
       0.6221897 0.37218988 -0.10308626 0.29150027
0001f0 fb a1 ba bc b2 a9 cc 3d 51 0a ff 3d 2b d7 5f 3d
       -0.022782316 0.09993304 0.124531396 0.05464856
000200 c9 00 9b be e0 cd 3b 3e 2c 20 76 3c 11 8f 1f bf
       -0.30274037 0.18340254 0.015022319 -0.62327677
000210 cb 72 74 3e ba 35 3d 3b 98 8d 03 3e 3c 9d c0 3d
       0.23871915 0.0028871135 0.12846982 0.0940499
000220 fa 80 71 be 8a 84 3a be 68 fb 73 3e 92 a7 ca bd
       -0.23584357 -0.18214622 0.23826373 -0.09895243
000230 a7 23 26 bf 4d 2f 4c bd 97 27 a6 be 92 78 a9 bd
       -0.6489815 -0.049849797 -0.3245208 -0.0827495
000240 91 c0 8f 3e ea 34 8c be 11 61 8f 3e 1e ff 12 3d
       0.28076604 -0.2738412 0.28003743 0.03588783
000250 cf a8 da 3d 2b cd 67 be 38 2f 3e bd 7f 81 16 3f
       0.10676729 -0.22636859 -0.04643175 0.58791345
000260 90 e0 ee bc b3 f2 9c be 16 a7 05 be 69 36 e4 be
       -0.029159814 -0.30653915 -0.1305202 -0.44572762
000270 c1 f0 01 3f 21 cd 34 be c1 eb 9f 3e 01 f6 9e be
       0.50757986 -0.17656375 0.31234553 -0.3104706
000280 c5 a2 d1 be 95 ff 71 3d 36 19 e6 3e 35 60 2e 3e
       -0.40944496 0.059081633 0.4494111 0.17028888
000290 08 d9 bc 3d 45 fe 8c be e1 4f bc bd 67 6c 89 3e
       0.09221083 -0.27537742 -0.09194923 0.26840517
0002a0 a7 26 cb 3e 50 57 97 be 93 d2 8f be b9 5e 1c be
       0.39677927 -0.29558802 -0.28090343 -0.15270509
0002b0 35 ce cb bd 26 25 65 be 64 f6 43 be 2e 4d 35 3f
       -0.0995144 -0.22377452 -0.1913696 0.7082089
0002c0 f9 90 b6 3d 3b 4f 3e 3c 68 37 98 be 70 bd 99 3c
       0.0891437 0.01161557 -0.29729772 0.018767089
0002d0 6e ea a7 bc be d6 d6 be 2f e5 cf be a8 9a 9f be
       -0.020497527 -0.4196071 -0.4060454 -0.3117268
0002e0 f8 6c 58 3b 34 66 04 be 46 a1 e7 bc 23 01 a6 be
       0.0033023935 -0.12929612 -0.028275143 -0.32422742
0002f0 10 0b cc 3d db ce 22 bf d8 93 0e bd a8 d0 1e bf
       0.099630475 -0.63596886 -0.034808964 -0.62037134
000300 34 44 5f bd 48 0e 0c bf 3e 9a b4 3d 1d 2f 98 be
       -0.054508403 -0.5470929 0.08818482 -0.29723445
000310 bb 2f 10 bd 18 81 2e be 6f 51 0f bf ef ec 03 bf
       -0.03520177 -0.17041433 -0.5598363 -0.51533407
000320 4b 5a 13 3f d7 56 62 3e 20 43 8f 3e 8f 66 2b bf
       0.5755965 0.2210344 0.279809 -0.66953367
000330 5e 5c e9 be b5 b7 6c 3e 3b 8d d1 ba 9a 8e eb be
       -0.45578283 0.23116954 -0.0015987525 -0.46007234
000340 71 3f da 3e f3 4b 93 be 8a 0e 19 3e be c9 7d 3d
       0.42626527 -0.28768882 0.14946952 0.061959974
000350 b5 4a b9 be c3 10 1b bf d6 09 48 be ee 06 30 3e
       -0.3618981 -0.6057245 -0.19535002 0.17190143
000360 70 0a 68 be 36 d9 a2 be 4c e3 26 be 64 c8 3a be
       -0.22660232 -0.31806344 -0.16297644 -0.18240505
000370 42 ef 97 3d a7 f9 ed bd 14 70 00 be 09 e1 26 3f
       0.07418682 -0.11619883 -0.12542754 0.65187126
000380 32 f9 a1 bd 0c 25 b4 be d1 13 2a be f3 13 69 ba
       -0.07908858 -0.35184515 -0.16609122 -0.00088912173
000390 87 16 38 3f cc 81 d2 bd 47 b3 4e 3e 14 c4 f8 be
       0.71909374 -0.10278663 0.20185576 -0.48587096
0003a0 68 e3 72 3e 02 fa 87 3e d4 24 38 3e 3a fc ea bd
       0.23719561 0.26557928 0.17982799 -0.1147389
0003b0 ec 30 39 3e 9b 0a f2 be 6e e4 06 3e 9b 15 04 3f
       0.18085068 -0.47273716 0.13173077 0.5159547
0003c0 96 de 62 bd db b6 75 be a8 8f e7 be d9 b9 45 3c
       -0.055388056 -0.23995535 -0.4522679 0.012068235
0003d0 89 e9 d9 be ef 21 a3 be 12 1a fc 3e 5b 6d c8 3e
       -0.42560986 -0.31861827 0.4923864 0.39145932
0003e0 b1 19 37 bd 32 e8 a5 be 25 8e d3 bd 58 63 8d bd
       -0.044702236 -0.32403713 -0.10329846 -0.06903714
0003f0 30 13 08 be 70 0e 0e 3d cf 19 49 bd 19 c1 3c be
       -0.1328857 0.034681737 -0.04909688 -0.18433036
