pretrained_models/comick-20-context-size.pth (torch, 821283 bytes, 10 tensors)

feature.weight_ih_l0 f4 [512, 64]
00000000: 0c05 0c3d 8821 16bf 465c 2fbf 7fb1 393f
00000010: 3af7 38bf 813b 0e3f 5c27 fd3d edf4 f43f
00000020: 7093 cb3e 4409 ab3f a131 533f a6ab 07bf
00000030: e1a6 213f 0564 c0be 8b07 db3e 130f d3be
00000040: d179 223e fe70 abbe cc16 5ebe 77c2 37bf
00000050: a8c5 8b3f 458f 68bf ba91 88bd f5ca 773e
00000060: b38f 0bbf 429a 56bf 3402 4bbf 3363 be3e
00000070: b8cd d03e 5560 023f a7f0 c6bf dea1 9abc
00000080: 7f2d 95be f979 fe3e 270b 2cbf 7526 4bbf
00000090: cccb cd3e 43d3 263f 19cc b4bf c68f a3be
000000a0: c8df 44bf b27a d03e bff6 cfbf 2ad9 623d
000000b0: 2d20 e7be dab2 8c3f 5eb4 763f 4d64 cfbe
000000c0: d49a 863f 9a31 8bbe 57e5 75bf c915 ccbe
000000d0: f6fe 7cbe 3865 4cbe 2f13 9abf f10e a1bf
000000e0: 026f 393e 962d fabe 9f2f 8cbf edfd 913e
000000f0: 4c57 643f 9ba8 d7be 5822 bd3e a293 763e
00000100: 66de ec3e 4982 8abf 74b4 b3bf 0cc8 b83d
00000110: a4d1 143f 4962 693f 3bc5 d8bd 5e0f a6be
00000120: 2260 993d 1928 8ebf ff42 893e 5f39 86bf
00000130: ec37 ce3e 0e6d 473f 9e08 cb3d 21dc 9f3d
00000140: a03a 3d3f 8b5d 91bd e5a8 2bbf f654 74be
00000150: df86 c23e cbe3 da3e 6e8f c03e cf67 d63d
00000160: 6763 61bf c619 b13d af33 84be 9cf4 a7be
00000170: 24ac 853e 3e50 bcbe d775 9ebe 7df7 c63f
00000180: 205b 51be 4553 c33f 662b 913e 335b 01bf
00000190: 24df 143f 1cbf 123e 8790 d23e d36a af3f
000001a0: 11c2 49be d2dc 9e3c 0f73 f53e 8ece 56bf
000001b0: 4fe3 9dbf 25ba 4c3f 8277 adbe 3190 29bf
000001c0: 47f2 bdbe 2ad5 0fbe bf4a 8d3e 9f7c 83bf
000001d0: 97fd 20be dbfb 2f3e 929b e43e 087a fe3c
000001e0: cc6b b0be 61aa d53e fcf9 843f 62c2 d4be
000001f0: e472 bdbf 52a3 963e 04aa 00bf 0e84 d2be
00000200: 7a2f 0e3f c3d6 11be 2e20 25bf b6da 4b3f
00000210: c968 043f c268 fabe 9c34 973e d3c4 cf3c
00000220: 2230 2cbf 34cc 9b3d c4ed 643e 032b 5cbe
00000230: a1ef e93e 1e03 d53e 3a5f 80be d383 c8be
00000240: 1448 3d3f d0c0 463f fa91 f0be 9d34 b4bc
00000250: 37a3 ad3c 8890 8dbe 98af 8a3e 3521 2f3d
00000260: 17de 1ebf c8f4 8ebf dc0e 7ebf 5449 85be
00000270: 0e28 acbd ac0c 13be c6f9 84bc 2c5f c03e
00000280: 2a1e a43d 4adf db3c 274a 43be 877e 6f3e
00000290: d461 c3be ee62 c6be c5f7 963e a4ad c83f
000002a0: 5749 60be ed3a b93e 1b18 dcbe a256 643f
000002b0: c873 bd3e 8671 04be f6c8 c73d fb1b dfbe
000002c0: 66cd fdbe 6af5 92bd c869 62bf 07b3 86bd
000002d0: 3ece 6d3f 6026 9d3d 13fb 34bf fb79 a4be
000002e0: 8ced d03e 0a7f fc3e 0cbf 0cbd 6b5c be3d
000002f0: e0ae 3d3f 3fdb ee3e 8f32 08bf fd8b bc3d
00000300: 562b 013f 0966 b43e ecd1 e53d 4860 253e
00000310: b5f2 11be ae64 b0bc cc04 48bf 16b7 803f
00000320: 1902 533f 4270 3dbc 507b 863d 3f1a cf3e
00000330: 4fa7 21bd 4618 0ebf 2c3b fb3e a3cc 853e
00000340: bc03 42be 5216 a1bd 5526 17bf 405e 69be
00000350: b08b ccbe 8fad b2bf ca72 aa3e 6867 0dbf
00000360: fe04 00bf f179 e33b 0b3e 41be 3e45 c33c
00000370: 5616 4c3e bfbb bb3e 5e33 b9bf 79bf de3e
00000380: f539 03bd 25d1 d53d 5187 e2bf 6776 b5be
00000390: 2ec8 343f fd24 c0bc 66cd 14bf 26f7 453e
000003a0: 9062 1a3f 5271 a23b 2dfd 88be f1c7 1bbf
000003b0: d743 0dbf a46e 96be 6484 ddbe adf2 18be
000003c0: ff00 06bf 1fca f63e 5fc3 593f 69cd 6dbf
000003d0: 58c7 27bf af87 ea3c fe73 3f3f 5979 b1bf
000003e0: 7684 02bf c978 cb3f 36ec 8d3d 1f6e 893d
000003f0: 4922 6f3e 426a 1d3f 53ac f83e cf0e a3bd
0.0341845 -0.58644915 -0.68500173 0.7253646 -0.7225224 0.55559546 0.12361023 1.9137245
0.39760923 1.3362203 0.824976 -0.5299629 0.6314526 -0.3757631 0.42779192 -0.41222438
0.15866782 -0.33484644 -0.21688384 -0.71781105 1.0919695 -0.9084361 -0.0666842 0.24198516
-0.5451614 -0.8382913 -0.79300237 0.37185058 0.4078195 0.5092824 -1.5542191 -0.018876012
-0.29136273 0.49702433 -0.6720452 -0.79355556 0.40194547 0.6516611 -1.4124786 -0.31945628
-0.76903963 0.4071861 -1.6247176 0.055382885 -0.45141736 1.0992081 0.9636897 -0.4050621
1.0516 -0.2718628 -0.9605307 -0.3986037 -0.24706635 -0.19960487 -1.2037104 -1.2582685
0.18108752 -0.48862904 -1.0952033 0.28514042 0.89195704 -0.42120823 0.36940265 0.24079755
0.46263427 -1.082101 -1.4039445 0.09022531 0.58132386 0.91165596 -0.10584494 -0.324336
0.07489039 -1.1105987 0.26808926 -1.0486258 0.4027704 0.7790078 0.09913753 0.07805658
0.7391758 -0.0709792 -0.6705459 -0.23860535 0.37993523 0.42751917 0.37609428 0.10469019
-0.880423 0.08647494 -0.2582068 -0.3280381 0.26107895 -0.3677997 -0.3094928 1.5544277
-0.20444918 1.5259787 0.28353423 -0.50529784 0.58152986 0.14330715 0.4112589 1.3704475
-0.19702937 0.019392405 0.47939345 -0.8390893 -1.2334994 0.79971534 -0.3388024 -0.66235644
-0.37098905 -0.1404616 0.2759609 -1.0272406 -0.15721737 0.17185919 0.4464994 0.031064048
-0.34457242 0.4173155 1.0388789 -0.41554552 -1.4800687 0.2942148 -0.50259423 -0.41116375
0.55541193 -0.14242081 -0.6450223 0.796306 0.5172239 -0.4890805 0.29532325 0.025362408
-0.67260945 0.07607308 0.22356325 -0.21500783 0.45690635 0.4160394 -0.25072652 -0.39163074
0.7393811 0.7763796 -0.4698637 -0.021997744 0.021195991 -0.2764933 0.27087092 0.042756278
-0.6205763 -1.1168451 -0.99241424 -0.26032507 -0.08406077 -0.14360303 -0.016232383 0.3757261
0.08013566 0.026839871 -0.19071256 0.2338811 -0.38160574 -0.38747352 0.29485908 1.5677991
-0.21902977 0.3617777 -0.4298714 0.8919469 0.37002397 -0.12933931 0.09755127 -0.43576035
-0.4957077 -0.07175715 -0.8844266 -0.065771155 0.92892826 0.07673335 -0.7069561 -0.32124314
0.40806234 0.49315673 -0.034361884 0.09294971 0.74094963 0.46651646 -0.53202146 0.09206388
0.5045675 0.35234097 0.1122168 0.1615001 -0.14252742 -0.021532383 -0.7813232 1.0055873
0.82425076 -0.011562409 0.06566489 0.40449712 -0.0394662 -0.5550579 0.49068582 0.26132688
-0.18946737 -0.078655854 -0.59042865 -0.2278986 -0.39950323 -1.3959216 0.33290702 -0.5523591
-0.5000762 0.006942027 -0.18871324 0.023836728 0.19930395 0.36666676 -1.4468801 0.43505457
-0.032037694 0.10440282 -1.7697545 -0.35441896 0.7061795 -0.023455137 -0.58125913 0.19332561
0.60306644 0.0049573565 -0.26755658 -0.6085196 -0.5518164 -0.29381287 -0.4326507 -0.14936323
-0.5234527 0.4820108 0.8506374 -0.92891556 -0.6553855 0.028629152 0.74786365 -1.3865157
-0.5098337 1.5896236 0.06929819 0.06710457 0.23352922 0.6149026 0.48568973 -0.07961809

feature.weight_hh_l0 f4 [512, 128]
00000000: e2ce e83e 85b8 80bf 4300 1dbf 5227 ac3e
00000010: 02d2 57be 5e28 2b3e 56f6 8cbe 9ec7 80be
00000020: 3830 74be 2e56 65be 96f7 49bf 7e6a 6f3e
00000030: 1e4d 853e 33c9 99bf fb9e 78be 80b5 96bd
00000040: 78e0 91bf 6715 21bf 3451 383f 6fd4 a8bc
00000050: 60ee 8abe 8649 cb3d 29f5 4dbf ae6c 403e
00000060: e97c 5e3f 4b0d 783e 45c1 f23e 17ac 0f3f
00000070: cc5f 433e 898b 7c3b 71f0 643f 28bb bbbe
00000080: a6a7 0fbf 95a7 4ebf 1fce 14bd 17e1 ab3e
00000090: 57de fbbe 7227 893e 726f 8abe f3bd babe
000000a0: 6edb a6be d03e f43e 248b 64bf 5982 fbbe
000000b0: 10e0 ad3e c099 e43e 2b42 74bf b8de 8f3e
000000c0: 5009 253e ac80 45bf 6073 07be 5afe d93e
000000d0: 4d1d 0a3f d475 25be 8d30 0c3f 85bb 623e
000000e0: 00a4 25be 348f 8dbe f463 1f3f 98df b13e
000000f0: ecc4 4b3e 5066 2dbd 86b3 263f 1d5b 4fbf
00000100: 31d4 95be 17b7 ac3e 0e69 8dbe 8a64 603e
00000110: c2df ac3e 9810 bc3e 5e23 38be ac43 7abe
00000120: d4a9 16bf 1fc7 b9bc 6260 17be da08 a53c
00000130: 59fe 3abe 272a 95bd 7354 dd3e ff0f a73e
00000140: 5b3d 2dbe bf73 acbe 9846 8abd f846 29be
00000150: b44a aabf 7014 51bf bcf3 fa3e bcb5 473e
00000160: 2da9 393f 992c 8bbc ac55 913d 2453 b8be
00000170: 600c 303f fe02 983c 4a35 aa3e c406 fd3e
00000180: fcb5 fc3e 8205 773f 2352 073e 9f20 36be
00000190: b343 dc3d 6f10 183e 50d7 303f 2a08 12bf
000001a0: 5306 d8bc 40ce 33bf 1c85 d93e 4035 2dbf
000001b0: 5f99 78be 6d69 063f 1d25 e33d dbea 0fbf
000001c0: 881c 05bf f211 18bf 3091 4ebe 6c5d a13e
000001d0: 986f 45bf 6670 493f 140b fcbe 1963 533f
000001e0: 683d 47be 3115 e1bb 1066 ed3e f641 c63e
000001f0: 26bf 81bd 7f33 0dbf 8f8b 353e f278 94bd
00000200: 79d0 52bd d076 153e dc86 4f3e 7f03 c53d
00000210: 0353 f4be 5a8d 203e f0b5 0abe 559e 96be
00000220: 8a7e 6abd 620d 4ebf 30aa 013f ecb2 1f3f
00000230: 1b59 cc3d 98ff 46bf 0e15 8fbe 82b5 353f
00000240: 4f81 2e3f 0039 943d e272 2dbe c31e c2be
00000250: 0c96 813e 846a bbbe c38c e13c 26cf 083f
00000260: 4a1f 58be edf2 343e 1cbe 31bf baa0 c7be
00000270: 13e4 47be f34c 173e 0b86 7f3c ca7e a73e
00000280: 719d bd3e 96ad c63d d40c 8a3e aff0 1f3e
00000290: 9985 313f a31c 2fbf 089a 043f 5e3f 29bc
000002a0: 9ca2 c0bd 8b00 4e3e 5ff1 d3be 2241 b93e
000002b0: c885 a43d 2ad1 76be 28e8 00be d469 b5be
000002c0: 23a4 c93e 6607 adbf c2e9 223f 92da 8cbe
000002d0: a927 483e b4c9 9a3c cb9b 0ebf bd17 17be
000002e0: 973f 04be 4a3e 08be 72d7 a23e 7f4c 413d
000002f0: f4ec 8dbe 3659 243e 1792 3cbf f0cb 0d3e
00000300: 0459 553d cc99 6abc 2689 9d3e 00b5 c6be
00000310: f9ed a83e 4ef7 273f 34c6 29be cbae ff3d
00000320: 76b5 0bbf cefc dd3e 891a dabc 21f4 86be
00000330: af2b 7dbe 9fac 9bbe 36cc c7bd 4dcf 0ebe
00000340: b573 c9be bd87 ad3d 34e1 eabe e38b e13e
00000350: 92a7 f5bd a732 793d b803 9bbe d73e c23e
00000360: 4c79 39be e5e7 a3be 1aca f33e 2846 963e
00000370: 786a 80bf befb 6fbe 595e 323d 4afe 8b3e
00000380: 3142 bd3d 00a2 7d3f a574 033c e63c 08bf
00000390: 16a8 5ebe ce5c d33e 48e9 adbd a7dd 8b3d
000003a0: 1fa1 b5be 3e33 7b3e 2188 4d3e b324 643d
000003b0: ebd9 063d 3115 64be 6598 a2be e785 803d
000003c0: b733 ae3e 7919 723f 42ea 9cbd a5ec cd3d
000003d0: 97b3 f6be 81c3 71be 232f 023f 2d95 bfbe
000003e0: ca8d f13e 3622 b3bd 11f3 913b 5c48 e9be
000003f0: eb5d a1be a74f a73e fb78 d03e 6cdf 63be
0.4547034 -1.0056311 -0.61328524 0.3362375 -0.21076205 0.16714618 -0.2753169 -0.25152296
-0.23846519 -0.22396156 -0.7889341 0.23380467 0.26035398 -1.2014526 -0.24279396 -0.07358837
-1.1396627 -0.6292328 0.71998906 -0.020609109 -0.2713499 0.09926133 -0.8045221 0.18791458
0.8690935 0.24223821 0.47413078 0.56121963 0.19079512 0.0038535318 0.89429384 -0.36666226
-0.56115186 -0.8072446 -0.036329385 0.33570167 -0.4919307 0.26787907 -0.2703815 -0.36473045
-0.32589287 0.47704172 -0.8927481 -0.49122885 0.3396001 0.44648552 -0.95413464 0.28099608
0.16116834 -0.7714946 -0.13227606 0.42576867 0.5395096 -0.16158229 0.5476158 0.22141846
-0.16175842 -0.27648318 0.6226189 0.347409 0.19899338 -0.0423339 0.6511768 -0.809984
-0.29263452 0.33733436 -0.27619213 0.21913353 0.33764464 0.3673141 -0.17982242 -0.24439877
-0.5885289 -0.022677956 -0.14782861 0.020145822 -0.18261088 -0.072834305 0.43228492 0.32629392
-0.16917937 -0.33682057 -0.06751746 -0.16530979 -1.3304048 -0.8167181 0.4901408 0.1950292
0.72523767 -0.01698904 0.07096419 -0.3600093 0.6876888 0.018556114 0.3324378 0.49419224
0.49357593 0.9649278 0.13214926 -0.17785881 0.107551 0.14850019 0.6907854 -0.5704371
-0.026370203 -0.7023659 0.42484367 -0.6765938 -0.24277256 0.52504617 0.11091063 -0.56217736
-0.5199666 -0.5940238 -0.20172572 0.31516588 -0.77123404 0.7868713 -0.49227202 0.82573086
-0.19457018 -0.0068689813 0.4636693 0.387222 -0.06335287 -0.551567 0.17729019 -0.07249631
-0.051468346 0.14596105 0.20266289 0.096198075 -0.47719583 0.15678921 -0.13545966 -0.29417673
-0.057249583 -0.8048917 0.5065031 0.6238239 0.09977933 -0.77733755 -0.2794575 0.70980084
0.6816606 0.072374344 -0.16938356 -0.37914094 0.2530979 -0.36604702 0.02753294 0.53441083
-0.21105686 0.17670794 -0.6943071 -0.38989812 -0.19520597 0.14775448 0.015595923 0.3271392
0.3703418 0.09701078 0.26962912 0.15619157 0.6934448 -0.6840307 0.51797533 -0.010330049
-0.09406015 0.20117395 -0.4139509 0.36182505 0.08033329 -0.24103227 -0.1258856 -0.35432303
0.3938304 -1.3517883 0.63637936 -0.27510506 0.19546379 0.018895008 -0.5570647 -0.14755149
-0.12914883 -0.13305011 0.31804997 0.047192093 -0.27719843 0.16049656 -0.73660415 0.13847327
0.052086845 -0.014318895 0.30768698 -0.38809967 0.3299406 0.6561173 -0.16579515 0.12484511
-0.5457376 0.43356937 -0.026623981 -0.2635813 -0.24723695 -0.30405137 -0.09755747 -0.13946266
-0.3934609 0.08473156 -0.4587494 0.44052038 -0.11994852 0.06083932 -0.30276275 0.37938568
-0.18112677 -0.3201286 0.4761513 0.293504 -1.0032492 -0.23435876 0.04354701 0.27342445
0.09241141 0.9907532 0.008023416 -0.53217924 -0.21743807 0.41281742 -0.084917605 0.06829386
-0.35474488 0.24531266 0.2007146 0.05569906 0.032922667 -0.22273709 -0.31756893 0.0627554
0.3402383 0.9457012 -0.07661869 0.10054902 -0.4818389 -0.23609735 0.50853175 -0.374185
0.4717849 -0.087467596 0.0044540246 -0.45563018 -0.31516966 0.32677957 0.407173 -0.22253197

feature.bias_ih_l0 f4 [512]
00000000: 2390 00be 644c a43e b2c7 57bd e3a5 603e
00000010: 6c84 41be eca6 0d3f 4aaf 8b3f e209 d53e
00000020: 580a 3bbd 6cd5 423f 67e7 023d 4e7b 133f
00000030: ef43 9cbd ed2a 613e 2976 163e 282d b23e
00000040: 0761 c1be 4ae4 d33d 1862 013f c1c3 8fbe
00000050: d84a 54bd 00a9 313c 4235 41bd 8583 483e
00000060: dce7 c53b f405 c5be 010b 26bf 4062 283b
00000070: 5175 993d 3b66 d2be 1ce8 973f 2c78 173c
00000080: 4806 b63d 6049 953f 60fa 06bf 48a0 5cbc
00000090: 3aa1 1fbd 304d c1be 7531 3a3f 9a7f 13bf
000000a0: 49c5 9dbe 0b24 223d 3e20 fd3d 7786 35be
000000b0: e3e7 263f ea56 c4bd 2302 7e3d 143f ee3e
000000c0: bb6b e9be aa70 5cbe 80ea 42bd 1b18 b7be
000000d0: 32c4 24be e1d2 0ebe 8061 8c3e b430 823e
000000e0: ed93 233f fde9 29be 0168 223e 0d1c cc3e
000000f0: 34fc 883e bb6d 653e 5b4d 043f 016f 8dbd
00000100: 7439 0ebe ef23 563e 2d72 6f3e 4822 143e
00000110: fead 893f a65d 493f 0fa0 b3bd 51c5 a33d
00000120: 2852 a7be f4ba abbd 5b5a 1ebe 77bc 293f
00000130: b487 503f 0385 ae3d 2c7f 853e e639 953e
00000140: b439 843e 87c7 843d 0897 5abe 2e14 ec3e
00000150: fa11 98bd b128 ad3e fe08 54be a77f 963e
00000160: 6679 55be 881e e9bd 17f9 d33f 6dfc 6bba
00000170: 3ad3 ed3e dc04 b1be adf8 0f3e 3740 e7bd
00000180: 59f1 8a3e 4557 f13d 0c16 0b3f 1da2 073f
00000190: b099 ab3e 1f32 06be 0b21 87be 9327 8e3e
000001a0: 2d03 d43d f3ef a1be d263 a6be 9485 153f
000001b0: f096 c43e 8213 9dbe a088 843e 4ebf 8d3e
000001c0: 84ec 003e ad28 89be 3f53 7abe 843f 77be
000001d0: 4b90 263d 8ed4 883f bb0c 75bd ac7e 163e
000001e0: d215 2dbe 01a5 f53e 3012 333e d141 dc3e
000001f0: 1e81 753e ca3d 93be c6b3 793e 94b1 e7bd
00000200: 2da6 d3be 84dc ffbd 05f0 463e 79cb 35bd
00000210: 22d1 a6be 6571 3dbe ae3a 58be 0caf 9a3d
00000220: 3745 7a3d c1f7 29bf d307 a13d 6217 8ebd
00000230: 8498 823e e8a8 57be 0a8f 1bbd a745 14be
00000240: e161 67be 27ab 1fbd 29fc fdbd 949f 42be
00000250: 6c17 d1bd d0f6 aa3e b004 9e3e 68e7 a6be
00000260: 55e7 b7bd 04c9 6f3e 083d d2be 81cb 3d3e
00000270: 410c 01bf da2d 773d 1504 fabe 468f 283e
00000280: 7678 a33d ad80 26bf e9bd adbd 8f93 d23c
00000290: d247 e2be ab29 a93d 6993 27bf 7a0c 6fbd
000002a0: f8b3 d5bd 00e6 b6be f531 633d 3edf 48be
000002b0: 82ba 393c 42c9 dd3d 48f8 1bbe 73c3 cabe
000002c0: 697e 87bd 6494 493e b8fa 03bd dd72 13bf
000002d0: e68c 8bbe 3f92 0c3e 7417 2d3e 914c c7be
000002e0: 08e1 84be f917 17be f98e f2bd 328d 1bbf
000002f0: ae5b 8abd 6719 42be 0447 88be 7bdb adbc
00000300: 6edc f5bd 899d 0dbf da2b efbe c18e 37bf
00000310: 1b5f 3abf d4e6 2bbf 5351 033e dd75 8a3e
00000320: 0dc2 513e 49a4 d2bc 2168 0abf e023 e5be
00000330: 7dcc 75be a7e6 33bd 15cb ac3d ae7d bcbd
00000340: 1a70 1ebe 746b 2b3e 2144 c83d a121 38be
00000350: 04f5 89bd 07e0 b23d 7ae7 b4bd 9613 11bf
00000360: e0dc 883a 335b a03e be33 f6be bf61 fabd
00000370: 3a2c 3abe 4dd2 a7bd 607b 113e b4d1 abbb
00000380: 42f3 2dbe bc0f eebe 1a0b 98be bc04 a0be
00000390: 2511 dabe 4066 fcbd 4ccd 75be feeb 1c3d
000003a0: 3cc5 c2bd 6d89 193e 8ef2 9ebe 6e18 06bf
000003b0: c8be fdbe 875c 91bd 793b aebe 8e94 2fbe
000003c0: 6089 aabd ed2f 8abe f1bb 90be 7390 e93d
000003d0: 8fc0 2cbe 4ccc 94bd b8fd 3bbe 714f d5bd
000003e0: 68bc 84bd 55c8 773d 382a 0dbf 59c3 8cbd
000003f0: 5187 06bd 39c3 8b3d cae9 4fbe 4b81 c43e
-0.12554984 0.3208953 -0.05268068 0.21938281 -0.18898171 0.5533283 1.0912869 0.41609102
-0.04566416 0.76106906 0.031958964 0.57610023 -0.07630145 0.21989031 0.14693512 0.34800076
-0.37769338 0.10346277 0.50540304 -0.28079036 -0.05182919 0.010843515 -0.04716993 0.1958142
0.0060396027 -0.38481104 -0.6486054 0.0025693327 0.074930795 -0.4109362 1.1867709 0.00924496
0.08887917 1.1663017 -0.5272579 -0.013465948 -0.038972117 -0.37754202 0.72731715 -0.5761658
-0.3081458 0.039585155 0.12359665 -0.17727076 0.6519758 -0.0958689 0.062013756 0.465325
-0.45590004 -0.21527353 -0.047586918 -0.3576058 -0.16090468 -0.13947631 0.27418137 0.25427783
0.6389759 -0.16593166 0.15859987 0.3986515 0.26754916 0.2240514 0.51680535 -0.06905938
-0.13889104 0.20912145 0.23383398 0.14466202 1.0756223 0.7865852 -0.08770763 0.079966195
-0.32679868 -0.08385268 -0.15464155 0.663032 0.81457067 0.08521464 0.26073587 0.29145736
0.25825274 0.06483369 -0.21346676 0.46109146 -0.07425304 0.33820108 -0.20706555 0.29394266
-0.20847091 -0.113827765 1.6560391 -0.0009002153 0.46450216 -0.3457402 0.14059706 -0.11291545
0.2713726 0.117842235 0.54330516 0.5298174 0.33515692 -0.13105057 -0.26392397 0.27764568
0.10352168 -0.3162838 -0.32498032 0.5840695 0.38396406 -0.30678946 0.25885487 0.27685016
0.12590224 -0.26788846 -0.24445818 -0.24145323 0.040664952 1.0689867 -0.059826594 0.14696759
-0.16902855 0.4797745 0.17487407 0.43018964 0.23975036 -0.2875808 0.24384984 -0.11313167
-0.4133772 -0.12493232 0.19427498 -0.0443835 -0.3258143 -0.18500288 -0.21116135 0.07552919
0.061101165 -0.6639367 0.078628205 -0.06938054 0.25506985 -0.21060526 -0.03797821 -0.14479695
-0.22595932 -0.038981583 -0.12401611 -0.19006187 -0.102095455 0.33391428 0.3086295 -0.32598424
-0.0897967 0.23416525 -0.41062188 0.18534662 -0.5040932 0.06034646 -0.4883124 0.16460904
0.079819605 -0.65040094 -0.08483488 0.025705127 -0.4419542 0.08259901 -0.65459305 -0.058361508
-0.10434717 -0.3572235 0.055467565 -0.1961641 0.011335971 0.108294025 -0.1523143 -0.3960224
-0.06615908 0.19685513 -0.032221526 -0.5759714 -0.27255934 0.13727663 0.16903478 -0.38925603
-0.25952935 -0.14755239 -0.11843676 -0.6076232 -0.06755768 -0.18955003 -0.2661668 -0.02122282
-0.12004934 -0.55318505 -0.46713144 -0.717022 -0.7280137 -0.6714909 0.12823991 0.27043048
0.20484181 -0.025713103 -0.5406514 -0.44753933 -0.24003787 -0.04392114 0.08437172 -0.09203659
-0.15472451 0.16740209 0.097786196 -0.17981578 -0.06736186 0.08734136 -0.08833213 -0.5667051
0.0010441802 0.3131958 -0.4808635 -0.12225675 -0.18180934 -0.081944086 0.1420722 -0.0052435044
-0.16987327 -0.4649638 -0.2969597 -0.31253612 -0.42591205 -0.1232419 -0.24004096 0.038310997
-0.09510276 0.1499383 -0.3104443 -0.52381027 -0.49559617 -0.07097726 -0.3402975 -0.17146513
-0.083269835 -0.2698969 -0.28268388 0.114045046 -0.1687033 -0.07265529 -0.18358505 -0.10415543
-0.06481248 0.060493786 -0.55142546 -0.06873197 -0.03284389 0.06824345 -0.20304027 0.38379893

feature.bias_hh_l0 f4 [512]
00000000: 5d41 f93d 8900 cb3d d627 58bd 86e4 0c3d
00000010: 507f 09be 5ad2 043f 90c7 883f 7604 e93e
00000020: fc2a 19bd 247a 533f cf0d 38bd 6010 b63e
00000030: 962e 3abc 97ef 723e 0f6c 0f3e cc8e c23e
00000040: b49a cabe d41f d23d 86d9 053f 620a 87be
00000050: ecfd 0dbe 5012 de3b 9d6d 22be 41f4 e43d
00000060: fb2e f1bc 6109 c4be 929e 1abf a1f0 d8bd
00000070: 02d2 1a3e 768d c9be f2e2 8b3f 2c49 46bd
00000080: bf87 533e c172 8d3f 0357 eebe 856e 5f3d
00000090: 8ec2 db3d 3fb7 b7be 274e 153f 0e65 24bf
000000a0: d9c9 87be 1acc 19be 5194 19bd 957c 2ebd
000000b0: 18e4 263f 65ee a9bd 2646 613d 715c 9e3e
000000c0: 265d c5be ef23 f4bd e36c dbbc 693a d7be
000000d0: 4458 2fbe d20b 15be c529 c33e b8ed 5a3e
000000e0: bd19 0c3f d318 65bd 581c 0abc 11d9 d63e
000000f0: d5df 663e fd40 d83e fcc7 173f 458e 4fbe
00000100: a170 23be fd47 6c3e 4606 b53e 73d0 2e3e
00000110: 78dc 883f 0c07 433f 510c e4bd 42af 16bd
00000120: 2c53 a4be 4412 1bbe 4f02 32be 2009 123f
00000130: d727 3c3f b745 f6bd c39b cf3e 4d62 b73e
00000140: cef9 bd3e 47d6 2e3e 8547 82bd 92f3 103f
00000150: 0a77 8d3d fe71 863e bfda 01be 6f05 973e
00000160: e4c0 36bd ee75 69bd b626 d63f bfd6 c03d
00000170: bb91 ef3e 8c27 eebe fd9f 843e e7e5 debd
00000180: 4166 873e 41bd dd3b 2c31 f53e 791e f63e
00000190: 42d9 bd3e fb1b 73be 1000 e2be 798e a83e
000001a0: 0b16 173e 5200 8abe fcb3 80be a04c 2e3f
000001b0: c327 a23e 7377 24be 4fcc 843e 9231 993e
000001c0: 2899 113e b1d3 a1be 696e 5bbe e2d6 9abe
000001d0: db33 0d3e b339 773f 3d7e 1f3d 766b 593e
000001e0: 5a68 18be ed01 fb3e a4a5 0f3e 7ce3 ec3e
000001f0: 126d ae3e 966b babe 3f08 e33c dd1a 273d
00000200: 5e90 c2be adf7 82bd 9625 ab3d 8dff a03d
00000210: 0fff c0be b845 30be ad70 63be 9d92 d63d
00000220: d8d7 923d 5539 02bf 0b6d 083e 237b f6bd
00000230: aa32 433e 9a35 14be 7182 d3bd 4836 cfbd
00000240: a043 a8be d9ed 16be 5337 e6bc 353d b2bd
00000250: 28f0 5bbd b18b 9d3e 1b3c 8a3e 95cd b1be
00000260: 8d31 733b 2566 683e 6f85 d9be bbac 333e
00000270: 7802 0dbf 4d5f 31bd f357 cdbe 6955 223e
00000280: 7dea e23c 2aeb 29bf e1b6 5fbd 94be 31be
00000290: af15 0bbf c44d d53d 75d9 25bf 3275 a0bd
000002a0: b08d 93be 0650 a8be caa5 ac3d 8340 64be
000002b0: 901d 7ebd 1c2b 153e f013 00bd 992c dcbe
000002c0: 0eed 29be 3460 b23d f693 16bc a14d 0ebf
000002d0: ab89 95be ca77 1b3e 6873 483e cef3 abbe
000002e0: 0183 b4be 4e86 7f3d 0eda fabd d62c 10bf
000002f0: fc9c a2bd 8ab8 61be eb2a cdbe a807 44bd
00000300: 5886 f0bd 0432 02bf 9b8c cabe c8db 21bf
00000310: 5adc 31bf f507 4fbf 2d76 783e 3896 913e
00000320: b8fc a13e b13b debd 97c5 15bf 6f3c e2be
00000330: 4061 9ebe 5655 fcbd fe35 183d ef50 abbd
00000340: a65f 1abe 0a68 493e 7a42 493e 44a6 4cbd
00000350: 538c 863d 7334 5cbd 9d1a bbbb 0533 39bf
00000360: a868 a9bc c148 323e 12e9 cabe d45f b5bd
00000370: 497f 29be a2ac b8bd b90b 613e cc36 9a3b
00000380: afc0 b5be 97a1 cdbe c1c0 8abe ba3c c6be
00000390: 5cd6 96be de86 81be e30a 7cbe 5f1d 20bd
000003a0: 7afa d5bc 7869 ca3d 40d2 d7be 0a74 21bf
000003b0: 4481 01bf 7652 0cbd 908c e7be 0693 26be
000003c0: af6b 84b8 7080 aabe 0a1e 9cbe 1923 453e
000003d0: fda8 00be b57c 2abe c6bf 17bd 4e0a 4e3d
000003e0: 0d22 9a3d 044e d43c 4c76 f3be 00b5 82bc
000003f0: 4ef1 36be cd2d 7e3c 4de5 a5bd e9c1 253e
0.1217067 0.099122114 -0.052772366 0.034397624 -0.13427472 0.5188347 1.0685902 0.45511216
-0.03739451 0.82608247 -0.044935044 0.35559368 -0.011363646 0.23724209 0.14006065 0.3799957
-0.39571154 0.10259977 0.5228504 -0.2637511 -0.13866395 0.0067770854 -0.15862127 0.111794
-0.029441347 -0.38288406 -0.6039821 -0.10592771 0.15119174 -0.3936574 1.0928633 -0.048409626
0.20657252 1.1050645 -0.4655076 0.05454876 0.10730468 -0.35881993 0.58322376 -0.642167
-0.26521185 -0.15019265 -0.03749496 -0.04259928 0.65191793 -0.08297423 0.05499854 0.30929902
-0.3854763 -0.11920916 -0.02678532 -0.4203675 -0.17123514 -0.1455529 0.38117805 0.21379745
0.54726774 -0.055931877 -0.008429609 0.41962484 0.22546323 0.42237082 0.59289527 -0.20269115
-0.15960933 0.23074336 0.3535635 0.17071705 1.0692282 0.7618263 -0.11135162 -0.036788233
-0.32094705 -0.15143687 -0.17383693 0.57045174 0.7349829 -0.12025016 0.40548524 0.35817185
0.37104648 0.17073928 -0.063612975 0.5662166 0.069074705 0.26258844 -0.12681101 0.29496333
-0.04461755 -0.056997232 1.6730564 0.094159596 0.4679087 -0.46514547 0.2590331 -0.10883694
0.264452 0.0067669456 0.47889078 0.48070124 0.37079817 -0.23741142 -0.44140673 0.32921198
0.14754502 -0.2695337 -0.25137317 0.6808567 0.3167096 -0.16061191 0.25937125 0.29920632
0.1421858 -0.3160682 -0.21428837 -0.30242068 0.13789313 0.9657242 0.03893875 0.212324
-0.14883557 0.49024907 0.1402803 0.46267307 0.3406759 -0.36410207 0.027713893 0.040797103
-0.38000768 -0.06394897 0.08356778 0.078612424 -0.37694594 -0.17214096 -0.22210951 0.10477183
0.07170075 -0.5086873 0.13322847 -0.12035205 0.19062296 -0.14473572 -0.10327614 -0.10117775
-0.32864094 -0.14739169 -0.028102553 -0.087030806 -0.053695828 0.3077064 0.26998982 -0.3472716
0.0037108392 0.22695215 -0.42484614 0.1754636 -0.5508189 -0.043303777 -0.40106162 0.15852894
0.027699703 -0.66374457 -0.054617766 -0.17357856 -0.5432996 0.10415223 -0.6478494 -0.07834853
-0.28819036 -0.32873553 0.08430059 -0.22290234 -0.06203991 0.14567226 -0.031269014 -0.43002775
-0.16594335 0.087097555 -0.00919055 -0.555872 -0.29206595 0.15182415 0.19575274 -0.33584446
-0.35256198 0.062383942 -0.12248622 -0.56318414 -0.07940099 -0.22043052 -0.40071806 -0.047858864
-0.11744374 -0.5085757 -0.39560398 -0.63225985 -0.69476855 -0.80871516 0.2426383 0.2843492
0.31638122 -0.10851229 -0.58504623 -0.44186732 -0.3093357 -0.12320964 0.037160866 -0.08365046
-0.1507555 0.19668594 0.19654265 -0.04996325 0.065697335 -0.053760957 -0.0057099597 -0.72343475
-0.020679787 0.17410566 -0.39630944 -0.088561684 -0.16552462 -0.09017302 0.21977128 0.0047062393
-0.35498568 -0.40162346 -0.27100185 -0.38718206 -0.29460418 -0.25298208 -0.24613528 -0.03909051
-0.026120413 0.09883398 -0.42152596 -0.63067687 -0.5058787 -0.03425833 -0.45224428 -0.16267022
-6.314308e-05 -0.33301115 -0.30491668 0.1925167 -0.12564464 -0.16649134 -0.037048124 0.050302796
0.07526026 0.025916107 -0.4755119 -0.015955448 -0.17865488 0.015513849 -0.08100376 0.16187252

feature.weight_ih_l0_reverse f4 [512, 64]
00000000: 58fc 863f 8ff0 d1bb 53a5 9c3d 23ef 97be
00000010: b4e1 3c3e 0b69 42bf 252a 7e3f 0e99 263e
00000020: f1fc 273f bb6c 123e e900 863e af0c 7cbf
00000030: 5208 503f 97d6 1cbf 04fa 0a3f dade 98bf
00000040: 15dd ecbd 605f 023f 59fa 263f a589 773e
00000050: 4d13 7d3f 292a 06bf 7e44 74be b653 65bc
00000060: ef13 c9be 6981 423f 2fb6 80bf 3cef a83d
00000070: 965b b43e c52a 1fbf d3b0 903f 5bb6 213e
00000080: b863 e93f 2a0b 3a3d 730a 57bf dacb 2a3e
00000090: 7896 b53e 3a9c 843e 48a5 9cbf bbe2 373f
000000a0: 5bc7 1fbe 789f b1be ce78 053e 0430 84bf
000000b0: 5078 8abf 31f8 54bf cb54 a73e 7458 3fbf
000000c0: 4c54 3c3f cd26 0dbf 4f4b d1be 0610 1040
000000d0: 6476 c43e 6026 0e3f f951 013f 0c21 853f
000000e0: 9559 813f b3ef 303f d8cf d6be fe7d 5e3f
000000f0: b586 ccbd 82b5 d1bf a228 be3e 783b f5be
00000100: 6f29 4b3f 32bf 4abd 0b0e aa3d 7003 fc3e
00000110: e448 873e 3981 c4bd f202 36bf 0d37 43bf
00000120: c3af f43b 5a29 5fbf 4db8 483e 2c07 943e
00000130: cbb3 9cbd b24a 1bbf 82fd 09bf 7738 a0be
00000140: cf83 423e b42d bdbe 326d 9f3e 47bd fc3e
00000150: bcdb 9dbe 3f79 0ac0 9d08 363e e141 aabf
00000160: a4e3 3cbf bb8c eebe 302c 63be 0a2f 983e
00000170: dc0d 753d 4315 573e de62 133f 5bd6 7ebf
00000180: 634b 2fbf 6047 4bbf 0b71 bd3f f86a 703f
00000190: d3eb cf3d 9bca 523b 440a 48bd c4a9 c4bd
000001a0: 90d4 1e3f a9f5 1dbc b3ad 463f 4b9e 5dbe
000001b0: a8ea 5bbf da5a 693f dd3c 21bf 98d8 313e
000001c0: c74a 83be a803 513f 2c50 db3e c582 12bf
000001d0: 731a 80be 2ade 693f 8fd6 93be fe53 903f
000001e0: 3e8d 0dbf ddef ebbe 31ad 1d3d 5767 e9be
000001f0: 2e1d 86be fa24 88bf a1f9 14bd 145f 58be
00000200: c5ea 183e 03ec eb3e 5cb7 e2be 0d4b b5be
00000210: 01ed 2f3f ab37 1abf b8ef 17bf 481d aabd
00000220: 0fac dbbe afd3 113f ab99 793e c099 1dbf
00000230: d2d6 b93e f581 80bf 8acd 9cbe a6d0 19bf
00000240: 5ea8 8b3e 122f 99be 1000 a2bf a275 023f
00000250: f036 cdbe cb86 29bf a352 e83e d1a2 12bf
00000260: b86d 21bf 2346 e93e 3e94 cdbe e691 bc3e
00000270: 512b 08bf 3e8e 95be 67c2 6cbe 2c67 4a3f
00000280: e976 50bd 8b02 b33e 43da a1bd 6e6c 44bf
00000290: 94e6 143f 759e e2be 1e0e f2be 35da 09be
000002a0: 5cfb 603f 9f7c ac3e fb9c 70bd a160 12bf
000002b0: a26c 06bf 8106 0dbe 24e3 86bf e657 aa3e
000002c0: c417 09be db81 0abf 7fc6 233f 1abd 89be
000002d0: 3ece 04bf e3ab 64be 866b 8d3d aa8b 0f3f
000002e0: 91cd a5be de88 823f 7442 45be 2bc9 853e
000002f0: 3329 5abe 7871 cbbe c1e1 6dbf 1c9e 5a3f
00000300: b4b7 82be ed8f f33d 8129 a5bc 53e0 1a3f
00000310: e504 b8bd d8d0 3dbe b6db 93bf 85f8 19bf
00000320: 44c9 ddbc 5f86 51bf 0734 963d 2dc9 8ebc
00000330: ad2d c63e ac69 a63e 3a41 1ebd cf13 b2be
00000340: 5ce4 293d e85d 753f 21bd 9c3e 66eb 3fbd
00000350: 6bba 98bf fa2f 883d 4248 833e ff4e 89bd
00000360: 2b3b a33d ee1b 74bd 715e 033e e45a 87be
00000370: 8fd3 19be 8193 19bf c656 6f3e fc73 54bf
00000380: fe25 5fbe 236f 1abf 24ee 163f 05bf 443f
00000390: 0d6d bebf 355b 92bd a75e a1be 9d8a 24bf
000003a0: cb70 4fbe 0cb5 b63e 8dec b73e 41a2 703c
000003b0: 0a4f 54be d866 803f d9da 0b3e ae21 813e
000003c0: dd36 023e f85c 353f 05cd e0bd 4c38 503b
000003d0: ce7e 8fbf 81c6 32be 7813 fd3e e5e4 513f
000003e0: 2ce3 2ebf 61c4 ccbe a6d5 593f 62ac 153e
000003f0: 561c 3a3f 37f8 243f 00b6 57bf cb50 60bf
1.0545759 -0.0064068506 0.076487206 -0.29674634 0.18445474 -0.7594153 0.9928306 0.16269323
0.6562033 0.1429929 0.2617257 -0.98456854 0.81262696 -0.6126494 0.54287744 -1.1943009
-0.115656056 0.5092678 0.6522575 0.24173601 0.98857576 -0.5240808 -0.23854253 -0.013997009
-0.3927302 0.75978714 -1.0055598 0.08248755 0.35226125 -0.62174636 1.1303962 0.1579222
1.8233557 0.045420803 -0.8400032 0.16679326 0.3546636 0.2590044 -1.223794 0.7183034
-0.15603392 -0.34691978 0.13034365 -1.0327153 -1.0817966 -0.8319121 0.3268188 -0.74744344
0.73566127 -0.5513733 -0.40877768 2.250978 0.38371575 0.55527306 0.50515705 1.040071
1.0105463 0.6911575 -0.41955447 0.86911 -0.09986631 -1.6383517 0.37140375 -0.47896934
0.793601 -0.049498744 0.0830346 0.49221373 0.264228 -0.0959496 -0.71098244 -0.76255876
0.0074672415 -0.8717247 0.19601555 0.28911722 -0.0765148 -0.6066085 -0.5390245 -0.3129308
0.18995593 -0.3694893 0.31137997 0.49363157 -0.30831707 -2.1636503 0.17776723 -1.3301355
-0.7378485 -0.46591744 -0.22184825 0.29723388 0.05982767 0.21004204 0.57572734 -0.9954583
-0.68474406 -0.79405785 1.4800123 0.9391322 0.10152402 0.003216422 -0.048837915 -0.09602693
0.62043095 -0.0096410895 0.77608794 -0.21642415 -0.8590493 0.91154253 -0.62983495 0.1736778
-0.25642988 0.81646204 0.42834604 -0.5723079 -0.2502018 0.9135462 -0.28874633 1.1275632
-0.55293643 -0.4608144 0.038495246 -0.45586655 -0.26194137 -1.0636284 -0.036370877 -0.2113002
0.14933307 0.460785 -0.44280517 -0.35408822 0.68721014 -0.6024119 -0.59350157 -0.08306366
-0.42904708 0.5696363 0.24375026 -0.6156273 0.36296707 -1.003966 -0.30625564 -0.60084
0.2727689 -0.29918724 -1.2656269 0.50960743 -0.40080976 -0.662213 0.45375547 -0.5727969
-0.6305804 0.45561323 -0.40152162 0.36830062 -0.53191096 -0.29210085 -0.23121034 0.7906368
-0.05089465 0.34962878 -0.07902958 -0.7672795 0.58164334 -0.44261518 -0.47276396 -0.13462146
0.87883544 0.33688828 -0.05874346 -0.57178694 -0.5250951 -0.13772012 -1.0538068 0.33270186
-0.13387972 -0.54104394 0.63974756 -0.26902086 -0.518772 -0.22331195 0.06905274 0.56072485
-0.32383397 1.0198019 -0.19263631 0.2613004 -0.21304779 -0.39735007 -0.929226 0.85397506
-0.2553078 0.11892686 -0.020161392 0.6049854 -0.089853086 -0.18536699 -1.1551425 -0.60144836
-0.02707351 -0.8184566 0.07334142 -0.017429912 0.38706723 0.32502496 -0.038636424 -0.34780738
0.041477546 0.95846415 0.30613044 -0.046855353 -1.193189 0.06649776 0.25641066 -0.067045204
0.0797027 -0.05959695 0.12828995 -0.26436532 -0.1502211 -0.599907 0.23372945 -0.8298948
-0.21791837 -0.6032583 0.58957124 0.7685397 -1.487703 -0.071463026 -0.31517527 -0.6427401
-0.20257871 0.35685003 0.3592266 0.014687122 -0.20733276 1.0031385 0.13657703 0.25221008
0.12716241 0.70844984 -0.10976604 0.0031771837 -1.1210573 -0.17458536 0.49428916 0.8198989
-0.68315387 -0.39993575 0.85091627 0.1461654 0.7269949 0.64441246 -0.84262085 -0.8762328

feature.weight_hh_l0_reverse f4 [512, 128]
00000000: 94da 7e3d 5a82 33be 0bed 3c3f 094a 403e
00000010: df0e 483e 8e0e 15bf d4b4 99be 78af c6be
00000020: 8c15 063f 6e99 ebbe 92ac 62be 73ab 60bf
00000030: 5967 003f e354 473e e941 44be acf7 cb3e
00000040: 538f fbbd b6f2 e7bd aa62 91bc d8b2 f2be
00000050: 973b 9d3e 312a d93d 04d1 9bbf ed11 0fbd
00000060: 4dd4 583d c414 a23c 4fc1 86be a5ef 593e
00000070: eeaf 4fbf 7136 e93d 7ce9 f83e 2aed 9f3e
00000080: bafe 1dbe cce8 513f 92a1 933f a767 a53e
00000090: dde0 ed3c 4e9a 1fbe acc4 c33e 8282 49bf
000000a0: 3f07 05be 90dc b43e 0727 0b3f 67dd 08be
000000b0: c0c0 cebd 1955 833e 2033 8c3f 40d6 2bbe
000000c0: 7b1b d93e 2e31 dfbd dcee df3d e802 8dbe
000000d0: 99ac d73e 01c4 623e 8b1e a53c 1d0c 853f
000000e0: 7f5d 563e 81ed e0be 2dd5 933f aefa acbe
000000f0: 33f2 f83b ed6f d3bd 73af cf3e 82ad 19bf
00000100: 20ef f4be 8c72 6abf 2377 013e a98e b8bd
00000110: 01d1 743f 474d 87bd 924d 683e 1450 543e
00000120: 6f50 2e3e 8754 0f3f 69b1 763f 433f 1dbd
00000130: 833d 993e e868 073e 6196 60bf 8f72 7fbf
00000140: 4efc ba3e 0d87 323e 9dae 413f d9c5 a13e
00000150: 44f3 0abc 4148 413f 7587 193f 7b73 173d
00000160: d139 1d3e 908d 953f bba1 3dbf 77e1 2f3e
00000170: 5757 cb3e d12a 54be e4ae 833e 0e09 343e
00000180: 90d1 3c3f 5b48 acbe 4f38 49bf a444 1a3f
00000190: b193 f9bd b6ec bbbe e431 0cbe 8d6d a4bf
000001a0: bcfa a1bf c468 01bf 6dc8 5bbf 5616 34bf
000001b0: 4ac7 cc3e bbd3 f83e 3513 1d3e d8bb bcbe
000001c0: e30b 29bd 6320 ab3c 3622 f9be 3b37 5abf
000001d0: af05 ae3e 0168 bb3b 2831 b2bd dcc2 b63f
000001e0: fda4 ff3e c920 a93e bfec 41bf b30c e13e
000001f0: 3622 583e b715 6c3d 389e f2be e02e 1fbf
00000200: c2d0 52bf 406c 443e f216 1b3f d34e d5be
00000210: 9554 c5be de38 3cbe a589 2d3e 490a cebc
00000220: b9f9 533f 065b d63e af03 223e 4921 39be
00000230: 777e 02bf f77c 1abf a7fa a0bd 3228 a4bc
00000240: e754 b8be e95e b13e c18b 063e 5ad0 ebbe
00000250: e457 123f 2072 543d 96cb d6be 0107 31be
00000260: 3e9e 813e ce60 b0bf 3df6 93be c2ee b43d
00000270: 73fd 29bf 9f23 4b3f 5a76 433f 57f4 ec3e
00000280: 42d6 20bf 47db 5b3f 18be 3fbf 784c 943d
00000290: 9c8a 7e3f d0d8 62bf c907 f0bd 2496 53bf
000002a0: 7eca 2fbc d103 13be 2bf7 fd3e 1611 8cba
000002b0: b82d b63e 672e 803e bf9b 6bbe b858 b2bd
000002c0: a4d1 88bf a316 963e 9110 6a3e 0751 2cbf
000002d0: 46f0 83be 2cde 913e 2fdd 7f3d 5136 863d
000002e0: 1311 3ebe 3def 6e3b 20c5 bfbe 569b fb3c
000002f0: e4f5 11bf e04f f1be 1501 69be 318e a0bf
00000300: 4516 75be ca3d 47be 4789 c53e 15be 58bd
00000310: 53fe d93c 28a2 46be 09fc b23d bc50 70bc
00000320: 97bd 133f 00a2 123f 1557 18be afaa da3e
00000330: a776 b93e 4d82 893e 400a dd3d b4bd e23d
00000340: 892b 75be cc65 c83e b817 0a3e 422a fdbd
00000350: 8977 b3be 50d7 d93c 11b6 d0bf a241 893f
00000360: 11f1 a1be c4a2 1d3e d595 29bf c2f4 2fbf
00000370: 261d 8ebe a92b 3a3f 197e 9dbf ed37 d9be
00000380: b139 b93f 334d b03e e935 eb3e b7d9 bf3e
00000390: 4bbf 533f 55b9 593f 4efd b6be baa3 883e
000003a0: 0be4 053f 5422 f1bd fddc fb3e 3a07 b0bd
000003b0: e47f 803e 3f74 533e e081 20be 22a1 183f
000003c0: a7d8 c0bd d3fe f8be 4e7a 80bf 98b1 f8bf
000003d0: b2a8 9d3e 2eda be3d 7ab0 a7bc 4084 19bf
000003e0: 9d82 96bd 03d6 303f d185 353e 956a 3d3f
000003f0: 4b38 d7be 63a3 eb3d cb3a a9be 9516 94bf
0.06222017 -0.17530194 0.737992 0.18778242 0.19536923 -0.58225334 -0.30020773 -0.38805747
0.5237663 -0.46015495 -0.22136143 -0.8776161 0.50157696 0.19465975 -0.19165768 0.39837396
-0.12283196 -0.1132559 -0.017747242 -0.47402072 0.30709526 0.106037505 -1.2173162 -0.034929205
0.05293684 0.019785292 -0.26319358 0.21282823 -0.8112782 0.11387337 0.48615634 0.3123563
-0.15429202 0.81995845 1.1533682 0.32305643 0.029037887 -0.15586206 0.38235986 -0.78714764
-0.12991045 0.35324526 0.54356426 -0.13365708 -0.10095358 0.25650862 1.0953102 -0.16780949
0.42403778 -0.10898052 0.10934231 -0.2754128 0.4212387 0.22145082 0.020156166 1.0394322
0.20934103 -0.439312 1.1549431 -0.33785003 0.007597232 -0.103240825 0.40563545 -0.60030377
-0.47838688 -0.91581035 0.12643103 -0.09011585 0.95631415 -0.06606536 0.2268584 0.20733672
0.1702287 0.55988353 0.96364456 -0.03839041 0.29929742 0.13223612 -0.8772946 -0.9978418
0.36520618 0.1743433 0.75657064 0.31596258 -0.008480851 0.75500876 0.59972316 0.036975365
0.15354086 1.1683826 -0.74074906 0.17175852 0.39715073 -0.20719458 0.25719368 0.17581579
0.73757267 -0.33648953 -0.78601545 0.6026099 -0.12186373 -0.36704034 -0.13690907 -1.2845932
-1.2654643 -0.50550485 -0.858527 -0.7034658 0.39995795 0.48599038 0.15339358 -0.36862063
-0.0412711 0.020889467 -0.48658913 -0.85240525 0.3398871 0.0057191853 -0.08700782 1.4278216
0.49930564 0.33032826 -0.7575187 0.43955 0.211068 0.057637896 -0.47386336 -0.621809
-0.8234979 0.19181919 0.60581887 -0.416617 -0.38541093 -0.18381068 0.16947038 -0.025151389
0.8280292 0.4186632 0.15821718 -0.18079104 -0.5097422 -0.6034693 -0.07860308 -0.020038698
-0.36002275 0.34642723 0.1313925 -0.46057397 0.5716536 0.05186665 -0.419522 -0.17287828
0.25316042 -1.3779542 -0.28898802 0.08834602 -0.6640236 0.7935123 0.76352465 0.46280167
-0.6282693 0.85881466 -0.74899435 0.07241148 0.9943025 -0.8861208 -0.11720235 -0.8265097
-0.01072943 -0.14356925 0.49602637 -0.0010686244 0.35581756 0.25035402 -0.23008631 -0.08708328
-1.0688977 0.29314145 0.22857882 -0.6731114 -0.25769252 0.28489816 0.062466796 0.06553329
-0.18561201 0.0036458515 -0.37455082 0.030713718 -0.57015824 -0.47131252 -0.22754319 -1.2543393
-0.23934276 -0.19457164 0.38581297 -0.05291565 0.026610529 -0.19397795 0.08739478 -0.014667686
0.57711166 0.5727844 -0.14876969 0.42708346 0.36223337 0.26857224 0.10792971 0.11071339
-0.23942389 0.39140165 0.1348561 -0.12361576 -0.35052136 0.026591927 -1.6305562 1.0723155
-0.31629232 0.15394121 -0.6624425 -0.68732846 -0.27756613 0.7272287 -1.2304107 -0.4242548
1.4470731 0.34433898 0.45939568 0.3747079 0.82713765 0.8504842 -0.3574013 0.26687413
0.5230109 -0.11774126 0.49192038 -0.08595128 0.25097573 0.20649813 -0.15674543 0.5962087
-0.09416323 -0.48631915 -1.0037324 -1.9429197 0.30792767 0.09318958 -0.020469893 -0.5996742
-0.07349131 0.69076556 0.17726828 0.73990756 -0.42035136 0.11505773 -0.33052668 -1.1569391

feature.bias_ih_l0_reverse f4 [512]
00000000: 290e 903e fa36 103e a076 af3c 2f21 64bd
00000010: a2bc 833e 5a82 cd3d 4dea 183e 8645 b93e
00000020: b544 bc3d b5c6 1e3e dbad 5bbd aef3 45be
00000030: e5dc 2abe 3703 9abd 9c8d 3b3f f447 d7bc
00000040: 7559 a33d 3c49 5f3e 4143 9bbe 05b7 ac3d
00000050: b85d 373d eb3d 8ebe 89ac 00be 4626 12be
00000060: 09cc 433f 2c9a 103f 5e06 cc3d 9aaf 373d
00000070: 97fe 05be c455 883d 9caf b03e 3d96 85be
00000080: 2d31 1f3e 37c3 10be 518a b63e 0a9f 0ebe
00000090: 53de 883f 0677 a73e 8e71 d03e 931b 6cbe
000000a0: f91e 453e fbbb 14be 5a1d e5bd 5b99 083c
000000b0: 44b2 f83c e07a 9bbc 88ef b1be 23e5 273e
000000c0: d535 313e 1642 09be 532f 913e a9df 363e
000000d0: dfd7 903e 1f17 b63e 5a8d a6bd cf3e 8b3e
000000e0: 380d c83d 1f8f a23b 5403 aa3e bfef 52bd
000000f0: 8111 563e 6803 d43e d82e 07bf e319 523e
00000100: 317e 1abe bd99 1b3e 8378 173d fa3e 98bd
00000110: 1285 613e 9182 b7be edf4 6e3e 69c1 e6bd
00000120: 629f db3d 9398 713e 58c2 95be 3ef6 72be
00000130: 33f8 503e 9d11 623e 8964 813e ea19 713e
00000140: d00f 923e 680f a9be 6999 193d f28e 453d
00000150: 55d5 9f3e f832 313e 922f 7b3d e0db 043f
00000160: c9cc a2be b697 f2bd 4920 493e 4ae8 503f
00000170: 6a9a ea3d 2646 1bbe 6b77 e4bd 358e 54bd
00000180: fa8b bc3e 2635 8cbc 23ec b13d 20e4 f6bd
00000190: 00ca ce3e d3e4 b33e 27c9 193c 7ea3 21be
000001a0: 192f c33e b959 ac3e 5f91 133f ac4a 863e
000001b0: b3d9 173d 42ce debd 5eb0 d03e b8ca cd3e
000001c0: f920 95be b326 163f dec8 263f b4a3 bd3e
000001d0: b509 5fbe bb87 66be 2297 333e d942 363e
000001e0: 1710 ffbd c372 84be 2a51 aa3d 8247 523e
000001f0: f249 8a3e d4f7 cf3e 281d 71be 1eab 853a
00000200: deb8 50bf 8927 80be 081a 713e 1db9 3c3f
00000210: 1e95 dbbd 25e8 56be 585a 7c3e c95b bbbe
00000220: 11c4 273e 00ba 703e 9bde 023e 0e0e 1abd
00000230: 34ae 38be e8c2 c8bd 453d 15bf 01dc 03be
00000240: 924a b63e c723 ae3d 6877 acbe 22d5 27be
00000250: eade 73bd 9c95 873f 5664 ae3e cefa 48be
00000260: fad3 1e3f 7a22 103d a9a2 45be 0b38 4bbe
00000270: 06e6 c3be 0197 cc3e a9a3 eb3e ddc7 71bd
00000280: 2a51 6a3d 8a34 a6bd 9bb5 9f3e 7fcd 9a3d
00000290: 002d 1cbf 0d12 a73e 6606 0d3f e55d 8cbe
000002a0: a48f 9d3e 4c6a bf3d 3fae 0c3e 3566 243e
000002b0: 5cfe 40be ebb4 d3be edd1 c63e b1bb 80be
000002c0: 595a b93d a890 c93c 8a5a 8b3e 4195 1fbf
000002d0: ab33 d43d c933 0a3e c000 613f eb05 bebe
000002e0: 258f 8b3e ca83 5a3d efe1 42be d2af cebd
000002f0: e954 203f 37f9 09bf 1082 863d 44c6 97be
00000300: 99dc f6bd d6f8 ccbd eb2f 53be 59ed e03b
00000310: 9040 88be d33a 09be 94f2 703c 9ff1 563c
00000320: 90c1 ee3e b897 0abf 1af4 1d3f b68f 2e3e
00000330: 80ec 1d3e a0b6 3c3f a573 57be 6801 c93d
00000340: 7e47 1e3f 025a 0e3e f487 413e 2e29 7e3c
00000350: 7235 0a3f eba8 2abe ed9b efbd 5b3c 033f
00000360: 234b a53e 879b c93e 72a5 693c 47a4 23bf
00000370: 2935 23bd b17d 8bba ee0f 563d 02f7 38bd
00000380: bf7a f7bd 384c 30bd cf47 15be 2e85 5a3c
00000390: eb18 55bd 4bbc a3bd 6e22 6a3e 1fa7 293f
000003a0: bf46 9cbe 4735 dd3d b2cd 0cbf 32b5 ec3e
000003b0: ed3b 213f 260c 633d f0b0 5f3e a429 9c3e
000003c0: 8702 0e3f 07ab b6be 3486 05bf 2ccf 57be
000003d0: 8b72 88be e992 b13e d7c5 f5bc c225 423e
000003e0: b1bc eabe 8ce8 c1bd 7b0b 1dbe 0247 a73d
000003f0: f377 bcbe 3314 b6be c1f8 9a3e 1785 383d
0.28135803 0.14083472 0.02141887 -0.05569571 0.25729853 0.10034628 0.14933129 0.36185855
0.09192792 0.15505488 -0.0536326 -0.19331238 -0.16685827 -0.075201444 0.73262954 -0.026279427
0.07976047 0.2180528 -0.30324748 0.08433346 0.04476711 -0.27781615 -0.12565817 -0.14272413
0.7648321 0.5648525 0.09962152 0.0448452 -0.130854 0.066569835 0.3450898 -0.26091185
0.15546103 -0.14136969 0.35652402 -0.13927856 1.0692848 0.32707995 0.40711635 -0.23057394
0.19250096 -0.14524834 -0.11187239 0.008337344 0.030358441 -0.01897949 -0.3475306 0.16396002
0.17305692 -0.13404116 0.28356418 0.17858757 0.28289697 0.35564515 -0.081324294 0.27196357
0.09768146 0.004960909 0.33205664 -0.05149817 0.20905115 0.4140885 -0.5280585 0.20517687
-0.150872 0.15195365 0.036980163 -0.07433887 0.22023419 -0.35841802 0.2333562 -0.11267359
0.10723759 0.23593359 -0.29249835 -0.23726746 0.2040718 0.22077031 0.25272015 0.23545042
0.2852769 -0.33019567 0.03749982 0.048232026 0.31217447 0.173046 0.061324663 0.51898
-0.31796864 -0.11845343 0.19641222 0.81604445 0.114552334 -0.15163478 -0.1115559 -0.05189343
0.36825544 -0.017115187 0.08687618 -0.1205523 0.4038849 0.35135517 0.009386337 -0.15785024
0.3812187 0.33662203 0.57643694 0.26228845 0.03707285 -0.10879184 0.40759557 0.40193725
-0.2912672 0.586528 0.6515025 0.37038958 -0.21781047 -0.22512715 0.17538121 0.17798938
-0.12454241 -0.25868806 0.08316262 0.2053509 0.2700954 0.40618765 -0.23546278 0.0010198092
-0.81532085 -0.25030163 0.23545086 0.7371996 -0.10721801 -0.20986994 0.24643838 -0.36593464
0.16383387 0.23508453 0.1278023 -0.03761106 -0.18035203 -0.098028004 -0.58296615 -0.12876894
0.35603768 0.08502918 -0.3368485 -0.16389897 -0.05953876 1.0592532 0.34060925 -0.19626924
0.620422 0.03518913 -0.19300331 -0.19845597 -0.3826143 0.39958957 0.460233 -0.059028495
0.05720631 -0.0811549 0.3119324 0.075587265 -0.61006165 0.3263096 0.5508789 -0.27415386
0.30773652 0.093464464 0.13738345 0.16054614 -0.1884703 -0.41348967 0.38832036 -0.25143197
0.090504356 0.02460511 0.27217513 -0.6233712 0.103614174 0.13496317 0.8789177 -0.3711389
0.27257648 0.05334834 -0.190315 -0.10092129 0.6262956 -0.53895897 0.06567776 -0.29643452
-0.120537944 -0.10008399 -0.20623748 0.0068642315 -0.26611757 -0.13401346 0.014706273 0.01311913
0.4663205 -0.54137754 0.61700594 0.17047009 0.15422249 0.73716164 -0.21040209 0.09814721
0.6182784 0.13901523 0.18899518 0.015512748 0.539878 -0.16666 -0.11699662 0.5126397
0.32283887 0.3937647 0.014260637 -0.6392254 -0.03984562 -0.0010642317 0.052261285 -0.04515744
-0.12083959 -0.043041438 -0.14578174 0.013337417 -0.052025717 -0.079948984 0.22864696 0.6627063
-0.30522725 0.108011775 -0.55001366 0.4623199 0.62982064 0.055431508 0.2184484 0.3050052
0.55472606 -0.35677359 -0.521579 -0.21075124 -0.2664989 0.34682396 -0.030001564 0.18959716
-0.45847085 -0.09468183 -0.1533641 0.081678405 -0.36810264 -0.35562286 0.3026791 0.0450488

feature.bias_hh_l0_reverse f4 [512]
00000000: 17b2 d83e d9d6 183e 5b1e 1e3d c426 9bbd
00000010: 46cf 483e d8a9 e7bd 520d ca3d 0c0b 0e3f
00000020: e828 3c3e e193 0b3e fea6 07bd d1b7 5fbe
00000030: bc7e 14be ca33 34be 6ee0 3d3f 58bc 0cbe
00000040: a747 533e 65d1 223e 7e02 a2be df8a 013e
00000050: dcfc 323e 2bda b8be 857b 90bd 6864 57be
00000060: 8972 2a3f 235c 143f 252e a43d 43bc 3fbd
00000070: 511c 4fbe 520a b43d d668 a43e 09ec d8bd
00000080: 087b 803e 9bf2 63bd 8194 ad3e c1dc 49be
00000090: 3fe7 8a3f e644 893e def7 063f e0dd a7be
000000a0: 2b3d ea3d 1495 f7bb c929 42be 3b6d 843c
000000b0: 4b02 163e d561 c2bd 060f c9be 24da 143e
000000c0: 26ff bc3d e429 19be 6397 8e3e 29ab 073e
000000d0: a273 873e 5ffa a93d de32 cebd 351a 4f3e
000000e0: 16f4 093e 7093 003e 2185 663e 7133 e6bd
000000f0: e1e8 a43e 2ca7 a33e a00a e2be 00b1 a03e
00000100: 3325 21be 9aa8 753e 260c 1e3e e945 a53d
00000110: 460d 8a3e 22a6 5ebe 0470 753e 6515 90bd
00000120: c43f 113d ef0f 643e 4cb7 85be 3189 6bbe
00000130: f86b ba3e 101d 193e d963 843e a21d 673e
00000140: a66e f93d 7df9 9abe 35e0 913d efcb 823c
00000150: c3a6 343e 63d6 353e ba46 a3bd 0c9a 003f
00000160: fdce 66be d7d1 babd 170e 933e 6a8a 4d3f
00000170: e815 a13d 3967 febc 91df c6bd 32a9 b73c
00000180: b486 d63e 07e5 38bd 3af7 d33d 4975 41bc
00000190: 5d67 ef3e eb3e 773e 273b 443d 5f86 55bd
000001a0: 2227 0f3f a776 ad3e d9fa 093f 38c6 913e
000001b0: 08f4 17bc 7d74 08be cc1a c53e 55fb d93e
000001c0: 111a bcbe 0e8d 0b3f 3dae 3e3f a0ed c83e
000001d0: d988 1bbe c1c8 38be 4692 583e 7b37 ffbb
000001e0: 8e4e 76be 969e 53be b0f2 38bd 59c1 243e
000001f0: e461 793e 985c e43e e1d0 8fbe 40c9 b83d
00000200: 9bce 61bf 2b6a 43be d414 ff3e fe8e 353f
00000210: 6f39 7b3c ea27 9abe 4849 463e 2214 c1be
00000220: f1b5 4a3e a5d2 913e bbdb 3c3d 9b22 a5bd
00000230: 9ecd 97be e453 06be 6fda 22bf 9dae 83bc
00000240: 2805 973e fac7 063e 7eb5 d6be e508 11be
00000250: 9850 9c3d fd42 8e3f c2c3 ac3e c8f5 58be
00000260: b772 413f 268e a03d 46a6 80be 9931 c0be
00000270: 7ce5 a5be c8a5 013f d738 ec3e e9b4 583d
00000280: 5862 87bc 3015 b1bd 8c60 7d3e d743 bc3d
00000290: 08e8 eabe 0fa2 ea3e efc6 0f3f 6958 70be
000002a0: 01c2 563e 6a5a 9f3d 0875 fa3d 7a44 6f3e
000002b0: 59f3 34be 1192 e4be fda7 e53e ce9b 88be
000002c0: d0b4 983d 38db fcbd 111d 503e 7241 debe
000002d0: c1d0 193e 82d6 3c3e c0ee 543f 9511 a1be
000002e0: 1916 8e3e 5401 90bd 3469 acbe b369 54bb
000002f0: d2b6 283f 79ab 0ebf 910f 83bd 25b8 b1be
00000300: b774 8bbe fbed c2bd 0ae1 e6bb 9c25 c13d
00000310: c060 38be da0e d6bd 072b 873c abea 19bc
00000320: cfae 053f 3777 f2be 0829 063f 1eae 823e
00000330: 0e85 6e3e 8117 4b3f 4b70 54be 172f 903d
00000340: 6b0f 273f 623b 643e 03c3 863e 36f0 263c
00000350: 1598 f63e 90b4 82be 0fc8 3bbe ecdb 0e3f
00000360: c76e ca3e 8422 ed3e fb98 6bbb f8f6 13bf
00000370: 5515 223e b7cd d33d fa68 41bc d0cf 14be
00000380: e8c8 5cbe d017 08bd 0a48 d5bd d5c5 5a3d
00000390: 8743 b23c 94d3 da3c eef6 303e 034c eb3e
000003a0: 824a 1fbe b3c2 153e 1e4e 19bf 924f b33e
000003b0: 4a45 e43e 9001 533d f933 8d3e a2e5 bd3e
000003c0: d61b 063f 50b0 c4be f429 0abf 019f b3be
000003d0: 142c 99be 88e0 843e edd2 51be e4b6 bd3d
000003e0: d71d d9be 3ea0 32be 7356 cebd dea7 41b9
000003f0: d41d 5bbe 71ff c8be fdbd 553e 277c dabb
0.42323372 0.14925708 0.038603168 -0.07575753 0.19610319 -0.11311692 0.09865822 0.55485606
0.1837498 0.1363063 -0.03311824 -0.21847464 -0.1450147 -0.17597881 0.7417058 -0.13743722
0.20632802 0.1590019 -0.31642526 0.12650631 0.1747927 -0.3610395 -0.070548095 -0.21034396
0.66581017 0.5795309 0.08016614 -0.0468104 -0.20225646 0.08791031 0.32111233 -0.10591895
0.25093865 -0.05565129 0.33902362 -0.19713117 1.0851821 0.26810378 0.52721965 -0.32786465
0.11437448 -0.0075556133 -0.18961252 0.016165366 0.14649312 -0.09491316 -0.39269274 0.14536339
0.09228353 -0.14957386 0.27849874 0.13248886 0.26455408 0.082997076 -0.10068296 0.20224841
0.13472018 0.12556243 0.22511722 -0.112402804 0.32208923 0.3196348 -0.4414873 0.3138504
-0.15736847 0.23990098 0.15434322 0.08069975 0.26963252 -0.21743062 0.23968512 -0.07035331
0.035461202 0.22271703 -0.26116407 -0.23001553 0.364105 0.14952493 0.25857428 0.22569898
0.12179308 -0.3026847 0.07122842 0.015966384 0.1764174 0.17757563 -0.079724744 0.50235057
-0.22539897 -0.09122055 0.28721687 0.8028933 0.078655064 -0.03105508 -0.09710611 0.022419546
0.41899645 -0.045140292 0.10349889 -0.011807748 0.46758547 0.24145095 0.047907975 -0.0521301
0.55919087 0.33879587 0.5389839 0.2847154 -0.00927449 -0.13325687 0.38497007 0.42574564
-0.36738637 0.5451211 0.74484617 0.39243793 -0.15188922 -0.18045332 0.21149549 -0.007788596
-0.24053404 -0.20665964 -0.04515332 0.16089381 0.24353749 0.44601893 -0.2808905 0.090227604
-0.8820588 -0.19083469 0.49820578 0.70921314 0.015333517 -0.30108577 0.19363892 -0.37710673
0.19795968 0.28481022 0.04610799 -0.08063241 -0.2964906 -0.13117939 -0.63614553 -0.016074473
0.2949612 0.13162223 -0.41935343 -0.14163549 0.076325595 1.1114193 0.337431 -0.21187508
0.75565666 0.07839613 -0.25126857 -0.3753784 -0.32401645 0.5064359 0.46137115 0.052906904
-0.016526386 -0.08646619 0.24743861 0.09192627 -0.4588015 0.45826766 0.56162924 -0.23471226
0.20972444 0.07780917 0.12229353 0.23365965 -0.17670955 -0.4464269 0.44854727 -0.2668137
0.07456362 -0.123465 0.20323588 -0.43409306 0.1502104 0.18441203 0.83176804 -0.31458727
0.27751234 -0.07031503 -0.33674014 -0.0032411634 0.6590396 -0.55730397 -0.063994534 -0.34710804
-0.27237484 -0.095180474 -0.0070458697 0.094310015 -0.18005657 -0.104520515 0.01650001 -0.009394328
0.5221986 -0.4735658 0.5240636 0.25523466 0.23292944 0.7933274 -0.20745961 0.07040232
0.652579 0.22288278 0.26320657 0.010189107 0.48162904 -0.25528383 -0.18338035 0.55804324
0.3953764 0.46315396 -0.0035949338 -0.5779872 0.1582845 0.10341971 -0.0118048135 -0.14532399
-0.21561015 -0.033225834 -0.10414131 0.053411324 0.021760715 0.026712216 0.17281696 0.4595643
-0.15555766 0.14625053 -0.5988482 0.35021645 0.44584113 0.051515162 0.27578714 0.37089258
0.52386224 -0.38415766 -0.53970265 -0.35082248 -0.2991644 0.25952554 -0.20490618 0.09263399
-0.42405578 -0.1744394 -0.10075083 -0.0001846845 -0.21398097 -0.39257386 0.20873256 -0.006667632
