pretrained_models/comick-65-context-size.pth (torch, 821283 bytes, 10 tensors)

feature.weight_ih_l0 f4 [512, 64]
0.7794911 0.07819874 0.5472716 1.2577951 0.70703155 -0.7721062 -0.9208623 0.9701582
0.6069877 -0.7422544 0.8529815 -0.12547024 -0.28698713 0.097018376 0.7527489 2.0369408
0.25517753 -1.0319499 0.7683519 -0.10890855 0.40219972 -0.5686808 -0.16407844 -0.75216657
-0.03376141 0.5676997 0.07652039 0.786062 -0.27783862 -0.28277907 -0.3807899 -0.459803
-0.3367841 -0.1282705 0.5613312 -0.41392124 -0.37339488 0.20230666 0.103073485 -0.29533184
-0.5142228 1.3488349 0.29017204 0.61657643 0.7272357 0.07057412 0.64080536 0.0012637315
-0.52692264 0.94322693 -0.78151846 0.23855379 -0.15142292 0.23188435 -0.06664164 0.2750676
-0.14165059 0.6169059 0.52958995 -0.70810014 0.49564776 -0.60526294 0.07712009 -0.29406404
1.1106998 0.20526344 1.287723 0.3115193 -0.7462932 0.1838759 0.17849739 -0.59473526
-0.0008836981 -0.4261927 0.095695436 0.76245224 0.56384623 0.1224881 1.1257876 0.32553446
-0.5182719 -0.43576404 0.13680667 0.4616631 0.48141155 0.97355014 -0.12340738 -0.4306076
0.17349057 0.35034317 -1.3759997 -0.15431692 -0.4984727 -0.35454804 0.1340005 -0.20124431
0.9292952 -0.50422156 0.3426205 0.076239444 -0.523941 -0.45478332 0.9666172 0.32625088
-0.10444513 0.5048419 0.43520683 1.3700649 1.0877322 0.66815454 0.7991949 0.04770341
1.3696423 0.00019716122 -0.051786486 0.9485657 -1.4201585 -0.13273142 0.09271342 0.24777907
1.0584301 -0.13239388 -0.802474 0.17279068 0.66993445 -0.3659318 -0.65499145 -0.502945
0.50790364 0.86558837 -0.17267245 -0.10011354 -0.46145013 -0.7542781 -0.038631465 0.15396607
0.11800403 -0.22150695 -0.10785908 0.28278488 -0.55226016 0.49099353 -0.187156 0.5981324
0.50152546 -0.9908903 -1.2207887 0.48043352 0.064001575 -0.8994124 1.7306694 1.0949353
0.5714595 -0.58709705 0.48036847 -0.28153935 -0.66037303 -1.1348225 -0.12964861 -0.04262565
0.27336633 0.10206329 -0.03003921 0.30837053 -0.8765516 -0.2183479 -0.3420742 0.93709415
0.118028894 -0.5607293 -0.17733803 0.32918853 -0.30528346 -0.40655068 -0.16857393 -1.0619245
-0.41328815 -0.6894478 0.45530885 0.20231591 0.6482277 1.2119867 -0.48283008 0.31138876
0.14443694 -0.54433924 1.0049957 0.060403004 0.03546139 -0.32706898 -0.25119802 -0.24356417
0.26074767 -0.6600049 -0.3304408 0.16833846 0.69182897 0.3921421 0.27852103 -1.9724946
0.53624016 0.17865935 -0.3325466 0.0072450074 -0.25660378 0.75381 0.46668503 0.5615229
-0.087824576 -0.34874827 0.44611648 0.5678794 0.12908308 0.3383452 0.61726654 0.13767031
-0.07259331 1.329185 0.029118538 0.08043998 -0.38195887 -0.33159348 0.15267025 -0.13299611
-0.80392313 0.14632949 0.06497883 0.17933494 -0.9754779 0.16672525 0.91639906 -1.0796949
0.29162624 0.8447033 0.076711826 -0.34917802 1.0563736 -0.17001553 -0.27131817 0.18596318
0.43298677 -0.5585564 -0.2522387 -0.03544381 -1.1910594 -0.2122414 -0.10437509 0.8340024
-0.52724874 0.06565502 -0.08025753 -0.8838962 0.9117403 -0.27385512 -0.602009 -0.36726314
00000000: bb8c 473f a926 a03d fe19 0c3f 6eff a03f
00000010: 0500 353f c0a8 45bf a2bd 6bbf 4a5c 783f
00000020: 8c63 1b3f 6204 3ebf ff5c 5a3f 457b 00be
00000030: faef 92be 92b1 c63d 27b4 403f 3d5d 0240
00000040: a1a6 823e ef16 84bf b6b2 443f 720b dfbd
00000050: 1fed cd3e 1195 11bf 2e04 28be fd8d 40bf
00000060: 6749 0abd c454 113f b9b6 9c3d 5c3b 493f
00000070: dd40 8ebe 6bc8 90be e5f6 c2be 4c6b ebbe
00000080: f76e acbe 5859 03be 67b3 0f3f 7ced d3be
00000090: 9d2d bfbe 7a29 4f3e 3118 d33d bc35 97be
000000a0: 1ba4 03bf 9fa6 ac3f 6e91 943e f4d7 1d3f
000000b0: 1e2c 3a3f 2a89 903d d20b 243f cba3 a53a
000000c0: 67e4 06bf 5277 713f 9811 48bf 7247 743e
000000d0: 9c0e 1bbe 1773 6d3e 6a7b 88bd a9d5 8c3e
000000e0: da0c 11be 8ced 1d3f 3593 073f 0d46 35bf
000000f0: 8bc5 fd3e 83f2 1abf 23f1 9d3d 908f 96be
00000100: 692b 8e3f 9430 523e 1bd4 a43f 757f 9f3e
00000110: 120d 3fbf f749 3c3e 05c8 363e 9240 18bf
00000120: faa7 67ba ee35 dabe f8fb c33d 1230 433f
00000130: 3a58 103f 0adb fa3d cf19 903f 74ac a63e
00000140: 78ad 04bf 771c dfbe 0c17 0c3e 1b5f ec3e
00000150: 937b f63e 953a 793f 02bd fcbd 9978 dcbe
00000160: 83a7 313e 2e60 b33e c220 b0bf 4105 1ebe
00000170: d037 ffbe 5287 b5be 6d37 093e fd12 4ebe
00000180: 4ae6 6d3f aa14 01bf f46b af3e 6d23 9c3d
00000190: ff20 06bf 5cd9 e8be 3a74 773f 5b0a a73e
000001a0: 54e7 d5bd 523d 013f 6ed3 de3e 495e af3f
000001b0: cf3a 8b3f 2d0c 2b3f 0998 4c3f a764 433d
000001c0: 7050 af3f 10bd 4e39 111e 54bd 34d5 723f
000001d0: c1c7 b5bf bfea 07be 89e0 bd3d ccb9 7d3e
000001e0: a37a 873f 4392 07be f06e 4dbf 0af0 303e
000001f0: d380 2b3f 6a5b bbbe 85ad 27bf 01c1 00bf
00000200: f905 023f 3397 5d3f 0cd1 30be 5408 cdbd
00000210: 3143 ecbe 5f18 41bf 073c 1ebd 48a9 1d3e
00000220: 19ac f13d b8d2 62be 39e5 dcbd 2ec9 903e
00000230: ec60 0dbf 8163 fb3e d3a5 3fbe 341f 193f
00000240: f963 003f fdaa 7dbf ce42 9cbf 62fb f53e
00000250: 4213 833d e43f 66bf 9386 dd3f d726 8c3f
00000260: 2b4b 123f fe4b 16bf dbf2 f53e ed25 90be
00000270: 350e 29bf dd41 91bf 9bc2 04be 3c98 2ebd
00000280: acf6 8b3e 8f06 d13d ca14 f6bc bee2 9d3e
00000290: b065 60bf 9896 5fbe 5924 afbe 67e5 6f3f
000002a0: 22b9 f13d f58b 0fbf 1a98 35be 668b a83e
000002b0: 1d4e 9cbe 6927 d0be a59e 2cbe 24ed 87bf
000002c0: 819a d3be a77f 30bf 3e1e e93e e72b 4f3e
000002d0: 40f2 253f 6122 9b3f 8135 f7be 596e 9f3e
000002e0: 47e7 133e d159 0bbf b3a3 803f 2469 773d
000002f0: f63f 113d 9675 a7be 079d 80be e368 79be
00000300: b880 853e 15f6 28bf 892f a9be eb60 2c3e
00000310: b41b 313f d9c6 c83e 4f9a 8e3e b47a fcbf
00000320: 0947 093f 7af2 363e 8c43 aabe 8767 ed3b
00000330: 9261 83be b1f9 403f 57f1 ee3e f7bf 0f3f
00000340: 5fdd b3bd 228f b2be 6169 e43e 8b60 113f
00000350: 5b2e 043e 953b ad3e 2e05 1e3f 72f9 0c3e
00000360: cdab 94bd bc22 aa3f 008a ee3c b7bd a43d
00000370: 1d90 c3be 9fc6 a9be 9755 1c3e 2230 08be
00000380: e8cd 4dbf 66d7 153e 9f13 853d 94a3 373e
00000390: ebb8 79bf 06ba 2a3e 2199 6a3f 7133 8abf
000003a0: 0950 953e 7a3e 583f 171b 9d3d 76c7 b2be
000003b0: 4037 873f 8d18 2ebe 37ea 8abe 226d 3e3e
000003c0: 71b0 dd3e 8dfd 0ebf 6e25 81be 872d 11bd
000003d0: a274 98bf cf55 59be 9bc2 d5bd 2e81 553f
000003e0: c6f9 06bf 2476 863d 0f5e a4bd 0547 62bf
000003f0: d067 693f bd36 8cbe 431d 1abf ea09 bcbe

feature.weight_hh_l0 f4 [512, 128]
0.58281124 0.08870324 -0.25485092 0.15181915 0.63271683 -0.2985205 -0.04312486 -0.670066
-0.88646096 -0.027489897 -0.8243488 0.029564155 -0.32512555 1.0112923 0.12449401 1.0316613
0.7048034 -0.44006333 -0.9136143 -0.4941578 -0.60304546 0.69079226 0.46324542 -0.5827976
0.23828954 -0.30861625 0.2868952 -0.35776117 -0.22120321 0.50009555 0.19915643 0.8197955
0.5004692 0.86449844 -0.37215135 -0.009655075 0.5180906 0.19183017 -0.40494624 -0.59402764
-0.96242756 -0.06482778 0.23623154 0.019224947 0.033124655 -0.084942006 0.1681463 0.20001017
-0.6143581 -0.8681057 0.35788295 0.1572389 -0.62953913 -0.8267681 1.0477268 -0.27376446
0.051614862 0.2774426 0.8684021 0.01812091 0.14668745 0.52344507 0.27653086 0.8298819
-0.09781659 0.046940666 0.08682431 -0.15203956 -0.067305095 -0.75444126 0.34272838 0.06980297
0.36817542 0.7424443 1.1383231 -0.070429094 0.41220203 -0.81319934 0.76237905 0.22597258
0.36967057 -1.162458 -1.3165392 -0.8810301 -0.2545948 0.893004 -0.027912991 0.035438523
-0.32046038 0.37783125 -0.43221882 0.038137194 -0.54274243 0.48373532 -0.11361805 0.51465183
0.12061702 0.45112038 -0.48322242 0.39939865 -0.28271034 -0.29990125 0.064606376 0.88108575
-0.683161 0.8009777 -0.5161085 -1.0533595 0.8228755 -0.42110384 -0.53170836 -0.018342508
0.35424024 -0.15688623 -0.29993758 -0.2518877 0.013198015 0.549022 -0.087833904 -0.6345578
0.1774114 0.06882513 1.0366353 -0.722372 0.044853214 -0.89002067 -0.22436835 0.34936485
-0.3910419 -0.07863682 -0.3981471 0.69066316 -0.5345647 0.09044014 0.19026479 -0.01135673
-0.31923857 -0.016088992 -0.21527892 0.65779805 0.027114473 0.12756161 -0.7654441 -0.6017001
-0.40507486 -0.63706785 0.42148286 0.47525114 0.2941677 0.64606804 0.35092938 -0.60401607
-0.03939835 -0.13034503 0.15332596 -0.10286144 0.5858429 0.32465225 -0.16334252 0.18677236
0.12856495 -0.1418924 -0.4120973 -0.4132702 0.14454456 -0.31836948 0.2808495 -0.53164977
-0.0004134655 0.2296199 0.6262892 -0.26389268 -0.26054692 -0.23976927 0.8462417 0.4226926
-0.0860045 0.07665372 0.59660023 -0.73852056 -0.54815084 0.29832658 -0.5243328 -1.030844
-0.46312737 -0.38329905 0.12159846 -0.50619805 0.0009995056 0.15337145 0.07728556 0.46576446
-0.13784672 0.13208522 0.6342101 -0.23933727 -0.43338406 -0.25180393 -0.78964615 -0.12039647
0.36644834 0.18267377 0.55542505 0.5476846 -0.17781597 0.19322257 0.39720416 -0.13556269
-0.41570488 -0.17883165 -0.5831861 0.20056596 -0.20332336 0.21625538 0.2664995 0.26447028
-0.34862766 -0.62081736 0.21431015 -1.0625689 0.5120932 -0.10856367 0.729212 -0.0056158397
-0.49929947 -0.3637013 0.5394064 0.5145239 0.5326044 0.4912912 -0.23445268 -0.5621854
0.14610653 0.9678496 -0.7696658 -0.6243692 0.3801811 -1.2477341 0.64020354 0.09696367
1.2083495 -0.89190656 -0.47041672 -0.601406 0.049099933 0.7917218 -0.13341112 -0.45348835
-0.029359607 -0.043751188 0.64473224 -0.008082961 -0.38637334 -0.37198702 -0.9172978 -0.22337618
00000000: 1e33 153f 0baa b53d d27b 82be 7b76 1b3e
00000010: bbf9 213f aed7 98be b1a3 30bd 7289 2bbf
00000020: 1bef 62bf 7e32 e1bc 8608 53bf 8730 f23c
00000030: db76 a6be 0772 813f b7f6 fe3d 7a0d 843f
00000040: ff6d 343f fb4f e1be a0e2 69bf 4002 fdbe
00000050: 3061 1abf c3d7 303f 812e ed3e 3932 15bf
00000060: 2c02 743e f302 9ebe ede3 923e 792c b7be
00000070: 1883 62be 4306 003f aaef 4b3e 1ede 513f
00000080: c01e 003f c54f 5d3f 9f8a bebe 5230 1ebc
00000090: 96a1 043f 216f 443e 1d55 cfbe 3212 18bf
000000a0: a761 76bf 6dc4 84bd aee6 713e a37d 9d3c
000000b0: b8ad 073d 13f6 adbd 8b2e 2c3e 77cf 4c3e
000000c0: 9346 1dbf 2d3c 5ebf 6f3c b73e 3c03 213e
000000d0: 7a29 21bf 13a7 53bf e91b 863f db2a 8cbe
000000e0: 1b6a 533d f50c 8e3e 9a4f 5e3f 4d72 943c
000000f0: 3c35 163e 7f00 063f 7495 8d3e 2473 543f
00000100: 1054 c8bd db44 403d f2d0 b13d 42b0 1bbe
00000110: 41d7 89bd 1023 41bf 187a af3e dcf4 8e3d
00000120: 7d81 bc3e d410 3e3f 92b4 913f 213d 90bd
00000130: 250c d33e d52d 50bf 462b 433f 5b65 673e
00000140: 7645 bd3e 6ccb 94bf 5b84 a8bf 308b 61bf
00000150: 405a 82be e99b 643f c9a9 e4bc fc27 113d
00000160: 6213 a4be 1973 c13e c94b ddbe bf35 1c3d
00000170: 2bf1 0abf 28ac f73e 95b0 e8bd 39c0 033f
00000180: 0e06 f73d 40f9 e63e ee68 f7be fb7d cc3e
00000190: 69bf 90be a88c 99be 5950 843d d68e 613f
000001a0: a4e3 2ebf e00c 4d3f b01f 04bf 7cd4 86bf
000001b0: f8a7 523f ec9a d7be 0a1e 08bf 0743 96bc
000001c0: fa5e b53e c9a6 20be 6b91 99be 6df7 80be
000001d0: 7d3c 583c b58c 0c3f 43e2 b3bd 6172 22bf
000001e0: 56ab 353e 31f4 8c3d 77b0 843f 5fed 38bf
000001f0: 01b8 373d 65d8 63bf d1c0 65be f3df b23e
00000200: a536 c8be 570c a1bd f0d9 cbbe 4dcf 303f
00000210: 3bd9 08bf ae38 b93d c6d4 423e 9411 3abc
00000220: 3d73 a3be 10cd 83bc 1472 5cbe 7465 283f
00000230: 2c1f de3c 839f 023e 25f4 43bf 0509 1abf
00000240: f965 cfbe e116 23bf 9acc d73e 1e54 f33e
00000250: 269d 963e b764 253f 04ad b33e cca0 1abf
00000260: 2a60 21bd 2b79 05be 7b01 1d3e 05a9 d2bd
00000270: cdf9 153f d238 a63e 4343 27be 4141 3f3e
00000280: 88a6 033e 3e4c 11be 6bfe d2be 2798 d3be
00000290: 7d03 143e 5301 a3be 81cb 8f3e 331a 08bf
000002a0: 66c6 d8b9 7b21 6b3e 7d54 203f f11c 87be
000002b0: 6866 85be 1386 75be 4ca3 583f 2a6b d83e
000002c0: 2123 b0bd a0fc 9c3d cbba 183f af0f 3dbf
000002d0: 9d53 0cbf 43be 983e ad3a 06bf b2f2 83bf
000002e0: 081f edbe c63f c4be 9d08 f93d 3296 01bf
000002f0: d801 833a 680d 1d3e e447 9e3d ae78 ee3e
00000300: b127 0dbe 5941 073e 985b 223f d414 75be
00000310: 84e4 ddbe 72ec 80be 4026 4abf 6d92 f6bd
00000320: 1e9f bb3e d50e 3b3e 5630 0e3f 0f35 0c3f
00000330: 6415 36be 23dc 453e 585e cb3e f2d0 0abe
00000340: 45d7 d4be a51f 37be af4b 15bf 2a61 4d3e
00000350: 0034 50be 0d72 5d3e 9f72 883e a668 873e
00000360: 537f b2be e3ed 1ebf 1f74 5b3e 4202 88bf
00000370: 8a18 033f a156 debd a3ad 3a3f 1405 b8bb
00000380: 2ea4 ffbe 0f37 babe 8a16 0a3f d7b7 033f
00000390: c358 083f 858a fb3e 5d14 70be 62eb 0fbf
000003a0: f39c 153e fec4 773f d108 45bf a9d6 1fbf
000003b0: 19a7 c23e c0b5 9fbf 61e4 233f e394 c63d
000003c0: 32ab 9a3f fd53 64bf 76da f0be bef5 19bf
000003d0: 031d 493d 48ae 4a3f ed9c 08be a02f e8be
000003e0: 8f83 f0bc 7234 33bd 2c0d 253f 656e 04bc
000003f0: bad2 c5be 1575 bebe 07d4 6abf babc 64be

feature.bias_ih_l0 f4 [512]
0.088796735 0.3664811 0.5796327 -0.04120855 -0.35879853 0.41002825 1.0910732 0.2160255
0.0092467265 -0.015123123 0.018933037 0.6900283 0.5463545 -0.24457861 1.09231 -0.18493474
0.5747917 -0.4214697 0.16226995 0.019675951 -0.10773754 -0.42642897 0.21555412 0.11002913
-0.24681008 -0.293628 0.42764306 0.33528924 0.24252015 0.0798676 0.6639868 0.019682674
-0.38007805 -0.32327268 0.14051084 -0.07719974 0.11842813 0.062329724 -0.062880196 0.1192741
-0.36114618 -0.24343303 0.3024586 0.2231234 0.03647715 -0.2757379 0.5170233 0.26233763
0.069091775 0.22080962 0.29835802 -0.44899723 0.13260384 0.8670912 0.011004159 -0.17103708
-0.1650193 -0.033738364 -0.22108574 0.031561416 -0.31575495 -0.213536 0.014154691 0.20762683
0.55562496 0.52748454 0.3049325 0.098817244 0.54406315 0.22865053 -0.11254559 0.65648067
0.40782312 -0.01129217 0.6033901 0.5063007 -0.336444 -0.09941916 -0.33377895 0.28286988
0.050487503 -0.14567295 0.055766735 0.41091004 0.26980585 0.25631124 0.6275875 0.13919097
0.83236074 0.031261433 0.27021012 0.880236 0.7895826 -0.09394094 0.7790043 0.33684155
0.40846887 0.086001754 -0.0045860414 1.1086373 1.201313 -0.022913907 -0.08139644 -0.14947093
0.030099884 0.1114299 -0.02856738 -0.19220582 0.09545079 0.08516779 0.7340423 0.027337536
0.1921467 0.10131617 0.22911988 0.84869456 0.32109034 0.36519212 -0.039651085 0.4482065
0.43977103 -0.26250377 0.36988848 -0.13532382 1.3497417 -0.17597334 0.5663965 0.29211575
-0.015660001 0.06849453 0.06825403 -0.18606178 0.26234895 0.111608036 -0.39038584 0.51980054
0.19976683 -0.6498743 -0.2618032 -0.16963512 -0.3410753 -0.67048746 -0.077944465 -0.024761148
-0.7665364 0.24666968 -0.4690818 -0.11233666 -0.08470689 0.21843304 -0.3198354 -0.31787804
-0.3304889 0.17338474 0.10277999 -0.29681316 -0.13589664 0.12322188 -0.07933032 -0.071221426
0.030430293 0.27575627 -0.15033294 0.00053943833 -0.13225028 -0.16965774 -0.31527123 -0.23154533
-0.36147282 0.14114548 -0.38142523 0.07777798 0.17258583 -0.22882763 0.24838762 -0.068192385
0.17240696 -0.43802932 -0.32096016 -0.47835392 0.008770278 0.26149926 0.17277879 -0.29049042
-0.3397959 -0.060975052 -0.09357293 0.25716063 -0.012574692 -0.3014074 0.14756562 -0.3343993
-0.6044799 0.41790462 -0.16650194 -1.0266825 0.23008156 -0.19178785 0.3676956 -0.5498406
0.086533576 -0.5548596 -0.3690299 -0.28266987 -0.19101372 -0.6920653 0.17204712 -0.07354549
0.65822464 -0.35885432 0.20659602 0.82127964 -0.23995136 0.21081358 -0.16391464 0.23789857
-0.40186188 0.03157969 -0.14939108 -0.814125 0.18313645 0.100167215 0.1485421 -0.64058286
-0.092887305 0.051650763 -0.6410749 0.2473455 -0.25853142 -0.046307456 0.05940375 -0.071936265
-0.30057812 -0.04306641 -0.38540423 0.3233117 -0.04424169 -0.45591354 -0.037352476 -0.21666671
-0.22595066 0.012730826 -0.00030037505 -0.32232603 0.41472533 -0.0351617 -0.08061843 -0.48819795
0.34442255 -0.2270215 0.47065562 -0.058136515 0.40374276 -0.50740856 -0.050549883 0.1819442
00000000: 10db b53d 69a3 bb3e cf62 143f 4cca 28bd
00000010: 71b4 b7be 39ef d13e 49a8 8b3f ca35 5d3e
00000020: 957f 173c fac6 77bc 7519 9b3c b2a5 303f
00000030: e3dd 0b3f d172 7abe d0d0 8b3f 885f 3dbe
00000040: 8d25 133f e0ca d7be 182a 263e 762f a13c
00000050: 80a5 dcbd e654 dabe 38ba 5c3e f456 e13d
00000060: c8bb 7cbe 6956 96be 08f4 da3e 08ab ab3e
00000070: 3457 783e a091 a33d 0afb 293f 8f3d a13c
00000080: 9799 c2be ff83 a5be 13e2 0f3e e61a 9ebd
00000090: 738a f23d 744d 7f3d 55c7 80bd fb45 f43d
000000a0: 27e8 b8be 8246 79be dbdb 9a3e 767a 643e
000000b0: 1069 153d 852d 8dbe a45b 043f 1e51 863e
000000c0: fd7f 8d3d eb1b 623e 62c2 983e f7e2 e5be
000000d0: 4dc9 073e b0f9 5d3f ca4a 343c 5824 2fbe
000000e0: d2fa 28be 3d31 0abd 4d64 62be 8b46 013d
000000f0: a2aa a1be 2ea9 5abe 14e9 673c 219c 543e
00000100: 703d 0e3f 3a09 073f 1d20 9c3e b260 ca3d
00000110: b947 0b3f 5d23 6a3e 4d7e e6bd 1e0f 283f
00000120: 31ce d03e cb02 39bc c677 1a3f ec9c 013f
00000130: 6342 acbe 469c cbbd 13e5 aabe 52d4 903e
00000140: fccb 4e3d 4a2b 15be a96b 643d cd62 d23e
00000150: fe23 8a3e 3a3b 833e 93a9 203f 1488 0e3e
00000160: 9815 553f fd0b 003d fb58 8a3e 2657 613f
00000170: 1622 4a3f 1c64 c0bd d36c 473f 7f76 ac3e
00000180: d522 d13e b021 b03d 8146 96bb d4e7 8d3f
00000190: a0c4 993f f2b5 bbbc 2db3 a6bd e80e 19be
000001a0: 0894 f63c 5c35 e43d 2306 eabc 9ad1 44be
000001b0: b47b c33d 736c ae3d 32ea 3b3f f8f2 df3c
000001c0: 1bc2 443e da7e cf3d 679e 6a3e 0c44 593f
000001d0: f465 a43e 76fa ba3e 2d69 22bd 537b e53e
000001e0: ab29 e13e e566 86be 0662 bd3e 5492 0abe
000001f0: 56c4 ac3f 5b32 34be 5cff 103f 3290 953e
00000200: 6749 80bc dc46 8c3d c5c8 8b3d fb86 3ebe
00000210: 9a52 863e c192 e43d a7e0 c7be a611 053f
00000220: ad8f 4c3e 2a5e 26bf 120b 86be d4b4 2dbe
00000230: 6ca1 aebe 11a5 2bbf 59a1 9fbd e4d7 cabc
00000240: bb3b 44bf fa96 7c3e 7d2b f0be c310 e6bd
00000250: ce7a adbd e9ac 5f3e 77c1 a3be e9c0 a2be
00000260: d735 a9be c58b 313e 517e d23d e5f7 97be
00000270: 7d28 0bbe c15b fc3d ef77 a2bd 8adc 91bd
00000280: f348 f93c ed2f 8d3e e1f0 19be 1869 0d3a
00000290: 9e6c 07be c2ba 2dbe 3b6b a1be 381a 6dbe
000002a0: f712 b9be 7188 103e 2b4a c3be 104a 9f3d
000002b0: 57ba 303e ca51 6abe 5359 7e3e 73a8 8bbd
000002c0: 738b 303e 6145 e0be e454 a4be ceea f4be
000002d0: 36b1 0f3c 3be3 853e ecec 303e 29bb 94be
000002e0: baf9 adbe fac0 79bd 2aa3 bfbd 8faa 833e
000002f0: 1506 4ebc 1252 9abe 711b 173e 6336 abbe
00000300: 32bf 1abf 98f7 d53e 7c7f 2abe 556a 83bf
00000310: 809a 6b3e 0964 44be 9942 bc3e 5bc2 0cbf
00000320: 8438 b13d 470b 0ebf 7df1 bcbe 1bba 90be
00000330: 1a99 43be 312b 31bf 1f2d 303e 059f 96bd
00000340: 6981 283f c1bb b7be e88d 533e 623f 523f
00000350: cfb5 75be 84df 573e 3dd9 27be af9b 733e
00000360: d7c0 cdbe b459 013d faf9 18be 7f6a 50bf
00000370: 1f88 3b3e 7824 cd3d 6c1b 183e 3dfd 23bf
00000380: b33b bebd c08f 533d 7c1d 24bf 2448 7d3e
00000390: 3b5e 84be e3ac 3dbd 5951 733d 5253 93bd
000003a0: 60e5 99be 6766 30bd b453 c5be 1c89 a53e
000003b0: c636 35bd 806d e9be e9fe 18bd e1dd 5dbe
000003c0: 9c5f 67be f494 503c a87b 9db9 eb07 a5be
000003d0: e156 d43e b705 10bd 471b a5bd 15f5 f9be
000003e0: 2758 b03e 5378 68be c6f9 f03e 8e20 6ebd
000003f0: 5fb7 ce3e 87e5 01bf 650d 4fbd 954f 3a3e

feature.bias_hh_l0 f4 [512]
0.08025174 0.25910616 0.65875596 0.025634194 -0.37146357 0.32121927 1.0331976 0.09470674
0.01353644 0.014554909 0.026601098 0.7658991 0.5166476 0.021798205 1.0305271 -0.18215258
0.63926095 -0.426499 0.13590373 0.08352977 -0.13655993 -0.17171463 0.14906576 0.29029393
-0.26990396 -0.1457954 0.30731502 0.1945555 0.388262 0.1385628 0.6621532 -0.10126716
-0.2283702 -0.3403301 0.13583411 -0.101160094 0.22230342 0.066321075 -0.14005181 0.04257616
-0.30409756 -0.12974213 0.34585384 0.112109065 0.052882984 -0.26158822 0.6181332 0.2395638
0.121254824 0.15389349 0.36796868 -0.5233673 0.088274956 0.9213439 -0.10135169 -0.078835696
-0.09502923 -0.16469425 -0.16731218 0.124608725 -0.15159363 -0.27150106 0.035021164 0.15095706
0.59238136 0.5254608 0.3756152 -0.0287963 0.6154688 0.20707843 -0.12246351 0.5828735
0.21668859 0.1269634 0.5874207 0.43296114 -0.20157234 -0.00517794 -0.29759765 0.2977812
0.022910958 -0.09862125 -0.009794031 0.44171283 0.3781395 0.21944298 0.5734091 0.16682276
0.7917175 -0.0495502 0.17914645 0.9454657 0.7903388 0.0062616174 0.6668294 0.5947086
0.38906682 0.22432725 -0.035245277 1.0355935 1.0775818 -0.0005916886 -0.052745257 -0.2646425
0.03983052 0.28121272 0.07828321 -0.17012618 0.14922875 0.1131447 0.81773645 0.05431044
0.13374259 0.09824388 0.17262022 0.70792174 0.3118789 0.33606783 -0.11289277 0.49426568
0.44631785 -0.27124903 0.32369205 -0.07353639 1.2026025 -0.3212897 0.51960826 0.31195804
-0.04950401 0.09142181 0.019606398 -0.15746543 0.09529203 -0.03340274 -0.46000367 0.5436175
0.36847454 -0.67122525 -0.191426 -0.2890193 -0.27852467 -0.63868874 -0.13495524 -0.10709401
-0.7433665 0.14130823 -0.5334163 -0.116574414 -0.12448961 0.32490963 -0.18155324 -0.32542107
-0.33135557 0.10864726 0.13463348 -0.2656517 -0.123352714 0.17602701 -0.001485333 -0.029306704
-0.10286469 0.3993964 -0.060548987 0.10208781 -0.2395975 -0.2783893 -0.29082105 -0.2613548
-0.44281456 0.19548711 -0.26588047 0.0326018 0.23227118 -0.14461741 0.18612212 -0.018271973
-0.011312059 -0.42682716 -0.3474085 -0.4119785 0.07424448 0.3526089 0.17258364 -0.24872063
-0.32303387 -0.10320414 -0.07980424 0.2508438 -0.12713923 -0.42143866 0.18001756 -0.40856975
-0.5402343 0.26367494 -0.0056542126 -1.0515682 0.17169474 -0.17212115 0.19218941 -0.44173434
0.10151698 -0.55381125 -0.3205094 -0.20529428 -0.14620978 -0.7780218 0.3080294 -0.23138729
0.6801665 -0.29616407 0.07800543 0.8935208 -0.10736158 0.20142038 -0.22527848 0.27861997
-0.3381281 -0.056209728 -0.107391626 -0.7826288 0.09228742 0.17021696 0.21137357 -0.6691575
-0.23456083 -0.07788822 -0.63213336 0.114601664 -0.2044946 -0.18647794 -0.06481336 -0.17036097
-0.33974656 -0.17632636 -0.37987813 0.37486935 0.02966077 -0.57013613 -0.039842337 -0.14597073
-0.16447955 0.08163699 -0.039182834 -0.18751076 0.4449332 -0.10831046 0.008806208 -0.44838142
0.22171043 -0.1338619 0.4483897 -0.1464443 0.54272306 -0.5117338 -0.05648746 0.06571756
00000000: 065b a43d 90a9 843e 3ba4 283f cdfe d13c
00000010: 7930 bebe da76 a43e d23f 843f 9bf5 c13d
00000020: f2c7 5d3c b777 6e3c 8cea d93c f711 443f
00000030: 0443 043f 2692 b23c 50e8 833f 3586 3abe
00000040: 9ba6 233f 145e dabe 592a 0b3e a811 ab3d
00000050: 5ed6 0bbe f6d5 2fbe b2a4 183e 68a1 943e
00000060: da30 8abe 644b 15be 6558 9d3e 8f39 473e
00000070: 47ca c63e 68e3 0d3e df82 293f 2865 cfbd
00000080: e1d9 69be bf3f aebe 1918 0b3e 062d cfbd
00000090: 82a3 633e 58d3 873d be69 0fbe 5764 2e3d
000000a0: adb2 9bbe 1fdb 04be c113 b13e 7099 e53d
000000b0: d49b 583d e4ee 85be fa3d 1e3f 3650 753e
000000c0: 7354 f83d 4196 1d3e 6466 bc3e 66fb 05bf
000000d0: 80c9 b43d 32dd 6b3f 7a91 cfbd 9c74 a1bd
000000e0: af9e c2bd 9ca5 28be e253 2bbe dc32 ff3d
000000f0: 5c3b 1bbe 3002 8bbe 5a72 0f3d 7d94 1a3e
00000100: 4ea6 173f 9984 063f a350 c03e 38e6 ebbc
00000110: 5d8f 1d3f 5e0c 543e 26ce fabd 3337 153f
00000120: 9de3 5d3e b202 023e 3461 163f 15ad dd3e
00000130: fb68 4ebe b5ab a9bb b85e 98be c776 983e
00000140: c3af bb3c f0f9 c9bd 2577 20bc 2f28 e23e
00000150: 809b c13e a9b5 603e f0ca 123f 96d3 2a3e
00000160: 00ae 4a3f 27f5 4abd 2b72 373e 0a0a 723f
00000170: a553 4a3f 412e cd3b 55b5 2a3f d33e 183f
00000180: c433 c73e 0bb6 653e 5a5d 10bd 548e 843f
00000190: 33ee 893f 8d1b 1bba 690b 58bd 397f 87be
000001a0: 5425 233d 1dfb 8f3e f352 a03d 8f35 2ebe
000001b0: 6ccf 183e 69b8 e73d 2d57 513f a074 5e3d
000001c0: d1f3 083e 1634 c93d 5bc3 303e 5c3a 353f
000001d0: 97ae 9f3e 1511 ac3e 5334 e7bd 6410 fd3e
000001e0: c683 e43e 27e1 8abe f7ba a53e 3f9a 96bd
000001f0: e1ee 993f 1580 a4be 0c05 053f f7b8 9f3e
00000200: b7c4 4abd 5c3b bb3d 999d a03c 9e3e 21be
00000210: 7828 c33d 50d1 08bd 9a85 ebbe 842a 0b3f
00000220: b2a8 bc3e 6bd5 2bbf 2d05 44be 56fa 93be
00000230: c99a 8ebe 1b81 23bf b531 0abe 1b54 dbbd
00000240: 444d 3ebf 1bb3 103e f88d 08bf 91be eebd
00000250: 69f4 febd 8e5a a63e 18e9 39be 979d a6be
00000260: 70a7 a9be 7482 de3d 5cdd 093e 8003 88be
00000270: 59a0 fcbd 6d40 343e 81af c2ba 9d14 f0bc
00000280: b9aa d2bd af7d cc3e 3702 78bd 6a13 d13d
00000290: 0c59 75be 0b89 8ebe 7fe6 94be 4cd0 85be
000002a0: 97b8 e2be c62d 483e 7c21 88be 7789 053d
000002b0: 7fd8 6d3e 9616 14be cc96 3e3e 1baf 95bc
000002c0: 3756 39bc 1789 dabe 87df b1be d9ee d2be
000002d0: 7d0d 983d 2789 b43e c4b9 303e 9fb0 7ebe
000002e0: b264 a5be b15c d3bd 6870 a3bd 996e 803e
000002f0: c930 02be cfc6 d7be 8656 383e 0e30 d1be
00000300: cc4c 0abf 6700 873e f946 b9bb c999 86bf
00000310: bfd0 2f3e 8740 30be 4dcd 443e 012b e2be
00000320: 22e8 cf3d 93c6 0dbf cf19 a4be aa38 52be
00000330: 04b8 15be 702c 47bf 08b6 9d3e caf0 6cbe
00000340: 641f 2e3f d1a2 97be 50c1 9f3d c7bd 643f
00000350: 63e0 dbbd 2541 4e3e 67af 66be 47a7 8e3e
00000360: 201f adbe 2c3c 66bd 24f0 dbbd 5c5a 48bf
00000370: 3001 bd3d 5b4d 2e3e 5072 583e e84d 2bbf
00000380: b730 70be dc83 9fbd 7ed3 21bf 47b4 ea3d
00000390: 0867 51be 13f4 3ebe debc 84bd 1b73 2ebe
000003a0: 43f3 adbe e68e 34be 637f c2be e0ee bf3e
000003b0: 25fb f23c 71f4 11bf b831 23bd 5a79 15be
000003c0: 546d 28be 4b31 a73d 2e7e 20bd d202 40be
000003d0: 49ce e33e e0d1 ddbd ea47 103c 4092 e5be
000003e0: 0f08 633e 1813 09be 5693 e53e 7ff5 15be
000003f0: e6ef 0a3f fc00 03bf 655f 67bd ee96 863d

feature.weight_ih_l0_reverse f4 [512, 64]
-0.45401174 0.048131842 -0.65319407 0.15280485 0.06361495 0.73928326 -0.108091354 0.82214075
0.7525664 -0.53883904 0.0460327 0.45379087 0.74860615 -0.21056685 0.15614179 -0.39393657
-0.0050083855 -0.22266993 -0.30350694 1.4410088 -0.1899932 0.80861515 -0.19340369 -1.0392482
0.79436165 0.22989865 -0.6056038 -0.37901744 0.022065654 -0.2783966 -0.18450862 0.743658
0.4396789 -0.64539003 0.08014161 0.107089914 -0.07951725 -0.55737484 0.48141503 -0.33928356
0.27676904 0.03936643 -0.70343906 -0.36759695 -0.2146367 0.18942161 0.3746007 -0.15622905
-0.3107388 0.67291546 -0.097409114 0.39655483 0.24411115 -0.32209426 1.1233377 -1.588167
0.48823223 0.20402391 -0.14973666 0.7129175 -0.33630058 -0.31829944 0.24445625 -0.69091994
-0.12938164 0.3570455 0.75693756 -0.79802674 -0.25563145 0.45842555 -0.28927535 0.0080397595
0.48924974 -0.90790313 1.3497304 -0.46075955 -0.73090184 2.0123293 0.023541402 0.4031448
0.54572046 -0.5511332 0.51445025 -0.3175562 -0.9003356 -1.1490638 0.9980178 0.2427449
0.22648005 0.3017642 0.17201446 -0.39347532 -0.38570714 0.38350606 -0.86349624 0.6828791
0.76033896 -0.5445573 -0.41035712 1.3005111 0.45734298 -0.34036073 0.14884788 -0.12691313
0.81493634 -0.18586643 0.41966602 0.03129794 -0.16000308 -0.10545504 0.79449755 -0.50420946
0.28743437 0.019323735 -0.66056377 -1.3944925 0.07950652 -0.04896043 -0.3365932 0.28221753
-0.24172483 0.6022848 -0.100791946 1.1490142 0.2909527 0.59428835 -0.2919429 -0.35725564
0.5494231 -0.3386393 -0.31614348 -0.69530094 -0.033694815 -0.6869819 -0.4842952 -0.7342999
-1.354267 -0.35790527 0.24217843 0.11157274 -0.7603065 0.47863328 -0.731336 -0.5499355
-0.46861023 -0.17904672 -1.0153731 -0.67046213 0.6022699 -0.36195004 0.15631878 0.010135297
-0.37297377 -0.56150466 1.1270933 -0.43685848 0.7999099 -1.0602282 -0.6091793 1.7525867
0.6675691 0.8302322 0.10491039 -0.8990415 -0.18546635 0.041204743 -0.33188504 1.3309693
-0.035707004 -1.4038244 -0.106235415 0.5686027 1.6776458 -0.014514942 -0.21270794 -0.009937941
0.16077186 -0.057497103 0.31058306 0.9598225 0.00746367 0.81986564 1.2137256 -0.26857466
0.34981063 0.15729564 0.25360486 -0.12507457 0.49557674 0.5166671 -0.33706057 -0.6553969
-0.004999286 0.48628482 -0.036728434 -0.021886539 -1.2101018 -0.49436525 1.0283141 0.05024403
-0.079736434 0.21575373 0.20944205 1.3210847 -0.10294068 0.005395651 -0.33307296 0.019159751
0.044608142 0.7095692 -0.048788514 0.61519945 -0.47953767 0.6891712 0.23278219 -0.24780701
0.6909292 -0.7033493 0.24468428 -0.035373695 0.26989555 0.1624212 -0.058545336 0.96790606
0.05997851 0.6410774 -1.4317741 0.512353 -0.09967276 -0.7223572 -0.30752838 -0.82819086
-0.06618523 0.7955868 -0.73974633 0.9413461 -0.7164059 0.080823 -0.13641556 0.8725598
-0.4839311 -0.70149434 0.4197376 -0.6514631 0.9060807 -0.7272502 0.69619393 -0.17103784
-0.198857 0.7747289 -0.8296364 0.056628812 0.20091313 -0.42153242 -0.027334215 0.3002293
00000000: 3a74 e8be e525 453d ba37 27bf e078 1c3e
00000010: 8e48 823d ab41 3d3f 005f ddbd d177 523f
00000020: 31a8 403f 5bf1 09bf c98c 3c3d 4757 e83e
00000030: a7a4 3f3f d69e 57be a2e3 1f3e 0eb2 c9be
00000040: 621d a4bb 9603 64be 4365 9bbe fa72 b83f
00000050: 948d 42be 6701 4f3f 9e0b 46be 1606 85bf
00000060: 495b 4b3f 8d6a 6b3e da08 1bbf 930e c2be
00000070: 08c3 b43c 008a 8ebe d4ef 3cbe 5f60 3e3f
00000080: 981d e13e 4838 25bf 4921 a43d f551 db3d
00000090: f1d9 a2bd 1eb0 0ebf 087c f63e 93b6 adbe
000000a0: acb4 8d3e b23e 213d 9514 34bf ab35 bcbe
000000b0: b9c9 5bbe bdf7 413e aacb bf3e 82fa 1fbe
000000c0: 2819 9fbe 3044 2c3f 6e7e c7bd 3c09 cb3e
000000d0: 46f8 793e 8ae9 a4be 88c9 8f3f 0e49 cbbf
000000e0: 93f9 f93e a5eb 503e 9154 19be c381 363f
000000f0: 972f acbe 25f8 a2be bd52 7a3e 21e0 30bf
00000100: 9f7c 04be abce b63e a9c6 413f 7b4b 4cbf
00000110: 20e2 82be c1b6 ea3e e61b 94be 32b9 033c
00000120: f17e fa3e 576c 68bf f7c3 ac3f ade8 ebbe
00000130: 621c 3bbf 01ca 0040 e6d9 c03c ff68 ce3e
00000140: 56b4 0b3f 1117 0dbf 03b3 033f ba96 a2be
00000150: 657c 66bf 8614 93bf 187e 7f3f 1e92 783e
00000160: 63ea 673e d680 9a3e 8f24 303e 9975 c9be
00000170: 687b c5be e85a c43e 170e 5dbf 2ad1 2e3f
00000180: 93a5 423f 1b68 0bbf 541a d2be 2677 a63f
00000190: dc28 ea3e c343 aebe 946b 183e 84f5 01be
000001a0: ab9f 503f c553 3ebe 77de d63e 4532 003d
000001b0: d9d7 23be d0f8 d7bd 3164 4b3f df13 01bf
000001c0: 992a 933e cf4c 9e3c b51a 29bf bb7e b2bf
000001d0: 50d4 a23d bb8a 48bd f255 acbe d17e 903e
000001e0: b786 77be 562f 1a3f 026c cebd e612 933f
000001f0: c1f7 943e 4823 183f 8a79 95be 36ea b6be
00000200: fea6 0c3f 2162 adbe 8fdd a1be 3eff 31bf
00000210: 9303 0abd 0cde 2fbf 8af5 f7be 14fb 3bbf
00000220: 9f58 adbf 5c3f b7be 9ffd 773e 4080 e43d
00000230: 72a3 42bf 6c0f f53e d638 3bbf 93c8 0cbf
00000240: aeed efbe 0658 37be bff7 81bf 68a3 2bbf
00000250: 5c2e 1a3f 8451 b9be 0812 203e 840e 263c
00000260: 6bf6 bebe c5be 0fbf 9844 903f eaab dfbe
00000270: e5c6 4c3f 8fb5 87bf 2df3 1bbf c354 e03f
00000280: cfe5 2a3f 198a 543f 42db d63d 9527 66bf
00000290: e4ea 3dbe 4ec6 283d d6ec a9be 345d aa3f
000002a0: 8241 12bd 85b0 b3bf f491 d9bd f28f 113f
000002b0: 19bd d63f 14d0 6dbc 1cd0 59be bfd2 22bc
000002c0: 61a1 243e 1582 6bbd be04 9f3e edb6 753f
000002d0: cd91 f43b b7e2 513f 5c5b 9b3f 9e82 89be
000002e0: 611a b33e 1c12 213e 7fd8 813e 8c13 00be
000002f0: 3cbc fd3e 4c44 043f 3493 acbe 17c8 27bf
00000300: 0dd1 a3bb 53fa f83e 8e70 16bd 664b b3bc
00000310: 9ee4 9abf 711d fdbe cc9f 833f afcc 4d3d
00000320: db4c a3bd 8cee 5c3e fa77 563e 4e19 a93f
00000330: 90d2 d2bd 00ce b03b 8a88 aabe e9f4 9c3c
00000340: 07b7 363d 54a6 353f 77d6 47bd b67d 1d3f
00000350: f685 f5be 866d 303f 745e 6e3e 1fc1 7dbe
00000360: bce0 303f b30e 34bf 848e 7a3e 02e4 10bd
00000370: c02f 8a3e be51 263e 3ccd 6fbd b1c8 773f
00000380: 07ac 753d a61d 243f 6044 b7bf 9129 033f
00000390: 3b21 ccbd 67ec 38bf 5c74 9dbe 5104 54bf
000003a0: 1f8c 87bd 94ab 4b3f 0460 3dbf 0ffc 703f
000003b0: 6166 37bf 8786 a53d 85b0 0bbe 1460 5f3f
000003c0: d1c5 f7be 2295 33bf d9e7 d63e 49c6 26bf
000003d0: e8f4 673f 122d 3abf c439 323f 8b24 2fbe
000003e0: 2ba1 4bbe a254 463f 0d63 54bf 9df3 673d
000003f0: 2cbc 4d3e 19d3 d7be 01ec dfbc a8b7 993e

feature.weight_hh_l0_reverse f4 [512, 128]
-0.3248896 0.21041052 -0.43585896 0.8934753 0.5819129 -0.44753477 0.23256353 -0.15410092
0.7061077 -0.52977574 -0.8461219 -0.014722165 -0.8782682 -0.09436115 -0.021540508 0.7495841
-0.72599405 0.36897454 0.443916 0.30582425 -0.830148 1.173657 0.12167765 0.93000025
0.25448748 -0.11575861 -0.16303027 0.22234523 -0.44012317 0.29865462 -1.2723112 0.6651074
-0.1861982 0.4772494 -1.3248835 0.05180472 0.4925107 -0.20233597 -0.43168795 -0.40319854
0.75130904 0.46363166 0.062112544 0.05223897 -0.472694 0.02725677 0.50308263 0.007894415
0.59127825 0.8045365 0.5644399 -0.1072033 -0.682016 0.08949063 -0.025610324 0.15330671
0.55395365 0.56079096 0.872969 0.03297515 0.96378785 0.9741941 -0.44193465 0.16768147
0.40939027 -0.42472422 0.8476068 -0.12096705 -0.19786996 -0.25151774 -0.26318645 -0.7980262
-0.2290602 -1.0837923 0.22928452 0.58459526 -0.36040747 0.63954383 0.23430714 -0.11986145
-0.42661455 -1.3695451 -0.014949062 -0.10905474 0.83350146 -0.8792749 0.06621877 -0.22381906
0.34534484 -0.33067942 0.017223483 0.029849712 -0.58101255 -0.7028596 -0.16570579 -0.1417668
-0.13413154 -0.5809843 -1.5245996 0.34825677 -0.5340145 -0.43945011 0.45491046 0.42959613
0.7043101 -0.69648296 0.06489881 0.7064326 -0.025296504 -0.07519942 -0.20450258 -0.6604234
-0.031451244 -0.4395619 0.6463821 -0.20627546 -0.278713 0.15864988 0.6455654 -0.2250197
0.99835604 0.83324873 -0.26988736 -0.099251874 1.0309228 -1.0308557 -1.4351574 -1.3698528
-0.22454864 -0.27889103 -0.43570378 -1.1076453 0.3091556 -0.6774103 -0.056922995 0.030835625
0.6681383 0.3147451 -0.22855563 0.2329652 -0.36588457 0.41024143 0.7262282 -1.1171561
-0.03935315 -0.2619319 0.40724367 0.45802867 -1.2950373 0.2132251 -0.087994695 0.49494454
1.0994216 0.264542 -0.20133829 0.50720483 0.12591337 0.24196728 0.41865197 0.2654358
-0.30197766 0.66702306 0.5726253 -0.023573253 -0.035098072 1.3241537 -0.6453777 -0.4832079
0.10431391 0.20620215 -0.17046307 -0.02074636 -1.2335707 0.10965399 -0.34354457 0.28450292
0.021862678 -0.27759197 0.46719536 -0.45585164 -0.173869 -0.025299275 0.38040236 0.51278394
0.30117264 -1.0634568 0.5145584 -0.16233489 0.7465365 -0.2488341 0.436328 0.8321408
-0.04366313 0.22991008 -0.045117386 0.034026504 -0.50133383 -0.9543725 0.011212821 -0.560638
-1.4233987 -1.4035884 -0.86784506 0.8106399 -0.111673556 0.1405317 -0.7466913 0.18873654
0.08949596 -0.16496411 0.17137091 -0.27032983 0.25979605 -1.4061371 1.5565379 -0.6802451
0.14016736 0.7489185 0.0608706 -0.053289913 -0.05057095 -0.20181021 0.18303892 -0.6373331
0.24478745 -0.6368675 -0.2539471 0.38359788 0.23232812 0.6974059 0.59128475 0.017527478
-0.62226 -0.21327424 0.13975388 0.25598726 0.47023553 0.10694612 -0.43701485 -0.119877204
0.04498138 0.048637252 -0.87072796 0.14649525 0.29226148 0.629091 0.18701941 0.7779815
-0.6026739 -0.04016899 -0.44268477 0.32936165 0.28780016 0.14853953 -0.8379105 -0.45715323
00000000: ee57 a6be db75 573e e828 dfbe ccba 643f
00000010: 3ef8 143f 4723 e5be 2225 6e3e a2cc 1dbe
00000020: 79c3 343f 629f 07bf 729b 58bf 3c35 71bc
00000030: 2fd6 60bf 6b40 c1bd b875 b0bc bee4 3f3f
00000040: bfda 39bf 3bea bc3e f548 e33e ff94 9c3e
00000050: 9484 54bf 643a 963f 2232 f93d 7f14 6e3f
00000060: 2f4c 823e da12 edbd 68f1 26be 78ae 633e
00000070: d357 e1be 42e9 983e 18db a2bf 7b44 2a3f
00000080: beaa 3ebe 095a f43e c895 a9bf 3031 543d
00000090: 5d2a fc3e 2931 4fbe 3406 ddbe 0a70 cebe
000000a0: ca55 403f 2161 ed3e b969 7e3d 88f8 553d
000000b0: f304 f2be 9749 df3c 06ca 003f 9457 013c
000000c0: 035e 173f 1bf6 4d3f 227f 103f 678d dbbd
000000d0: 9a98 2ebf dd46 b73d becc d1bc 6ffc 1c3e
000000e0: e8cf 0d3f ff8f 0f3f e57a 5f3f f310 073d
000000f0: cdba 763f c964 793f 4245 e2be b1b4 2b3e
00000100: 9a9b d13e 7475 d9be c2fc 583f 93bd f7bd
00000110: 6c9e 4abe efc6 80be 60c0 86be 724b 4cbf
00000120: c28e 6abe b5b9 8abf 90c9 6a3e 09a8 153f
00000130: 5487 b8be 25b9 233f 36ee 6f3e eb79 f5bd
00000140: 396d dabe 414d afbf e9ec 74bc 1758 dfbd
00000150: 5a60 553f 2918 61bf b59d 873d d330 65be
00000160: 0ad1 b03e d04e a9be 4318 8d3c 6287 f43c
00000170: 3dbd 14bf 9bee 33bf c7ae 29be 512b 11be
00000180: c759 09be 63bb 14bf 1426 c3bf b64e b23e
00000190: 2db5 08bf 9bff e0be 06ea e83e 06f4 db3e
000001a0: ab4d 343f b54c 32bf abe9 843d c4d8 343f
000001b0: 9d3a cfbc 2702 9abd 2069 51be 8211 29bf
000001c0: 05d3 00bd 420e e1be 4c79 253f e039 53be
000001d0: 78b3 8ebe 1d75 223e c643 253f 906b 66be
000001e0: 4394 7f3f ca4f 553f ad2e 8abe 9144 cbbd
000001f0: 47f5 833f 14f3 83bf 3db3 b7bf 5657 afbf
00000200: 14f0 65be ceca 8ebe 9114 dfbe 52c7 8dbf
00000210: a549 9e3e c36a 2dbf 1628 69bd fe9a fc3c
00000220: 1d0b 2b3f 4526 a13e 7d0a 6abe 6e8e 6e3e
00000230: 3955 bbbe 2a0b d23e 17ea 393f f9fe 8ebf
00000240: c530 21bd f01b 86be 3e82 d03e bc82 ea3e
00000250: c8c3 a5bf ae57 5a3e 9036 b4bd 5f69 fd3e
00000260: d9b9 8c3f 0d72 873e a02b 4ebe 2dd8 013f
00000270: 6fef 003e 45c6 773e 8d59 d63e 34e7 873e
00000280: d19c 9abe 06c2 2a3f 9297 123f b21c c1bc
00000290: ffc2 0fbd de7d a93f 7937 25bf 0767 f7be
000002a0: 88a2 d53d a826 533e df8d 2ebe 45f4 a9bc
000002b0: a5e5 9dbf 4592 e03d 13e5 afbe 5eaa 913e
000002c0: 5c19 b33c 8920 8ebe 3b34 ef3e 6365 e9be
000002d0: b70a 32be 6d40 cfbc 19c4 c23e cf45 033f
000002e0: 4d33 9a3e 5a1f 88bf 19ba 033f 1e3b 26be
000002f0: 041d 3f3f 5ece 7ebe 6266 df3e 2e07 553f
00000300: 1cd8 32bd 8c6d 6b3e 02cd 38bd 605f 0b3d
00000310: 6a57 00bf c251 74bf fbb5 373c f985 0fbf
00000320: ee31 b6bf c9a8 b3bf 182b 5ebf 1986 4f3f
00000330: 1bb5 e4bd 8be7 0f3e 2927 3fbf 2744 413e
00000340: a849 b73d 5aec 28be db7b 2f3e ac68 8abe
00000350: fd03 853e 4dfc b3bf a23c c73f 8b24 2ebf
00000360: 0888 0f3e 1fb9 3f3f 7353 793d 8646 5abd
00000370: 7c23 4fbd 56a7 4ebe 8e6e 3b3e 4328 23bf
00000380: 90a9 7a3e c009 23bf 5b05 82be f166 c43e
00000390: 6ce7 6d3e 3189 323f 705e 173f c995 8f3c
000003a0: 6e4c 1fbf 9064 5abe a41b 0f3e c310 833e
000003b0: b6c2 f03e 9106 db3d 69c0 dfbe 2e82 f5bd
000003c0: 653e 383d db37 473d 07e8 5ebf da02 163e
000003d0: 4ca3 953e 1c0c 213f 0482 3f3e cc29 473f
000003e0: d648 1abf 3d88 24bd 94a7 e2be 17a2 a83e
000003f0: 8b5a 933e bf1a 183e 4d81 56bf fd0f eabe

feature.bias_ih_l0_reverse f4 [512]
0.67094547 0.3062956 -0.049016237 -0.30913103 0.27825397 0.33575097 0.06390668 0.08986867
-0.4306193 -0.092098765 0.2822767 -0.46697477 0.04211088 0.41707426 -0.6551535 0.076770924
0.26159373 -0.08723377 0.12056999 -0.22051248 0.3152267 0.11257056 0.3915747 -0.0086194845
0.16960235 -0.49537984 0.05021109 0.121516116 -0.020977534 -0.06405675 -0.26214373 -0.013516407
-0.039947882 0.0519419 0.18863656 -0.0036533074 0.4196153 -0.028138366 -0.020921208 -0.07083316
0.1712772 0.48170888 0.10980019 0.5137451 -0.113981366 0.18502124 0.07575606 -0.27705222
-0.00857918 0.061074 0.14482796 0.5282437 -0.025775429 -0.038983785 0.05416539 -0.17128919
-0.011030679 0.061335016 0.7007846 0.31594038 0.25886902 -0.15919194 -0.0021126552 0.021812515
0.2932355 -0.23645005 -0.22353312 0.21367665 0.20957476 -0.053414375 0.55789757 0.54013246
-0.5350647 0.39058343 0.41579837 0.33208397 0.31611055 0.20689668 -0.059560515 0.07274025
-0.31692198 0.039014783 0.11500894 -0.16107102 0.6848476 0.5907458 -0.30241594 -0.0735376
0.113085575 0.14104022 0.64133674 0.14867857 0.6765965 -0.0006912894 0.14210731 0.038818534
-0.10827442 0.33057252 0.165378 0.501516 0.30334714 -0.04618998 0.98080087 0.16757227
0.3514224 0.19999461 -0.12321564 0.31049976 0.28694806 -0.16460007 -0.21679553 0.076937445
0.10610266 -0.011171264 -0.44136238 0.1974223 0.6832274 0.84075797 0.024701357 -0.01621407
-0.0369289 -0.10300594 0.053434376 -0.171049 0.35512078 0.2921665 -0.32278714 -0.053767737
-0.2582539 -0.36349612 -0.3961413 0.015317924 -0.18046519 -0.3235983 0.11847965 0.08359788
-0.050285324 0.1421528 -0.20188569 0.4036436 -0.26834998 -0.31327203 0.50080895 0.23093937
-0.10735463 -0.008979891 0.24622263 0.40776765 0.24398063 -0.2053363 -0.48421562 0.09612596
-0.025465898 -0.8602993 0.31162903 0.7259448 -0.01283922 -0.09704844 -0.18920742 0.010812259
-0.452249 0.021995934 0.23462467 -0.083725326 -0.32025284 0.15247795 -0.066053554 0.07306241
-0.5377142 -0.047982868 0.28715912 -0.19830093 0.48660225 -0.13236399 -0.14380138 -0.051456723
0.5888824 -0.30434054 -0.336773 -0.24149725 -0.049228102 -0.09827857 -0.039983686 0.014915985
0.34694725 -0.18430907 -0.45640117 -0.21297885 0.06108204 -0.22130524 0.03207221 -0.35221434
-0.4343342 -0.080671094 0.94400996 -0.094676875 -0.08685509 -0.3662864 -0.31689397 0.656864
0.16233186 -0.00079813204 -0.29221603 -0.11811389 0.47390458 -0.22347741 0.12359879 0.31532738
-0.24355587 0.15186371 0.21374509 -0.32456067 -0.3586512 0.24183188 0.23923503 -0.008318421
-0.23499426 -0.2063462 -0.0036494927 0.495234 -0.06449173 0.6890132 -0.15725833 -0.051323596
-0.49779552 -0.16042806 0.044371367 -0.5267362 -0.35248095 0.24472249 -0.34617716 -0.46112216
0.015795115 0.061455227 0.13795422 -0.46339002 0.18805608 0.79544616 -0.26800975 -0.353325
-0.37226397 0.1543624 -0.42718664 0.2016896 -0.37913927 -0.32321995 1.0355603 -0.28200972
0.72355086 0.4480717 0.078277916 0.34721395 -0.22184889 -0.43072915 0.12862213 0.5149396
00000000: 15c3 2b3f c7d2 9c3e 40c5 48bd 6c46 9ebe
00000010: 4e77 8e3e 8de7 ab3e 81e1 823d 110d b83d
00000020: 227a dcbe 479e bcbd 9286 903e 5117 efbe
00000030: 757c 2c3d c28a d53e 24b8 27bf 133a 9d3d
00000040: 9def 853e 9ea7 b2bd 66ed f63d 06ce 61be
00000050: 6565 a13e 658b e63d 7b7c c83e bd38 0dbc
00000060: 3dac 2d3e 6da2 fdbe 25aa 4d3d 71dd f83d
00000070: 14d9 abbc 2f30 83bd b437 86be ec73 5dbc
00000080: 64a0 23bd 08c1 543d f129 413e 546c 6fbb
00000090: d1d7 d63e 6e82 e6bc f462 abbc fa10 91bd
000000a0: 4a63 2f3e 8ca2 f63e ecde e03d cd84 033f
000000b0: 106f e9bd 3576 3d3e fe25 9b3d cad9 8dbe
000000c0: b08f 0cbc bb28 7a3d c84d 143e fb3a 073f
000000d0: fe26 d3bc 76ad 1fbd 87dc 5d3d 6f66 2fbe
000000e0: 05ba 34bc 6d3a 7b3d 9f66 333f f0c2 a13e
000000f0: 7b8a 843e 3603 23be 7974 0abb 29b0 b23c
00000100: f722 963e f61f 72be dee5 64be 0dce 5a3e
00000110: c49a 563e 08c9 5abd 60d2 0e3f 1f46 0a3f
00000120: 00fa 08bf 8dfa c73e 86e3 d43e e906 aa3e
00000130: 3ed9 a13e b9dc 533e baf5 73bd d7f8 943d
00000140: 9943 a2be f7cd 1f3d cf89 eb3d cdef 24be
00000150: 2c52 2f3f 1e3b 173f 43d6 9abe e29a 96bd
00000160: 6999 e73d d96c 103e a52e 243f 323f 183e
00000170: 6e35 2d3f a537 35ba 9484 113e 2f00 1f3d
00000180: fbbe ddbd cd40 a93e da58 293e 5a63 003f
00000190: 5150 9b3e b431 3dbd c415 7b3f 1198 2b3e
000001a0: a3ed b33e 63cb 4c3e 7b58 fcbd d3f9 9e3e
000001b0: dbea 923e ec8c 28be a6ff 5dbe 6191 9d3d
000001c0: 5a4c d93d ad07 37bc 40fa e1be 1229 4a3e
000001d0: fee7 2e3f ea3b 573f 805a ca3c 5fd3 84bc
000001e0: c242 17bd c7f4 d2bd 01de 5a3d 7827 2fbe
000001f0: 64d2 b53e d996 953e 5b44 a5be 8f3b 5cbd
00000200: db39 84be 2a1c babe 08d3 cabe 08f8 7a3c
00000210: decb 38be adae a5be 75a5 f23d 5e35 ab3d
00000220: fcf7 4dbd 8190 113e 1fbb 4ebe 60aa ce3e
00000230: 2b65 89be 3165 a0be 0435 003f 5f7b 6c3e
00000240: bfdc dbbd 6520 13bc c921 7c3e ecc6 d03e
00000250: 0fd6 793e ae43 52be 1ceb f7be b0dd c43d
00000260: dc9d d0bc 933c 5cbf d78d 9f3e 85d7 393f
00000270: 985b 52bc 55c1 c6bd 97bf 41be e725 313c
00000280: 2e8d e7be d130 b43c 7341 703e 2f78 abbd
00000290: 2ef8 a3be 2e23 1c3e 1647 87bd bfa1 953d
000002a0: a3a7 09bf af89 44bd 8506 933e 660f 4bbe
000002b0: ee23 f93e 6d8a 07be ab40 13be 49c4 52bd
000002c0: ffc0 163f 86d2 9bbe 836d acbe 0e4b 77be
000002d0: 68a3 49bd 4646 c9bd efc5 23bd 2d62 743c
000002e0: 12a3 b13e 84bb 3cbe 6aad e9be 2117 5abe
000002f0: 2931 7a3d d79d 62be 265e 033d 7055 b4be
00000300: 0d61 debe e336 a5bd a3aa 713f f3e5 c1bd
00000310: 15e1 b1bd e489 bbbe ed3f a2be 3d28 283f
00000320: 533a 263e bc39 51ba 579d 95be b2e5 f1bd
00000330: 9fa3 f23e 43d7 64be 5d21 fd3d 9772 a13e
00000340: b666 79be 2982 1b3e fedf 5a3e d12c a6be
00000350: 21a1 b7be c7a2 773e 07fa 743e fd49 08bc
00000360: 56a2 70be 6b4c 53be 542c 6fbb 508f fd3e
00000370: 3d14 84bd 2b63 303f 5408 21be b138 52bd
00000380: 0edf febe 4147 24be c0be 353d 2fd8 06bf
00000390: 6278 b4be 8898 7a3e 223e b1be 3418 ecbe
000003a0: c264 813c 7ab8 7b3d df43 0d3e 7541 edbe
000003b0: c691 403e 5ca2 4b3f 9338 89be 04e7 b4be
000003c0: 6299 bebe 2d11 1e3e 35b8 dabe b887 4e3e
000003d0: 8b1e c2be 167d a5be 3d8d 843f 9463 90be
000003e0: a13a 393f a769 e53e 2c50 a03d 07c6 b13e
000003f0: 5b2c 63be 8888 dcbe 85b5 033e 15d3 033f

feature.bias_hh_l0_reverse f4 [512]
0.81401944 0.22600566 -0.07562951 -0.4845334 0.16781422 0.35690936 0.1354935 -0.04450209
-0.44313017 -0.019622184 0.3711812 -0.3810462 -0.027307432 0.4584905 -0.48109278 0.11119064
0.24229875 -0.06386764 0.16760752 -0.296693 0.413365 -0.017218625 0.3152907 0.11380266
0.117734075 -0.46132684 0.16514647 0.16768864 0.060245454 -0.0616183 -0.21282916 0.034021795
-0.01252002 0.050676107 0.21627232 -0.050128564 0.45185408 -0.038739726 -0.13956723 0.027446445
0.3266559 0.42706263 0.2499768 0.51638424 -0.20415525 0.17166533 0.060106467 -0.29298007
-0.10505159 -0.0031470929 0.15948859 0.48505527 -0.035047367 -0.014443211 0.09687912 -0.3409454
0.04516552 0.11784674 0.8204634 0.4250119 0.07537249 -0.29819775 -0.0808683 0.09748774
0.17499214 -0.25059164 -0.25478283 0.15310824 0.32846087 -0.08597397 0.6080854 0.5074733
-0.457467 0.32397625 0.56541365 0.30874676 0.3029731 0.21327244 -0.06367305 0.028455859
-0.36278686 -0.010820124 -0.06285405 -0.13353875 0.65285456 0.6017911 -0.26200327 -0.05093224
0.068915755 0.13399172 0.6989711 0.056653015 0.7270089 0.091297455 0.11648181 0.055362433
0.08004998 0.2660236 0.11895377 0.52365494 0.2426495 0.0043577016 1.1365278 0.021033786
0.34820467 0.42306563 -0.08579588 0.34838462 0.3976336 -0.14967407 -0.21666625 0.0038567034
0.14563508 -0.0038673384 -0.47370848 0.21879056 0.60818684 0.93316555 -0.008588209 0.036957797
0.117042996 -0.03694535 0.22356093 -0.17114756 0.26871324 0.46399578 -0.409927 -0.036304176
-0.31137183 -0.2587025 -0.25236672 0.0410394 -0.30950847 -0.06868786 0.095239915 0.0271987
0.009731558 0.034056794 -0.2639815 0.1684677 -0.3426717 -0.23854291 0.35122913 0.240191
-0.122971766 0.06566633 0.10253854 0.4008589 0.36012137 -0.06751163 -0.54484284 0.16850793
-0.061315514 -0.8312635 0.23194821 0.7380817 -0.070289485 -0.15947837 -0.21322875 0.108687036
-0.48314705 0.026021473 0.23296759 -0.13466696 -0.37927887 0.16451108 -0.12893142 0.21053536
-0.6386796 0.0063234568 0.28723326 -0.25202668 0.6038119 -0.14456254 -0.12105941 0.01944914
0.6623498 -0.22587226 -0.3246135 -0.31239188 -0.0978533 0.043251466 0.04801553 -0.11390764
0.39868373 -0.26753062 -0.39372045 -0.26221234 -0.026222218 -0.25337934 0.03100401 -0.26672995
-0.40838876 -0.017546002 0.912404 -0.17178635 -0.09411545 -0.19387023 -0.32530394 0.78212774
0.15238708 0.11349189 -0.38012233 -0.17097501 0.4344966 -0.23517103 -0.07896056 0.3280084
-0.23551308 0.078139454 0.26773402 -0.36704296 -0.3042967 0.2539397 0.25393447 -0.047743175
-0.08701555 -0.20727298 0.10913807 0.5453878 -0.04799852 0.81868374 -0.12892868 -0.04451447
-0.33430034 -0.21341075 0.11407732 -0.5196983 -0.4492305 0.109478936 -0.3340051 -0.3428766
0.08080158 -0.03569665 0.1849978 -0.60640734 0.27486703 0.8269397 -0.24602972 -0.37280452
-0.48753184 0.13820168 -0.33180967 0.24299254 -0.41981485 -0.30377406 1.0389049 -0.37536773
0.58725333 0.42960787 0.090410754 0.4330446 -0.22239439 -0.48519894 0.23959666 0.51089233
00000000: 9463 503f 076e 673e a5e3 9abd c314 f8be
00000010: 7ed7 2b3e d3bc b63e cfbe 0a3e d347 36bd
00000020: f5e1 e2be b4be a0bc 760b be3e 7d18 c3be
00000030: d6b3 dfbc 44bf ea3e cb51 f6be ebb7 e33d
00000040: 2a1d 783e 0acd 82bd 4ea1 2b3e 25e8 97be
00000050: 94a4 d33e 130e 8dbc c86d a13e 5e11 e93d
00000060: 901e f13d 0833 ecbe 281c 293e 92b6 2b3e
00000070: f0c3 763d 7863 7cbd e3ef 59be 705a 0b3d
00000080: c520 4dbc c091 4f3d 7e76 5d3e 9c53 4dbd
00000090: 6b59 e73e 8cad 1ebd b6ea 0ebe 5ed7 e03c
000000a0: 713f a73e f4a7 da3e ebf9 7f3e c231 043f
000000b0: 130e 51be 09c9 2f3e 3332 763d 7c01 96be
000000c0: 4a25 d7bd 753f 4ebb fa50 233e 2a59 f83e
000000d0: d48d 0fbd 38a3 6cbc 8f68 c63d 6590 aebe
000000e0: 7bff 383d a259 f13d e409 523f 299b d93e
000000f0: e45c 9a3d 60ad 98be 479e a5bd a7a7 c73d
00000100: 2431 333e 8c4d 80be e572 82be 68c8 1c3e
00000110: 062c a83e 1f13 b0bd 7cab 1b3f c5e9 013f
00000120: 1d39 eabe 37e0 a53e f3be 103f 0e14 9e3e
00000130: 4a1f 9b3e 1764 5a3e 0467 82bd 431c e93c
00000140: 33bf b9be e446 31bc a0b9 80bd 62be 08be
00000150: 7a21 273f fb0e 1a3f 4b25 86be 539e 50bd
00000160: b423 8d3d 2035 093e c5ef 323f fe0c 683d
00000170: 411d 3a3f 29fa ba3d 048e ee3d b8c3 623d
00000180: 3ef1 a33d 3f34 883e 099e f33d 400e 063f
00000190: 1c79 783e 0dcb 8e3b be79 913f 0c4f ac3c
000001a0: e247 b23e 0f9c d83e c0b5 afbd 785f b23e
000001b0: a296 cb3e 2944 19be c2dd 5dbe bfc0 7c3b
000001c0: 5d21 153e 2c73 7dbb eb89 f2be a20a 603e
000001d0: 22b2 1b3f f0e3 6e3f 8fb5 0cbc 0f61 173d
000001e0: 3db4 ef3d 0254 17bd 28ed 643e 4e41 2fbe
000001f0: c894 893e db90 ed3e f4e1 d1be b0b3 14bd
00000200: 216c 9fbe a774 84be 3636 81be ee18 283d
00000210: e577 9ebe 39ac 8cbd 250d c33d cfcf de3c
00000220: 1d71 1f3c 237f 0b3d 9528 87be cc82 2c3e
00000230: aa72 afbe 9844 74be 4ed4 b33e a1f4 753e
00000240: 9fd8 fbbd 127c 863d baff d13d 613d cd3e
00000250: d461 b83e 8a43 8abd d27a 0bbf 588d 2c3e
00000260: fa25 7bbd afcd 54bf d583 6d3e ecf2 3c3f
00000270: eff3 8fbd 4c4e 23be a358 5abe 4f97 de3d
00000280: 0d5f f7be fc2a d53c 0e8f 6e3e 23e6 09be
00000290: d730 c2be 9875 283e 9906 04be 9596 573e
000002a0: 8280 23bf 0035 cf3b 3d10 933e a409 81be
000002b0: 6b93 1a3f 3408 14be ffed f7bd ce53 9f3c
000002c0: c28f 293f 0f4b 67be be33 a6be d4f1 9fbe
000002d0: 5067 c8bd 7328 313d efab 443d 6948 e9bd
000002e0: 4620 cc3e c6f9 88be ba95 c9be b240 86be
000002f0: facf d6bc f0ba 81be 1ffc fd3c d490 88be
00000300: 5518 d1be a2bc 8fbc 4f93 693f c3e8 2fbe
00000310: 9abf c0bd eb85 46be 3d8e a6be 8639 483f
00000320: 5c0b 1c3e 706e e83d 659f c2be 1314 2fbe
00000330: 5776 de3e add0 70be 13b6 a1bd b8f0 a73e
00000340: 572a 71be 9407 a03d 6f14 893e 0eed bbbe
00000350: c7cc 9bbe 6204 823e b303 823e 598e 43bd
00000360: 3535 b2bd 5e3f 54be c883 df3d 899e 0b3f
00000370: 199a 44bd 4295 513f e105 04be ce54 36bd
00000380: 6a29 abbe 5988 5abe 5fa1 e93d f30a 05bf
00000390: 8a01 e6be 7e36 e03d b702 abbe 868d afbe
000003a0: 4c7b a53d a736 12bd 1070 3d3e 833d 1bbf
000003b0: 5fbb 8c3e 52b2 533f 37ef 7bbe 3ce0 bebe
000003c0: c69d f9be be84 0d3e f5e2 a9be 09d3 783e
000003d0: f9f1 d6be 4688 9bbe d6fa 843f 3330 c0be
000003e0: 3c56 163f 90f5 db3e 4629 b93d 06b8 dd3e
000003f0: 5bbb 63be ff6b f8be d458 753e d7c9 023f
