pretrained_models/comick-50-context-size.pth (torch, 821283 bytes, 10 tensors)

feature.weight_ih_l0 f4 [512, 64]
000000 da fd cb 3e 28 92 30 bf 67 d0 1a be 33 0b ea be
       0.3984211 -0.68973017 -0.15118562 -0.4571167
000010 4c a5 22 bf a2 b6 29 be d7 68 f4 3e e8 c5 5a bf
       -0.63533473 -0.16573575 0.47736236 -0.8545823
000020 f8 9c 0a bf 16 e3 71 3d 06 10 a9 3d 38 05 83 3e
       -0.54145765 0.059054457 0.08255009 0.2558992
000030 63 8f 01 bf be f0 ae 3e 66 f4 b5 bf 7a 6c 36 bd
       -0.50609416 0.34168047 -1.421521 -0.044537045
000040 dd b0 75 3e 06 5d 68 bd 0f 55 a5 bf 27 f4 59 be
       0.23993249 -0.05672934 -1.2916583 -0.21284543
000050 1b 84 36 3f e2 67 19 3f 1d cd e6 be c2 d4 6b be
       0.71295327 0.5992414 -0.45078364 -0.2303038
000060 cd 5e 3d be ac 31 4c be 17 7c 0b 3e c6 89 56 be
       -0.18493195 -0.19940823 0.13621555 -0.20950994
000070 f5 76 34 be 80 ad ff 3e 1d b9 ad bd 87 0e 3e bf
       -0.17623504 0.49937057 -0.08482573 -0.74240917
000080 a2 69 b9 be 55 d0 3c bc 33 e1 2e bf 2d 2b ba 3f
       -0.36213404 -0.01152428 -0.68312377 1.4544426
000090 c2 4c bf 3d 12 11 3a bf 17 c1 81 bf 2c b4 56 bf
       0.09340812 -0.726823 -1.0137051 -0.8386867
0000a0 f6 b9 84 3e e4 c8 a0 3f 26 16 88 be d4 10 c3 be
       0.25923127 1.2561307 -0.26579398 -0.38098776
0000b0 6a 3c c2 3e 68 cc e9 3e 4f 38 0b bf 28 79 db be
       0.37936717 0.45663762 -0.54382795 -0.42865872
0000c0 1f 56 b2 3e c7 f2 07 3f b4 ca cc 3d c2 31 e0 3e
       0.3483133 0.53104824 0.099996 0.43787962
0000d0 88 15 1a 3f 92 5f 18 3e a4 b0 5b bf 61 08 d2 bd
       0.60189104 0.14880207 -0.8581641 -0.102555044
0000e0 4d 51 64 3e 14 7b 20 bf d0 c9 cc be a8 f9 e7 3e
       0.22296639 -0.626878 -0.3999772 0.4530766
0000f0 58 52 f0 be a8 91 70 3e b4 7f 60 3e 1c 7e fa be
       -0.46937823 0.23493063 0.21923715 -0.4892434
000100 7c 62 8f be ef 92 1e bf 4b ae 87 bf 97 03 82 3f
       -0.28004825 -0.6194295 -1.0600065 1.0157346
000110 e6 bb 4f 3e 25 a8 aa bf 04 5c a3 3f f6 f8 7e 3f
       0.20286521 -1.3332564 1.2762456 0.99598634
000120 2f 79 00 3f 62 4d 8c 3f d7 95 6f 3e d0 67 f1 be
       0.5018491 1.0961115 0.23397003 -0.47149515
000130 cb 13 c9 be 68 2e ff 3e 4e 6a f8 3e d4 13 4f be
       -0.39272913 0.49840093 0.48518604 -0.20222408
000140 4d a4 74 3f a2 57 04 bf 37 9d b7 3e f7 3c 2d 3d
       0.95563203 -0.5169622 0.35862133 0.04229447
000150 a8 b9 5c 3f b4 72 00 bf cf c3 28 3e 3d 53 f7 be
       0.8622079 -0.50175023 0.16480945 -0.48305693
000160 69 58 f4 be bd 95 b0 bd b3 e5 5c bf fb 87 b0 be
       -0.47723702 -0.0862231 -0.86287993 -0.34478745
000170 23 53 e6 3d 2b e3 c5 3e 1d 5c 31 3e 18 1b 25 3f
       0.11246326 0.38649878 0.17320295 0.64494467
000180 33 a2 1b bf 32 6d a3 3e 43 6f 5a 3f 17 30 57 3c
       -0.6079437 0.31919247 0.8532602 0.013134024
000190 d4 e4 ca 3e 0b d0 56 bf c8 24 84 3d 14 25 30 bf
       0.39627707 -0.839112 0.06452328 -0.68806577
0001a0 e6 d6 03 bf f4 a9 f3 bd 42 fc 2c bf 31 ce 49 bf
       -0.51499784 -0.1189765 -0.67572415 -0.7883025
0001b0 b8 f6 37 3f 89 10 41 3f 76 e7 18 3f 3c e4 c3 3e
       0.7186084 0.75415856 0.5972818 0.38260067
0001c0 1f 53 4f 3e e9 43 23 bf 08 bf 84 bf 68 e2 e6 bd
       0.20246552 -0.637755 -1.0370798 -0.11273652
0001d0 16 bb ce be 6f 78 f9 3e eb 45 84 3f 62 9c 84 bf
       -0.4037711 0.48724696 1.0333837 -1.0360224
0001e0 76 ab f5 be cb 53 63 3f 47 b0 ca bc 77 16 04 3f
       -0.47982377 0.8879973 -0.024742259 0.5159678
0001f0 d4 04 12 3f 1d 4d eb bd 7b df 39 bf dc 49 8a 3e
       0.5703862 -0.114893176 -0.7260663 0.27009475
000200 c0 74 f4 3e ff 13 b3 3e 01 c2 fb 3e 8e 44 03 3f
       0.47745323 0.34976193 0.4917145 0.5127648
000210 87 a5 22 be bb 70 10 3f cd 83 b9 3e c4 bd d9 3f
       -0.15883456 0.56422013 0.3623337 1.7011037
000220 63 66 a5 bd e5 e6 d2 be f9 f1 d8 3e b8 be 84 bf
       -0.08076169 -0.41191784 0.4237211 -1.0370703
000230 9d 55 14 3e 65 35 2f 3f dd 6d 3f 3f c6 b7 81 bf
       0.14485784 0.6844085 0.74777013 -1.0134208
000240 d4 58 c5 3e 73 e7 74 3d 38 1e 10 bd 92 b9 31 bf
       0.38544333 0.05979104 -0.03518507 -0.6942378
000250 85 31 40 be 45 36 b0 3e 42 a7 ce be ac dc 6b be
       -0.1876889 0.34416404 -0.40361983 -0.23033398
000260 b5 0f 05 bf 1f a2 81 be 63 f5 64 bf 5e d9 fd 3e
       -0.5197709 -0.25319 -0.8943693 0.495799
000270 4d 79 12 3f 19 31 71 3e 5e fd b6 3d 6a 1e 39 be
       0.5721634 0.23553886 0.08935045 -0.18078008
000280 b4 e1 2f be d7 e1 44 3f 09 e6 17 bf 8e b7 7d bf
       -0.17175943 0.76907104 -0.5933538 -0.9910821
000290 9b be fd 3e 1a 9c 96 3e 98 45 de bd 7e 3f 0b 3f
       0.49559483 0.2941597 -0.10853118 0.54393756
0002a0 79 5f a4 be a5 b6 a4 be 80 53 26 be a2 38 a3 be
       -0.3210409 -0.32170597 -0.1624279 -0.31879145
0002b0 91 64 4a bf a6 40 41 3f 74 83 7f be 9d 69 a6 3f
       -0.790597 0.7548927 -0.24952489 1.3000981
0002c0 a1 02 c2 be 0f 78 c1 be e8 85 7c bf 35 28 9e bf
       -0.3789263 -0.3778691 -0.98641825 -1.235602
0002d0 3a 96 14 3f 3b 96 23 3f b6 66 ab 3e f8 f7 2d bf
       0.5804173 0.6390111 0.334768 -0.67956495
0002e0 a6 10 de 3e d2 c7 1f bf ea 53 bd be e2 6c ea 3e
       0.43372077 -0.62414277 -0.36978084 0.45786196
0002f0 ea ea 38 3f 5d 81 b1 bf 90 ff 6e bf 42 74 02 bf
       0.7223345 -1.3867604 -0.9335871 -0.50958645
000300 cf 86 79 be 77 35 9b 3a 5f 34 e8 bd de 1a b8 3e
       -0.24367832 0.0011841495 -0.11338114 0.35957998
000310 f4 41 78 3f 4e e9 dd 3d 0b 8d 28 be d3 18 8f 3d
       0.96975636 0.10835515 -0.16460054 0.06987157
000320 b2 9b 07 3f 5b c7 8c 3e b6 87 75 3f e1 44 d5 bd
       0.5297195 0.27495846 0.95910203 -0.10413528
000330 be f3 0c 3f 76 51 8c be 4f 59 bb be b9 ad 74 bf
       0.5505942 -0.274059 -0.36591575 -0.9557758
000340 a9 31 c2 be fb b6 8d be 61 ed 62 3f d1 b3 67 be
       -0.37928513 -0.27678666 0.8864346 -0.22627188
000350 c2 b0 84 3e a4 47 1d 3e 55 15 a8 3e c4 e3 46 3f
       0.25916106 0.1535936 0.32828775 0.7769129
000360 1d d8 97 be 5b dc 5c 3e 4b 39 51 bf ff eb 22 bf
       -0.2965707 0.21568434 -0.8172805 -0.6364135
000370 02 e3 8a bf 81 b5 15 be 8f dd b2 3e 85 65 cc bb
       -1.0850527 -0.1462002 0.3493466 -0.006237688
000380 33 a5 19 3f 8c 32 19 be 59 b1 a4 be 3e b8 b8 be
       0.600177 -0.14960688 -0.32166556 -0.36078066
000390 be a5 9f be f6 9d 58 be c4 5e 4b 3f a3 b4 db be
       -0.3118114 -0.21154007 0.79441476 -0.42911252
0003a0 7c 3c b8 bd 75 1e 1a 3f 1d 69 d4 3e ea 24 df bd
       -0.089959115 0.60202724 0.41486445 -0.10895713
0003b0 dd 42 9b bf bc 3e 7e bd 55 a1 f7 3e 7d f4 1e 3f
       -1.212978 -0.062071547 0.48365274 0.6209181
0003c0 7f fe 1a bf 93 35 da 3d 49 05 5f be 48 a7 07 3e
       -0.6054458 0.1065475 -0.2177936 0.13247406
0003d0 99 c6 01 bf 71 aa c1 bd 63 38 01 3f 9c 84 a0 bf
       -0.5069366 -0.09456337 0.50476664 -1.2540469
0003e0 66 d5 d4 3e f8 b1 b3 be 21 40 36 3e 21 ff 93 bf
       0.4156906 -0.35096717 0.177979 -1.1562234
0003f0 63 c7 07 3f 07 ce 8d 3e ab 7e bc 3e 6a 8d 92 bf
       0.53038615 0.2769625 0.3681539 -1.1449406

feature.weight_hh_l0 f4 [512, 128]
000000 97 6a 8f be 7b 82 db 3d 53 2e 3e bf 38 f8 d3 be
       -0.2801101 0.107182465 -0.74289435 -0.41400313
000010 12 85 98 be a5 0f 09 3f 77 2a 9d ba ed 44 81 bf
       -0.29789025 0.53539497 -0.0011990805 -1.009916
000020 f8 ad 0c 3e e8 38 a2 be 4b a1 e8 3e 2b 81 3e 3d
       0.13738239 -0.3168404 0.45435557 0.046509903
000030 ef 93 92 3d 84 22 0e 3e c4 e7 06 3f 37 17 3f 3c
       0.07157122 0.13880354 0.52697396 0.01166325
000040 3a df 51 3f a1 1e ae be b1 4e 75 3d 0d 66 7f bf
       0.8198124 -0.34007743 0.0598895 -0.9976509
000050 25 6a 47 3d 96 09 d7 3e b6 90 2f bf dc c3 89 3e
       0.04868521 0.419995 -0.68580186 0.2690724
000060 e6 bc ff be b1 06 01 bf e8 11 ce 3e 3c 9e 2d bf
       -0.49948806 -0.50400835 0.40248036 -0.6781957
000070 1f b9 b6 3e 57 10 7e 3e 68 72 86 3e ab d9 a7 be
       0.3568811 0.2481092 0.2625916 -0.32783255
000080 cc ed 5c 3d f2 27 be 3e 2d 66 6f 3e df 2b b3 be
       0.05393772 0.3713985 0.2337882 -0.34994408
000090 45 91 2b be b4 60 86 be b0 c9 1f be 44 fe 78 be
       -0.16754635 -0.26245654 -0.15604281 -0.24315745
0000a0 20 11 40 3d be 78 36 bd 8d 5f 33 3f 79 f3 73 bf
       0.04689133 -0.044548742 0.70067674 -0.95293385
0000b0 b6 9e 58 3f ed a9 ff be e6 be 3e 3f 2a bb 42 3e
       0.84617174 -0.4993433 0.7451004 0.1901671
0000c0 1a 3e b1 3e 91 67 ed 3e 23 4b 7f 3f 63 7b 2b 3f
       0.34617692 0.46368077 0.99724025 0.6698515
0000d0 a4 9c 02 3f 6e 82 17 be 88 31 46 bf 49 d6 89 3c
       0.51020265 -0.14795849 -0.7741933 0.016825812
0000e0 cd 8c d1 be ad 11 b2 3e d6 a6 11 3f fa 76 6c 3f
       -0.40927735 0.3477911 0.56895196 0.92369044
0000f0 fb 51 81 3f 4e 54 32 bf 0b 84 9f be 55 47 20 be
       1.0103143 -0.6965989 -0.31155428 -0.15652211
000100 01 8e 21 bf f6 9b d0 3e e4 6f 06 3f de 1c 00 be
       -0.63107306 0.4074399 0.5251448 -0.12511012
000110 41 d8 3c bf d9 17 96 3c 26 ff e1 be 8f 9b 5e 3c
       -0.7376748 0.018321918 -0.44139975 0.013586893
000120 12 aa d7 be 31 41 e8 3d cf 62 58 be 4c 12 0c bf
       -0.4212194 0.11340559 -0.21131442 -0.5471542
000130 ad 99 ad bd 1c 98 0a 3f 17 0b 5e bd 72 73 26 be
       -0.08476577 0.5413835 -0.054209795 -0.16254976
000140 61 73 5b be 5a 2e 8d bf db a1 98 bd 72 51 d8 3e
       -0.21430732 -1.102977 -0.074527465 0.42249638
000150 4c 29 2d be 17 2a 1b bf 29 7c 42 3f 23 da 38 3f
       -0.16910285 -0.606111 0.75970703 0.7220785
000160 8d 2a 2a bd 27 29 4c be 02 71 81 3e ad db 98 be
       -0.041544486 -0.19937573 0.2528153 -0.298551
000170 9b 6d 65 bf 5e 08 97 3d 27 8d 56 bf 9f a3 60 be
       -0.8962037 0.07374643 -0.8380913 -0.21937416
000180 3d 93 2e 3f 6b 59 ef bd ba 03 ac 3f 8c 06 0d bf
       0.6819342 -0.11686977 1.3438637 -0.55088115
000190 58 22 36 3f a9 9c f9 3e f4 cd 92 3f 71 e8 86 3d
       0.71146154 0.48752335 1.1469102 0.065873034
0001a0 95 e7 71 3f cd df e9 3e e6 4e 03 3e 57 c2 06 3f
       0.9449399 0.4567856 0.12823066 0.5264029
0001b0 a7 fc 73 bf be 0a 5d 3e 8d a3 60 3e 5d 0e ca bf
       -0.9530739 0.21586129 0.2193739 -1.5785633
0001c0 63 32 20 3f 83 cd 19 3e 19 38 ff 3e c7 e0 fd bd
       0.62576884 0.15019803 0.49847487 -0.123963885
0001d0 85 45 7b be 89 56 c0 bd be be ca 3d 85 fb 10 bf
       -0.24538238 -0.09391505 0.098996624 -0.5663379
0001e0 d2 77 53 3e 1b 66 20 3f 43 8d 23 bf 6e 1e 5d 3e
       0.20651177 0.626558 -0.63887423 0.21593639
0001f0 91 7e c5 be 83 44 13 bf b0 e0 68 3f 99 e3 6e be
       -0.38573125 -0.57526416 0.90967846 -0.23329009
000200 4d 65 8b 3e f5 55 66 bf eb 4f 96 3f 28 6c 05 be
       0.27225724 -0.8997491 1.1743139 -0.1302954
000210 d1 c3 41 be a2 52 d5 bd 15 ff 7f 3e 4b a9 27 3f
       -0.18922354 -0.104161516 0.2499965 0.65492696
000220 96 ac 6e 3e cd 75 1a bf b7 c7 d3 3e 58 51 f2 3d
       0.23308024 -0.60336 0.41363308 0.11831921
000230 06 d9 86 bf 61 bf 13 3e 3d cc dc be 64 02 84 3e
       -1.053498 0.14428474 -0.4312457 0.25783074
000240 b6 9c 2c be 13 8a e8 3e 31 5b 88 3c 6a f7 21 3e
       -0.16856655 0.45417842 0.016645046 0.15817037
000250 5e 78 d0 bf 45 34 aa be 9a 99 15 bf bf 01 b3 be
       -1.6286733 -0.33243003 -0.584375 -0.3496227
000260 20 84 45 3f e1 60 9d be b0 13 d0 bd a6 c5 5a bd
       0.7715473 -0.30737975 -0.10160005 -0.05341115
000270 bf 9e f1 bd f7 97 54 bf 9d 67 ac bd 38 6a 2e 3e
       -0.117978565 -0.8304438 -0.084182 0.17032707
000280 97 04 43 bf 09 6d 0a bf 74 90 9c bd 35 2d ea 3e
       -0.7617888 -0.54072624 -0.0764474 0.45737615
000290 0e 9d 5a be 0b b5 19 3d 0b c7 71 3e 6c 54 0b bd
       -0.21348974 0.03752617 0.23611085 -0.034016058
0002a0 99 ad 5e 3f d4 32 d0 bd c2 69 b9 be 40 41 f2 3f
       0.8698364 -0.10165945 -0.362135 1.8926163
0002b0 52 08 65 be 3b 4e d4 bd ea 3f 9c 3e 0b f2 db be
       -0.22366455 -0.10366484 0.30517513 -0.42958102
0002c0 34 63 aa bc 21 23 87 3e 2a 79 69 3f 7e 99 57 be
       -0.020799257 0.2639399 0.91200507 -0.21054646
0002d0 85 6d 00 bf 32 ff 90 be 1b cb 00 bf 8f 15 40 bf
       -0.50167114 -0.283197 -0.50309914 -0.75032896
0002e0 4b 9c 16 bf 1e 71 3c be 3c ac 35 bf 79 ca 29 bf
       -0.58832234 -0.18402526 -0.70965934 -0.66324574
0002f0 d2 0d 9d 3f 09 65 6b bf c3 a1 33 bf 8e d4 d5 3d
       1.2269843 -0.9195104 -0.70168704 0.10440932
000300 cc 37 83 3f 93 31 d0 be 6f 8c e7 3e de d1 9d 3f
       1.0251403 -0.40662822 0.4522433 1.2329671
000310 37 5a b5 3e 78 db 53 3f 88 4e f3 be 73 75 83 3e
       0.3542039 0.8275676 -0.47520852 0.25675544
000320 f1 58 19 3e 8f ca 0e 3f 4f 0d 13 3e 54 2a 2f be
       0.14975335 0.5577783 0.14360546 -0.1710599
000330 ce 6f fb 3e 82 de a4 be b6 b0 92 bf b8 7b bd bb
       0.49108738 -0.3220101 -1.1460178 -0.0057825707
000340 18 ce 52 3f 3f 91 98 bd e5 ec 35 3e 44 a9 81 3e
       0.82345724 -0.074495785 0.1776615 0.25324452
000350 24 f7 1d bf bd 78 06 bf 0a 08 23 bf dc c8 4c 3f
       -0.6170523 -0.5252798 -0.6368414 0.7999399
000360 bf 2f 87 bd 12 87 11 3e f3 d1 26 3f c9 15 b2 3e
       -0.06600904 0.14211681 0.6516411 0.34782246
000370 cf 90 d9 bf d6 a4 80 be 2d c5 5f 3f c2 bb 01 3d
       -1.6997317 -0.2512576 0.8741024 0.0316732
000380 8f 95 c1 3e a1 04 c4 3f 15 4b 8b 3f 3a 9d 42 bf
       0.37809417 1.5313913 1.0882288 -0.7602116
000390 ec 59 72 3e 2c 2d f3 bd a0 83 e9 be 2a 97 99 be
       0.23667115 -0.1187385 -0.45608234 -0.29998142
0003a0 67 41 13 3f cc 08 c3 3e 2a 4f 4f 3e 62 6f a1 be
       0.5752167 0.3809265 0.20245042 -0.3153029
0003b0 5e 7f 78 3e 6d bd 18 bf 06 fb 6c bd 3a fe 18 bf
       0.24267337 -0.5966404 -0.057856582 -0.5976292
0003c0 0d 3b 9e bf 83 f9 5c be 18 0a 2f 3f a4 f7 09 be
       -1.2361771 -0.21579556 0.68374777 -0.13473374
0003d0 1f 23 85 bf c3 d6 bc be a2 8c 15 be 3b 9b 7d 3f
       -1.0401343 -0.368826 -0.14604428 0.9906499
0003e0 d2 d1 57 be db 63 f2 be 45 3c f7 bd da ae dd be
       -0.21076134 -0.4734181 -0.120720424 -0.43297464
0003f0 c2 32 88 be ad 87 1c 3f 7c be 7b bf 7c 39 c3 3e
       -0.26601225 0.61144525 -0.9833753 0.38129795

feature.bias_ih_l0 f4 [512]
000000 7b 09 8d 3d ba 86 fb 3c 7d d0 17 3d be 1c bb 3e
       0.06886574 0.030703891 0.037064064 0.36545366
000010 ce 8d bc bc 47 d8 fb 3d 46 2c f5 bd 3f 8c 93 3d
       -0.023016836 0.12297111 -0.11971335 0.07204484
000020 47 ed 3e 3d c6 96 49 be c6 8c 3f 3d f9 f1 34 3f
       0.046613004 -0.19686422 0.04676511 0.7068172
000030 22 1c 0d 3e 64 1c ee 3c 5b 77 eb 3e ae b9 a6 be
       0.13780263 0.029066272 0.45989498 -0.32563537
000040 69 bc 57 3e 3d 8b b3 3e 10 a7 4b bd 85 e8 98 3e
       0.21067967 0.35067168 -0.04971987 0.29864898
000050 4c d4 fe 3e 80 ec e0 bc 5d a1 28 be fd 07 9d be
       0.49771345 -0.027456522 -0.16467805 -0.30670157
000060 60 13 99 3e 4d 80 a3 3e f2 15 29 3f 0a c2 b4 3e
       0.29897594 0.31933823 0.6604911 0.3530429
000070 b2 9f 61 be 18 d4 c3 3e 37 ea 0f 3f c7 b6 99 3d
       -0.22033575 0.38247752 0.5621676 0.07505565
000080 84 d0 a8 3e a9 37 03 bf 83 77 c8 bc 92 ec 82 3e
       0.32971585 -0.51256806 -0.02447105 0.25571114
000090 1e 9c d4 bd a5 dc a5 3e e6 cb 9a 3e 00 73 42 bf
       -0.103813395 0.323949 0.30233687 -0.75956726
0000a0 86 2a 32 bf 14 b3 27 3f ed d6 13 be 8a 30 18 3e
       -0.69596136 0.65507627 -0.14437456 0.14862266
0000b0 89 f6 80 3f 59 47 1e be 52 7e 03 3f 11 ac 0d be
       1.0075237 -0.15456904 0.51364625 -0.1383517
0000c0 d4 c8 f1 be 60 48 f9 3d b0 b5 07 bc 5a 60 ab 3e
       -0.47223532 0.121720076 -0.008283064 0.33471948
0000d0 cb 8f d6 bd e1 f2 58 bd 19 bf 2f 3f 89 13 37 be
       -0.10476645 -0.052966002 0.68650967 -0.17878546
0000e0 42 81 95 3e 20 53 99 3d 52 13 0e 3f 98 3b cc be
       0.29200178 0.07486558 0.5549823 -0.39889216
0000f0 b8 09 ad bd 08 93 e1 3d 42 ce 5f be 2b 02 80 bd
       -0.08449119 0.11014372 -0.21856025 -0.062504135
000100 63 ab 5f 3e 8a 34 76 3d 95 4d b6 3e f7 a8 48 3f
       0.21842723 0.0601087 0.35606065 0.7838282
000110 ae 82 d5 bd c9 41 4c bc d4 d4 6a 3f 24 3d bd 3e
       -0.10425316 -0.012466856 0.91731 0.3696071
000120 b0 f8 be be 29 fc 23 3d af 98 2c 3e ed d4 b4 bc
       -0.37299109 0.0400354 0.16855119 -0.022074187
000130 3a 4c 84 bd 9a 2b b9 3d f2 44 30 be 23 f9 ab bd
       -0.064598516 0.090415195 -0.172138 -0.083971284
000140 ae 37 be be 11 24 f2 3e ea ab a5 3b 4b 5c 31 be
       -0.37151855 0.4729314 0.005055894 -0.17320363
000150 9c da 4b 3e ec b1 09 3f 11 ff c3 3e a0 f0 21 3e
       0.19907612 0.5378711 0.38280538 0.15814447
000160 68 81 42 be 12 e5 de 3e f5 e2 61 3e 63 1a 8a 3d
       -0.18994677 0.43534142 0.22059233 0.06743314
000170 53 61 89 be b7 bf c9 bd 78 a6 20 bf 22 e6 db 3d
       -0.26832065 -0.0985102 -0.6275401 0.10737254
000180 64 60 4f 3d 33 0c de 3e b7 62 ec 3c 72 ef 9f 3e
       0.050629035 0.43368682 0.028855665 0.3123737
000190 73 7a b6 be f1 97 c5 3d 74 d7 64 3f 2c 85 54 3e
       -0.35640296 0.09648121 0.89391255 0.20753926
0001a0 c7 c1 51 3e 05 d4 eb 3c ee 67 11 3d a0 22 e0 3e
       0.20484076 0.028787622 0.035499506 0.43776417
0001b0 f1 78 35 3f c7 5c 97 3e e6 4f b5 3e 4c 93 b1 3d
       0.70887667 0.2956297 0.3541252 0.08670673
0001c0 fa ca 87 be 56 a3 c3 bc e8 90 8e bd 4d 0b 40 bd
       -0.26522046 -0.023881596 -0.069612324 -0.046885777
0001d0 25 79 39 be 74 cd 03 3f 71 ce 04 3e f9 5f 61 bd
       -0.18112619 0.5148537 0.12969376 -0.055023167
0001e0 11 e4 3f 3f 0a 83 8f 3d a8 9d 96 be 21 79 cd bd
       0.74957377 0.070074156 -0.29417157 -0.10032869
0001f0 41 ee 11 3f eb f2 e0 3e a7 bc f9 3e 8e 86 63 be
       0.5700417 0.43935332 0.48776743 -0.22219297
000200 99 bf 76 bd b1 94 ad be 46 0f 25 3c 3b 4d 10 be
       -0.060241316 -0.33902505 0.010074442 -0.14091961
000210 eb 85 a1 be d6 23 44 bd 34 72 81 bd ce 32 ef 3d
       -0.31547484 -0.04788574 -0.06320611 0.11679612
000220 68 5c 0b 3e ec 12 8c bd 62 e0 c4 3e 4e 21 0f bf
       0.13609469 -0.068395466 0.3845244 -0.55910194
000230 47 b6 d3 bd ef 0a 23 3d 4a 48 d3 bd 69 15 ea bd
       -0.10337501 0.03980535 -0.103165224 -0.11429865
000240 f8 d9 12 3e 65 65 73 be e3 0a 02 3e 6a 4a 09 bf
       0.14340961 -0.23769148 0.12699465 -0.5362917
000250 9a 50 d3 be d2 b5 2b 3e 72 ad 18 be 56 d7 7b be
       -0.41272432 0.16768578 -0.14909914 -0.24593863
000260 22 ac 22 be 73 a4 19 3d f8 cd 29 bf f9 2a fc bd
       -0.15885976 0.037510347 -0.6632991 -0.12312884
000270 f8 0a 97 3c c6 dd 90 be 9a b6 ba be 71 9c dd be
       0.018437847 -0.282942 -0.3646744 -0.43283418
000280 dd 83 31 be cc 78 ea bd 17 96 33 3f 7e 08 2d bf
       -0.17335458 -0.114488214 0.70150894 -0.67591083
000290 36 bc 2a 3d 7d 41 30 be f9 fc 48 bd 5c 53 9b bd
       0.0416834 -0.17212482 -0.04906938 -0.07584259
0002a0 b7 05 23 bf d4 bc d2 3e 28 16 f2 bd c6 79 74 be
       -0.63680595 0.4115969 -0.11820632 -0.23874578
0002b0 f7 40 5d bf 97 64 24 be 54 d4 28 bf ec 0b 2d be
       -0.86427253 -0.16053997 -0.65948987 -0.16899079
0002c0 2b 55 dd 3d c0 3e 15 bf c8 65 7d bd ca 96 0f 3f
       0.1080726 -0.58298874 -0.061864644 0.5608946
0002d0 d8 25 30 bd 6e 8f cb 3d e9 16 52 3e 22 a2 7f bd
       -0.04300484 0.099394664 0.20516552 -0.06241048
0002e0 aa d3 7d 3d 75 b9 0f 3e 20 d1 40 bf 21 22 8b 3d
       0.061969437 0.1403559 -0.753191 0.06793619
0002f0 97 8f b6 3d e2 c2 f0 be 4c 30 09 be 9e 5e 94 bd
       0.08914106 -0.47023684 -0.1339733 -0.07244609
000300 28 76 c6 3d 33 bf 06 3f 60 f8 f3 be 0d a0 2d 3e
       0.09690505 0.52635497 -0.47650433 0.16955586
000310 10 1a 80 be ec cc 83 3d fa 32 d0 3d 4f 6b 3a bd
       -0.25019884 0.0643557 0.10165973 -0.045512494
000320 ef 08 b8 3e 4f 01 28 3e 6b 5a 68 bd 9a aa f5 be
       0.35944316 0.16406749 -0.056726854 -0.4798172
000330 fb ec de 3d 6f 9a 0f 3c 3c 59 ef bd 07 e6 84 3d
       0.10885044 0.008764847 -0.11686942 0.06489187
000340 78 3e ef bd aa b8 04 bf 5f 31 47 be 46 ec c1 3d
       -0.11681837 -0.51844275 -0.19452427 0.09468894
000350 6a 9a 5d be 80 3b bf 3d 33 63 bb 3d 27 28 b1 be
       -0.21640936 0.093375206 0.0914978 -0.34600946
000360 fb 2d 8d bd da 24 a4 bc fd e3 b6 be 57 b7 51 be
       -0.06893536 -0.020037103 -0.35720816 -0.20480095
000370 20 f4 4c 3e 1d 7f a0 3e 84 ef 55 be f3 cc d0 3d
       0.20015001 0.3134698 -0.20892149 0.10195341
000380 c2 40 d5 bc 64 90 b2 bd ed 9d 85 be c5 c9 30 be
       -0.026031855 -0.087189466 -0.2609705 -0.17264469
000390 c4 f5 02 bd 62 3f d9 be a8 3c 3c bf 27 3d 14 3e
       -0.03197266 -0.4243117 -0.73530054 0.14476453
0003a0 1a fe 03 bf f1 60 7b be ef ae be 3d 13 67 b6 be
       -0.51559603 -0.24548699 0.0931071 -0.35625514
0003b0 21 4e 0d bf 15 8f 04 3e 3c 87 21 be a6 d2 42 be
       -0.5519734 0.12945206 -0.15774244 -0.19025669
0003c0 92 33 f7 bd 4d 86 2d be 3c 31 d7 bd 93 ca 60 be
       -0.12070383 -0.16945763 -0.105074376 -0.21952276
0003d0 73 95 e2 be 77 eb 06 be 07 4c 96 be 8d 15 87 be
       -0.44254646 -0.1317576 -0.2935488 -0.2638363
0003e0 6b 78 87 be 98 ce e7 bd 46 3b 5a 3d e3 10 03 bf
       -0.2645906 -0.113187015 0.053279184 -0.5119764
0003f0 a0 d7 b7 3d 42 ce 14 bf d2 59 b1 be f9 5f 84 be
       0.08976674 -0.58127224 -0.3463884 -0.2585447

feature.bias_hh_l0 f4 [512]
000000 be f3 15 3e 36 5b 3c 3e e2 a5 0b ba 3b a1 90 3e
       0.14643762 0.18394169 -0.00053271477 0.2824801
000010 bc 9f ae 3d 1e ef 8f bc cc 5a 92 bd 7f a5 2f be
       0.08526561 -0.017570075 -0.071462244 -0.17152975
000020 d7 49 a5 bc c9 55 30 be 62 8a 16 be fb 59 26 3f
       -0.020176811 -0.17220224 -0.14701226 0.6498105
000030 9a 44 ce 3d 5d db 6f bb cf 34 0d 3f da 1d af be
       0.100716785 -0.0036599257 0.55158705 -0.34202462
000040 06 43 82 3e 51 15 b8 3e 5f 1a a7 bc 0e da 67 3e
       0.2544176 0.35953763 -0.020398317 0.22641775
000050 8a 51 fa 3e 15 43 e4 bc e4 4f 4a be 04 62 20 be
       0.48890334 -0.027864018 -0.19757038 -0.1566239
000060 60 d2 3b 3e 73 88 72 3e dd 2a 22 3f 0d 97 aa 3e
       0.1834197 0.23684864 0.63346654 0.33318368
000070 0f a4 35 be 36 3c f6 3e 9f 15 14 3f 9a c8 24 3d
       -0.17738365 0.48092812 0.5784549 0.04023037
000080 83 69 b2 3e 4a 7b 3c be 9c 60 06 be 69 7a 1c 3e
       0.34846124 -0.18406406 -0.13122791 0.15281071
000090 80 22 f6 bb d5 45 99 3e 6b 28 85 3e 2c 02 25 bf
       -0.007511437 0.2993609 0.260074 -0.6445644
0000a0 fd 1e 34 bf 14 85 2f 3f 7b 82 40 be eb 45 00 3e
       -0.70359784 0.68562436 -0.18799774 0.12526672
0000b0 ff 9c 94 3f e4 93 94 bd 4f 2e 12 3f ce 98 94 be
       1.1610411 -0.072547704 0.5710191 -0.2902283
0000c0 16 32 dd be c1 ca 40 3e 28 2f 18 bd 0e d8 cd 3e
       -0.43202275 0.18827344 -0.037154347 0.402039
0000d0 41 b1 c5 bd 6a 13 f2 bb d0 45 28 3f f4 d0 7d be
       -0.09652949 -0.0073875682 0.65731525 -0.2478674
0000e0 76 58 af 3e 89 48 cc 3d b2 8b ef 3e d4 14 e4 be
       0.34247178 0.099747725 0.46786267 -0.4454714
0000f0 63 6d 9f bd 51 69 b6 3d 1e b1 88 be 9e b7 5e 3d
       -0.07784536 0.08906806 -0.2669763 0.05437433
000100 95 e3 70 3e cc 45 19 3d 16 f0 da 3e 91 71 3d 3f
       0.23524316 0.03742008 0.42761296 0.74001414
000110 41 d6 fe bd 02 de e6 bb dd a2 5f 3f 7c 4f 72 3e
       -0.124432094 -0.0070455084 0.87357885 0.23663133
000120 be 2f bc be 86 e8 12 bd 1d 14 6f 3e de 24 51 bd
       -0.36755174 -0.035866283 0.23347516 -0.05106055
000130 8e 0e ee bd d9 05 c3 3d 6f 83 69 be 72 89 4b be
       -0.1162387 0.095226 -0.22804044 -0.1987665
000140 7d ed 73 be df c7 c8 3e 85 5c a6 3d f7 37 f6 bc
       -0.23821063 0.3921499 0.081231155 -0.030055983
000150 90 2d c2 3d b7 0f 26 3f 3c 0a ce 3e ff 97 ad 3d
       0.094813466 0.6486773 0.40242183 0.084762566
000160 a9 ec 8c be f3 a6 b2 3e 55 6e 78 3e 7c d2 a2 3d
       -0.27524307 0.34892997 0.24260838 0.07950303
000170 d0 00 71 be a9 bd 05 bc 8b 46 2d bf 06 8a 50 3e
       -0.23535466 -0.008162894 -0.67685765 0.20365152
000180 b9 e2 b8 bd 3e 17 04 3f 1b 70 9d ba ff 24 3c 3e
       -0.09027619 0.51597965 -0.001201156 0.18373488
000190 3c 6e c5 be 70 4f f1 3c d2 b3 4a 3f 34 3d 83 3e
       -0.38560665 0.029456824 0.79180634 0.25632632
0001a0 e7 94 19 3e 7c bd 78 bd 5d 0a 69 3d 97 5e ec 3e
       0.14998208 -0.06072758 0.05689465 0.46165916
0001b0 61 f1 2a 3f 2c b3 9d 3e cc ae 8a 3e 23 5b c7 3c
       0.66774565 0.3080076 0.27086484 0.02433545
0001c0 19 2b 98 be 54 e3 b8 3c a2 79 9e bd 65 7d 84 3d
       -0.2972038 0.022569336 -0.07738043 0.064692296
0001d0 4f 82 36 be 08 9f 04 3f fe 03 17 3e a4 b3 1d 3d
       -0.17823146 0.5180516 0.14747617 0.038501397
0001e0 23 80 0f 3f a4 43 8b 3e 89 03 91 be 2e fa 54 be
       0.56054896 0.27200043 -0.2832301 -0.20798561
0001f0 02 6f 2a 3f f3 20 12 3f b1 74 df 3e 8d f1 11 be
       0.66575634 0.57081527 0.43643716 -0.142523
000200 e9 d2 e3 bd 45 91 f2 be 1c 94 9c 3d 48 3b ad bd
       -0.11124212 -0.47376457 0.07645437 -0.084585726
000210 09 a0 b6 be ec 0a 93 be 4a 55 a4 bd a3 f7 46 3d
       -0.35668972 -0.2871927 -0.0802408 0.04857601
000220 a0 aa a9 3e bc a8 09 be 5a 55 d2 3e e1 2c 11 bf
       0.3313799 -0.13443273 0.41080743 -0.56709105
000230 9a ff 8c bd 1d 81 cf 3c 49 65 d8 ba a1 50 97 bc
       -0.0688469 0.02533012 -0.0016509678 -0.018471064
000240 05 57 3e 3d 3a fb 8f be 5f 79 83 bd 72 e5 f8 be
       0.046469707 -0.28121358 -0.06419634 -0.48612553
000250 11 e4 9d be e9 52 95 3e e3 64 d9 bd 18 93 b5 bd
       -0.30838063 0.29164818 -0.10614946 -0.088659465
000260 48 b2 21 be ec cb 6e 3e cb 94 1e bf 8c fa 2b bd
       -0.15790665 0.23319978 -0.6194579 -0.041986987
000270 cb a9 53 3c b1 56 18 be 5c a9 c9 be fe 6d fe be
       0.0129189 -0.1487682 -0.39387023 -0.49693292
000280 75 bb 7d be 93 28 63 bd 67 7c 34 3f 44 67 37 bf
       -0.2477854 -0.055458616 0.7050232 -0.71641946
000290 0f c8 41 be 3e 39 76 be 17 ca 36 bc f5 2d 11 be
       -0.18923973 -0.24045274 -0.01115658 -0.14177687
0002a0 34 00 1f bf 53 d2 b1 3e 2e 3f 06 be c4 57 d5 bd
       -0.62109685 0.34730777 -0.13110039 -0.104171306
0002b0 da 20 4e bf 8b 17 bf bd 08 6e 17 bf ec 38 8d bd
       -0.8051888 -0.09330662 -0.5915227 -0.068956226
0002c0 9e f5 32 3e 68 37 04 bf e2 27 0a be 41 6b 06 3f
       0.17476508 -0.51647043 -0.13491777 0.52507406
0002d0 77 40 07 be 51 9b 39 3e ee df 87 3e 57 40 bd bc
       -0.13208185 0.18125655 0.26538032 -0.023101969
0002e0 db 05 b4 3d a6 e9 43 3e e3 86 4f bf e1 ab 55 3c
       0.08790179 0.19132099 -0.81065196 0.013041467
0002f0 e2 49 4e 3d 57 13 18 bf 37 18 b9 bd 3b 0e cc bd
       0.05036343 -0.5940451 -0.09037822 -0.09963652
000300 c5 d0 9e 3d 12 0b ed 3e 19 f0 0f bf 84 b4 66 3e
       0.077546634 0.46297508 -0.56225735 0.22529799
000310 79 36 b1 be 51 2b 33 3e 4b e0 16 3d 6d f6 37 be
       -0.34611872 0.17496993 0.036834996 -0.17965098
000320 ca a2 98 3e 0c f7 75 3d de 6f 4c be 29 e7 01 bf
       0.29811698 0.060050055 -0.19964549 -0.5074335
000330 0d b1 0e 3e 2b 0a b4 3c e5 ff 98 bd 9b 80 87 bc
       0.13934727 0.021977505 -0.07470683 -0.016540816
000340 35 3d 7b be f9 f1 11 bf dc 6f 42 be 91 39 4f 3d
       -0.24535067 -0.57009846 -0.18987983 0.05059201
000350 5e 6c 84 bd 70 34 58 3d 78 a7 f0 3c eb f6 94 be
       -0.06465982 0.052784383 0.02937673 -0.29094633
000360 5e fc cb bd 40 8e 3d 3e 87 63 ae be 88 a9 34 be
       -0.099602446 0.18511295 -0.34060308 -0.17642796
000370 7a 0b 1a 3e 30 7a b9 3e 59 22 f8 bd fe fb f0 3d
       0.1504344 0.36226034 -0.12115926 0.11766814
000380 ec 6c e1 bd 61 63 d1 3c 04 7c a7 be 4a 8e db bd
       -0.11007103 0.025560083 -0.32711804 -0.10720499
000390 55 f2 a1 bd a7 ec b0 be af 48 4c bf 0e 61 b4 3d
       -0.07907549 -0.3455555 -0.79798406 0.08807574
0003a0 5e b6 06 bf f3 07 86 bd f1 90 0e 3e e2 21 cf be
       -0.5262202 -0.06544485 0.13922478 -0.40455538
0003b0 9b d9 27 bf a0 85 26 3e c5 54 56 bc 4b dc 20 be
       -0.65566415 0.16261911 -0.013081734 -0.15709035
0003c0 5b c0 73 bd 7c 95 16 be ac 05 42 bd c7 05 bd be
       -0.059509616 -0.14705461 -0.04736869 -0.3691847
0003d0 aa 5e 10 be 81 9b 3c be 42 68 bd be 34 40 8c be
       -0.14098611 -0.18418695 -0.36993605 -0.27392733
0003e0 1a fc a0 be 72 e2 e8 bd 2e e3 1e 3e ba bb 05 bf
       -0.31442338 -0.11371316 0.1551635 -0.52239573
0003f0 ac 72 25 3e 9d 0a 21 bf 3d 2d d8 be 8a 56 62 be
       0.16157025 -0.6290682 -0.42222014 -0.22103325

feature.weight_ih_l0_reverse f4 [512, 64]
000000 cd f2 de 3d e1 f0 3e bf 7d 21 5b be 4d fc 52 3e
       0.10886154 -0.745863 -0.21399494 0.20604058
000010 d7 5e 94 3e 9c 87 18 bf 2e 32 3c be 1a 95 bd be
       0.28978607 -0.59581923 -0.18378517 -0.37027818
000020 46 21 04 3f 49 d5 5f 3f ee a1 3e 3e 4d 58 27 3f
       0.5161327 0.8743482 0.18616459 0.6536911
000030 91 68 68 be 6f 2e c5 3e f9 3d 87 3e 2b 28 49 3f
       -0.22696139 0.3851199 0.2641447 0.78576916
000040 ef c8 b2 be 7c cc f5 3e 38 cb 03 bf 02 34 8b 3e
       -0.34918925 0.48007572 -0.5148196 0.27188116
000050 6d 8c 49 3f c1 5b 39 be fe 55 d5 be b0 97 a2 bd
       0.787299 -0.18101408 -0.4166717 -0.07939088
000060 fb d2 b7 3d 44 e7 4d 3d f7 e2 12 3f e5 1b e1 be
       0.08975788 0.05026938 0.5737757 -0.43966594
000070 ce 9a c2 3e d1 dc 6a bf a6 2a 6c bf 17 c9 0d be
       0.38008732 -0.9174319 -0.92252576 -0.13846241
000080 b3 b8 92 bf 62 b7 8f 3e a1 39 85 bd 0e 0d 17 3e
       -1.1462616 0.28069597 -0.065051325 0.14751074
000090 90 ed 7d be ff b8 c1 be 3f f5 37 3e 50 72 80 bf
       -0.24797654 -0.37836453 0.17964648 -1.0034885
0000a0 14 31 27 bf 4c bc 08 3f 26 88 5b bf 65 18 ea 3d
       -0.6530926 0.5341232 -0.8575462 0.11430434
0000b0 83 4a 34 be e6 c6 ce be 58 15 d0 3d 2c 5a b1 3e
       -0.17606549 -0.40386122 0.10160321 0.34639108
0000c0 fb d9 ab 3d 0f 54 93 3e d7 55 06 3f be 07 9d 3e
       0.08391186 0.2877507 0.5247473 0.3066997
0000d0 aa b7 b3 3e 50 36 80 3f 5c 6f 63 3f 53 c1 17 bf
       0.35101062 1.0016575 0.88841796 -0.59279364
0000e0 e7 bd ce bd 56 92 06 3f 20 bb ff be 7e 0c 08 3f
       -0.10094815 0.5256704 -0.49947453 0.5314406
0000f0 44 d8 a9 3b d5 93 3a 3f 05 b1 44 be 21 ca 84 3f
       0.0051832516 0.72881824 -0.19208153 1.0374185
000100 d0 d5 d0 be cc f4 3c 3f 30 01 1a bf c7 aa b1 bf
       -0.40788126 0.7381103 -0.6015806 -1.3880242
000110 df 21 00 3f 9b 80 fe be f6 b6 97 3e 41 9f aa be
       0.50051683 -0.49707493 0.29631776 -0.33324626
000120 a7 b7 1a 3f 62 b0 54 be 52 aa 44 bf b0 55 83 3f
       0.6043648 -0.2077041 -0.7682239 1.0260525
000130 38 7b 38 bf b5 97 4f 3e a6 f2 49 3f ff d5 1a bf
       -0.72063017 0.20272715 0.7888588 -0.6048278
000140 05 5e f8 3d 77 06 46 3f d9 af d4 be 70 c2 b8 3e
       0.12127308 0.77353615 -0.4154041 0.36085844
000150 2e 95 75 3e 06 ac aa 3b e5 41 4e bf 28 f0 0e be
       0.23982689 0.005208495 -0.805693 -0.139588
000160 f5 bf 40 bf 5c f4 17 bf bd d5 a5 be e1 4a 1b bf
       -0.75292903 -0.5935724 -0.32389632 -0.6066113
000170 93 b7 9f be 5e 81 ed bd 18 54 93 be e7 32 94 3f
       -0.31194744 -0.115969405 -0.28775096 1.1578034
000180 48 70 3a 3d 7c b7 27 3f 6d 13 2b 3e 1e b5 b8 be
       0.045517236 0.6551435 0.16706629 -0.3607568
000190 0b d6 4f 3e 08 11 c2 bd ec f0 08 3e a9 31 89 bf
       0.20296495 -0.09475905 0.13373154 -1.071828
0001a0 ef 27 b0 3e 69 a8 58 3f b2 0e 76 be a1 bd 23 bf
       0.34405467 0.84631974 -0.24029043 -0.63961226
0001b0 0f 2f 29 3d d8 32 04 3f f9 45 cb 3e 07 c2 32 be
       0.041304644 0.5164008 0.39701822 -0.17456828
0001c0 b3 01 8d 3f 66 52 d3 be 58 4c b7 bb 64 ad 73 3e
       1.1016144 -0.41273803 -0.0055938177 0.23796612
0001d0 cb 52 b8 3d 0c 28 9a bd 87 7a 7f 3e db c5 08 3f
       0.090001665 -0.075271696 0.24949084 0.53426903
0001e0 da 9b 27 bf 2c 21 64 3f 8a 58 da 3e 09 72 e9 bd
       -0.65472186 0.89113116 0.42645675 -0.113987036
0001f0 bc 6a ce 3e 4a da 83 3f 1d 4e 15 bf a0 e3 4c bf
       0.40315807 1.0300992 -0.58322316 -0.8003483
000200 f1 1d ff be 48 70 97 bf cf 97 d2 3f c4 99 ae 3e
       -0.4982753 -1.183114 1.6452578 0.3410169
000210 39 13 a0 bf 44 80 3e bf bd 50 74 3f 28 12 4d 3f
       -1.2505866 -0.7441447 0.95435697 0.8010583
000220 9d 69 af bd ec fe 96 3e e5 71 94 3f 89 ec ae 3e
       -0.08565066 0.29491365 1.1597258 0.34164837
000230 22 92 48 3f 79 53 24 bf 6e 39 60 bf ea 5e 49 bf
       0.7834798 -0.6418987 -0.8758763 -0.7866045
000240 3f 13 83 bf a7 ac b5 3e 2b e5 3a 3e 35 19 0f 3e
       -1.0240248 0.35483286 0.18251483 0.1397446
000250 73 77 e0 be a9 31 80 3f c5 b1 1d 3f 6a ca d0 bd
       -0.43841133 1.0015155 0.6159938 -0.101948574
000260 3a 20 af 3c bf bb d2 3e 2e f5 16 3f f6 af 59 3f
       0.021377672 0.41158864 0.58967865 0.8503412
000270 48 fc 03 be 49 52 ef be c4 5d 44 bf a2 fb 38 3f
       -0.12889206 -0.46742466 -0.76705575 0.7225896
000280 f0 f5 e9 be 8b e1 92 bf 0f b5 5c 3f 2a ff 3f bd
       -0.45695448 -1.147508 0.86213773 -0.046874203
000290 75 88 ca bf bd b0 2f 3f 8d 12 3f 3f 6a be 26 bd
       -1.5822893 0.68629056 0.7463768 -0.040708937
0002a0 ad 74 75 be 14 d3 78 be 53 7f 67 3f 64 07 8f bf
       -0.2397029 -0.2429927 0.90428656 -1.117413
0002b0 97 3c 17 be ee e5 9d 3d 1f a8 c5 bd 7f 2c 90 be
       -0.14769207 0.07709871 -0.09651207 -0.28158948
0002c0 75 5c 31 3e 8b 00 5a be 0a 5a 8a 3f c7 3e 86 be
       0.17320426 -0.2128927 1.0808728 -0.2621977
0002d0 21 22 83 3d 78 fe 85 3d fd 72 71 be d2 5a fc be
       0.06402994 0.06542677 -0.23579021 -0.4928804
0002e0 26 08 1f 3f 71 79 25 3f cb 3a 06 bd 25 bf 00 3e
       0.6212181 0.6463843 -0.032770913 0.12572916
0002f0 54 d1 0a 3f 65 5b 9e 3e a8 1c 64 be 9e b9 77 3f
       0.5422566 0.30929103 -0.22276556 0.96767604
000300 11 b2 1e bf ef b8 ca bd 27 fa c2 be 5b 99 a5 bd
       -0.6199046 -0.098985545 -0.38081476 -0.08085891
000310 72 72 94 3f 17 6c f9 3e 8e c0 96 3e eb 5a 05 3f
       1.1597426 0.48715279 0.29443783 0.52091855
000320 53 d0 4d bf d0 54 49 3e 5b 6d fc be 4b d9 8a bc
       -0.80396 0.1966126 -0.49302182 -0.016949316
000330 6f f8 cd 3f 69 0d 65 be f8 4c 38 3e b5 8a d8 bd
       1.6091441 -0.22368397 0.17998111 -0.10573331
000340 42 a6 99 bf 08 6c 53 bf 30 db 9f 3d a0 32 26 3e
       -1.2003863 -0.8258672 0.078054786 0.1623025
000350 d3 32 83 3f e5 d1 cd be 9c 5b c8 3c fb cb 44 3e
       1.0249885 -0.401992 0.024457745 0.19218437
000360 a8 f0 f0 be 60 7d f2 be 62 ed f9 be 91 9a 5d bc
       -0.47058606 -0.4736128 -0.4881392 -0.013525621
000370 81 c6 58 be a9 81 89 3e 15 e3 c0 3c d6 79 2d bf
       -0.21169473 0.26856735 0.023545781 -0.6776403
000380 11 67 9f 3e 30 81 0d 3f 3c 7d 85 3e a9 ab 0a be
       0.3113332 0.5527525 0.2607211 -0.13542046
000390 75 37 24 bf 6c ea 8a be 0d d6 d3 bc 3b 80 1c bf
       -0.6414712 -0.27131975 -0.025858903 -0.61133164
0003a0 12 1d c3 3d b3 7d 4e 3f 25 90 ae be b9 cb 35 be
       0.09527029 0.8066055 -0.3409435 -0.17753495
0003b0 c4 06 09 bf 0c ec 1a 3e a7 46 2f bf dd 11 98 3e
       -0.5352595 0.15129107 -0.6846718 0.2970113
0003c0 ba 5c 39 3e d2 de 7a 3f 1c 65 3b 3e f3 69 82 bd
       0.18101779 0.97996247 0.18300289 -0.063678645
0003d0 79 07 0b 3e 14 50 2d 3f e7 23 cd be 5a 7c fc bd
       0.1357707 0.67700315 -0.40066454 -0.12328406
0003e0 6c e5 5c be e6 08 15 3f 53 18 20 be bf 68 3a be
       -0.21571892 0.582167 -0.15634279 -0.1820402
0003f0 c3 66 5b 3f a2 6d f0 3e cb 91 b1 3e 47 bc 32 be
       0.85703677 0.46958643 0.34681544 -0.17454635

feature.weight_hh_l0_reverse f4 [512, 128]
000000 2e da 33 bf 95 d1 d6 3e 6e c8 e8 be ae 95 12 bf
       -0.7025479 0.41956773 -0.45465416 -0.57259643
000010 e5 f2 e1 3e 20 0e 31 3f ab ff 91 3f 18 a0 93 bd
       0.44130626 0.6916218 1.1406149 -0.0720827
000020 2f dc 5b bf 42 7f d6 3e e6 f1 be be 1a 24 4f bf
       -0.8588285 0.41893965 -0.3729393 -0.8091446
000030 74 1b 74 3f 47 35 e4 3e d2 d2 1e 3f 3a 99 8f be
       0.9535439 0.44571897 0.62040436 -0.2804659
000040 94 09 2f 3d 10 3b a8 be 3f 14 f8 3e 10 9e c5 bd
       0.042733744 -0.3285756 0.48452947 -0.09649289
000050 45 b2 db be 59 2d 9b be 8f c6 80 3e 07 c0 aa be
       -0.42909446 -0.30308035 0.25151488 -0.3334963
000060 b3 13 51 bf fa 5f a1 3e e0 50 94 3e ea 5b a4 bc
       -0.81670684 0.31518537 0.28967953 -0.02006336
000070 71 a4 1b bf 60 6d b7 3c 29 43 60 3e 5f d8 2c 3f
       -0.6079779 0.022391021 0.2190062 0.67517656
000080 96 81 27 3d bd 6f 37 be 2f 6d 47 3e 4a 3f 05 3f
       0.040895067 -0.17913719 0.19475244 0.52049696
000090 a3 65 0b bf 6e dd e5 3c 49 6e 97 3e 02 13 06 bf
       -0.5445196 0.028059687 0.29576328 -0.52372754
0000a0 99 57 e3 3c f7 99 a0 be 42 27 5f 3e bc 5b df 3e
       0.02775173 -0.31367466 0.2179232 0.43624675
0000b0 ef a5 f1 3c df 54 ce 3e 3c 6b fb 3e 5c ff 9d be
       0.029498069 0.40299127 0.4910525 -0.30858886
0000c0 ca 08 2e 3f 03 11 92 3e cf 26 35 3f 47 b3 45 be
       0.6798216 0.28528604 0.7076234 -0.1930667
0000d0 6e 4b 40 3f 9e 57 ca be ba c5 a5 be 7b 49 d0 3e
       0.75115097 -0.39519972 -0.32377416 0.4068106
0000e0 a6 0d 70 bd 25 f3 2d be c9 f9 9d bf f5 5a 73 3e
       -0.058606766 -0.16987284 -1.2341853 0.23765166
0000f0 e3 54 9f 3f 38 a4 4c be 4f 62 6c 3e 22 b8 ae bd
       1.244778 -0.1998452 0.23084377 -0.08531214
000100 07 12 18 3e 03 5f 46 bf b6 b6 a8 be ed 85 86 be
       0.14850627 -0.77488726 -0.32951897 -0.26274052
000110 78 bc c2 3e e9 fa 22 bf 1f e2 b7 3e 2e 31 d4 3e
       0.38034415 -0.6366411 0.35914704 0.4144377
000120 4a 2b f4 3e 9f f5 97 be 3f fa 9c 3e b0 6f 01 3c
       0.47689277 -0.29679582 0.30659673 0.0079001635
000130 11 9c bf 3e 62 64 c7 3d 54 0d 2b 3e 22 30 21 3f
       0.37423757 0.097359434 0.16704303 0.6296407
000140 00 bd 55 be 7d e4 31 3d 15 e9 6a be 0b 15 b2 3e
       -0.20872879 0.043430794 -0.22940476 0.3478168
000150 e4 a2 ef 3d e8 84 46 3d 8a 31 0b bf ed 6d 30 be
       0.11700991 0.048466593 -0.54372466 -0.17229433
000160 a7 b4 c3 3d 87 c1 51 be 36 cc 9d 3d 45 a6 d4 3e
       0.09555941 -0.20483981 0.07704966 0.41533104
000170 c5 65 b0 3e 7c 0b 7f be e2 49 39 3e f4 1a 1b be
       0.34452644 -0.24906725 0.1809459 -0.15147
000180 56 3e 88 be 7b f7 db 3c 59 1e 97 bd 36 af 3f bf
       -0.2661006 0.026851406 -0.07378835 -0.74876726
000190 d3 a6 15 3e 12 5f c4 bd 4e 68 08 3e e6 46 89 3e
       0.1461442 -0.09588446 0.13321039 0.26811904
0001a0 3d 4a 4b 3f 17 43 b9 3e 9a 40 54 be 86 5e 2b 3f
       0.79410154 0.36183998 -0.20727769 0.66941106
0001b0 b2 5b e5 bd 4d 74 78 3d bb 52 60 bf f9 0e ab be
       -0.1119913 0.060657788 -0.87626237 -0.3340986
0001c0 7e c3 a6 3e a2 9c 43 3f 49 ca ad 3c 64 a5 b2 3c
       0.32571024 0.7641088 0.021214621 0.02180738
0001d0 80 a6 52 3f 09 07 ba be ad ec a6 be 57 20 14 3f
       0.8228531 -0.36333492 -0.32602444 0.57861847
0001e0 c7 5f 05 bf a9 ef 8a 3e 25 e4 4f 3f c6 23 15 bf
       -0.5209927 0.2713597 0.81207496 -0.5825771
0001f0 73 ee 20 bf d6 06 f3 3e af fc 83 3e bd 87 b3 bf
       -0.62863845 0.47466153 0.2577872 -1.4025799
000200 b8 92 d6 bd 19 92 ac bc db 6e 4e 3e b4 c5 f3 be
       -0.10477203 -0.021065759 0.20159476 -0.47611773
000210 94 f0 75 bf 3c cc fc 3e e4 cb d4 be aa cc 46 3e
       -0.9607022 0.49374568 -0.41561806 0.1941401
000220 f6 f6 39 3e 20 fb 81 3e 91 54 e7 3e c4 c6 92 bd
       0.18160614 0.25386906 0.45181707 -0.07166818
000230 b1 b1 60 3f 89 4a f6 3e fd 1e 8c 3e 06 72 6b bf
       0.87771136 0.4810374 0.27367392 -0.9197086
000240 6e 7a 97 bf ca 58 84 3d a8 91 ac 3e 28 5e d9 be
       -1.1834238 0.06462248 0.33704877 -0.42454648
000250 fb fe 20 bf 68 24 ad bd 77 87 16 3f 55 af 66 3e
       -0.6288907 -0.084542096 0.5880045 0.22527821
000260 6c 7c 0b be e3 ea ef be ae 0a 07 3f 89 79 30 3e
       -0.13621682 -0.46858892 0.5275067 0.17233862
000270 74 7c e6 3d 85 82 32 bf f3 0d 3e 3f ee 08 da bd
       0.11254206 -0.69730407 0.74240035 -0.106462345
000280 11 95 62 bc 73 64 94 3e 81 db 17 3f e0 bd 73 be
       -0.0138294855 0.28982887 0.5931931 -0.238029
000290 93 b8 9f 3e 5b 34 b6 3e d0 f7 2d 3f 74 c7 de 3e
       0.31195506 0.3558682 0.67956257 0.43511546
0002a0 54 8f fe be f2 ff 0d bd 33 62 44 bf a0 f9 34 3f
       -0.49718726 -0.034667917 -0.7671234 0.706934
0002b0 f9 62 f9 bd b7 22 10 3f 7f 5b e9 be 16 d3 96 3d
       -0.12177081 0.5630297 -0.45577618 0.0736448
0002c0 e9 4b ba 3e d7 0a a6 b9 eb 6b 86 3e 16 a8 f5 3f
       0.3638604 -0.00031670064 0.2625421 1.9191921
0002d0 90 6a 21 be db b5 c0 3e 04 01 17 bf dc 6f 4b 3e
       -0.15763307 0.37638745 -0.58985925 0.1986689
0002e0 77 1d 0c bf 92 c1 3a bd c0 00 69 3e 41 90 15 3f
       -0.5473246 -0.04559476 0.22754192 0.5842324
0002f0 82 41 a5 3c eb 6d 5d 3f 87 9f 01 3f 66 87 21 3d
       0.020172838 0.86495847 0.50634044 0.039435767
000300 90 cd 95 bc 87 ba fc be 7e 02 9c 3f 4f ad ba 3e
       -0.018286496 -0.4936106 1.218826 0.3646035
000310 fd 19 44 3f a3 94 1b 3c 23 0c 5e 3f 98 8e 30 be
       0.76602155 0.009495887 0.8673727 -0.17241895
000320 aa 8f 5c 3e 48 d3 64 bf 94 12 3d be fc 0b f5 be
       0.21539178 -0.8938489 -0.18464118 -0.47860706
000330 ba 83 d2 be 17 cb b3 bf b0 1d 66 3d 25 c8 80 3f
       -0.41116124 -1.4046353 0.056180656 1.0061079
000340 c6 16 11 3e a5 b2 8d be f6 f5 62 be 39 5d 5a 3f
       0.14168844 -0.27675357 -0.22164139 0.85298496
000350 6c 52 03 be 41 30 fa 3d 84 74 01 3e 6f 40 ca bd
       -0.1282441 0.12216235 0.12642103 -0.09875571
000360 92 6f 8b bd c6 7a 83 3d 1d d2 5b bf 7c 70 9d be
       -0.0680839 0.064199015 -0.8586748 -0.3074988
000370 0b ee 11 3f 90 25 d9 3d 90 5f 22 3e 8c 31 f2 be
       0.5700385 0.106028676 0.15856767 -0.47303426
000380 53 90 c0 be 50 70 60 be 48 13 10 3e 2d e2 d8 be
       -0.3761011 -0.21917844 0.14069855 -0.42360058
000390 67 35 19 3f c7 97 da bd 75 65 6e 3e 40 f7 9d 3e
       0.5984711 -0.106734805 0.2328089 0.308527
0003a0 21 f4 52 3e 8b 55 09 3e ad 69 3b bf 2b 58 40 3e
       0.2060094 0.13411538 -0.73208123 0.18783633
0003b0 09 31 08 3e ec 7c 5c 3d 60 fe b9 3e 5e e6 8e 3e
       0.13299955 0.053830072 0.36326885 0.2791013
0003c0 e9 98 f6 bc a0 4f 20 3f a4 ff 67 3f fd c4 05 bf
       -0.03010221 0.626215 0.9062445 -0.52253705
0003d0 d8 13 da 3e e5 6a cf be 0c 8b b8 3e 6a 4e 43 3e
       0.42593265 -0.40511242 0.36043584 0.19072881
0003e0 f2 d7 08 bf 08 e9 ce 3e 51 2b 62 3e 25 d2 0c 3f
       -0.53454506 0.40412164 0.22086836 0.55008155
0003f0 fb db 08 bf 32 81 52 bf d5 92 33 be 4f fd dc 3c
       -0.53460664 -0.82228386 -0.1753648 0.026976256

feature.bias_ih_l0_reverse f4 [512]
000000 be 97 8e be f5 20 14 be f8 30 a7 bd b4 57 08 bd
       -0.27850145 -0.14465697 -0.08163637 -0.033286765
000010 94 ae d2 3d 29 3b bb 3c 0b 4c ce 3e c8 dc a4 3e
       0.102872044 0.022855358 0.4029239 0.32199693
000020 af ce f4 bd 1c d2 41 be 5f 45 8e 3e 7a e4 8f 3e
       -0.11953484 -0.18927807 0.277873 0.28104
000030 1c 95 a4 be d9 ff 50 3d e7 c5 1e 3e ac cc aa 3d
       -0.3214501 0.051025245 0.15505181 0.08339819
000040 10 d4 64 3e bd aa 45 be 4f 2c b8 3d 41 94 32 be
       0.2234652 -0.19303413 0.08992826 -0.17439367
000050 a6 63 ef bd dd a6 cc 3d 70 33 46 3d b0 52 90 3e
       -0.11688928 0.09992764 0.0483889 0.28188086
000060 a3 94 fa 3e 96 44 95 3e d7 07 ff 3e 18 b5 ac 3e
       0.48941526 0.2915389 0.4981067 0.33731914
000070 32 72 c6 3e 1d ee 8e 3d a0 d7 25 3f 50 d7 7b 3e
       0.38759 0.0697901 0.6478214 0.24593854
000080 e4 94 17 3e d8 31 ff 3d 80 12 58 3e 92 3e f7 3d
       0.14802891 0.12460679 0.21100807 0.12072481
000090 7b ab 38 bd d3 f8 16 3d 1c 40 a4 3e ca 50 1c be
       -0.04508541 0.03685839 0.32080162 -0.15265194
0000a0 7c 86 17 be 5a ab 48 3d be 1c 3d 3e a4 ed 00 be
       -0.14797395 0.04899154 0.18467996 -0.12590653
0000b0 73 f2 18 3d 34 4e d5 3e 70 c5 b5 3e 35 79 f9 3e
       0.037340593 0.41661227 0.35502195 0.48725286
0000c0 98 79 21 be 5f 85 84 be 27 93 88 be 69 e6 3a 3e
       -0.1576904 -0.25883004 -0.26674768 0.18251957
0000d0 cf f9 8e 3e fa 78 65 3f df 0d a3 3b a9 02 56 be
       0.27924964 0.8963772 0.004976019 -0.20899452
0000e0 ab ae 00 bd 62 3a b1 3e f0 cd 53 3d 59 c8 e1 3e
       -0.031416576 0.34614855 0.05171007 0.44098166
0000f0 0c 09 dd 3b 12 1b fa 3e e0 a9 b8 3e 00 69 35 3e
       0.0067454632 0.48848778 0.36067104 0.17715836
000100 5f c2 bc 3d 3d bc 5b 3e a0 a8 02 3e 68 78 62 3f
       0.09216761 0.21458526 0.12759638 0.88464975
000110 23 67 66 3d ee c1 a7 3e a6 c7 cc 3d 3a 92 cf 3d
       0.056250703 0.32765144 0.099990174 0.101353124
000120 94 d3 db bd f8 78 3f 3e 78 33 e6 3d 1f d4 06 3e
       -0.10733715 0.1869849 0.11240286 0.13166855
000130 ec 71 b1 3e db aa 9b be c9 d7 d1 3e ae 55 4d 3e
       0.34657228 -0.3040379 0.40984944 0.20052215
000140 11 bd 63 3d 47 2d b5 3e 71 56 0f bc 43 8e 61 3e
       0.05560023 0.35386106 -0.008748637 0.22026925
000150 ea 08 17 3e 57 d9 23 3e d5 12 c7 3e 51 7e 13 3f
       0.14749494 0.16000877 0.38881555 0.5761462
000160 cc fe cb 3e 59 43 0f 3e b5 a9 46 be 58 ec 53 3d
       0.39842832 0.13990535 -0.19400676 0.051739067
000170 63 32 03 3f 3a 6c 0a 3d 7c 85 81 3e 95 ab 99 3e
       0.5124876 0.03379462 0.25297153 0.3001372
000180 fd 08 26 bd 87 b6 0c 3e a2 5d e8 3c 99 fc ad bc
       -0.040535916 0.13741504 0.02836496 -0.021238612
000190 bd a3 30 3d 6e 50 00 be 40 0a 12 be 5b bf 86 3e
       0.043124903 -0.12530681 -0.14261723 0.26317868
0001a0 b6 45 cd 3d f2 51 3f be a8 0c dd 3e 76 a8 f6 3c
       0.10023062 -0.18683603 0.43173718 0.030109625
0001b0 ca cc e9 3c ea d4 bc bd df 83 e8 3d 11 87 6d 3e
       0.028540034 -0.09220298 0.113532774 0.23196055
0001c0 98 51 39 3e d9 d1 1b be 86 7c 38 be bd f3 0b 3e
       0.18097532 -0.1521677 -0.18016252 0.13667198
0001d0 86 66 9f 3e 1a a7 02 3e 50 9c cf be 50 fc 8f bd
       0.31132907 0.12759057 -0.40548944 -0.07030547
0001e0 db b6 87 be eb 04 2a 3f bb c6 53 be 48 7f 03 3e
       -0.26506695 0.66413754 -0.20681278 0.12841523
0001f0 d1 25 82 be 55 7c 57 be 62 94 16 3f 72 5e c5 3d
       -0.25419477 -0.21043523 0.58820164 0.09637155
000200 a1 ee 4b 3f 71 3c 2e be 13 aa a2 3d 64 95 8b 3e
       0.79660994 -0.17015244 0.07942595 0.27262414
000210 12 e7 86 be 62 91 05 be 41 64 00 3e 0a a8 b4 bd
       -0.26348168 -0.1304374 0.12538244 -0.088211134
000220 d4 4b f5 bd 4f b2 0e bd 34 bb 28 3f ab f8 79 be
       -0.11977354 -0.034838017 0.6591065 -0.24411266
000230 4d 44 a0 bd ee a4 a1 3e a6 a0 94 be b9 97 95 bd
       -0.07825527 0.31571144 -0.29028815 -0.073043294
000240 9b 8b 40 be e9 d8 e7 3d 33 80 52 be 9b 59 82 be
       -0.18803255 0.11320669 -0.20556717 -0.2545899
000250 f3 7e 72 3f 53 c9 87 3e e1 f2 84 bd d4 4b 1d 3e
       0.9472496 0.26520786 -0.06491638 0.15360957
000260 1a f1 25 bf 88 a4 16 bb 23 30 8c 3e 3f 2d 98 bd
       -0.64821017 -0.0022986252 0.27380475 -0.07430505
000270 8a ed c7 3e a3 28 95 be 64 f9 e3 3e 91 83 b4 bd
       0.39048415 -0.29132566 0.44526207 -0.08814157
000280 90 ce e6 3d 1c cd e0 3c 5f 7e 9c 3a ed b0 7f 3e
       0.112698674 0.027441554 0.0011939517 0.24969836
000290 44 34 f0 3b 7a 13 7f 3e 0f 79 73 be 92 24 3f 3c
       0.0073304493 0.24909773 -0.23776649 0.011666434
0002a0 ab 99 c8 bd dd 67 83 3e 49 4e 09 be ab 8e ce 3d
       -0.09794935 0.2566518 -0.1340877 0.100858055
0002b0 28 bb a5 be 0b 58 64 3e 15 2c 9b be 68 6b 20 bd
       -0.3236935 0.2229921 -0.3030707 -0.03916493
0002c0 cc b0 a4 bd c9 4d 5a be 64 dd 5a 3f 7b 6b 05 bf
       -0.08041534 -0.21318735 0.85494065 -0.5211713
0002d0 d1 64 45 3d d3 06 ec be ab 31 03 bd 18 2f 2c 3e
       0.04819185 -0.46098956 -0.03202979 0.1681484
0002e0 d8 26 1d 3e 9d 61 a3 bd cc be 1f 3e 45 97 a5 3d
       0.15346849 -0.07977603 0.15600127 0.08085493
0002f0 0d 56 33 3d 91 a6 86 3d 00 7e 03 3e e8 f6 c3 3e
       0.043783236 0.06574739 0.12841034 0.38274312
000300 77 35 1f 3e da 39 31 be 53 c7 84 be ee b8 46 bd
       0.15547739 -0.17307225 -0.25933322 -0.048516206
000310 2f 15 b4 be 21 0e 00 bf 19 5d 14 bd fb 2c ad 3d
       -0.35172412 -0.5002156 -0.036221597 0.08455845
000320 8e f4 79 be 52 d2 4f be fe ac 4d 3e 56 5d cc be
       -0.24409696 -0.20295075 0.20085523 -0.3991496
000330 28 4e 91 3e 60 de 0d 3c 3f dc d5 be 3b 1e 32 be
       0.2837994 0.008658975 -0.41769597 -0.17394345
000340 51 14 b6 3d 16 d9 82 3f d2 5e 1e 3c 44 dc 1d 3c
       0.08890594 1.0222499 0.009666162 0.009635035
000350 07 bc 6b be 20 cf 19 3d b6 72 73 3e 68 42 6c bd
       -0.23020945 0.037551045 0.23774227 -0.057680517
000360 52 4a 37 3e 45 55 32 3e ff 78 8f be 76 c0 99 3e
       0.17899445 0.1741534 -0.28022 0.3002965
000370 76 c1 94 bd d2 67 39 be be b4 96 bd 4a 06 bf 3e
       -0.07263462 -0.1810601 -0.073586926 0.37309486
000380 f9 80 fb bd d5 5c bf 3e 52 57 cc 3e ae 53 bb be
       -0.12280459 0.37375513 0.3991037 -0.3658728
000390 b7 93 ec 3d c5 b1 c8 3c 98 75 87 3e 53 5b aa bd
       0.11551612 0.02449883 0.26456904 -0.083182
0003a0 1e fd b1 3d 08 fe a6 be c4 c9 ec bd e4 4d 2f be
       0.086908564 -0.32615685 -0.11561921 -0.17119557
0003b0 e9 a0 f9 bd 6f c7 d7 3e 46 dd c2 be 69 13 14 3e
       -0.12188894 0.42144343 -0.38059443 0.1446053
0003c0 eb 3f c2 be 35 8f 94 3e 72 54 2f be 47 2f 15 be
       -0.3793939 0.29015508 -0.17122057 -0.14568816
0003d0 95 2d 76 be dd 63 9b bd dd ba 2a be cf 68 e9 3d
       -0.24040826 -0.07587407 -0.16672845 0.11396944
0003e0 25 7d 8c bc f0 d8 3f 3b d5 1e 1a bd 71 7a 2e be
       -0.017149517 0.0029273592 -0.03762706 -0.17038895
0003f0 fb 1f de bc 95 a5 f8 3e cd 6d 0e bf 31 e1 9c be
       -0.027114859 0.4856383 -0.5563629 -0.30640557
