pretrained_models/comick-55-context-size.pth (torch, 821283 bytes, 10 tensors)

feature.weight_ih_l0 f4 [512, 64]
00000000: 12b6 03bf a944 55bf eba2 283d b50a a53e
00000010: db12 68bf b1db 6fbe 1439 5bbe 5354 6e3e
00000020: 7b70 403f 210d 2e3f 2e97 ebbc 5936 273e
00000030: cd3d 90be 19ef 863e 38e1 703d 6323 653f
00000040: e251 303e 1cb9 3dbd f2f6 69bf 16c8 dfbe
00000050: 938e de3e d517 8b3e f146 753d 60d9 a2bb
00000060: 0d1c 3fbf 2ada 453f 4462 533e db12 3a3e
00000070: a452 2b3f f17e 833f 2f8c d3be a1c7 ba3e
00000080: 03cc 75bf cfff 803e ec78 9c3e ac84 2fbe
00000090: 0d2a 7fbd 730d 39be a402 1f3e 8d77 dfbe
000000a0: 2040 07be a52e c2bb 39ff 7fbe 0c2b 0f3f
000000b0: 6789 843f 1b23 863e dfe4 23be 093a 543e
000000c0: b1b7 333e c0cb 943c 181e 3bbf cb9e 70be
000000d0: 976a dabd 34b2 2e3e 09e5 f2be bb3c dbbe
000000e0: 48b4 c5bc 0944 7dbf beaa e5be 6f08 03bf
000000f0: dcb7 a0be 5f55 9dbf 9283 2dbf dfe5 1cbf
00000100: d480 1dbf 23e4 7b3f 54f3 29bf 0976 1abf
00000110: a3d5 943e df11 e83e f01e 8fbb 82a5 8ebf
00000120: 52ce 13be 6d94 bb3e b3f8 133f 062b aa3e
00000130: 8f99 e5be 893d 26bf 6805 98be 4631 573f
00000140: 4e42 d83d e295 b63e 2b0c 353f f327 17bf
00000150: f00f 983f 6284 f93e 9090 7f3f 32dd 1a3d
00000160: 6563 1c3f 4e22 243f 9937 42be 59c1 debd
00000170: 9b0c 03be 9109 223f 84dc 45bf 2022 70be
00000180: 4e3e 253d b2a2 13be a2de 813e 4dcf 27bf
00000190: f8e1 ab3e 6cfc 10bf a19f 63be dafe ff3d
000001a0: 3dc7 7fbe 3daf 113b b995 13bf ee63 2e3e
000001b0: a17f 563f 671d efbe d29d 0ebf 4837 85bd
000001c0: 22a4 01be 45a1 b5be 6eba a8be 6599 6fbc
000001d0: d56f 53bf 829f 22bd 7c2a 87be f0ba afbe
000001e0: 6971 483e 624e 3cbd b30e 39bf 9434 373f
000001f0: da4d e53e 13a9 083e 3599 1cbf 82ca 7cba
00000200: 96e7 a7bd 6410 a6be d4ed 673f 95aa e3bd
00000210: 3450 55bf 986b 8dbe 7cea a4bd 5afd 18bf
00000220: 584b cdbe b124 803f 976d 4bbf 9cf2 26be
00000230: 6672 0cbe bcef 8dbf 9618 9e3f eb18 97be
00000240: 9405 08bf 0e0d b7bd c149 26be 6cc2 183f
00000250: caf8 d6be a0f1 863e 907e f73e 7dc4 0a3f
00000260: c180 f83e ced0 093e cd39 debe 8a95 793e
00000270: 0b0a 4e3f d324 c1be 22bb 28bf 91b5 c1be
00000280: 7091 24bf fa7c 843f 8d03 00bf 3f21 41be
00000290: 2efc d73e a882 ed3e 0e84 473e ff04 88bd
000002a0: a03f 0e3f d783 ba3e d23f 7fbe 1d52 863e
000002b0: 035a 893e b469 263c d982 72be aac6 eb3e
000002c0: d61c 9bbe 57be e43f 1d5b 1cbe d2d3 1e3d
000002d0: f5a3 5bbf 9f79 c83e 596b 2f3f 43f1 693f
000002e0: e6c7 ca3e 35bc 053e 11b2 33bc 70e7 d4be
000002f0: bc9e 553f f8c6 dc3e 1a00 24bd 4213 98be
00000300: 9e63 fc3d 23e0 febe 9232 693f 5a8d 0ebf
00000310: 0ea5 913f af5f 47bd 4ff4 12bf 863b 6f3f
00000320: 54bd 42be f2f0 39be 6f61 2ebf 78d1 aabc
00000330: 196e 693f 7a2c c2bd 2277 3dbf 5d82 94bf
00000340: b766 4f3d 7ac3 7ebe f87a c93c 2065 373f
00000350: 0ece f8bd dfa2 853c 62d2 48bf 3ced ac3d
00000360: ce57 45be 9e1f e83e 64e9 49bf 5b10 25bf
00000370: beb7 12bf 202d 453f 8ee0 5d3e 72bb af3e
00000380: e072 1f3e 4204 8bbc 6eb6 80bf 3d3f 4a3e
00000390: c2db edbe 103b e23e 7936 51be 9dcc 10bf
000003a0: 08cb 423f 9bc3 72be 7bf5 16bf c641 cc3e
000003b0: ec35 acbb 45d4 c7be f77d 233f adbf be3e
000003c0: 7f8f d5be e336 f6bd 92e4 423f 248d 24be
000003d0: 2c01 91be bdbc d8be cf19 993e 62ac aebe
000003e0: b955 233e d7b4 c53c ddf5 7b3f 97b8 4cbe
000003f0: ec48 07bf 4495 f8bc 9281 29be 6cea 4ebf
-0.5144969 -0.8330789 0.041170996 0.3223473 -0.9065377 -0.2342365 -0.21408492 0.23274355
0.7517163 0.67988783 -0.028758612 0.16329326 -0.2817215 0.26354292 0.058808535 0.8950712
0.17218736 -0.046319112 -0.91392434 -0.4370734 0.4346815 0.2716662 0.059882108 -0.004969761
-0.7465218 0.77286017 0.20642954 0.18171255 0.66922975 1.0273114 -0.4131789 0.3648043
-0.9601442 0.25195166 0.30561006 -0.17140454 -0.062295962 -0.18071537 0.15528351 -0.43645898
-0.13208055 -0.0059259706 -0.24999703 0.5592506 1.0354432 0.26198658 -0.16005276 0.20725264
0.17550541 0.018163562 -0.73092794 -0.23498075 -0.10664862 0.17060167 -0.47440365 -0.4281977
-0.024133816 -0.9893194 -0.44856828 -0.51184744 -0.31390274 -1.2291678 -0.67778885 -0.61288255
-0.615247 0.98394984 -0.66386914 -0.6033636 0.29069242 0.45326135 -0.0043677017 -1.1144259
-0.14434174 0.36636677 0.5780136 0.3323595 -0.44843718 -0.64937645 -0.29691625 0.8405956
0.105595216 0.35661227 0.7072169 -0.5904533 1.1879864 0.48733813 0.9982996 0.037808605
0.61089164 0.64114845 -0.18966521 -0.10876722 -0.12797777 0.6329585 -0.77289605 -0.23450518
0.04034262 -0.14417532 0.25365168 -0.6555069 0.33570838 -0.56635165 -0.22228862 0.12499781
-0.24978347 0.0022229694 -0.57650334 0.17030308 0.83788496 -0.4670212 -0.55709565 -0.06504685
-0.12660268 -0.354746 -0.32954735 -0.014623974 -0.8259252 -0.0397029 -0.263996 -0.3432231
0.19574513 -0.04597319 -0.72288054 0.715646 0.4478596 0.13345747 -0.61171275 -0.0009643213
-0.081984684 -0.3243438 0.9059727 -0.1111652 -0.83325505 -0.2762115 -0.08052537 -0.59761584
-0.40096545 1.0011197 -0.79464096 -0.16303486 -0.13715515 -1.1088786 1.2351253 -0.29511198
-0.5313351 -0.08938037 -0.16239072 0.59671664 -0.41986686 0.2635622 0.48338747 0.5420607
0.4853573 0.13458559 -0.43403473 0.24373451 0.80484074 -0.37723407 -0.6591054 -0.37833837
-0.6428442 1.035064 -0.5000542 -0.18860339 0.42184585 0.46388745 0.19483969 -0.06641578
0.55565834 0.3642871 -0.2492669 0.26234522 0.26826486 0.0101570375 -0.23682727 0.46050006
-0.30295438 1.7870587 -0.15269132 0.038776226 -0.85797054 0.3915529 0.68523175 0.9138376
0.39605635 0.13060077 -0.010967747 -0.41582823 0.83445334 0.4312055 -0.04003916 -0.29702193
0.12323688 -0.49780378 0.9109279 -0.55684435 1.1378496 -0.048675235 -0.57404035 0.934502
-0.19017535 -0.1815832 -0.6811742 -0.020851836 0.9118362 -0.094811395 -0.7400991 -1.1602284
0.050635066 -0.24879256 0.024594769 0.7163868 -0.12148677 0.016313015 -0.7844602 0.08443686
-0.19271776 0.45336622 -0.7887175 -0.6447808 -0.5731162 0.7702198 0.21667692 0.34322697
0.15571165 -0.016969804 -1.0055673 0.19750686 -0.46456724 0.44185686 -0.20430936 -0.56562215
0.7609105 -0.2370743 -0.58968323 0.3989393 -0.0052554514 -0.39029136 0.6386408 0.37255612
-0.4171104 -0.120221876 0.7613002 -0.16069466 -0.28321207 -0.42331496 0.29902503 -0.34115893
0.1595067 0.024134083 0.9842203 -0.1999229 -0.52845645 -0.030344613 -0.16553333 -0.8082645

feature.weight_hh_l0 f4 [512, 128]
00000000: 2e91 823e b1db 0cbe 7138 a1bf fba1 a9bb
00000010: 2c3b b63e b5dd 4f3e cf2d 0f3d 264b b63e
00000020: 66d4 153f 39da a03e cb89 b3ba 4fde b7bd
00000030: ff62 423e 7893 febd 5d96 5abf 0b4a 9fbf
00000040: 0bfb f0bc b840 5bbc 6608 28bc 5dd7 863e
00000050: c710 703e 6d84 1f3f ae0a ac3e 2b6f 9fbe
00000060: ed04 5ebf a4fa b4bc 340f 38be 332e 513f
00000070: 8ad3 213f da24 4ebe 5f65 0f3f 3202 963e
00000080: 077f ae3e 0406 07bf 4a04 41be 58a2 483e
00000090: 06e1 dc3d 702d 79be 5ee9 14bd 8144 27bd
000000a0: 78d8 13be afbc fbbe 71d2 283e 6d4d ddbe
000000b0: 6d11 7e3f e49b bcbe 36d8 7b3d 1eb3 fdbe
000000c0: 4cf5 d23d 2dbc 99be 434d f33e 6bb1 25bf
000000d0: 66c1 343e a6d4 633e 1903 71bd b4e9 04be
000000e0: 8248 543f ab4e 87bd 7d1d 5dbe 3d3c f1bd
000000f0: 3ded 463e 73fd cebe 11c8 a8bd 59ed 353f
00000100: 804e c23e 46ae 303f 00bf 9b3e e0ee 96be
00000110: 0261 febe 8c4d 0abd 1cd0 683c 9dc0 873e
00000120: ac5a b83e 0c98 bd3c 2f2a 88be f95d 2e3f
00000130: b112 163f 7be8 403f a47c 6bbd 7484 42bf
00000140: ceb8 b0bd f36d 073e 813f ecbe d2ce 1bbc
00000150: 3a97 57bd 924f 86be f0be f43e a3f3 1e3f
00000160: b54d 20be eb48 7f3e c77b 82be 3c55 c8bd
00000170: 5c22 5c3c 6603 95bd f96d 0bbe 5efe 9bbf
00000180: 2b14 a43e 14c2 0ebe da57 05bf 5c71 c73e
00000190: e64f a9be c18e 533e 8f76 2bbf 4a34 4f3e
000001a0: 30a2 09be ee01 013f df95 06be 0312 a0bd
000001b0: 4cf7 713e 9e7c 09bf 7a6d a3bd 0b51 5d3f
000001c0: 6354 65bd e615 17bf 7cd9 fc3e 9966 333e
000001d0: 4545 453f f710 a83d d847 d9be 5583 8cbf
000001e0: 6890 4f3d d30e bebd d7a1 f2bd 05c8 bf3e
000001f0: 17f2 83be 69e1 65bc ca9b 083e b329 cc3e
00000200: 16fb 4cbf c0cf d53d 5b8f 43bf fb79 f43d
00000210: bb68 d5be 609b cd3c 6215 c83e cb4a b9be
00000220: 78b2 a33f 1e28 353e 91c9 19bf de13 8f3e
00000230: 4d21 c93e 1119 be3e c11b abbf e959 573f
00000240: b0d7 e73d ec68 02bf d767 4fbf 8176 47bd
00000250: 27ea 5c3d cf7e edbe 6432 8f3e 59ef f2be
00000260: f87f c73d f4d1 e53e a699 df3e 42a9 e6be
00000270: 6fbf f03e cd19 eabc f4d8 0f3e 6a13 01be
00000280: db06 373e 8045 cc3d 7f88 893e d15d 86be
00000290: 123d 24bd dd08 04bf 70a4 b83e bf75 42bf
000002a0: 8afa 983e 2ab9 dbbe e3d3 283f c4ac 0fbf
000002b0: a7a3 2e3e b591 963e c8f1 c53d 39c7 7fbc
000002c0: a8df a13e 41f9 293e bc7d cb3e 9562 bd3e
000002d0: 3614 c43d 8796 9bbe 68a8 edbe 0907 b6bd
000002e0: f8eb cdbc 5846 523e f7e5 bd3e 901e 283e
000002f0: eb97 b03d 09ef a43e 47ef 9d3e 3ca6 abbd
00000300: f34e 923f dbdb 453e 8139 be3e 24dd f23e
00000310: e236 37bf 4e2f 38be 8863 1cbd b443 e2bc
00000320: f5c9 c2be 3784 69bd 4d84 0f3d c564 003f
00000330: c9bb 01bf 16cb 34be b9b0 22bf ae79 3a3e
00000340: 716b 1ebe 63e4 9ebe 15c2 2dbf ecaa a83c
00000350: 0a9f b93e 7ddb 863d ab97 b0be 07d5 96be
00000360: 915d 213f fcf2 4b3f f5f9 babd 7d5a 39be
00000370: 3c99 82bd 4fcc 813e 0872 343e fe4d e43d
00000380: d83c 37bf aad7 48be b7dc 0abe b2ab 773e
00000390: 1a04 c33e 2f65 b63e ca7a c13c c056 d33e
000003a0: e6cb 25bf 0a46 6bbd ef49 8bbe 0f08 a33e
000003b0: 48b2 0bbf 8970 1dbe 64a6 1f3f 2a27 ffbd
000003c0: 46bd 44bf 1823 1e3f d745 5e3e 53d9 303f
000003d0: 8ede 6f3f 5921 0c3f 6a24 60be 30d0 073f
000003e0: 7421 89be f5c5 86bd 0ffc 053f 5cb9 eabe
000003f0: ef70 a33e 9e41 8fbe be55 a5be 37e3 943e
0.25501388 -0.1375568 -1.259535 -0.0051767803 0.3559202 0.20299418 0.034955796 0.3560421
0.5852722 0.3141649 -0.0013697682 -0.08977949 0.18983077 -0.12430471 -0.85385686 -1.2444471
-0.029416582 -0.013382129 -0.010255909 0.26336184 0.234439 0.6231144 0.33601898 -0.31139502
-0.86726266 -0.022092171 -0.1797455 0.8171112 0.6321341 -0.20131245 0.56014055 0.2929855
0.3408129 -0.52743554 -0.18849292 0.19593179 0.10785107 -0.2433374 -0.03635537 -0.040836815
-0.14438045 -0.49167392 0.16486527 -0.43223134 0.9924534 -0.36837685 0.06148549 -0.49550718
0.10300693 -0.3002638 0.47519884 -0.64723843 0.176519 0.22249088 -0.058840845 -0.12979776
0.8292314 -0.066068016 -0.2159328 -0.11779068 0.19426437 -0.4042774 -0.08241285 0.7106529
0.37950516 0.6901592 0.3041916 -0.29479122 -0.49683386 -0.03376536 0.014209773 0.2651414
0.36006677 0.02314379 -0.26594684 0.6811214 0.5862227 0.7535474 -0.057491913 -0.7598336
-0.08628999 0.13225536 -0.461422 -0.009509759 -0.052634455 -0.26232582 0.47801924 0.6209051
-0.15654643 0.2493016 -0.2548506 -0.09781882 0.013435926 -0.07276039 -0.1361617 -1.2187002
0.32046637 -0.13941222 -0.52087176 0.38953674 -0.3306877 0.20659925 -0.6697778 0.2023479
-0.13440776 0.5039357 -0.13143109 -0.078159355 0.23629493 -0.53705776 -0.07979865 0.86451787
-0.05598868 -0.5901779 0.49384677 0.17519607 0.7705882 0.08206361 -0.42437625 -1.0977579
0.050674826 -0.09280171 -0.11847275 0.3745729 -0.25770637 -0.014030793 0.13340679 0.39875564
-0.80070627 0.10440016 -0.7639062 0.119373284 -0.41681466 0.025098503 0.39078814 -0.36189875
1.2788839 0.17691085 -0.6007319 0.27944845 0.3928322 0.371285 -1.3367845 0.84121567
0.11320436 -0.5094135 -0.8101782 -0.048697 0.053934243 -0.4638581 0.27968132 -0.47448233
0.09741205 0.44886744 0.43671912 -0.45051008 0.47021052 -0.028576756 0.14047605 -0.12605062
0.17873709 0.099741936 0.2686195 -0.2624345 -0.040097304 -0.51576024 0.36062956 -0.75960916
0.29878646 -0.42914706 0.65948313 -0.56122994 0.17054616 0.2940804 0.09665257 -0.015611463
0.3161595 0.16598989 0.39744365 0.36989275 0.095741674 -0.3038828 -0.46417546 -0.088880606
-0.025136933 0.20534647 0.37089512 0.16417909 0.08622726 0.3221362 0.30846617 -0.08381316
1.1430343 0.1932215 0.37153247 0.47434342 -0.7156812 -0.17986795 -0.038180858 -0.027620174
-0.38044706 -0.057010856 0.03503828 0.5015376 -0.5067716 -0.17655596 -0.6355091 0.1821048
-0.15470673 -0.3103362 -0.6787427 0.020589314 0.3625415 0.06584833 -0.34490713 -0.29459402
0.63033396 0.7966764 -0.09129707 -0.18100925 -0.063768834 0.25351188 0.17621624 0.11147688
-0.71577215 -0.1961352 -0.13560759 0.2418659 0.38089067 0.35624072 0.02361812 0.41277122
-0.6476425 -0.05743984 -0.27204844 0.31842086 -0.5456891 -0.1537496 0.62363267 -0.12458642
-0.7685131 0.617723 0.2170633 0.6908161 0.93698967 0.54738384 -0.21888891 0.53052044
-0.26783335 -0.06580726 0.52337736 -0.45844543 0.319221 -0.2797975 -0.3229198 0.290796

feature.bias_ih_l0 f4 [512]
00000000: fe05 6bbe d788 3bbe 193d 783f 13d6 39be
00000010: ce3b fd3d 0737 3dbe b4a1 9a3e 2ad5 a23d
00000020: 6601 b03f aa7f 383e 115f 0bbc a255 393d
00000030: 0218 35be 741d 83be de79 e33e 0621 153f
00000040: f551 be3d c1a5 5b3e 2d4d c43c b89d d2be
00000050: 43ae 8f3e a960 acbd 712f 5c3d f503 19be
00000060: e711 e03d 7d61 d13e e127 373f b8a1 de3e
00000070: 70a8 9e3e 3f3b e63e 2379 f13e 8420 523e
00000080: 73db 46bd c059 113f 1579 eabe 5733 e23e
00000090: 6d1c 18be 8cf2 93bd c196 843e 94c9 2abe
000000a0: aa1d ad3e 82c0 efbe 44e9 6c3e 77c4 8dbd
000000b0: 5023 a73f a5db bf3e 35cd f93d 201d 50bd
000000c0: 315a 673e 3747 5f3c 1a5d 0dbd 9698 00bf
000000d0: f1cd 243f 0457 58be 613f 99be 9574 4e3e
000000e0: dcc0 f13e 5b58 853c 3fab 9c3e 5cbc 023f
000000f0: a325 63be ea17 653e 6eca bebe e983 72be
00000100: 0ef7 35be 2869 b0be ac26 233f 6a02 d7be
00000110: 5651 703e 031d 033f b646 1d3f fc85 8b3e
00000120: da38 30bd e779 db3e 69dc 343f 3626 6fbe
00000130: 3b18 523f 411a 653e 1b49 b53e d5f2 bc3d
00000140: 0792 69bd efea 8a3e abcd 0d3f 0987 f1bd
00000150: cb82 ed3d 7b7a 36bd 6ecb 39be b9b9 b6be
00000160: c662 593f 36e4 85be 3cf9 1f3d 3713 013e
00000170: d866 43be 02f1 db3e d886 d2bd 5db3 043d
00000180: 0782 4cbd e3ed 563e fd23 803f 94a8 743f
00000190: e4e6 373e b7f0 a83d 3b6b 5cbc 162c 8a3e
000001a0: ce2f 373e ca83 803e f2a3 fcbd 4552 273b
000001b0: f7e7 b7bd d692 183f f23c b4be 4f15 103f
000001c0: 296b c83c 8b66 733d 6582 273d c995 2e3d
000001d0: acd0 9b3c 156a ce3d e0b5 333c a29c 2bbd
000001e0: a995 823e c580 a73d 9fdd 0d3f 49a6 123e
000001f0: ddf9 8dbe f569 423e 0066 2d3e 60b7 c43d
00000200: 9697 61bd 2a3f efbe d8eb aabe d62b 5f3d
00000210: 49a1 6cbd e0d6 d3be ad31 c5be 1d52 a63c
00000220: 0ebf 42be c5e2 0dbe ccc3 27bf 6007 cabe
00000230: 2cd0 813e 77e9 80be e081 e73d 4c25 b7be
00000240: 7e15 673e bb73 d0be e98c ff3d f844 6bbe
00000250: 79c3 97bc 2bee f0be b0f8 8a3e 8c71 22be
00000260: 6ea5 8fbd 8e3a efbd 6ca5 10bf 5ed9 a3be
00000270: f2f6 16bf 2b64 a7be 232d 89bc 6ea8 b7be
00000280: 0df2 603c cd95 883e fea4 0e3f 9887 dbbe
00000290: 7e1e 903e 4552 8cbe 4c6a 12be 5804 3cbe
000002a0: 6c21 71be 57ab a03e 45e8 053d 6319 bbbe
000002b0: 3a66 70bf 70a1 6fbe cf26 d73d 01e4 ae3e
000002c0: f09f 90bc 129f b93c 2a48 53be dba4 b2be
000002d0: dcc3 5dbe 7a76 713e e01f c9be 6f7e cd3d
000002e0: 9f14 a4be 98f9 a5be 5afe 09bf 8922 90be
000002f0: e17a e5be f230 89bd 8a87 64be e49f 71bd
00000300: e475 86bd e9b8 01bf 3803 ecbd ae5f 2cbf
00000310: ea92 7ebe 4ac5 55be 2132 56be b210 0c3e
00000320: 9d12 a33d 263d 2abf 306f f33d 9d28 163d
00000330: 46ab 5c3e 03fc 90be 5581 1bbf b27c e03c
00000340: e2b4 96be 2a87 22be 8ce6 1bbf 6658 ca3c
00000350: 8803 18bd 66e6 a2be 70ae 3ebe f137 513e
00000360: 2a75 5abe df09 553e 0866 043d ff5f f5bd
00000370: 4dae 333e 7b0e 043f e1be 74be 2f02 763d
00000380: 208c c0be 72cf 9f3e 3cf2 4abf 8bfe 52bf
00000390: e7cf b4bd 47ca 49bd 6763 85be d373 5a3e
000003a0: f8f3 44be c48d 143e 844d c3be 4618 ba3d
000003b0: 139d 23bf 9265 d1be 4dbb 8abd 9eb8 b5be
000003c0: 00fb 74bc 1074 0cbf 75b0 03bd 0745 c9be
000003d0: 3a26 8abe 4f8f a1be 245b 06bf 3220 c3be
000003e0: 3d95 7b3e ce38 bc3d 6b5b 603e e6e8 6dbe
000003f0: 16a6 ac3e fc00 e53d b095 8d3e 97ab 563d
-0.22951505 -0.18313919 0.9696823 -0.18148069 0.123649225 -0.18478023 0.30201495 0.07950814
1.3750427 0.1801745 -0.008506552 0.04524768 -0.1768494 -0.25608408 0.44428915 0.58253515
0.09292976 0.21449949 0.023962582 -0.41135955 0.2806264 -0.08416874 0.05375618 -0.14942916
0.109409146 0.4089469 0.71545225 0.43482757 0.30987883 0.44967076 0.47162732 0.20520216
-0.048549127 0.5677757 -0.45795503 0.44179794 -0.14854594 -0.072239965 0.25896266 -0.16678458
0.33811694 -0.4682656 0.23135859 -0.06922238 1.3057652 0.37472263 0.12197343 -0.050809026
0.22592999 0.013627819 -0.034512617 -0.5023283 0.6437674 -0.21126944 -0.29931167 0.2016166
0.47217453 0.016277483 0.305994 0.51068664 -0.22182326 0.22372404 -0.37263817 -0.23683132
-0.17770025 -0.34455228 0.63730884 -0.4199403 0.23468527 0.51216143 0.6143602 0.2725066
-0.043022968 0.42866442 0.7064882 -0.2335442 0.8206822 0.22373296 0.35407338 0.09226004
-0.05702403 0.27132365 0.5539195 -0.11793334 0.115972124 -0.0445504 -0.18144009 -0.3568857
0.8491634 -0.26150674 0.039056048 0.12604986 -0.190822 0.42957312 -0.10279626 0.032397617
-0.04992869 0.20989184 1.0010983 0.9556973 0.17959172 0.08249038 -0.0134533 0.2698676
0.1788933 0.25100547 -0.123359576 0.0025531214 -0.08979791 0.59599054 -0.35202748 0.56282514
0.02446516 0.059423964 0.04089584 0.042623315 0.019020401 0.10078827 0.010968655 -0.041897424
0.25504807 0.08178858 0.5541629 0.14321245 -0.27729693 0.18985732 0.16933441 0.096052885
-0.055076204 -0.46727878 -0.3338306 0.054485165 -0.057771 -0.41374874 -0.38514462 0.020302827
-0.19018194 -0.13856037 -0.6553314 -0.39458752 0.25354135 -0.2517812 0.113040686 -0.35770643
0.22566792 -0.40713295 0.12478048 -0.22975528 -0.018525826 -0.47056708 0.27142859 -0.15863627
-0.07013975 -0.1168109 -0.56502414 -0.32001776 -0.5897056 -0.3269361 -0.016745156 -0.3587069
0.013729584 0.2667679 0.5572051 -0.42876887 0.28148264 -0.27406517 -0.14298362 -0.18361032
-0.23547906 0.31380722 0.032692213 -0.36542806 -0.93905985 -0.23401427 0.10505449 0.34158328
-0.01765439 0.022658858 -0.20632997 -0.348914 -0.21656746 0.23580351 -0.3928213 0.10033881
-0.32046983 -0.32416987 -0.53903735 -0.28151348 -0.44820312 -0.06698789 -0.22317329 -0.058990374
-0.065654546 -0.50672776 -0.115240514 -0.67333496 -0.24860731 -0.20876041 -0.2091756 0.13678244
0.079625346 -0.66499555 0.11886442 0.036659826 0.2154971 -0.2831727 -0.6074422 0.02740321
-0.29434878 -0.15871873 -0.6089866 0.024700355 -0.037112743 -0.31816405 -0.1862123 0.20431496
-0.21333757 0.20804547 0.032323867 -0.119812004 0.17546959 0.51584595 -0.2390094 0.060060676
-0.37606907 0.31212956 -0.7927587 -0.8241965 -0.08828717 -0.049265172 -0.260524 0.21333246
-0.19233692 0.14507204 -0.38145077 0.09086661 -0.6391155 -0.40897804 -0.06774006 -0.35492414
-0.014952421 -0.548646 -0.032150704 -0.39310476 -0.2698229 -0.31554648 -0.5248282 -0.381105
0.24568649 0.09190522 0.21909873 -0.23233375 0.33720464 0.111818284 0.27653265 0.052409735

feature.bias_hh_l0 f4 [512]
00000000: fc1a 07be 3b8f 11be a19d 503f beb5 79be
00000010: 3671 493e 2c5d aabc 8653 913e 4c05 d53d
00000020: 40ba bc3f b873 893e fc00 503d c442 5a3d
00000030: d00a 5bbe 68ee 92be fb5d b53e a3e3 143f
00000040: 5afb b93c c158 293e 74c3 373b a10e a5be
00000050: 7888 c63e 69b7 c8bc 7588 b73b 6603 18be
00000060: b5a0 963e 7eea 953e 7809 3f3f 5989 ca3e
00000070: 5952 2d3e a96d e83e c124 b13e b30a 063e
00000080: ef73 74bd 2a88 c73e 863c b2be 5e76 b03e
00000090: 1ca4 0dbe dffe c2bd 9eac 163e b161 1cbe
000000a0: cb5e 9b3e 2a04 cfbe 0b3f 5a3e 8f16 01be
000000b0: 1efd a13f a25d c03e 2ab5 cebd 5f2c 4dbe
000000c0: 2add a63e 79f1 553d 22de c7bd f36d 58be
000000d0: 9362 1d3f ae3c 6fbe a0a6 b4be eac0 313e
000000e0: 5f63 133f 27f2 003e aca4 bb3e 6224 bd3e
000000f0: 7f3e 25be 5474 b43e 0d7e d0be 881b 79be
00000100: a505 05be f762 c9be 59cb 1a3f 76be cabe
00000110: 9d57 763e 61ec c73e c368 1f3f ee15 8f3e
00000120: e2ac 13bd 38d5 d53e 2eae 093f 35c6 31be
00000130: 1406 3d3f 9706 8c3e 1da2 b83e f8df eb3d
00000140: 1371 e9bd 62cf 843e a79d 163f 4618 1bbe
00000150: fb43 3a3e 713c 18be a5e6 7fbe f5df 7cbe
00000160: 8f44 533f 64d3 8fbe fdab 1d3d 4334 493d
00000170: 19d6 14be c53b 8e3e 49b2 19be 0b0f f6bd
00000180: 6ed3 b9bd 3ac0 903e d24a 753f 7dd0 6d3f
00000190: a903 453e fd5b 2e3e 38b2 a4bd bb7d 9b3e
000001a0: dcc5 5a3e e33b 613e 467d 983d 9fa3 08be
000001b0: a7d3 4c3c 2a57 403f 704a 90be 14e6 133f
000001c0: 809d 3abd 1654 5f3e 45b3 32bc 976d b4bd
000001d0: d5c9 db3d da41 173d f4ed 913d 9281 18be
000001e0: 34c8 403e 2240 54bd f169 c33e 1049 8b3d
000001f0: ee7d 7cbe 6f66 5d3e ef7e cf3d 26d7 923b
00000200: 5779 d6bc d1c2 12bf e71d e2be de05 2e3e
00000210: 1098 57bd d192 bfbe 1a80 9dbe 4006 883d
00000220: 6dae 3dbe adeb 08bc 5480 0bbf 6c15 1dbe
00000230: bb78 973e b2ba 58bd 18c5 cbbd fb73 c8be
00000240: 2c65 253e 497c d0be 46bb 143e bac6 5cbe
00000250: f12d 9e3d e506 93be 871e 813e f73d ddbd
00000260: 2c5e e13d 5136 87bd c814 f2be 47c4 8fbe
00000270: 89ce 01bf d332 b8be 60b1 4cbd 7182 febe
00000280: 78c3 543d 994e 383e 7454 fd3e c3c3 c5be
00000290: 2cc0 883e 47e3 55be 9b73 41be 3e59 35be
000002a0: bf03 50be f0e7 a13e c2a9 cc3d 9325 b9be
000002b0: 21de 7bbf c62b 88be 944d 4e3d fd27 b83e
000002c0: 2d5a 43bc 7693 c43c 3900 70be 885b a0be
000002d0: 0489 5cbe 331d e93e ad50 a3be 43ff 58bd
000002e0: a636 82be 87ba 84be 3194 01bf 3c94 b8be
000002f0: e370 cebe 6373 4bbe b174 a9bd dc66 b1bd
00000300: cd55 563d 75e4 0bbf 4db3 00be 0730 15bf
00000310: 331b 7bbe 387c 6ebe ff30 79be 78ed 413d
00000320: 011f a43d 58df 3dbf cf1a a43d 9fd9 2c3c
00000330: 6c86 593e 1238 bfbd 4ca7 17bf 4012 723c
00000340: 45fa 92be 082d 4dbe 23ca 06bf c89b 793d
00000350: 7382 d4bd 3552 49be 134e 6fbe fe44 463e
00000360: 274b 2dbe c315 f33d 6a21 2a3e 5de0 9bbb
00000370: 76b6 723e debd f63e c760 6bbe ae5f 0cbe
00000380: 9edd 86be b33f 8b3e e334 3abf 7c05 52bf
00000390: 3646 40be 6412 893d 9b2e 8cbe 8f98 7e3e
000003a0: baba aebe 4b6e 5d3d da50 8fbe 082a b83d
000003b0: 767a 08bf c73e c3be 9410 94bd 7691 a5be
000003c0: c6a4 bbbd 0a33 00bf d801 e0bd fcda f5be
000003d0: 3fbb 9fbd 7c41 b6be 109c ebbe f031 d6be
000003e0: 830e 9d3e 4146 943d 50cb 163e 81ca a8bd
000003f0: 5504 143e 08ce be3d 865f 1c3e b90a 133e
-0.13193887 -0.14214794 0.8149052 -0.24385735 0.19672093 -0.020796381 0.28384036 0.10401401
1.4744339 0.268461 0.05078219 0.05328633 -0.21390843 -0.28697515 0.35423264 0.58159846
0.022702862 0.16537763 0.0028040083 -0.32237723 0.38775992 -0.02450152 0.0056009837 -0.14845046
0.29419485 0.29280466 0.74623823 0.39557913 0.16925944 0.45396164 0.34598354 0.13090019
-0.059680875 0.38971072 -0.348118 0.34465307 -0.13832134 -0.09521269 0.14714286 -0.15271641
0.3034576 -0.40432864 0.21313111 -0.12606262 1.265537 0.37571436 -0.10093148 -0.20036457
0.3259061 0.05223224 -0.09759165 -0.21135692 0.6147854 -0.23362991 -0.35283375 0.17358747
0.57573503 0.12592374 0.36649072 0.3694182 -0.16137122 0.35245 -0.4072117 -0.24326909
-0.12990434 -0.39333317 0.60466534 -0.39598435 0.2405686 0.3904753 0.6226923 0.2794642
-0.036053546 0.41764235 0.537814 -0.17360766 0.738374 0.27348778 0.36061183 0.11517328
-0.1139852 0.2593947 0.5883431 -0.15145978 0.18189995 -0.14866807 -0.24990328 -0.24694808
0.8252649 -0.28090966 0.0384941 0.049122106 -0.14534797 0.27779976 -0.15009417 -0.12014588
-0.0907353 0.28271657 0.9581729 0.9289625 0.19239677 0.17027278 -0.08041805 0.30369362
0.2136454 0.21995501 0.07445769 -0.13343666 0.012501634 0.75133 -0.2818179 0.57772946
-0.04556036 0.2180942 -0.010906999 -0.08809965 0.10731856 0.036928035 0.07125464 -0.14893177
0.18826371 -0.051818974 0.38166764 0.06801045 -0.24657413 0.21621107 0.101316325 0.004481214
-0.026180906 -0.57328516 -0.4416344 0.16994426 -0.052635252 -0.374167 -0.30761796 0.06641817
-0.1852357 -0.008356971 -0.5449269 -0.15340203 0.29584298 -0.05291242 -0.09949702 -0.39150986
0.16151875 -0.40719822 0.14524564 -0.21560183 0.077236064 -0.28716198 0.25218603 -0.108028345
0.1100429 -0.06602157 -0.4728148 -0.28079435 -0.5070577 -0.35976276 -0.049973845 -0.49708894
0.051944226 0.17998733 0.49478495 -0.38625917 0.26709116 -0.2088748 -0.18891756 -0.17709824
-0.20313929 0.31622267 0.09993316 -0.3616148 -0.98385817 -0.26595896 0.050366953 0.3596801
-0.011923355 0.023996096 -0.23437585 -0.31319833 -0.21536642 0.4553009 -0.31897488 -0.05297781
-0.25432318 -0.2592356 -0.5061675 -0.36050594 -0.403205 -0.19868235 -0.0827421 -0.08662197
0.05232792 -0.5464547 -0.12568398 -0.5827641 -0.24522094 -0.23289573 -0.24335097 0.04734561
0.08013726 -0.7416892 0.08012926 0.010549932 0.21242684 -0.093368664 -0.5923965 0.014774859
-0.28706565 -0.2003671 -0.52652186 0.06093958 -0.10376444 -0.19660266 -0.23369627 0.19362256
-0.169232 0.11869385 0.16614309 -0.004756971 0.23702416 0.48191732 -0.22986136 -0.13708374
-0.26340955 0.27197036 -0.7273695 -0.8203962 -0.18776783 0.06692961 -0.27379307 0.24862884
-0.34126836 0.05406026 -0.27991372 0.08992392 -0.5331186 -0.38133833 -0.072297245 -0.3233754
-0.091622874 -0.5007788 -0.10937852 -0.48018634 -0.07799386 -0.35596836 -0.46017504 -0.41834974
0.30675134 0.07239962 0.14725995 -0.082417496 0.14454778 0.09316641 0.15270814 0.14359559

feature.weight_ih_l0_reverse f4 [512, 64]
00000000: 06ce 7d3e 1fd2 c8be c3a7 3a3c ff16 633f
00000010: 6d44 e0be 124a 59bf 68e3 b13e 0b7e 3abf
00000020: 340f ef3b eb55 103f 6f2c 94be 3c3f 36bf
00000030: 4bed 8f3e c0d0 a43e ab4b 1ebe ba5b 823f
00000040: 8283 18be 05ef b6bd 658b e73e c1a8 483d
00000050: 28c0 f0bc a54f 9dbe f5af 1d3f 35ac bc3e
00000060: 0d74 83bd 6c5e 9e3e fce6 0d3d 3411 e3be
00000070: 235d 1fbf dd0e 89bc bc01 173e e18b 783f
00000080: 44bd 0d3f be6a 5c3e 8f65 34bd 985e 92bf
00000090: ac16 6f3f ba34 24bd 2a4d 77bf 3169 dcbe
000000a0: 6303 35bf c447 813e 2f26 9cbe c41c 8ebe
000000b0: 780c 733f f26c 02bf 9e85 1bbe 9e69 52bf
000000c0: 3928 093f f6b6 903d dd78 65bf c901 543e
000000d0: 2576 7a3a 4ec4 9e3f 75a1 9abf 47bb f4be
000000e0: 900c 093f ac0e 64be 79da f6bd 6ccd 50bd
000000f0: 54e9 1c3d a47d bb3d 0413 15bd e5fd 1d3f
00000100: 4927 fabd 265f 97bf 1283 07bf bdb5 e1be
00000110: 922f 27be 6439 73bf fd86 4abd 6b0e 74bf
00000120: a9ac 4bbf c321 67be 2eae abbf 8230 223f
00000130: e68d c93e 5088 abbe 859c 3ebc 2ae1 90bf
00000140: 07ab 21bf 7349 48be 89bb d93c aea6 9f3e
00000150: 0d86 9d3f 95fa a43e 4726 973e 42fe 483f
00000160: 10a1 4abd f949 113f cf33 43bf ef3f 16bf
00000170: 644d f4bd 51a5 663e 6b3f 2a3e 37c5 853e
00000180: 5e30 073e 0bb6 8a3c 2a23 ba3e 9987 27be
00000190: 6f89 6a3e 5ea0 343e 4b76 963e 1084 3f3f
000001a0: 2a8e d13e cf27 1d3e 9d3a 6abe b341 fcbe
000001b0: 47ce 82be c718 22be 3971 693e b02a 4a3f
000001c0: 1703 81bf 4459 3f3f 6ad4 3cbe 2aed 8bbf
000001d0: 801f dfbe ffb2 933c c6cc 4f3f 5ac3 9abe
000001e0: 4dd7 09bf 4d6b 883e 0495 623e ae1e 98be
000001f0: 868e a93e 72cc 60bf 9aa7 0dbd 4fa3 1abf
00000200: 1ec0 623f b23d f53e 5e01 c83e 0cf5 ccbd
00000210: 303f 23be f0df 563e fff3 f53d fba5 0b3f
00000220: d6e6 1abf c8bd 0d3d 5065 a5be 998a 38bf
00000230: ce09 e23d f2e4 0cbf ab59 0e3f 7821 1cbf
00000240: 2bb7 9e3e 329c 6ebd 3667 b03e 1485 92be
00000250: 593e 0ebe d11b e93e 233b 56bf 81d0 383e
00000260: 5f86 343f 889f 843f 61ad 7dbd cc01 eebd
00000270: 06d5 d4bd ec8e 16be f5e8 8b3c 1202 1c3c
00000280: e799 bcbe e6e8 b93e ae7f 673e 4593 e4bd
00000290: fbc0 8dbe 5f69 343e d2c3 63be cc5d a1be
000002a0: 236f 593e 850b 0cbf 5165 9bbe 500f f33e
000002b0: 3fd5 a73e 4a42 633e 2ba0 80be 32a4 a43e
000002c0: 638e 413f 5fc5 40bf 42a8 933e a7d3 00bd
000002d0: f7d7 9b3e e902 5cbf e8af ca3e 9cc9 983d
000002e0: 7b4f 183f 1d10 1e3f 3078 5f3f 5f12 853d
000002f0: 7bd3 9dbe 3922 643f 91a5 823d 0688 203f
00000300: a310 debe 6141 a43e 099a dbbe 1544 50bf
00000310: b594 20bf 23f9 473e 394c 723f 3f56 94bd
00000320: f21c 16bf cc1b bebd d186 9fbe a864 b3bd
00000330: 76df 23be 680c 36bf 6331 ae3e 0118 333e
00000340: 2031 443f 7641 1dbf 7595 05bf 002f ca3d
00000350: e6b2 afbc 8490 2bbe 8cb0 debc 76ed 5e3e
00000360: ebbf 1b3f b670 b4be c96f 313f b5dd 793f
00000370: a8b5 383e 33d1 57be 4ac5 e93e 5f19 b7bd
00000380: 4fe8 5dbe 3e27 02be 347b 363f 8f04 1fbd
00000390: d828 a53d d0c8 473d 20fc 16bf d610 fabd
000003a0: 00dc 9e3e d51d 1cbf 1d64 183f c6ad 83be
000003b0: 625b 05bf dda0 f8bd bbd1 bbbe 2d79 753f
000003c0: 32a8 febe 6b30 f0bc c823 f4be 6656 bc3d
000003d0: 3e6f d4bd f34a f5be d8f2 223f f203 4e3f
000003e0: c45d 3cbe 0ee5 c13e 8d7e 1f3f 805d 6f3f
000003f0: 7c79 cdbe 49b4 3bbe 7fa6 f2be 7755 3fbf
0.24785623 -0.3922281 0.011392537 0.88706964 -0.43802205 -0.8487865 0.3474381 -0.72848576
0.0072955135 0.563811 -0.2894015 -0.7119024 0.28110728 0.32190514 -0.15458553 1.0184243
-0.14893916 -0.08932308 0.45223537 0.04898906 -0.029388502 -0.30724826 0.61596614 0.36850134
-0.06418619 0.30931413 0.034644112 -0.44349062 -0.6225149 -0.01673072 0.14746755 0.9708844
0.5536692 0.21525094 -0.044042166 -1.1435118 0.9339397 -0.040089346 -0.9660212 -0.43049005
-0.7070829 0.25250065 -0.30497882 -0.2775632 0.949409 -0.5094749 -0.1518769 -0.8219241
0.53577 0.07066147 -0.8963755 0.20703806 0.0009554348 1.2403657 -1.2080523 -0.4779913
0.53534794 -0.22271222 -0.12053389 -0.050977156 0.038308457 0.091548234 -0.036395088 0.6171554
-0.12214524 -1.1825912 -0.5293437 -0.44083968 -0.1632674 -0.95009446 -0.04944514 -0.953345
-0.79560333 -0.22571473 -1.341253 0.6335527 0.39366072 -0.33502436 -0.011633997 -1.1318715
-0.6315159 -0.19559269 0.026578682 0.31181854 1.2306534 0.3222243 0.2952139 0.78512967
-0.049470007 0.567535 -0.7625093 -0.58691305 -0.119288236 0.22524 0.16625755 0.26127025
0.13202044 0.016932508 0.36354953 -0.1636032 0.2290399 0.176393 0.29387125 0.74810886
0.40928775 0.15347217 -0.22873922 -0.49268875 -0.25548002 -0.15829764 0.22797097 0.78971386
-1.0079068 0.74745584 -0.18440405 -1.0931752 -0.4357872 0.018029688 0.81171834 -0.30227166
-0.5384415 0.26644364 0.22127157 -0.29710907 0.3311655 -0.8781196 -0.034583665 -0.6040544
0.885744 0.47898632 0.39063543 -0.100076765 -0.15942073 0.20983863 0.12009429 0.5455014
-0.6050848 0.034604818 -0.32303858 -0.72086483 0.11037026 -0.5503684 0.5560557 -0.6098857
0.3099912 -0.05825443 0.34453744 -0.28617156 -0.13890971 0.45529035 -0.83683985 0.18048288
0.70517534 1.0361185 -0.061932925 -0.116214365 -0.103921935 -0.14702958 0.017078856 0.009521978
-0.36836168 0.363105 0.226073 -0.11160902 -0.27686295 0.17618321 -0.22242668 -0.31516874
0.21233802 -0.5470508 -0.30350736 0.4747262 0.3277988 0.22193256 -0.25122198 0.3215652
0.7560789 -0.75301164 0.28839308 -0.031451847 0.30438206 -0.8594194 0.3958733 0.07460329
0.5949628 0.61743337 0.87292767 0.06497645 -0.3082541 0.8911472 0.063792355 0.62707555
-0.43372068 0.3208113 -0.42890957 -0.81353885 -0.6272691 0.19528632 0.94647557 -0.07243013
-0.5863792 -0.092826456 -0.31157544 -0.08759433 -0.16003212 -0.7111268 0.34022054 0.17489626
0.7663746 -0.6142801 -0.5218118 0.09872246 -0.02144761 -0.16754347 -0.027183793 0.21770272
0.6083972 -0.35242242 0.69311196 0.97603923 0.18038046 -0.21075897 0.45658332 -0.08940386
-0.2167065 -0.12710282 0.71281743 -0.038822707 0.08064431 0.048775494 -0.5897846 -0.122102425
0.31027222 -0.6098302 0.5952776 -0.25718516 -0.52092564 -0.12140057 -0.3668345 0.95888025
-0.49737698 -0.029319962 -0.4768355 0.09196167 -0.1037278 -0.47908744 0.636518 0.8047477
-0.18395144 0.37870067 0.62302476 0.93502045 -0.40131748 -0.18330492 -0.4739265 -0.74739784

feature.weight_hh_l0_reverse f4 [512, 128]
00000000: 7a46 0bbe 55ee 103f 1bf2 f1be 303b 353e
00000010: e1e5 4fbd 553b c73d 51c8 993d a0b3 34bf
00000020: 60c8 433e a573 10bf b0c7 023f 152f dabe
00000030: 69c6 cb3e ec38 633f 0963 b7be 9f62 f93e
00000040: ef97 d43c d0c3 40be 9898 3a3f c489 573f
00000050: 725a 13bf c648 94be d8bb 0c3f 4c4f 9ebd
00000060: 3b05 1abf 7bea 3fbe 13f2 cb3c f7cf b43e
00000070: c2d7 b03e 5060 8dbf 0820 8ebd 32a6 ccbe
00000080: 1898 d53d a39e 813f 2e73 aa3e 18b6 4bbf
00000090: b12b 05bd bc14 a9bd d741 8dbe 8db5 d13d
000000a0: cbce 693f 9ba4 353e cb05 723e fe4c 4cbe
000000b0: f294 98be 3873 c93d b752 0bbf 810e 193f
000000c0: 77fc a23d f1c5 4dbe 481d 0d3f 2142 573f
000000d0: 79af 07be 2c79 55bc 3354 36be 64c2 b2be
000000e0: 229a db3c 7cd8 893c 946f d13e 8f2b 413e
000000f0: 5696 a4be d1a9 0c3f 3e44 053f 58aa 7ebe
00000100: b521 a53e f013 2bbf 2deb b93e 8fc7 013f
00000110: c691 ae3e d31e 73bf e409 ef3e 62ff 26bf
00000120: 6699 31bf 1c64 fcbe 54b0 af3f 5d85 efbd
00000130: 1d4d edbc 873d 3d3e 1eaa b8be d2be 8e3e
00000140: 98ae 50bf 2236 c1be 00a1 683f 9475 c0bc
00000150: 0b68 af3e 6b24 703e 8774 2bbf ac93 e63d
00000160: 68c4 073f e6c5 c03f 0f79 0cbc b7c1 2b3f
00000170: e744 a0be 2d8d e73e 8462 02bf 417e 70bf
00000180: a975 fb3e 97b6 a5be 4dda 933c e00f 203f
00000190: 4360 86be 56d2 ee3e 11fd 1ebf 4d81 0e3f
000001a0: 5fae edbe 6fc8 ae3d c0d0 72bf 9823 52be
000001b0: 7a52 3abe 9a84 de3e d1d9 133d 2207 013e
000001c0: c5c4 8e3e ba86 c23e acdb 27bf e72b f9be
000001d0: 726c 56bf 001e dd3e f931 60be 3d34 15bf
000001e0: f8bf 87be fd25 0dbf bbf6 3e3f 7fd3 0c3e
000001f0: e60a d13e 5364 763e f6da d9be 33b9 053f
00000200: 38b9 5cbf 87f2 d8be 37be e0be 9ba2 7abe
00000210: b4ee 393f 7491 bd3e a508 5dbe fc7a 113e
00000220: 3a68 233f 2b0c f3be c84d be3e 90b9 78be
00000230: 3189 80bf 0027 84be 3bef e7be 9381 333d
00000240: ddc4 b8be a9d5 763f cf0b 723f 9d64 2e3f
00000250: 72b3 283f 09ca a3be c653 063f 08e7 f7be
00000260: 6bba 2dbf 2e31 b43e f10f 4b3d 713f 413f
00000270: 35f6 c3bc 8a01 dcbe b994 fbbc 23db a53d
00000280: faca 1a3f 2669 5b3e 5264 6b3d 2dd6 36bf
00000290: 60c4 1abe 2b2f 363d 32fc 3c3e 46a7 703f
000002a0: 17f0 3f3f 977a 0ebf 795d 7f3e 746e 75be
000002b0: 8090 d93e aab6 0fbf 9083 2e3e 2627 e93e
000002c0: 6ff6 50be f474 00be b02a 013e 0ebf 063f
000002d0: c9ed 22bf 4879 91be 369c 673e 619b 7dbd
000002e0: 8b77 cb3c 7bdf 9c3f 36ac 2abd 4880 34be
000002f0: 9d1a c5bd d123 14be 2b7b 27bf 26c4 723e
00000300: 7750 8fbf ad61 02bd 5c44 ecbe 9885 923f
00000310: b37c c8be dea5 c83e e161 7abe 4077 21bd
00000320: ad26 873e 5adc 75bf 78fb cc3e b15a 833f
00000330: cacf 3ebf 1f54 0f3f c86d b6be 5323 9f3e
00000340: ea4f 68bc 6ff1 cfbe f3a7 943e 2743 863e
00000350: 0d6a 873e f895 28be d1ba 84bf 2fe8 ec3e
00000360: 47ae 02bd 8e06 c13b 6aa0 563d 40cc 73be
00000370: 56c7 a8be a157 603f 83ef 43bf a224 27bf
00000380: 2803 ecbe 80c5 2bbe 7f0f e33e 3176 833d
00000390: b1cf c6be 407d 893e d388 623f 6245 dbbd
000003a0: 1deb 1e3e e96e f4bd ead6 1ebe f6d1 6abe
000003b0: 91ee e53e c9b5 5fbe 0fef 14be 53fd 68be
000003c0: dfb8 3dbf 3d6c 173e fd80 883e d51c 12be
000003d0: 86c5 873e 5081 86be 1c69 07be 27d3 1a3f
000003e0: ad07 673e ec7a 81bd 7991 65bf 72e0 83bf
000003f0: a57c 543e 2e32 4fbd cc8a 8c3e bcf6 763f
-0.13601103 0.56613666 -0.47255024 0.1769836 -0.05075634 0.097281136 0.075089104 -0.70586586
0.19119406 -0.5642646 0.5108595 -0.42614046 0.39799812 0.8875873 -0.35817745 0.48708054
0.025951354 -0.18824697 0.7288909 0.8419459 -0.57559884 -0.28961772 0.54974127 -0.077299684
-0.6016423 -0.18741791 0.024895703 0.35314915 0.3453961 -1.1045017 -0.06939703 -0.39970547
0.104294 1.0126537 0.33291 -0.7957473 -0.03251237 -0.08255908 -0.27589294 0.10239706
0.91331166 0.17738573 0.23635022 -0.19951245 -0.29801136 0.09836429 -0.5442309 0.59787756
0.0795831 -0.2009504 0.55122805 0.8408528 -0.13250531 -0.013029378 -0.17805557 -0.34913933
0.026806895 0.01682686 0.4090544 0.18864273 -0.32145947 0.5494662 0.52057254 -0.24869668
0.3225228 -0.668273 0.36312237 0.5069513 0.3409559 -0.9496891 0.46687233 -0.65233433
-0.6937469 -0.49295127 1.3725686 -0.11695359 -0.028967435 0.18480502 -0.3606729 0.2787996
-0.8151641 -0.37736613 0.90870667 -0.023493566 0.34259066 0.23451392 -0.6697468 0.11258635
0.5303407 1.5060394 -0.0085737845 0.6709246 -0.31302568 0.45224896 -0.5093157 -0.9394265
0.49113205 -0.32365867 0.01804843 0.62524223 -0.26245317 0.4664485 -0.621049 0.5566605
-0.46422097 0.085343234 -0.9484978 -0.2052139 -0.18195525 0.43460542 0.036096398 0.12600377
0.27884498 0.37993413 -0.6556957 -0.48666307 -0.83759224 0.4318695 -0.21894063 -0.58282834
-0.26513648 -0.5513609 0.7459523 0.13752554 0.40828627 0.24061708 -0.42549866 0.52235717
-0.8622012 -0.42372534 -0.43895122 -0.24476092 0.7262986 0.37025034 -0.21585329 0.14207071
0.6383091 -0.4747022 0.37168717 -0.24289536 -1.0041867 -0.25811005 -0.45299706 0.043824743
-0.36087695 0.9641977 0.9454927 0.68122274 0.6589881 -0.31990078 0.5247158 -0.4841845
-0.67862576 0.3519377 0.04957575 0.7548743 -0.023921112 -0.42969924 -0.030710565 0.08098438
0.6046597 0.2142683 0.05746872 -0.71420556 -0.15113974 0.044478577 0.1845558 0.9400524
0.74975723 -0.5565581 0.24938 -0.23967916 0.42493057 -0.561381 0.17042375 0.4553768
-0.20406507 -0.12544614 0.1261394 0.52635276 -0.6364408 -0.28412843 0.22618183 -0.06191576
0.024837276 1.2255701 -0.04166814 -0.1762706 -0.09624217 -0.14466788 -0.65422314 0.23707637
-1.1196431 -0.031831432 -0.46145904 1.144702 -0.39157638 0.39189047 -0.244514 -0.039420366
0.26396695 -0.96039355 0.40035605 1.0262052 -0.7453581 0.55987734 -0.3563063 0.31081638
-0.014179209 -0.40613887 0.29034385 0.26223108 0.26448098 -0.16463459 -1.0369512 0.46270892
-0.031904485 0.005890674 0.052399077 -0.23808384 -0.3296458 0.8763371 -0.7653734 -0.6529027
-0.46096158 -0.16774559 0.4434776 0.064190276 -0.3883033 0.2685337 0.8849003 -0.10706593
0.15519376 -0.11935217 -0.1551167 -0.22931656 0.44908574 -0.2184669 -0.14544319 -0.22752886
-0.74110216 0.14787383 0.2666091 -0.14268811 0.26517886 -0.26270533 -0.1322369 0.6047844
0.22561522 -0.063222736 -0.896751 -1.030287 0.20750673 -0.050584964 0.27449644 0.96470237

feature.bias_ih_l0_reverse f4 [512]
00000000: 74fc f73e 38cb 5f3e fd92 023e bdcc 823d
00000010: de9a abbd bed0 823c dfe8 0b3f db96 253f
00000020: 7603 cb3d edc5 d63d c1d8 c83e 4a9d 043e
00000030: 11f7 a43e 1881 023f 6b51 963e f012 c93e
00000040: 2a89 bd3e df81 363d 5926 663e cf12 a33e
00000050: 72ad 433f 1b27 dfbc 2a96 8f3e 64f8 ee3e
00000060: dee4 3dbe 81d4 e43e 1908 cebd 9c16 123e
00000070: 6acf ae3e 85d1 74bd 4f8e 33be d6f3 a1bd
00000080: cb0a a7bd 2ac5 12be f3d5 233e 685d 293d
00000090: 57e6 3f3e a409 f23e fbaa b93d e94a f83e
000000a0: 8b29 833e 8d94 48bd 865e 11bd 1c08 8c3e
000000b0: 2d5c 74bd 4bb3 613e f74f 013f ad89 f03d
000000c0: c6b7 83be f77b a43d 3d79 a3be 92de 223d
000000d0: 5502 d13d 741b fabc b487 45bd 40f4 003f
000000e0: 434f bd3e fb2e 83be 7889 8b3c 9296 703d
000000f0: cb91 da3d b6de c4be be6a 9fbe 6c18 9d3d
00000100: adfd a13e 603c a53e 96cd 913e a854 ab3d
00000110: 0baf 193e 607e 9a3d 56de 183e fde8 293e
00000120: 0af3 4dbe b289 923d bca4 e8be 4df7 833e
00000130: f9c7 fcbd 0d76 c53e f9a1 e8bd df58 3a3d
00000140: b71e 533f 59ff d83e f3d2 cf3e 50ba 023e
00000150: 260b 47bc 793e 8b3e f5e3 ee3e 7fbe ba3d
00000160: cb2d d13e d694 213b 4e6d 8abe f245 47be
00000170: 6dc7 1dbe aa0f 29be e294 5c3f 43ec b6be
00000180: 8056 c33e ab9d f53e 3ce1 c6be d760 093e
00000190: 23a8 cd3d c53d 6f3e c31e d83d 68ee f2be
000001a0: 93c1 4fbb 2e28 023f 30fd 5b3e c71f ef3e
000001b0: f0b0 1d3f 6bcd 73be 4384 1d3f c145 403f
000001c0: 7750 49bd 8492 76be fd52 8cbd c568 7abd
000001d0: 2896 953e 0330 f13e fdb8 713d 2657 31be
000001e0: a991 ad3d 30ce 6dbe 8583 493e cb7a 263f
000001f0: a5bf 473f 7974 29be 8f69 00be 52be 0e3e
00000200: 0f2a 6bbd 82fa a2be 6066 4f3e 8e7e 303e
00000210: 6f22 143e 748e 233e 37b9 953d a6f4 7fbe
00000220: 6fbb 6a3e 686f b4bc 9a96 9abc 0931 663e
00000230: ae6b d83b 1b77 b4bc a828 81be 7579 4cbe
00000240: b014 13be 62c7 4fbd 8560 bdbe bfbd 0e3e
00000250: f840 e9be 531a 073d d63d 083f 0a07 fe3b
00000260: 9877 96bd 4531 2f3d 0535 bbbe 952e 8dbe
00000270: fcf3 843e f67e 3c3e f721 a8be 2db7 863e
00000280: 5c81 813d 4de9 903e f4b6 a53c ccc6 743e
00000290: 0a36 3c3d 7181 c8be 237f cdbe 9faa a13c
000002a0: ce54 ab3e 9d87 f43d ffc2 c9bd 4a37 b93d
000002b0: b5e5 293e 0165 17bb a784 cfbe 9671 4d3e
000002c0: f0af 9a3e d2bc 073e ca00 2fbd 6d77 c43d
000002d0: b3b5 9abd 9e39 c43e 13fb 0f3e dd49 62be
000002e0: d442 e5bd a804 a8bc e064 7a3e 52d5 303e
000002f0: fa6d 263e 1f16 dc3d 5151 663e 4205 a2bc
00000300: e5aa 7ebe c38a b43e b2a8 6e3e f266 4c3b
00000310: 9376 f4bd 5881 a93c 389d 77be d944 bc3d
00000320: ad02 28bc 33a4 d23d 9c72 ca3e 0a44 00be
00000330: 05af f43e becf 05be afa7 a43c 81fd 50be
00000340: 2fe2 ad3e 7d5c 0ebf 20f2 f8bd 466f 83be
00000350: 21f5 dc3b 8456 813e 6725 08be c928 0f3e
00000360: 7eaf da3d b92a c2bd 0cad db3e 10d0 bb3e
00000370: 796e 13bf c997 45bf acb1 9bbc 90e0 c23e
00000380: 6d18 7fbe 9240 e5be f2fc 12be 8d2f 02be
00000390: d5f3 69bc d543 fabc 5090 a23e e9bd 91bd
000003a0: 7e1d 013d 84aa 91be 7cd4 82be dbb7 7abe
000003b0: 2e4d 61be 4056 033e 13ff 34be 064e 613d
000003c0: 0836 51be c9e8 6ebe a9c0 923e 21e7 0c3d
000003d0: a7b6 dc3e 9d05 be3d 7458 2abe beaa 66bd
000003e0: 7f31 1c3e 80be aa3e 09ca b23d 5925 18bf
000003f0: 74b8 ea3e 7156 14be 71e8 fdbd 3e8e 47be
0.48434794 0.21854866 0.12751384 0.06386707 -0.08379148 0.015968677 0.5465221 0.6468331
0.099127695 0.1048697 0.3922787 0.12950626 0.32219747 0.5097823 0.29358992 0.3927226
0.3701871 0.04455745 0.22475566 0.31850287 0.7643653 -0.027240327 0.28044254 0.46673882
-0.18544337 0.44693378 -0.10060138 0.14266437 0.3414262 -0.059770126 -0.17534755 -0.07907836
-0.081563555 -0.14333025 0.15999584 0.041348845 0.18740211 0.4727298 0.09065815 0.48494652
0.25617632 -0.048969794 -0.035490535 0.27349937 -0.05965822 0.22041051 0.5051264 0.117450096
-0.25726146 0.08031457 -0.31928435 0.03976304 0.10205523 -0.030530669 -0.04822512 0.50372696
0.36974534 -0.2562178 0.017033324 0.058737345 0.10672339 -0.38451165 -0.31136125 0.07670674
0.31638852 0.32272625 0.28477162 0.08365756 0.1500818 0.07543635 0.14928564 0.16592784
-0.20112243 0.071551695 -0.45438182 0.25774613 -0.12342829 0.38566628 -0.11359019 0.04549491
0.8246874 0.42382315 0.4059063 0.12766385 -0.012148654 0.271961 0.46658292 0.091183655
0.4085525 0.0024655364 -0.27036518 -0.19460276 -0.15408106 -0.16509882 0.8616468 -0.35727128
0.38151932 0.47971854 -0.38843715 0.13415848 0.10041835 0.23363407 0.10552742 -0.47447515
-0.0031701073 0.5084256 0.21483302 0.46703932 0.6159811 -0.2380883 0.6152994 0.75106436
-0.049149003 -0.24079329 -0.06851766 -0.061135072 0.29216123 0.47106943 0.05901431 -0.173184
0.08475048 -0.23223186 0.19679077 0.6503112 0.780268 -0.16548337 -0.12540267 0.13939789
-0.057413157 -0.31831747 0.20253897 0.17235777 0.1446626 0.1597231 0.073107176 -0.2499567
0.22923063 -0.022025779 -0.01887064 0.22479643 0.0066046333 -0.02202945 -0.2522633 -0.19968207
-0.1436336 -0.050727256 -0.369877 0.1393957 -0.4555738 0.03298409 0.53219354 0.007752304
-0.073470294 0.042771596 -0.36563888 -0.27574602 0.25967395 0.18407807 -0.32838413 0.26311627
0.063235015 0.28302994 0.02022884 0.2390396 0.045949973 -0.39161256 -0.4013606 0.019734679
0.33463138 0.11939929 -0.09851646 0.09043749 0.16591533 -0.0023100975 -0.40530893 0.20062861
0.30212355 0.13255623 -0.042725362 0.09593091 -0.075541876 0.38325208 0.14060621 -0.22098489
-0.11194387 -0.020510033 0.24452543 0.17268875 0.1625289 0.10746407 0.22491957 -0.019777898
-0.24869879 0.35262117 0.2330654 0.003118929 -0.11936679 0.020691559 -0.24181068 0.09192819
-0.010254544 0.10285225 0.39540565 -0.12525955 0.4778978 -0.13067529 0.020099489 -0.20409204
0.33961627 -0.55609876 -0.12155557 -0.25670832 0.006743089 0.2526132 -0.13295518 0.13980402
0.10678004 -0.09480805 0.42905462 0.36682177 -0.5759044 -0.7718473 -0.019005619 0.38061953
-0.24911661 -0.44775826 -0.14354303 -0.12713452 -0.0142793255 -0.030549923 0.31750727 -0.071163006
0.031522267 -0.28450406 -0.25552738 -0.24484198 -0.22002098 0.1282587 -0.17675428 0.05500605
-0.20430768 -0.23330988 0.28662613 0.03440011 0.43108103 0.092784144 -0.16635305 -0.056315176
0.15253256 0.33348465 0.087299414 -0.5943199 0.45843852 -0.144861 -0.1239785 -0.19487855

feature.bias_hh_l0_reverse f4 [512]
00000000: 0b1a bc3e 97fe 4c3e 35c7 683e 0890 9a3d
00000010: 3069 3dbe 4761 5abc 413d 253f 8255 2f3f
00000020: 1c57 073e a6dd 323e 7c22 b43e 9c43 1e3c
00000030: e029 893e 21de f43e 0691 0c3f 4bc2 6b3e
00000040: c838 cb3e ff36 633d 7731 543e cd23 b53e
00000050: 7c3c 1e3f c1bd 983c 7e55 b63e 7b25 fd3e
00000060: c7e6 8dbd 7715 9b3e d9d5 b0bd 147c 183e
00000070: 1525 a53e f7b1 afbd 9da2 b9bd 270b 253d
00000080: 4fec 52be 3fb1 443e 4e1a 9f3e 76f4 17bd
00000090: 7fc5 373e 490a c53e 45ca 1e3e d20b de3e
000000a0: a13f 993e 9c64 babc fc23 41bd 0160 8e3e
000000b0: fce0 e9bd fca8 a33e a608 013f 9ae6 ce3d
000000c0: 4420 85bc 5338 933d 2957 c1be 24ce f3bc
000000d0: 9b82 433e 0d84 29bd 2a77 6b3d 0e6b 023f
000000e0: 17a1 333e f898 98be a838 f43d 2ccf 973d
000000f0: 03d3 163e cb70 84be dac2 03bf cc3c b1bc
00000100: 4bbe 583e 9354 3f3e 877e 9b3e cda0 d03d
00000110: 7692 9a3e cde5 483e 6b65 4f3e 4e83 5d3e
00000120: 2e14 7cbe a626 743d f7f1 a3be 15dc 453e
00000130: dbd0 3cbe 0885 f73e 0eb1 7bbe 428a 0abc
00000140: d82e 5e3f 797f 823e 8ee9 003f 8c72 073e
00000150: 329d 3bbe 1b91 793e bb1c c83e e2ec 2f3e
00000160: 62a2 d73e dd95 bdbd 4aa9 3cbe 66f0 65be
00000170: 42eb fcbc a8c4 34be 6f58 453f 10b5 0cbf
00000180: f400 a33e 0ebc fc3e 8e80 dabe 0841 9f3e
00000190: 515d d93d b505 bd3e f952 5d3e bf60 debe
000001a0: c99c c73d afef 0b3f 6eb9 933e d4f2 073f
000001b0: 79df 1e3f f939 81be b50a 253f a0ed 263f
000001c0: dfe1 0ebe 21fd 2dbe 6cdf 6bbc 4d53 403d
000001d0: 4672 5e3e a6d1 0c3f 0d35 8fbc 1f4e 5cbe
000001e0: 9589 053e b8c6 2ebe b597 dd3d 5142 113f
000001f0: 7469 323f 76df 1ebe 4d27 5bbe 4097 133d
00000200: 69cf 86bd 5b37 7cbe 8f42 bd3d aee9 623d
00000210: 8aed 923e b335 8e3e d249 693d ae98 9abe
00000220: e831 893e 3ea0 783d c6c1 63bd bbe8 a53d
00000230: d9b7 503c 5b5a 67bd 7562 6fbe b5ff 91be
00000240: dfd4 6bbd 717b 203a bd82 7cbe 8adc f73d
00000250: 8664 dabe 1c11 80b9 0c05 033f 0ba0 ff3a
00000260: e39b 0bbe 9345 b2bd b390 5cbe 61d9 57be
00000270: 6e32 f83d c686 453c 788a 98be b1f6 b73e
00000280: 8300 dd3c 7489 933e de69 a93c 8a94 353e
00000290: 8da8 a63c be40 6bbe ee98 e6be 82d5 6c3a
000002a0: 817a a83e a9c5 3c3d 4a64 23be 8441 0f3e
000002b0: 7583 f33d 14ef 35bd a66f 87be e3ec 8e3e
000002c0: 8833 a13e 9b76 babc f563 603d 34f0 f13d
000002d0: 3ecb a93d 8b9c ec3e 1e8e 383e fbdf 87be
000002e0: 29e7 9dbd 5ee6 e63a 0d26 883e 553d 6d3c
000002f0: ecef 443e a6fd 893e 6ca3 bf3e 28c7 5abd
00000300: ad38 82be a03b 923e e100 b63e 7af1 933c
00000310: 84d5 93bd cd38 0b3e 0e6a 83be aac1 363e
00000320: fd44 43bd 459b 803d 6294 993e 36b8 09be
00000330: 7890 0c3f 07fa b9be 0cdf bd3b d9dd 1ebe
00000340: a22d dd3e 5372 05bf 0429 5cbe 82e2 8bbe
00000350: 8e71 3ebd afd0 4d3e 0405 02be 9608 4f3e
00000360: eca5 673e f57c 10be 77c8 a23e 544f e23e
00000370: 85a6 e8be 2247 5dbf 5636 08bc b07a ce3e
00000380: 9618 3abc e5aa abbe 4ba8 3fbe 8f8b b0bd
00000390: 1cb5 023e 5599 df3d 0cee 983e 40a3 b4bd
000003a0: b8a6 0cbc 0ac8 b7be fa17 8fbe 07a6 86be
000003b0: 1e5b 84be 9057 413d e2a6 01be b0e2 ac3d
000003c0: de2d 09be 8e6a 67be 0d4d 963e 8036 993d
000003d0: 96de f43e 3b53 4cbb ae31 3fbe 93df 8ebd
000003e0: f327 903d b33c 753e d385 95bd bd81 17bf
000003f0: fc58 113f e272 86be e11d 45be 5675 56be
0.3673862 0.20018993 0.22732241 0.07547003 -0.18497157 -0.013328857 0.6454659 0.6848985
0.13216823 0.17467365 0.3518256 0.009659674 0.2678976 0.4782572 0.5490879 0.23023336
0.39691758 0.05547237 0.20721994 0.35378876 0.6181104 0.01864517 0.356121 0.49442658
-0.06928783 0.30289814 -0.08634538 0.14891082 0.32254854 -0.08578866 -0.09064219 0.04029384
-0.20597957 0.19208239 0.31074756 -0.03709837 0.17946433 0.3848441 0.15506847 0.43368393
0.29931358 -0.022753052 -0.047153458 0.2780762 -0.114198655 0.31964862 0.5040382 0.101025775
-0.016250737 0.07188477 -0.3776181 -0.029761381 0.19092791 -0.0413857 0.05748669 0.509446
0.1754192 -0.29804206 0.11924869 0.07412562 0.14728932 -0.25867304 -0.51469195 -0.021635436
0.21166341 0.18684606 0.3036997 0.1018692 0.30189866 0.19618912 0.20253532 0.2163212
-0.24617073 0.05960717 -0.32020542 0.19322236 -0.18439047 0.48343682 -0.2457926 -0.008455815
0.8679023 0.2548788 0.50356376 0.1322729 -0.18321684 0.2437176 0.3908442 0.17180207
0.42116076 -0.092571 -0.18423954 -0.22454986 -0.030873898 -0.17653143 0.77088064 -0.5496378
0.31836665 0.49362224 -0.42676204 0.31104302 0.10613502 0.36918417 0.21613683 -0.43433186
0.09746701 0.54662603 0.2885241 0.531049 0.6205974 -0.25239542 0.6446946 0.65206337
-0.1395335 -0.16991092 -0.01439653 0.04695444 0.2172328 0.550074 -0.017481351 -0.21514176
0.13040765 -0.17067993 0.108199514 0.56741816 0.6969216 -0.15514931 -0.21401711 0.036032915
-0.06582529 -0.24630491 0.09241211 0.055398636 0.28696853 0.27775344 0.056955166 -0.3019461
0.26795888 0.060699694 -0.05560472 0.081010304 0.012739145 -0.056482654 -0.23377402 -0.285154
-0.057576057 0.000612191 -0.24659248 0.12102611 -0.42654818 -0.0002442681 0.51179576 0.0019502653
-0.13633685 -0.087046765 -0.21539573 -0.21079017 0.12118994 0.012056058 -0.29793143 0.35930398
0.026977783 0.28815806 0.020680364 0.17732444 0.020344043 -0.22973916 -0.4503855 0.00090345007
0.32905963 0.04608694 -0.15956226 0.13989836 0.11890308 -0.044417456 -0.26452368 0.27915105
0.31484628 -0.022761634 0.054782826 0.11813393 0.082907185 0.46213183 0.18022963 -0.2653807
-0.07710106 0.0017616262 0.2659153 0.014479955 0.19232148 0.2695133 0.37429368 -0.053412586
-0.25433865 0.28561115 0.35547546 0.018059481 -0.07218459 0.13595887 -0.2566685 0.17847314
-0.047673214 0.06279615 0.2999602 -0.13449177 0.5490794 -0.36323568 0.0057944115 -0.15514316
0.43198878 -0.5212757 -0.21500021 -0.2732125 -0.046495013 0.20099138 -0.12697226 0.20218119
0.22621888 -0.14110167 0.31793568 0.44201148 -0.45439544 -0.86436665 -0.008313736 0.40327978
-0.011358401 -0.3352882 -0.18716542 -0.08620369 0.127644 0.10917918 0.29869115 -0.088202
-0.008584671 -0.35894805 -0.2794798 -0.26298544 -0.25850767 0.047202647 -0.12661317 0.08441675
-0.13396403 -0.22599241 0.2935566 0.07481098 0.4782607 -0.003117754 -0.18671295 -0.06976237
0.0703887 0.23948936 -0.073009156 -0.5918234 0.56776404 -0.26259524 -0.19249679 -0.20943198
