pretrained_models/comick-60-context-size.pth (torch, 821283 bytes, 10 tensors)

feature.weight_ih_l0 f4 [512, 64]
000000 cd 8c 50 be 5c 34 11 3e 64 da 3c bf c8 a7 ac 3e
       -0.20366211 0.1418013 -0.7377074 0.33721757
000010 b2 8c 42 3f 0d 47 8c 3f eb f3 8d be b1 47 b7 bc
       0.75995934 1.0959183 -0.27725157 -0.022373052
000020 28 e3 5e 3f 0f e0 23 3d f7 a6 97 bf da ca 8c 3e
       0.8706536 0.0400086 -1.1847829 0.27498513
000030 26 35 db 3d 02 87 e0 3d 63 43 75 3f 40 03 0f 3e
       0.10703497 0.10963251 0.9580595 0.13966084
000040 9c 30 05 3f 8a d0 e1 be d1 2f 20 3f bf 90 11 3f
       0.520273 -0.44104415 0.6257296 0.5686149
000050 c7 55 76 3e a2 75 aa bd a8 ee 04 3f b2 92 39 be
       0.24056159 -0.08323218 0.5192666 -0.18122366
000060 51 11 5f 3e fd d6 db bf b2 57 6a bf 2d 63 58 bf
       0.2178395 -1.7174984 -0.9154006 -0.8452633
000070 a1 8b 7a 3e e7 d5 e7 bd 30 22 6c 3e 9f 89 cd be
       0.24467327 -0.113200955 0.23059916 -0.4014406
000080 6d cd ac bd 9e c7 4f 3e 39 ab 81 bf 70 dc a2 3e
       -0.08437619 0.20290992 -1.0130378 0.31808805
000090 9a 95 eb bd 97 50 88 be bb d7 33 bf 87 e1 2e 3f
       -0.115031436 -0.26623985 -0.70251054 0.6831288
0000a0 05 e8 62 bf 40 8d a6 be 71 63 4e bf ab de e4 be
       -0.88635284 -0.3252964 -0.80620486 -0.44701132
0000b0 f2 ba 1d 3e 20 91 61 3e 81 0a 7e bf 2a b6 96 be
       0.15403345 0.22028017 -0.9923478 -0.29435855
0000c0 b2 2b 19 3d 14 17 20 bf 78 0a 20 3f 77 91 3e 3f
       0.037395187 -0.62535214 0.62515974 0.7444071
0000d0 39 88 6c be 63 af d0 3d 0a d3 1c bf 33 46 59 3e
       -0.2309884 0.10189702 -0.6125952 0.21218185
0000e0 46 00 da be 68 d6 1c 3f d4 05 ee 3e 7b ba a9 3d
       -0.42578334 0.6126466 0.46488822 0.082875215
0000f0 5e d4 2e be 0b b4 1d 3f da 0e cf 3d d2 00 8b 3e
       -0.17073199 0.6160285 0.101102546 0.27149063
000100 20 f9 09 3f 09 ed 73 be 1d cd 0f bf 5a b2 97 3e
       0.5389576 -0.2382089 -0.56172353 0.2962826
000110 fc 8a a0 b9 a0 39 f6 3e a6 9a 72 be 4b 04 c5 be
       -0.0003062113 0.4809084 -0.23691806 -0.38479838
000120 dc 3e ca 3d 97 0c ac 3d 77 38 5a be 6a c1 b0 bf
       0.09875271 0.08400839 -0.21310602 -1.3809025
000130 65 4f 09 3f 7f 74 55 bf 45 35 1b 3e b3 f7 22 bf
       0.5363677 -0.83380884 0.1515704 -0.6365921
000140 2d 73 97 3a 0f 72 ed be 50 8c 16 bf 85 4c 19 be
       0.0011554711 -0.46376082 -0.5880785 -0.14970596
000150 0a 9f 63 be 7b 16 4d bf ce a5 32 3c cf 1a 50 bf
       -0.22228637 -0.8011243 0.010903789 -0.81290907
000160 bd d5 3e 3f 2e cb 90 3e 40 2d 50 bf f3 1b a3 3e
       0.7454489 0.28280014 -0.81319046 0.3185726
000170 06 1a df be 66 c3 10 be bc 03 3c bf 29 7b 87 bf
       -0.43574542 -0.14137039 -0.734432 -1.058446
000180 8b 22 9f 3e 09 ce 5c bf 98 d8 68 3f 44 bb 09 3f
       0.31081042 -0.86251885 0.90955496 0.5380137
000190 72 22 a3 3d c0 ae 2f bd 20 4b 1e bd a7 74 80 bd
       0.07965554 -0.042891264 -0.038645864 -0.0627225
0001a0 72 d6 b6 be 62 37 ac 3d 25 43 c2 be 3f af d5 be
       -0.35710484 0.08409001 -0.37941852 -0.41735265
0001b0 fd 30 ac 3f 69 a8 55 bf dd 0e c4 be cf 43 42 bf
       1.345245 -0.834601 -0.3829259 -0.7588472
0001c0 04 87 75 bf 47 6a 46 be 25 7e 27 3f 7e b8 60 3e
       -0.9590914 -0.19376479 0.65426856 0.21945378
0001d0 f8 93 55 bc 9d 9e 8e be f3 82 84 bd b6 ff 9d 3e
       -0.013035767 -0.27855387 -0.06470289 0.30859154
0001e0 c3 f6 7a 3e 35 d4 c3 3d 9c c6 67 3e b6 cc 0e 3f
       0.24508195 0.0956196 0.22634357 0.55781114
0001f0 4d 55 1b bf 18 50 db be 5b 4a 08 bf c3 48 99 be
       -0.60677034 -0.42834544 -0.5323846 -0.29938325
000200 24 13 98 3e aa 0b 0f 3f eb b4 cd be 66 6d 71 bf
       0.29702103 0.5587717 -0.40177092 -0.94307554
000210 be ae f1 3e 71 8b ac 3e ac 93 27 bf 55 20 47 bf
       0.4720363 0.33700135 -0.65459704 -0.7778371
000220 d6 bb a3 bf d3 80 9a bf 02 27 84 be 9f 97 48 bf
       -1.2791698 -1.2070564 -0.2581101 -0.78356355
000230 91 86 3e be 2f df 05 3e 5f 52 75 3e 50 9f 0e bd
       -0.1860602 0.13073419 0.23957203 -0.0348199
000240 fa 12 60 3f 32 bb 16 be f5 1a ad 3f d0 2e 51 3e
       0.87528956 -0.14719847 1.3523852 0.20428014
000250 d9 92 94 bf 5a 50 05 3e 32 d5 c5 3d a8 86 8a 3f
       -1.1607314 0.13018933 0.096598044 1.0822344
000260 b9 ef 17 3d 4e b5 69 3f 1d da 56 3e 25 32 95 bf
       0.03709385 0.91292274 0.20981641 -1.1655928
000270 44 bb bf 3f b2 22 29 3f bd 64 de be 46 3a 8e bf
       1.4979024 0.66068566 -0.43436232 -1.1111534
000280 a9 1d 15 be 71 20 fa 3d 91 87 f4 3e 79 df df 3d
       -0.14562096 0.12213219 0.4775968 0.10931296
000290 85 aa d2 be 60 03 e3 3f 03 ac 28 bf 06 2a c7 be
       -0.4114572 1.7735405 -0.6588747 -0.3889925
0002a0 7f 6b 3b bf a2 f7 5b be 5a 32 7e bf 5f 97 01 3f
       -0.732109 -0.21481183 -0.9929558 0.506216
0002b0 6e 26 10 bf 2f 36 10 3f 1c cd 8d 3f b4 4d be 3e
       -0.5630864 0.5633268 1.107822 0.37168658
0002c0 04 21 cc be 64 05 49 be 7e fb 32 3c df 7c d9 3e
       -0.3986894 -0.19630963 0.010924218 0.42478082
0002d0 3c 1d c3 bd f4 7d ab be dc 91 84 3f ca 59 fb 3e
       -0.095270604 -0.33494532 1.0357013 0.4909194
0002e0 be d7 89 bd 2b a7 9d 3d 59 13 bc 3f 25 f6 ca 3d
       -0.06730603 0.076979004 1.4693404 0.099102296
0002f0 b3 86 bd be 21 1b dc be 73 b1 5e 3f b3 14 de be
       -0.3701683 -0.42989448 0.86989516 -0.43375167
000300 37 43 55 bf 7c ce 12 bf 0c a6 f4 3e 30 02 82 3f
       -0.83305687 -0.5734632 0.47782934 1.0156918
000310 b2 8e d4 3f ef 80 15 3f 40 a0 65 bb c9 06 fd bc
       1.6606047 0.5839986 -0.0035038143 -0.030887024
000320 c0 f1 30 bd 3d 97 a3 3e 19 6c 1a 3e af 34 b4 bd
       -0.0431993 0.31951323 0.15080298 -0.08799111
000330 a9 f3 f5 3e e6 1f 80 3e 99 ce 7f be 31 22 cd 3d
       0.4803746 0.25024337 -0.24981155 0.10016287
000340 a2 79 d4 bd c3 fe 0c bf 49 16 8e be 9e e7 0d 3f
       -0.10374762 -0.55076236 -0.27751377 0.55431545
000350 12 c5 29 3f 9b c0 78 3f ee 41 7e bd 26 05 a6 3e
       0.6631633 0.9716889 -0.062074594 0.32425803
000360 47 17 4b bf 29 64 e2 3e 7b 96 94 bd 1b c2 60 3e
       -0.79332393 0.4421704 -0.07255264 0.21949045
000370 b5 bd de be 37 fe a3 3e 20 ea 0e bf 6c e1 a0 3d
       -0.4350411 0.32029888 -0.55825996 0.07855496
000380 63 d2 99 3f 84 46 77 3f 05 01 68 3f 85 32 95 be
       1.201733 0.96591973 0.90626556 -0.29140106
000390 33 23 b2 be fe 94 07 bd 74 eb 87 3d cd 69 83 3f
       -0.3479248 -0.033101074 0.06636706 1.0266663
0003a0 74 62 73 3e 6e f8 a1 3f 63 fe 9e 3e fc dd af be
       0.23768026 1.265394 0.31053457 -0.34349048
0003b0 c1 60 68 be d4 7e 23 bf cc 4c af bf 6c f6 0d bf
       -0.22693159 -0.638654 -1.3695312 -0.55454135
0003c0 6e bb 7d 3e c6 80 14 bf 21 25 5c be 32 12 92 3d
       0.2477853 -0.5800899 -0.21498539 0.07132377
0003d0 ea 28 65 bd 92 c1 58 3c d2 6c ff 3e fa d8 9c be
       -0.05594722 0.0132297445 0.4988771 -0.3063429
0003e0 2a f8 2a bf e2 c0 35 3f 12 35 6a 3f 38 83 a8 be
       -0.6678492 0.7099744 0.9148723 -0.32912612
0003f0 3c a1 2c 3e 95 09 36 bd 89 92 b2 be 17 29 6a bf
       0.16858381 -0.044442732 -0.34877422 -0.9146895

feature.weight_hh_l0 f4 [512, 128]
000000 46 0f a4 3d 3a 95 ac be b2 71 ee bd 89 3d d5 3e
       0.08010726 -0.337076 -0.116427794 0.4164851
000010 b6 7f 5f 3e 09 89 ed be e8 4b 1e 3f 43 85 f5 3e
       0.21826062 -0.46393612 0.61834574 0.47953233
000020 52 e9 78 3e 79 fe ed be eb fc f2 3c f8 cf 0a 3f
       0.24307755 -0.4648321 0.029661616 0.54223585
000030 b2 e9 9f 3f 0f 16 1a 3e d5 48 b2 be 03 60 8d 3e
       1.2493193 0.15047477 -0.3482119 0.27612314
000040 b2 0b aa 3d 41 be 6a 3e df e3 59 bf 4a 4a 5d be
       0.08303012 0.22924139 -0.8511333 -0.2161037
000050 08 0f 86 bd d7 b6 30 bf ef 3f 1c bf 9f 11 54 3f
       -0.06545836 -0.6902899 -0.61035055 0.8283939
000060 1c c6 51 3f 54 2f 44 3e 12 bc 8a be a3 a8 5a be
       0.81942916 0.19158679 -0.2709661 -0.21353392
000070 ee 3a 5a 3f a5 63 65 bf 95 56 fe 3e 6e 1e 76 3e
       0.8524617 -0.8960517 0.49675432 0.24035046
000080 b5 27 41 3f bc cd ee 3d 91 bb 88 3e ae 5e ef 3e
       0.75451213 0.116603345 0.26705602 0.46751922
000090 f1 46 ee 3e a2 c2 53 3e 6e 3b 7e 3d fd 06 7f bf
       0.465385 0.20679715 0.062068395 -0.9962004
0000a0 ef e0 83 be df 12 50 be a4 1d ca be 83 b0 94 be
       -0.25757548 -0.20319699 -0.3947574 -0.29040918
0000b0 c9 9e b1 3d d3 37 64 be 3a af 51 3d 7a d8 0e bf
       0.08672864 -0.2228692 0.0511925 -0.5579907
0000c0 92 46 32 bd 7a 33 70 3f 0d 9b 9a be 73 0e 02 3f
       -0.043524332 0.93828547 -0.3019642 0.508033
0000d0 7c b0 75 be 50 00 15 3f 6c 7c 95 3e b5 60 d9 bd
       -0.23993105 0.582036 0.2919649 -0.106141485
0000e0 03 39 9d 3f 48 19 ce 3e 88 e1 c9 bc b7 94 b3 bd
       1.2283024 0.40253663 -0.024643674 -0.087685995
0000f0 ae f2 80 be 55 22 2f be 31 9b 54 3e fa c4 4b be
       -0.2518515 -0.1710294 0.20762326 -0.1989936
000100 3f b8 8f bf b5 06 8b 3c df 4a 81 3d 04 0f 80 3d
       -1.1228102 0.016970972 0.06313109 0.06252864
000110 e4 fd c5 3e 21 23 2d be b0 c9 6c 3c 44 cd a9 be
       0.38670266 -0.16907932 0.014452383 -0.33164418
000120 80 63 1b 3f 09 0c bf 3e 71 58 10 be 26 7f 2b 3f
       0.606987 0.3731387 -0.14096238 0.6699089
000130 5f 9d 10 3e eb 35 12 be 78 f5 2e be 8d 44 f9 bd
       0.14122532 -0.1427838 -0.17085826 -0.12171278
000140 57 76 99 3e ae ad 23 3e ed 94 a5 be 61 e0 ab 3e
       0.299731 0.15984222 -0.32340184 0.33569625
000150 8c 48 0b 3e 55 85 21 3f b6 f4 e3 be e1 91 a7 bd
       0.13601893 0.63094074 -0.44522637 -0.08182121
000160 18 5c 26 3f 86 82 86 be 75 5f 88 3d 46 2f 83 bd
       0.64984274 -0.26271456 0.06658832 -0.06405501
000170 c4 a8 7d bf 93 bb ef bd 49 37 ab bd 4d 62 58 bf
       -0.9908564 -0.11705699 -0.08360154 -0.84524995
000180 4c 63 29 bf 00 a9 b0 3e 64 8b 12 3e 65 e4 c6 be
       -0.6616714 0.34503937 0.14310986 -0.38846126
000190 cc a9 97 bd 18 fc 32 3e 20 6c 07 bf 06 34 eb 3e
       -0.07405433 0.17478979 -0.5289936 0.45938128
0001a0 e2 6a 5e 3f 6c 6f 95 be 9f ee 9c 3f 38 f8 12 3d
       0.8688184 -0.2918657 1.2260321 0.03588125
0001b0 82 0e 63 bd 17 c2 d1 be e4 94 9d be 5f 81 68 3e
       -0.055433758 -0.4096839 -0.30777657 0.22705601
0001c0 d4 75 c6 be be b8 ea 3e d8 27 8f bd 9e 39 c5 3d
       -0.3876177 0.45844072 -0.069900215 0.0963013
0001d0 f7 5f 7b be 49 f5 27 3d 84 ad 9a 3e a3 0a 88 3e
       -0.24548326 0.041005407 0.30210507 0.26570615
0001e0 08 5c 73 bf 22 e0 1d 3e 50 44 2e be a9 ac c2 3e
       -0.95062304 0.15417531 -0.17018247 0.38022354
0001f0 b8 83 dc 3e 20 17 e0 3e 10 50 88 be e3 58 06 3e
       0.43069243 0.43767643 -0.26623583 0.13119845
000200 12 6d 55 3c 73 8c 43 3d dc 6b b2 be ad 7d b2 3e
       0.013026493 0.047741365 -0.34847915 0.34861508
000210 4a a8 13 be 22 4c 07 3f 7d 11 c6 be 0a b3 b2 be
       -0.14419666 0.52850544 -0.38685217 -0.3490222
000220 21 18 35 3f 78 b8 0b 3e 3f db df 3e 70 b6 b5 3e
       0.7073994 0.13644588 0.4372196 0.3549075
000230 8e 24 2d 3f 16 d0 50 3e b8 c4 21 be 36 e2 05 3f
       0.67633903 0.20391878 -0.15797698 0.52298295
000240 ac a9 e8 be 0b 3c 53 be a0 8e 78 3f a6 53 61 3e
       -0.4544195 -0.20628373 0.9709263 0.22004566
000250 98 d9 ed 3e 13 31 20 be 59 4a d1 3e f5 31 81 3d
       0.46455073 -0.1564372 0.40877035 0.06308357
000260 f5 10 36 3f 17 68 26 3f 70 67 9b be 99 34 c3 be
       0.71119624 0.6500258 -0.30352354 -0.38126066
000270 31 4d 1d 3e e9 8e 03 3d 68 11 d4 be ac 77 d0 3e
       0.15361477 0.03211871 -0.4141953 0.40716302
000280 70 6d 95 3e 4d 30 b1 3f d5 a4 a2 be 6b 9d c6 3e
       0.29185057 1.3842865 -0.31766382 0.38791975
000290 86 d2 e9 be 9f de 98 be cc 8e 75 3f e9 11 34 be
       -0.4566843 -0.29857346 0.95921016 -0.17584957
0002a0 2d be 3b 3e cb dc 8e 3e a9 63 af 3d 10 6d 23 bf
       0.18334265 0.27902827 0.085639305 -0.6383829
0002b0 d7 e3 45 3e 25 68 f8 be 98 95 dd 3e e8 f8 b7 3d
       0.19325195 -0.48516956 0.43278193 0.08983022
0002c0 95 5a f3 be 46 23 5d be 35 35 31 bf 13 4b f8 ba
       -0.47530046 -0.21595487 -0.6922181 -0.0018943272
0002d0 2d 2f 2b bf cd 19 39 bf 19 00 ae be b1 0b ab be
       -0.6686886 -0.72304994 -0.3398445 -0.33407357
0002e0 ec 2b ae 3d 53 6f a0 be 05 ac 9c 3d c0 15 f1 3e
       0.08504471 -0.31334934 0.076499976 0.47086906
0002f0 78 80 36 bf 6b 49 97 be bd 77 db bd fa 06 05 bf
       -0.7128978 -0.295482 -0.10716198 -0.5196377
000300 b5 8f bb be 2e c8 a7 3d cf ec 82 3c 4e 6e d2 be
       -0.36633077 0.08192478 0.01598206 -0.4109978
000310 9c fd 60 3f 5a 27 81 3e 6a 42 83 3e 56 df 42 3f
       0.8788698 0.25225335 0.25636607 0.76122034
000320 f5 96 8c bf ae da a0 be a1 fc 2a bc 98 9f 88 3d
       -1.0983568 -0.3141684 -0.010436208 0.06671065
000330 6a 9a 80 bd a8 14 32 bf fa 15 50 3f 92 2a 33 3e
       -0.06279452 -0.6956277 0.81283534 0.17496708
000340 ad 0d 41 3f 4e 52 45 3e c4 4d e1 bd 35 ff 33 bf
       0.7541149 0.19269678 -0.11001161 -0.7031129
000350 41 a4 d8 be 14 66 93 3e 38 88 26 be 87 f1 c4 3e
       -0.42312816 0.28788817 -0.16262901 0.3846552
000360 77 8b 72 be 8c 86 38 3f 67 2b 9c be 06 5c 10 bf
       -0.23686014 0.720803 -0.30501863 -0.56390417
000370 53 a0 2f 3f 2a 1a 54 3f b8 3c d3 be 7e 10 72 be
       0.6860401 0.82852423 -0.41257262 -0.23639104
000380 cd ab 5c 3f fe 07 e9 3e fc ba 5a bf 9b 17 d2 3e
       0.8619965 0.4551391 -0.85441566 0.41033635
000390 e3 c4 68 bf d0 84 26 be 79 81 28 bd cd 33 e8 3c
       -0.90925425 -0.16261601 -0.0411391 0.028345013
0003a0 15 cf 4b 3e 3b 6a 41 bd ae c0 8b be 46 b6 d8 3d
       0.19903214 -0.04722045 -0.2729544 0.10581641
0003b0 b8 2d 28 bf 74 ea 4a bd 4e 92 0a 3f 52 7d f7 3e
       -0.6569476 -0.04954 0.54129493 0.483378
0003c0 ab 9d 5f 3d fe 94 32 be 19 85 1e be f9 75 ab bd
       0.054593723 -0.17439649 -0.1548046 -0.08372111
0003d0 ef bb a1 3d 6a b3 dd bd 8c 0f 6d 3d d7 36 b6 be
       0.078971736 -0.10825236 0.057876155 -0.35588714
0003e0 3d a4 8f 3e ed de 06 bf 05 fd 15 3f 3a 9a cf bf
       0.2805499 -0.5268391 0.585892 -1.6218941
0003f0 89 b2 35 bf d1 97 ef 3e 5e 12 ab 3e c6 eb 99 3e
       -0.7097555 0.46795514 0.3341245 0.30062693

feature.bias_ih_l0 f4 [512]
000000 dd ee 00 3e 1f 5e 48 3f 60 24 d1 3e 13 62 9c 3f
       0.12591119 0.7826862 0.40848064 1.221743
000010 c2 8e 5c 3f e5 95 8a 3e f4 63 9a 3e 83 95 3e 3e
       0.8615533 0.27067485 0.30154383 0.18611722
000020 aa 29 0e 3e c3 47 46 3f 7f e4 83 be e7 b3 cc bb
       0.13883081 0.7745325 -0.25760266 -0.006247032
000030 ef 98 23 be 81 12 c0 3e c6 a0 3f 3d 6e 8e 1e 3f
       -0.15976308 0.37514117 0.046784185 0.6193608
000040 ab 39 26 3e 88 ec 2e 3f 32 ec d1 3e b9 d0 4e be
       0.16232936 0.6832967 0.41000515 -0.20196809
000050 1e 3f 41 3e 29 15 2e be 11 91 c6 3e 1a 8c 30 3e
       0.18871734 -0.1700026 0.38782552 0.17240945
000060 5c 7f 44 3f e5 68 5b 3f 96 49 2d 3e 22 4d 0e 3f
       0.76756835 0.8570693 0.16922602 0.55586445
000070 5e ee 12 be 74 00 15 3f a9 1d 94 3e ca 54 01 bc
       -0.14348742 0.58203816 0.2892888 -0.00789375
000080 36 ae 86 3e d0 a4 76 be 84 35 48 3e 0b 61 63 be
       0.26304787 -0.24086308 0.19551665 -0.22204988
000090 c2 52 86 3e 81 0c 37 3e 9b 3c f4 3e 78 35 d7 be
       0.26235014 0.17875864 0.47702488 -0.4203298
0000a0 6d b4 9d be 50 7e 37 be 82 4f d7 3c 4c 9f 04 3f
       -0.30801716 -0.17919278 0.02628303 0.5180557
0000b0 76 7f 82 3d 91 14 56 3d 82 42 1c 3f 15 d0 73 3e
       0.063719675 0.052265707 0.6103898 0.23809846
0000c0 67 c5 41 3e 1b d7 88 bd fe d7 1a 3f 3f 1c 1e 3f
       0.1892296 -0.06681653 0.6048583 0.6176185
0000d0 79 d6 2b 3e 00 bb 94 3e cc 60 be 3c 57 fa 92 be
       0.16781034 0.2904892 0.023239516 -0.2870662
0000e0 ca 59 00 3f 28 bf 6f 3f 9d 89 4e be 6e 38 b8 3d
       0.5013701 0.93651056 -0.20169683 0.08995138
0000f0 9c f9 65 3e 50 07 af 3d 28 db c2 3d d5 8e ff bd
       0.224585 0.085463166 0.09514457 -0.12478415
000100 c2 2d 6b 3e ac 54 7c 3e 99 5f 96 3f a3 8d 94 3e
       0.22966674 0.24641675 1.1747924 0.2901431
000110 85 ca cd 3d 0b f8 19 be 3e df 3e 3e 50 a9 89 bb
       0.10048393 -0.15036027 0.18639848 -0.004201092
000120 7f d1 38 3e 6a 18 80 be 00 c1 18 3e 8f a9 73 be
       0.18048666 -0.25018626 0.14917374 -0.2379515
000130 09 d7 07 3e 38 13 6d 3e 25 0c af bd 51 29 e9 bc
       0.13265623 0.23151863 -0.08547238 -0.028462084
000140 5f f4 1d 3f ca 32 85 3e 4c f1 1d bc 3c d2 49 3e
       0.61701006 0.2601531 -0.009640049 0.19709104
000150 84 59 03 3e d1 42 1b 3e 45 e4 16 3f 4f 4a 91 be
       0.12827116 0.15162207 0.5894206 -0.28377005
000160 08 d8 d7 3e 32 a1 07 3f e7 28 25 be 7d ad f9 3d
       0.42157006 0.5298034 -0.16128884 0.121912934
000170 00 4f dd bd 24 8e 0a bf 9d 75 0e 3f 78 68 7d 3d
       -0.10806084 -0.5412314 0.55648214 0.061867207
000180 a0 ca 7e 3e 8c 0c 4f be c2 00 83 be f3 61 db bd
       0.24881983 -0.2021963 -0.25586516 -0.10712042
000190 1d 16 7e be fe 21 79 bd 8e 73 87 bc 45 06 9c bc
       -0.24813123 -0.060823433 -0.016534593 -0.019045958
0001a0 ec 77 8e bd e6 01 7d 3d fa 8a 2f be b8 21 a6 be
       -0.06956467 0.06176939 -0.17142859 -0.324476
0001b0 58 14 bb 3d 31 69 23 3e 7b 14 d1 bd 4d 9c c2 bd
       0.0913474 0.15958096 -0.102089845 -0.09502468
0001c0 f4 e4 03 be ab 7b 56 3d 9b f0 37 3e 8f 0c 09 3f
       -0.12880307 0.052364033 0.17962877 0.5353479
0001d0 04 8b 3a 3f 82 b2 5c bc 6a d2 22 be bc 5e 51 bc
       0.7286837 -0.013470294 -0.15900579 -0.012778934
0001e0 f8 27 a9 3e 75 88 ea 3e 25 27 22 bd dd 79 0f be
       0.33038306 0.45807233 -0.039588112 -0.14011331
0001f0 28 54 8a 3e 07 d7 03 3e f7 8f 79 bc a0 77 93 3d
       0.2701733 0.12874995 -0.015232078 0.07200551
000200 bc ba d7 bd 9e 64 1f bd 14 68 87 3e bc a5 15 3d
       -0.10533664 -0.038914315 0.26446593 0.03653501
000210 38 84 ac 3d 0b 9f 2b 3e e7 78 c3 be b2 51 ab be
       0.08423656 0.16759889 -0.3817818 -0.33460766
000220 3a 1c 57 3e 5f b8 52 3e ec 2f 72 bd 63 f3 d1 bd
       0.21006861 0.20578144 -0.059127733 -0.102515005
000230 3b d8 8b bf 8a 81 f1 bd 78 d6 d4 be c8 20 47 bd
       -1.0925363 -0.11792286 -0.41569877 -0.048615247
000240 09 ef 34 3e c4 22 f7 be e7 80 ce be 3d 50 00 3e
       0.1766931 -0.48268712 -0.4033272 0.12530608
000250 76 ed 2c be df a2 99 be a6 c2 ce be 75 4f 65 be
       -0.16887459 -0.30007073 -0.4038288 -0.22393592
000260 09 cb 0b bf 65 ac cd 3d 60 46 ed bd 68 61 83 be
       -0.5460668 0.10042647 -0.115856886 -0.25660253
000270 5b bf 45 bd 95 71 b5 bd e9 37 11 bf cd a3 30 3d
       -0.048278194 -0.08859555 -0.5672594 0.043124963
000280 97 77 a7 3e ec 90 cb bd 63 8b bd bd dc 8d b3 be
       0.32708427 -0.09939751 -0.092551015 -0.35069168
000290 50 b2 af be ea c2 b2 be f6 3a 34 3e 75 fe 03 be
       -0.3431573 -0.34914333 0.17600617 -0.12890036
0002a0 da 6f 9a 3e aa e9 bf 3e fc 41 2d bf f8 69 f9 be
       0.3016346 0.3748296 -0.6767881 -0.4871366
0002b0 1c f5 b1 be 28 5b f4 be 7c 69 ce 3d 00 87 95 3d
       -0.34757316 -0.47725797 0.10078713 0.0730114
0002c0 2f df 95 bd 6d 2b 8a be 6e 25 b8 be 8f f9 c5 3e
       -0.073179595 -0.26986256 -0.35966057 0.3866696
0002d0 08 fb ae 3c f9 2c 38 bd 2d 99 19 3c 3d 38 33 3d
       0.021359935 -0.044964764 0.009374899 0.043754805
0002e0 1d b4 cc be 2c 69 e8 3d 16 07 b1 3e 73 84 fb be
       -0.39981166 0.11348185 0.3457572 -0.49124488
0002f0 82 df b4 be 7c 7b 39 be 7e 1e 00 3d 02 b5 ac be
       -0.35326773 -0.18113512 0.03127908 -0.33731848
000300 1f b2 6a bd 31 12 91 3e 3f aa 89 3e f5 80 84 3d
       -0.057298776 0.2833419 0.268877 0.06469909
000310 e9 58 65 be a5 34 00 be 28 fd 41 3e 49 cd b7 be
       -0.22397198 -0.12520082 0.18944228 -0.35898808
000320 a0 f0 84 bc 6a d6 f8 bd 40 56 9b be 02 47 a1 3b
       -0.01622802 -0.12150271 -0.3033924 0.004921795
000330 51 1a b8 3b 69 5a 0f be 0d af f0 bd 8b 52 0a bf
       0.0056183715 -0.13999332 -0.11752138 -0.540322
000340 15 aa d5 be d3 75 e7 be 33 f3 a5 be 8d 23 c6 bc
       -0.41731325 -0.4520708 -0.3241211 -0.024186874
000350 b8 fb 0a be b9 5e ba 3d 92 53 26 be 59 3d 6f 3e
       -0.13572586 0.09100098 -0.16242817 0.23363246
000360 04 4e 79 bc 9a 27 6b be 00 e1 c0 be d5 d3 e5 3e
       -0.015216354 -0.22964326 -0.3767166 0.44888178
000370 96 b0 94 be 83 7c b7 be e5 d9 bd be 0a 4e ca be
       -0.29040974 -0.35837182 -0.37080303 -0.39512664
000380 7d 87 ed 3c 39 80 b4 3d 76 14 03 be f0 e2 c1 be
       0.02899527 0.08813519 -0.12800774 -0.37868452
000390 29 9e 41 bc 2c 3b 87 be 39 8c 6e be 52 22 e9 3b
       -0.0118174935 -0.26412332 -0.23295678 0.007114687
0003a0 51 c8 eb 3e d5 d1 b2 3c 1c 47 9f bc be f8 7d bd
       0.46051267 0.021828571 -0.019443087 -0.062004797
0003b0 66 4d 02 3f 29 a2 24 bf 93 92 b1 3d 96 fc cd bd
       0.5089935 -0.64309937 0.08670535 -0.100579426
0003c0 db 77 96 bd b3 a2 f8 3d eb 35 99 bd 78 e6 86 3e
       -0.07347079 0.121404074 -0.07480987 0.2634771
0003d0 e8 17 6c be 9a 34 38 bd 77 d1 27 3d 8c 50 97 3e
       -0.23055995 -0.04497204 0.040971246 0.2955364
0003e0 ca 53 62 be 8e c2 c8 be b3 b8 46 be b2 d3 4d be
       -0.22102275 -0.39210933 -0.19406395 -0.20100287
0003f0 9a f0 97 3d 77 89 05 3f a1 a9 c7 be 8f bf f1 bc
       0.07418938 0.5216288 -0.38996604 -0.029510288

feature.bias_hh_l0 f4 [512]
000000 15 13 1a 3e 95 42 3e 3f 50 f6 d2 3e 6d f7 85 3f
       0.15046342 0.74320346 0.41203547 1.0466133
000010 d8 ba 45 3f 3f 82 d1 3e b0 73 be 3e 28 80 f9 3d
       0.77238226 0.40919682 0.37197638 0.12182647
000020 2b 31 02 3c fc 60 4b 3f 54 33 85 be 7e 8c cf bd
       0.007946293 0.7944486 -0.26015723 -0.10134219
000030 63 cb 40 be 3c e1 08 3f c5 70 8f bd 3e 8f 3f 3f
       -0.18827586 0.5346868 -0.07003931 0.74827945
000040 63 d8 3a 3e 35 68 02 3f 2e d9 c3 3e 20 98 e9 3c
       0.18246607 0.5094026 0.38251632 0.028514922
000050 90 70 8a 3d 3b 1b 8a be 5d e4 a0 3e 89 fd 2a 3e
       0.06759751 -0.269739 0.31424227 0.16698278
000060 70 d0 2c 3f 96 35 5b 3f 8a 53 5d 3e 87 7b f0 3e
       0.6750555 0.8562864 0.21613899 0.46969244
000070 6f 1e 5a be 43 6d 17 3f b7 d5 be 3e 8e 00 1c bc
       -0.21300672 0.59151095 0.37272426 -0.009521617
000080 42 b6 8a 3e 06 12 b5 be 3e 46 82 bc 2e 71 3a be
       0.27092177 -0.35365313 -0.015902635 -0.18207237
000090 08 0b 90 3e 5f c3 82 3e 11 28 05 3f e2 24 c5 be
       0.28133416 0.2553968 0.5201426 -0.38504702
0000a0 18 82 70 be f0 19 60 be 07 4e f9 3d e0 03 f9 3e
       -0.23487127 -0.21884894 0.12173086 0.4863577
0000b0 a8 c6 2c 3c 13 ff 1e 3d 40 df 0e 3f a6 30 d2 3e
       0.01054541 0.038817476 0.558094 0.4105274
0000c0 a6 5a 45 3e 2a ea 33 bd 28 fd 04 3f 7c b1 02 3f
       0.19272861 -0.043924488 0.51948786 0.5105207
0000d0 ec c1 d0 3d fd 81 d1 3e 33 b9 99 3c 55 ba d9 be
       0.10193238 0.40919486 0.018765068 -0.42524973
0000e0 69 57 ef 3e e9 82 79 3f 96 35 73 be 22 da c3 3d
       0.46746376 0.9746538 -0.2375091 0.0956309
0000f0 08 b8 54 3e 92 47 21 bd f7 5e b5 3d aa 3e be bd
       0.20773327 -0.039374895 0.08856004 -0.09289296
000100 d9 44 7a 3e 8a 64 8b 3e ad bf 90 3f b4 2a 9e 3e
       0.24440326 0.27225143 1.1308495 0.30891955
000110 69 e8 01 3e ef d9 39 be 07 66 0e 3e 3b 97 68 3d
       0.12686314 -0.18149541 0.13906108 0.05678485
000120 44 a5 00 3e 7a 45 19 be 1b 7b 2a 3d 02 a9 6b be
       0.12563044 -0.1496791 0.04162131 -0.2301369
000130 53 f3 ea 3d 11 c7 09 3e d5 a9 31 be a0 76 bc bd
       0.11472192 0.13454844 -0.17349942 -0.092023134
000140 98 75 21 3f d5 66 83 3e 86 b3 7f bd 30 ef 86 3e
       0.6307006 0.25664392 -0.062427066 0.2635436
000150 6a 10 87 3d a5 5e d3 3d b5 63 15 3f 54 ea 9a be
       0.065949276 0.103207864 0.58355266 -0.30256903
000160 10 6b f2 3e 3f 73 d6 3e ae 85 e7 bd 70 94 1e 3e
       0.47347307 0.418848 -0.11304794 0.15486312
000170 34 3a fb bc 27 65 ff be 74 8f 05 3f cf 69 2a 3e
       -0.030667402 -0.4988186 0.5217202 0.16641925
000180 ad 04 dd 3d 73 1d 9e bd f3 75 4c be ed d5 8d 3b
       0.107919075 -0.07720461 -0.19966869 0.0043284805
000190 4e 74 69 be c5 54 21 bd 0f c0 1b 3d fc 20 06 3e
       -0.22798273 -0.039387483 0.03802496 0.1309852
0001a0 62 ef 94 bd a1 72 1d 3e cd 46 15 be 56 6f a1 be
       -0.07272221 0.15375759 -0.1457779 -0.31530255
0001b0 86 01 7f 3d b6 32 5f 3e 4b 5f 22 3d 7e 8a 12 be
       0.062257312 0.21796688 0.03964166 -0.14310643
0001c0 f4 41 68 be f5 b4 80 3d ce 1a 9b 3d 47 20 05 3f
       -0.22681409 0.06284515 0.07573472 0.52002376
0001d0 59 5a 3e 3f 37 e4 0c bd 62 9f 09 be a5 d1 6e 3c
       0.7435661 -0.03439733 -0.13439706 0.01457635
0001e0 1d e9 95 3e e7 8b d7 3e fa c6 50 3d df bb fd bd
       0.29279414 0.42098925 0.05097101 -0.12389349
0001f0 cd 09 81 3e 9c e8 67 3b b2 18 7f be 72 cd 21 3d
       0.2520279 0.0035386449 -0.24911764 0.03950257
000200 1f 7a ac bc bb fe 55 ba 92 dd 89 3e 9e ea 2d bd
       -0.021054326 -0.0008163263 0.26926857 -0.042460077
000210 59 68 42 3e cd 26 6c 3e 5b 2a ab be 44 09 29 be
       0.18985118 0.23061676 -0.33430752 -0.16507441
000220 3f 01 30 3e e1 6f 84 3e 80 f8 30 3d bf f3 03 be
       0.17187975 0.25866607 0.043205738 -0.1288595
000230 28 d5 8b bf 88 7a a9 be 74 79 c1 be 44 44 d5 bd
       -1.0924425 -0.33101296 -0.37787974 -0.10413411
000240 ed fd aa 3d b1 eb 97 be b6 25 8d be 19 3d b4 3e
       0.08349214 -0.29672006 -0.27567834 0.35202864
000250 a7 35 58 be 22 a5 ae be d6 44 a6 be 99 a8 14 be
       -0.21114217 -0.3411036 -0.32474393 -0.1451744
000260 6e 0f 09 bf 2b 7e 3f 3e f1 db 2b be 30 97 7e be
       -0.5353917 0.18700473 -0.1678312 -0.24862361
000270 bd 0e e2 ba 16 fa 12 be ac e0 1e bf c8 49 a9 3d
       -0.0017246824 -0.14353213 -0.6206157 0.08266026
000280 67 b5 50 3e 0b fe c7 bd 09 ff ca bd fe 35 7a be
       0.203817 -0.09765252 -0.09911925 -0.24434659
000290 a5 f0 89 be a0 c0 75 be 45 6b 88 3e 3c 3e 27 be
       -0.2694141 -0.23999262 0.2664434 -0.16332334
0002a0 53 6b a8 3e b0 ad 6c 3e ef 46 3f bf 1a 52 db be
       0.32894382 0.23113132 -0.7471761 -0.42836076
0002b0 be 9d a6 be eb fc ef be f1 08 72 3e 5a 73 d4 3d
       -0.32542223 -0.4687265 0.23636223 0.10373564
0002c0 f1 62 08 bc 24 40 62 be d0 2a d0 be 39 6e bf 3e
       -0.008324371 -0.2209478 -0.40657663 0.3738878
0002d0 16 f2 c7 3b a0 f9 95 bc 0b 3c 05 3e 00 3a f4 3d
       0.006101857 -0.018307507 0.13011186 0.11925125
0002e0 b3 45 37 be 07 5b c0 3d 73 09 9b 3e 63 ab bb be
       -0.17897682 0.09392362 0.30280647 -0.36654195
0002f0 81 be c3 be 4a 71 07 bd 8c f2 c0 3b a0 c5 a2 be
       -0.3823128 -0.033067025 0.005888289 -0.317914
000300 2a 7a c8 bd 8e 5d 31 3e 1d 2e b0 3e da aa aa 3d
       -0.09788926 0.17320845 0.34410182 0.083333686
000310 db 9a 29 be 4f 7a 9a be 35 6d ae 3d 02 78 d3 be
       -0.16562979 -0.3017144 0.08516923 -0.41302496
000320 cb 85 46 bd bd 52 42 3c d7 9e c7 be 11 aa 63 3e
       -0.04846744 0.011860547 -0.38988373 0.22232844
000330 b8 2f 9c bd 15 39 1a be 8e 06 ea bd 9d 3c f7 be
       -0.07626289 -0.15060838 -0.114270315 -0.48288432
000340 d2 91 ef be fc 72 ea be dd c4 70 be cc b6 2c 3d
       -0.4679094 -0.4579085 -0.23512597 0.042166516
000350 ba 6c 62 bd 68 36 c4 3b 71 99 ec bd 3c bd 82 3e
       -0.05527947 0.005987931 -0.11552704 0.25535
000360 2c 02 ed bd 5c 2b ee bd 78 92 6e be cb f7 04 3f
       -0.1157268 -0.11629364 -0.23298061 0.519406
000370 0a e3 b5 be 4e aa c4 be ca 46 8b be 0c 5d 83 be
       -0.3552478 -0.38411182 -0.27202445 -0.25656927
000380 fc c6 8b bc a8 75 43 3d 3b bd 98 bd 4c 26 a2 be
       -0.017062657 0.047719628 -0.07457968 -0.31669843
000390 20 56 12 be d1 61 98 be 4d e8 85 be 76 3d 9b bd
       -0.14290667 -0.29762128 -0.26153794 -0.07580082
0003a0 32 06 02 3f bc 1e af bc b4 b5 55 bd 6f 67 5b bd
       0.50790703 -0.02137696 -0.05217524 -0.05356544
0003b0 be 4c bb 3e 92 19 14 bf 4d c1 93 3e 76 92 13 be
       0.36581987 -0.5785152 0.28858414 -0.14411339
0003c0 fa ce a9 3d 5d ec b4 bc 93 45 b6 bd 6e 8b 09 3e
       0.08291431 -0.022085363 -0.08899989 0.13432094
0003d0 53 2e 20 be 44 e4 cb bc ea 5d bc bd d1 81 03 3e
       -0.15642671 -0.024889119 -0.091976 0.1284249
0003e0 87 82 8d be 43 f7 b9 be 6f 02 91 be e3 80 8f be
       -0.27638647 -0.36321458 -0.2832217 -0.2802802
0003f0 2b c1 a1 3c 0e 62 08 3f 4d f2 e0 be 31 fe 7d be
       0.01974543 0.5327462 -0.4393486 -0.24803998

feature.weight_ih_l0_reverse f4 [512, 64]
000000 4c 34 96 3e ab 0a 1e be 0f 2f 54 3e ae de c7 bd
       0.29336774 -0.15433757 0.20721076 -0.0975927
000010 3b 23 88 3f f4 60 40 be 30 f9 29 3f e3 1b 16 bf
       1.0635751 -0.18786985 0.66395855 -0.586363
000020 3f ff 34 bf 93 ed 02 bf cc f3 f9 be 01 64 29 bf
       -0.70701975 -0.5114376 -0.48818815 -0.6616822
000030 a4 b4 45 3f aa 05 c3 3e 05 31 5c bd 68 84 66 be
       0.7722876 0.3809026 -0.053757686 -0.22511446
000040 d9 ea 94 3e a0 8c 53 bf c1 31 ae 3e f6 04 0c 3f
       0.29085425 -0.8263645 0.34022334 0.5469507
000050 48 a1 f7 3e c4 98 85 be 51 10 1d 3f 63 d6 74 3e
       0.48365235 -0.26093113 0.6135302 0.23909907
000060 83 81 00 3d d3 a2 7e 3e 38 12 66 3f 5c 6d a1 bf
       0.031373512 0.248668 0.8987155 -1.2611499
000070 63 96 28 bf 3c 4c a7 be b2 95 e8 3e b4 21 d7 be
       -0.6585447 -0.3267535 0.45426708 -0.420179
000080 02 ff 37 3f 98 fe f8 3d 89 43 81 3f cf 70 9b bf
       0.71873486 0.12157935 1.0098735 -1.2143801
000090 09 78 c1 bf dc fb 81 3f 54 6f 04 be ac d4 02 bf
       -1.5114757 1.0154986 -0.12933093 -0.5110576
0000a0 d6 ab cf 3e 43 24 9e bd 4c 99 85 bd 02 2d 60 bf
       0.40560788 -0.0772176 -0.0652338 -0.87568676
0000b0 cc dc 0a 3e 97 6d ab 3e 63 b9 6a be ea 22 90 bd
       0.1356079 0.33482048 -0.22922282 -0.07037909
0000c0 46 a7 d9 3e 1e b5 6d be 42 f6 be bd 06 ca 29 bf
       0.42510432 -0.23213622 -0.09324314 -0.6632389
0000d0 64 30 49 bd fb 22 83 3e 1e 22 4b be 8e 57 5e bd
       -0.049118415 0.25612625 -0.19837233 -0.054282717
0000e0 1c 9f 88 be be 8e 7b be cd fa 47 bf cd 76 87 3e
       -0.2668389 -0.2456617 -0.78117067 0.26457825
0000f0 0e 49 be be bd 53 b2 3d ab e5 a5 bd 9e c9 36 3f
       -0.3716511 0.08707378 -0.08100446 0.71401393
000100 a1 e8 24 bc da 81 f1 3c 83 2b 62 be fc d9 9a be
       -0.010065229 0.029480863 -0.22086911 -0.30244434
000110 92 67 00 bf 0d 4a 20 bf c8 87 86 3e da 34 21 3e
       -0.50158036 -0.6261299 0.26275468 0.15742818
000120 16 70 83 bf 94 55 d4 bd 09 43 3b 3f d6 9f 41 bb
       -1.0268581 -0.10367885 0.7314916 -0.0029544733
000130 68 0a 82 bf de 1b 8f 3e 26 d3 26 3d 6a 89 d9 be
       -1.0159426 0.27950948 0.04072871 -0.4248765
000140 66 d5 af bd 06 84 38 3f 0b 79 1e bf bf dd e9 be
       -0.085856244 0.7207645 -0.61903447 -0.4567699
000150 32 17 10 bd e9 ce 6b 3f 09 64 a5 3c 19 16 82 3c
       -0.03517837 0.92112595 0.020189302 0.015879678
000160 76 b7 7b bf 32 14 7a 3f bc fa 5b 3f b3 17 90 bf
       -0.98326814 0.97687066 0.85929465 -1.1257232
000170 f7 f2 19 be 19 0a 56 3e 0f 85 b4 bd 91 b8 80 be
       -0.1503409 0.2090229 -0.088144414 -0.25140813
000180 c7 ad b8 3c 62 fb 12 3f 17 6d 3d bd 5f 97 19 bf
       0.022543801 0.5741483 -0.046246614 -0.599966
000190 1c 9d 68 3e 00 26 18 be e9 2f 21 3f 5b f3 4c bf
       0.22716182 -0.14858246 0.6296373 -0.8005883
0001a0 4e b9 4e 3e 77 d2 99 3e a9 b5 06 be 06 13 bc 3c
       0.20187876 0.30043384 -0.13155235 0.02295829
0001b0 b5 df 86 3f 74 c9 99 be 79 b4 a0 3e 73 3e 33 be
       1.053702 -0.3003651 0.3138769 -0.17504291
0001c0 26 a2 9c be 9d 37 b0 be 29 c5 3b bf d7 d5 a6 3f
       -0.3059246 -0.3441743 -0.7334772 1.3034009
0001d0 68 69 8b be fa f2 c8 3d 64 b7 1c 3f 6d cd d3 be
       -0.27228856 0.09811969 0.6121733 -0.41367665
0001e0 1a 4c ae be 74 20 9f 3e 2a ee 8d bf e7 16 06 be
       -0.34042436 0.31079447 -1.1088307 -0.13094674
0001f0 90 01 17 bd 93 63 03 3f d8 3d 11 3f f4 27 ec ba
       -0.036866724 0.51323813 0.5673499 -0.0018017278
000200 80 bd 53 bf 57 fc 3f be 9b e4 03 3f cf 41 2f bf
       -0.8271103 -0.18748604 0.515207 -0.6845979
000210 a5 ad 92 3f ed 28 0a bf cc 2a 82 bc f7 b1 84 be
       1.1459242 -0.539687 -0.015889548 -0.25917026
000220 e8 93 01 3f 6f 9b a5 be 3b bf 3e 3d b1 78 aa be
       0.5061631 -0.3234515 0.04656909 -0.33295205
000230 af 56 08 3f c7 04 9a 3f c4 23 81 3c 1c 00 1f bf
       0.5325727 1.2032708 0.015764125 -0.6210954
000240 43 c7 60 be 49 4c 1e bf 7b c4 bd bd 40 cb bc 3e
       -0.21951012 -0.6183515 -0.09265991 0.36873817
000250 c0 bd 70 bd 40 96 7a 3e b2 80 8d bd 9d 0f af be
       -0.05877471 0.24471378 -0.06909312 -0.341916
000260 97 a5 1e bf 5b c8 10 be 98 c2 07 bf 65 78 cd be
       -0.6197142 -0.1413893 -0.530313 -0.40130916
000270 fe 3d 37 bf 9d 80 41 3f 8d fa 45 bf f3 29 12 bf
       -0.7157897 0.75586873 -0.77335435 -0.5709526
000280 b2 d5 8e bf 9a d3 83 3e 19 03 23 bf 66 0a 01 bc
       -1.1158965 0.25747377 -0.636766 -0.007876014
000290 25 30 49 bf 6e 6a b3 3e c5 ec dc be 46 90 fe 3e
       -0.7858909 0.35042137 -0.4314939 0.49719447
0002a0 8b f6 a0 bf ce 38 de 3e 01 cd 0d be 0e 87 e6 be
       -1.2575239 0.43402714 -0.13847734 -0.45024914
0002b0 12 37 8e 3d 87 04 79 be f8 68 55 3f fa 48 f5 bd
       0.069440976 -0.24318133 0.83363295 -0.1197681
0002c0 7f 50 7c 3f 78 14 76 3e a7 db ee be 56 04 1b be
       0.9856033 0.24031246 -0.46651956 -0.15138373
0002d0 ed ad 83 bf 37 3a d2 3e 22 e0 2f bf fc ec 9f bf
       -1.0287453 0.4106004 -0.68701375 -1.2494197
0002e0 f1 7c 80 3e 76 2e 34 be ca c4 34 be ae 55 de 3e
       0.25095323 -0.17595848 -0.17653194 0.43424743
0002f0 37 44 2a 3f dd 28 6a 3e 27 03 3a 3e cc 83 00 3f
       0.6651034 0.2286715 0.18165265 0.50201106
000300 49 ef 2d 3f ea 1a 9d 3f fc a7 bc 3e 2c 26 33 3d
       0.67943245 1.2273839 0.36846912 0.043737575
000310 7b ee f7 bd 75 6c 35 bf 3d 73 d1 bd 01 90 6b 3f
       -0.121060334 -0.7086862 -0.10227058 0.9201661
000320 28 03 21 3f 10 58 8a 3e 2e 4c bd bd 84 ad 03 3d
       0.6289544 0.2702031 -0.09243046 0.0321479
000330 67 66 f6 3e c0 05 3b be 13 b9 25 bf c5 9e 4c bf
       0.48125002 -0.18263912 -0.64735526 -0.79929763
000340 df 22 fe be fe be 91 3e 20 ba 39 bf 0c 8d b1 be
       -0.4963598 0.28466028 -0.7254963 -0.34677923
000350 48 29 94 3f 65 4d 29 3d 08 88 ff bd 59 28 7b bc
       1.1575098 0.041333575 -0.12477118 -0.015329444
000360 18 f1 ff be 19 90 03 bf 1b 59 e4 be cc 79 97 3f
       -0.49988627 -0.5139175 -0.44599232 1.1834044
000370 c9 a4 e3 3d f1 52 b4 3d 5d d0 92 be ba cc ea 3d
       0.11115415 0.08804882 -0.28674594 0.1146483
000380 eb ec 17 bf e1 1e 7c 3c e3 84 f9 be 80 a8 24 3f
       -0.59345883 0.0153882215 -0.48734197 0.6431961
000390 e2 4d 91 be 36 fc 28 3d 45 1f d7 bd 31 46 12 bf
       -0.28379732 0.041256152 -0.10504011 -0.57138354
0003a0 b0 10 a7 3e 3e ec ce 3c f1 5e 0a 3f 45 c0 00 3e
       0.3262992 0.025259133 0.5405112 0.12573345
0003b0 b4 bf 88 be 72 9b 67 bd 95 36 9c bf b3 43 85 be
       -0.26708758 -0.05654473 -1.2204157 -0.26028213
0003c0 d8 f9 29 3f 74 15 d3 3c 43 bf e7 bc c4 06 f2 3e
       0.66396856 0.025767066 -0.028289443 0.47270787
0003d0 2a dc 77 3e 9d 65 07 3f 5d a8 6e bf a8 2c e7 3e
       0.2420508 0.52889425 -0.9322565 0.45151258
0003e0 96 1f ff 3e 94 e7 c7 be 4c 10 2d bf 0a 8c e7 bd
       0.49828786 -0.39043868 -0.6760299 -0.11306007
0003f0 bf ea 18 bf 4c c0 d2 be db be c2 be a7 8e a2 3e
       -0.59733194 -0.41162336 -0.38036236 0.3174946

feature.weight_hh_l0_reverse f4 [512, 128]
000000 9f d4 40 bf 30 60 2c bf 09 2c 82 3d 6b da 33 3e
       -0.75324434 -0.6733427 0.06356055 0.17563789
000010 a1 0d 9a be 32 63 8b be e7 e5 93 3d 9f 00 2a 3e
       -0.30088523 -0.27224118 0.07221585 0.166018
000020 13 d6 ea 3e b0 c9 e1 3e 85 00 b8 3e 01 ec 90 3f
       0.4586645 0.44099188 0.35937896 1.1322023
000030 c6 72 0f bd 11 ce 61 3f 98 62 85 be 5e ef 7a be
       -0.035021566 0.8820506 -0.26051784 -0.24505374
000040 c2 2e c7 be 18 2e d7 3e 9c a0 db 3d b3 94 1c be
       -0.3890286 0.42027354 0.10723993 -0.15291099
000050 92 91 1c bf de 26 73 3e 5a 6a 73 3e 7f d2 c5 3d
       -0.6115962 0.23745295 0.23771039 0.096592896
000060 1b f7 23 bf f1 f7 32 3f a1 ed c1 3e 9c 5b 4e bd
       -0.6404893 0.6990958 0.3787661 -0.050380334
000070 49 50 8e 3e 9a 68 84 3e a0 2c d9 be 9b ef 93 be
       0.27795628 0.25861055 -0.4241686 -0.28893742
000080 fa c3 9e 3d 7a ba 83 be 1d a9 38 3d f9 d6 a4 bc
       0.07752223 -0.25728208 0.045083154 -0.020122038
000090 f5 9d 64 3c 18 07 94 be f3 19 50 3f 40 53 53 3d
       0.0139536755 -0.28911662 0.81289595 0.051593065
0000a0 81 20 c7 3d fe d5 60 be f6 9a 68 bf b1 61 e7 3e
       0.097229965 -0.21956632 -0.9086145 0.4519172
0000b0 23 b4 00 3f f7 6e 88 be e4 a9 18 bf 8c 8a 93 bf
       0.50274867 -0.2664716 -0.5963423 -1.1526656
0000c0 f2 48 6f be 53 34 6d bf e9 8f 1a 3f b4 8d 02 3e
       -0.2336767 -0.92657965 0.6037584 0.12749368
0000d0 7b be 84 be 07 56 10 3f 8c d3 02 3f 00 f1 e3 3c
       -0.25926575 0.5638127 0.51104045 0.027824879
0000e0 46 ab 0b 3f 2b 10 58 be 09 da ba 3d a5 df ae 3d
       0.5455822 -0.21099918 0.09123618 0.085387506
0000f0 9e 6b 02 3f 7f 2f 9d 3c ea dc 9a be bf 7f 61 be
       0.5094546 0.019187687 -0.3024667 -0.22021388
000100 61 5a ca 3f fd fe 63 3f 72 76 1f 3d 42 cd 62 bd
       1.5808831 0.89060956 0.038931318 -0.05537153
000110 c8 c7 2c bf 11 05 37 be f3 13 ed 3e 12 a2 ef 3d
       -0.6749234 -0.17873026 0.46304283 0.11700834
000120 a9 6a a3 3e 16 70 06 be cd ec 40 3f fe d1 47 3d
       0.31917313 -0.13128695 0.7536133 0.04878425
000130 fe 29 fb bd 3f bf a6 bd f4 73 9c 3e 93 f9 e8 bd
       -0.12263869 -0.08141946 0.30557215 -0.113757275
000140 30 14 22 bf fa cf 02 3e 81 57 31 3f 5c 7b 24 be
       -0.63312054 0.1277465 0.69274145 -0.16062683
000150 d8 84 bb be 63 c0 00 3e cc ec 89 be f1 84 9e bd
       -0.3662479 0.1257339 -0.26938474 -0.077402
000160 82 99 ec 3d 2c a5 d1 3e 30 32 68 be 7d 95 84 bf
       0.11552717 0.4094633 -0.22675395 -1.035812
000170 b8 55 5e bf 1f 98 77 3e 73 94 34 bf 0e d6 32 bf
       -0.86849546 0.24179123 -0.70539016 -0.6985787
000180 53 44 a8 bd 24 50 63 3e a4 20 4a 3f c8 c9 d9 3d
       -0.08216157 0.2219854 0.78956056 0.1063419
000190 aa bd 9c bb 00 e3 16 bf 25 87 23 bf 1c 45 c5 3d
       -0.004783352 -0.58940125 -0.6387809 0.09632322
0001a0 4e 20 53 be 93 cc 9e 3e f1 77 09 3e d7 e4 2c be
       -0.20617792 0.31015453 0.1342466 -0.1688417
0001b0 09 f8 41 be 0c 45 cd be 07 c0 09 3f d9 18 a4 3e
       -0.18942274 -0.4009174 0.53808635 0.32050207
0001c0 91 59 e4 39 7e c5 50 be 52 3b e1 bc da 5b e3 be
       0.0004355428 -0.20387837 -0.027494106 -0.44406015
0001d0 31 f8 4b 3f d2 9f b9 be dd 2a 0b 3f f7 e1 62 be
       0.79675585 -0.36254746 0.5436228 -0.22156511
0001e0 57 39 10 bf 30 3c ab be 2f 83 e5 be ff 77 de 3e
       -0.56337494 -0.33444357 -0.44826648 0.43450925
0001f0 29 7c f7 3e ac e1 10 3f 8b aa 84 be cd fb 36 bf
       0.48336914 0.5659435 -0.25911364 -0.7147797
000200 6e fd 3f bf cb a0 c2 be 4e 41 b6 3d 37 bf 68 be
       -0.7499608 -0.380133 0.08899175 -0.22729193
000210 5e e4 37 bf 9e 39 e1 3a 94 f6 ac 3d e7 0d 62 be
       -0.71832836 0.0017183309 0.084454685 -0.22075616
000220 1e a4 bf 3e ea 6d 46 3c a3 1d 55 3f c7 6e a0 be
       0.374299 0.0121111665 0.8324835 -0.31334516
000230 19 bc 7f 3e df e1 d1 be b3 5b 25 3e 05 f8 06 be
       0.24974097 -0.40992638 0.16148262 -0.1318055
000240 1e 67 48 bf 11 22 a5 be 35 25 8c be 10 59 a9 be
       -0.78282344 -0.32252553 -0.27372137 -0.33075762
000250 55 16 9e bd 58 e5 8d 3e 7f bb b9 be 9f 71 31 bf
       -0.07719103 0.27714038 -0.3627586 -0.69314
000260 87 d5 28 3e 85 45 b7 be db af 32 3f 04 c1 54 3f
       0.16487704 -0.35795227 0.69799584 0.8310702
000270 7d 5b 9c be 6f 7c 76 3e 4d 6a 90 3d 1a 91 b7 bd
       -0.3053855 0.24070905 0.07051525 -0.08963223
000280 2a b9 7a 3e 97 32 f8 3d 92 a5 27 bf fb 63 06 3c
       0.24484697 0.12119024 -0.65487015 0.008202548
000290 f7 74 c1 bd cf 7d 54 be 96 05 ad 3f 17 dd 51 bf
       -0.094461374 -0.20751117 1.351733 -0.8197798
0002a0 b4 f1 bf be 23 23 88 3e 7f fb 9e 3e 84 38 3e 3f
       -0.37489092 0.26589307 0.3105125 0.74304986
0002b0 3a ee ed 3c fc 7c 82 3e 42 32 ab 3e a2 29 cc 3e
       0.02904426 0.2548598 0.3343678 0.39875513
0002c0 47 a5 88 be a1 e5 c2 3e 69 a6 83 3e 26 79 dd 3d
       -0.26688597 0.38065818 0.25712898 0.10814123
0002d0 8c ec 07 bc 9d 19 bf 3c d8 d7 66 3e ef 86 f3 3e
       -0.008296143 0.023327643 0.22543275 0.47563884
0002e0 35 1b c8 be fb 4a 3b 3e 35 5e 13 3f 8b fb bd 3e
       -0.39083257 0.18290322 0.57565624 0.37105975
0002f0 f1 9b 64 be 46 06 37 3e 99 b6 86 3f 3e e2 66 be
       -0.22325112 0.17873487 1.0524474 -0.22547242
000300 80 0e af 3e 80 2f 61 be 98 35 09 3f 87 30 8b be
       0.3419075 -0.21990776 0.535974 -0.2718546
000310 70 5d c9 3e ec 09 12 3f 3d 7a 03 3e 51 2d 8d 3f
       0.393291 0.5704639 0.12839599 1.1029454
000320 f3 1f 31 bf eb 52 2a 3f 34 bd 9d be 3c 52 cf be
       -0.69189376 0.6653277 -0.30808413 -0.40492427
000330 f2 a2 95 3e ba e5 b9 3e c7 01 53 bd bd f0 58 3c
       0.2922588 0.3630808 -0.051515367 0.01324099
000340 e1 07 31 3e aa e2 53 3f f8 cb 8e be ca 72 07 3f
       0.17288162 0.82767737 -0.2788999 0.5290953
000350 bb bb e4 3d 93 4a ad 3e 6d 6b f0 be 74 50 93 3e
       0.11168619 0.33845958 -0.4695696 0.28772318
000360 d5 ae c6 be ab 60 af 3d 5a 0b 36 be ff 45 29 3e
       -0.3880526 0.0856336 -0.17777768 0.16530608
000370 4a ba 84 bd 89 fc 82 3d e9 c7 17 bd f5 42 1b be
       -0.06480844 0.063958235 -0.037055884 -0.15162261
000380 fa 31 22 be ec ab 3c bf 69 79 00 3f ef ba f4 3e
       -0.15839377 -0.7369983 0.5018526 0.4779887
000390 d2 12 8f bf f9 56 30 3f 65 7a cd be fc 96 81 bd
       -1.1177619 0.6888271 -0.40132442 -0.06327626
0003a0 b7 ed 4b 3e 42 4c 09 be ed dc 51 3f ce 86 d9 be
       0.199149 -0.13407996 0.8197773 -0.4248566
0003b0 de bf 88 be b3 6c 3a 3e d1 7f bf 3c 16 3b 89 bf
       -0.26708883 0.18205528 0.023376377 -1.0721157
0003c0 43 63 d7 3e e3 62 03 3f fd af 1d 3e c7 c6 47 3f
       0.42067918 0.51322764 0.15399165 0.78037685
0003d0 b9 7e 13 3f 7e c1 a9 3e 2e d9 d7 3d 3e cd 35 bf
       0.5761524 0.33155435 0.105394706 -0.710163
0003e0 0b 6d 60 3f 62 03 a6 3e 96 48 de 3e f5 55 67 bd
       0.87666386 0.32424456 0.43414754 -0.05647846
0003f0 bd c3 95 be ab 93 1d bf c3 8c 99 bf 67 27 02 3e
       -0.292509 -0.6155345 -1.1996082 0.12710343

feature.bias_ih_l0_reverse f4 [512]
000000 b5 4c 84 be d5 29 8b 3e a9 43 4b 3e b4 9c 0d 3e
       -0.25839773 0.27180353 0.19850029 0.13829309
000010 d4 66 d9 bd e0 2d ec be 1c c3 15 bf cb 94 7a bc
       -0.10615316 -0.4612875 -0.5850084 -0.015294264
000020 93 84 c1 be 03 b2 28 3d d1 84 1c be 4e bd ba 3d
       -0.3779646 0.04118539 -0.1528504 0.09118138
000030 7d ff 39 be 71 73 12 3e 17 8b fb bd 51 10 11 3f
       -0.18163867 0.1430185 -0.12282389 0.5666552
000040 d9 a2 ba 3e f0 7f b5 3b 57 cb c0 3e 21 36 ab 3e
       0.36452368 0.005538933 0.37655136 0.33439735
000050 cb c3 27 3f 8c 4d 2b 3f 8d 0e bb 3d 96 3d 6a 3d
       0.6553313 0.669152 0.09133635 0.05718764
000060 2d b5 9e 3d 30 44 e0 be 53 76 54 3d 7f 7b 53 3e
       0.077494 -0.43802023 0.051870655 0.20652579
000070 ce 51 62 3d 6d 5a c4 3d a2 03 2e 3f c8 3e ca bd
       0.055253796 0.0958756 0.67974293 -0.09875256
000080 cd e6 5f 3d 27 b7 e9 be 42 8e d5 3e ea 0c 75 bd
       0.05466347 -0.45647547 0.41710097 -0.05982677
000090 11 b8 57 3e 2e a7 d0 3d a5 c1 46 bd cc 4e f1 3e
       0.2106631 0.10188137 -0.048524518 0.4713043
0000a0 94 be eb 3e 36 9b b0 bd 3d cf c2 be 2a 67 2e 3f
       0.46043837 -0.08623354 -0.38048735 0.68126166
0000b0 72 66 38 3e 24 98 dd 3e 40 a7 f7 3d 2c 7c 9d 3d
       0.1800783 0.43280137 0.12092447 0.076896995
0000c0 c2 5b 46 3e e3 2e 83 3e 53 de cd 3e ee 5d 56 3e
       0.1937094 0.2562171 0.40208682 0.20934269
0000d0 77 44 f5 38 13 83 a4 3e 5a e1 bf bd 67 fe 22 3e
       0.00011695263 0.32131252 -0.09369154 0.1591736
0000e0 26 7e 9a 3e 8b e7 2d 3e bd 00 43 3e 8a a5 9b bd
       0.3017437 0.16982858 0.1904325 -0.075999334
0000f0 2d 13 e6 3d f2 dd 46 be 83 af a3 3e 95 ff 11 be
       0.11234126 -0.19420603 0.31969842 -0.14257653
000100 96 69 2f 3f 2d 67 a6 3e a4 9c dc 3e dd 10 b4 3e
       0.68520486 0.32500592 0.43088257 0.35169116
000110 8e c6 08 3f ff 1d c8 bd 24 fe 56 3e ce 4c f9 3e
       0.5342797 -0.09771346 0.20995384 0.4869141
000120 9f c2 0a 3e 10 3a c2 3e 82 68 46 be 4f f7 4c 3d
       0.13550805 0.37934923 -0.19375804 0.05004054
000130 2f 0b 7d 3d ec 7f ea bd 22 61 6f 3d d7 7f f3 3e
       0.061778244 -0.114501804 0.058442242 0.47558472
000140 20 2e 1d 3f 70 37 d6 bd e5 e4 f7 bc b9 47 ec 3d
       0.61398506 -0.104597926 -0.030260513 0.115371175
000150 15 12 75 bd 11 4c f0 3e 0d c6 8b 3d fe 7e f3 3d
       -0.059831697 0.46933034 0.068248846 0.11889456
000160 cb 5e 7c 3b 13 29 04 3e aa 16 97 be 5b 0a 34 be
       0.003850865 0.12906294 -0.2950948 -0.17582075
000170 9d c3 ba 3e ca b4 89 bd d6 51 14 3d 9b 3c 29 be
       0.36477366 -0.06723936 0.036210857 -0.16527025
000180 5b 88 7c be ef 5b 9b bd 4b ce c0 bd 8e f2 56 3e
       -0.2466139 -0.07585894 -0.09414347 0.20990965
000190 a1 1d 87 3d cc 29 1a 3d 58 af 4f 3e 09 9d d6 3e
       0.06597448 0.037637517 0.20281732 0.41916683
0001a0 92 7e f3 bd b9 12 81 3d 76 8c 1e 3f e6 e5 84 bd
       -0.11889376 0.06302399 0.61933076 -0.06489162
0001b0 e4 79 32 3f 35 95 8b be 9f 84 02 3e f3 c8 fc 3e
       0.6971724 -0.27262273 0.12745903 0.49372062
0001c0 85 21 10 3d 93 4e f9 bd 7c a7 f0 3e 94 6d 1c bf
       0.035188217 -0.1217319 0.4700278 -0.611047
0001d0 a9 31 14 3f fb a8 cb 3d 3b fb 1c 3e af 25 c6 3e
       0.57888275 0.0994434 0.15330212 0.38700625
0001e0 67 6d 75 3f 1d 3c 20 3e 23 3b bd 3c b4 04 2d 3e
       0.9587006 0.15647931 0.023099488 0.16896325
0001f0 ca b9 11 3f 9b 3f 98 3e bf c3 ca 3e 5a 33 2c 3f
       0.56924117 0.29736027 0.39602467 0.67265856
000200 a6 f1 92 3e c1 78 4a be 01 39 fe bd 46 73 85 3c
       0.28699988 -0.19772626 -0.124132164 0.016290318
000210 14 53 5a 3e 39 b0 bd 3e 6a 10 46 bc 75 72 ab 3e
       0.21320754 0.3704851 -0.012088874 0.3348576
000220 9a 79 e3 3e 30 5a b8 bd 2e aa 91 bd 9d 06 df bc
       0.44428712 -0.09001577 -0.07112537 -0.027224833
000230 87 4b 01 3c af 27 82 be cf 89 1f bd ee f8 66 3e
       0.007891542 -0.254209 -0.038949784 0.22555897
000240 57 9a c6 be 37 9b b0 be 39 ef 34 bf 83 f3 a0 be
       -0.38789627 -0.3449342 -0.70677525 -0.31435785
000250 a9 0d 32 be 97 71 e2 be fe eb b9 3d 31 b7 34 3e
       -0.17388023 -0.44227287 0.09078215 0.17648007
000260 9b 74 0e bf 0a 44 fe 3d 5d 7a d3 3b a7 06 22 bf
       -0.55646676 0.12415321 0.006453796 -0.632914
000270 d0 48 3c 3f f4 a3 04 be 2c c2 e5 3e 19 89 34 bd
       0.73548603 -0.12953168 0.44874704 -0.04407606
000280 8d e9 af be c0 b4 ac bd 28 61 37 be 6c 40 4f 3e
       -0.34357873 -0.08432913 -0.17908156 0.20239419
000290 68 21 64 3f a5 4e 13 bf ad 4a c0 3e b3 cb ac bd
       0.89113474 -0.5754188 0.37556973 -0.0843729
0002a0 bd ee b8 bb 06 66 c4 3e ce 5c de ba da 49 b8 3e
       -0.005643694 0.38359088 -0.0016964914 0.35993844
0002b0 80 10 a4 bd 5a b1 81 3f 0c 7b 55 3e aa c1 f0 3d
       -0.080109596 1.0132248 0.2084772 0.117556885
0002c0 07 a2 db bd 33 f7 a2 be 64 81 bd 3b 1e 99 1d 3e
       -0.10724264 -0.31829223 0.005783247 0.15390441
0002d0 c0 cd 94 be f6 32 98 be 0c f1 2b be 84 12 e5 bd
       -0.29063225 -0.2972638 -0.16791171 -0.11185172
0002e0 ee ab 0c 3f e5 ef 01 3e 9d ac a0 bd 2c cb 05 be
       0.54949844 0.12689169 -0.07845423 -0.13065785
0002f0 93 9c 15 3e 0f f7 6d 3e 42 5a 38 be 9e 3d e1 3e
       0.1461051 0.23238777 -0.1800318 0.43992323
000300 27 30 54 bd d0 ea 34 3e 50 61 b5 3e fc 3d b9 be
       -0.051803734 0.17667699 0.35425806 -0.36180103
000310 a0 dd 05 bf 87 ed 73 bd b6 8d 6e be 18 4b b9 3e
       -0.522913 -0.059552696 -0.23296246 0.36190104
000320 16 41 a5 3d 20 d5 77 3e 32 d0 f1 bd ed 1b dc 3e
       0.08069055 0.24202394 -0.11807288 0.42990056
000330 2d 37 5b 3e dd e4 a0 3e c2 ee 0f be 5f 62 b5 3e
       0.21407767 0.3142461 -0.14055923 0.35426614
000340 e1 63 a8 bd ed 68 84 bd 0e 7c 43 be 01 a7 ab 3e
       -0.082221754 -0.064653255 -0.19090292 0.3352585
000350 cb 7e b4 be 6f 26 43 bf bc dd a1 be 55 60 07 be
       -0.35252985 -0.7623052 -0.31614482 -0.13220342
000360 e8 1b 13 3f 8b d5 1a 3e c5 e0 96 3e 9e c6 6f 3d
       0.57464457 0.15120523 0.2946836 0.058539025
000370 21 8c 08 3f 17 22 04 3f 6f 78 03 3e 17 83 25 be
       0.5333882 0.51614517 0.1283891 -0.16163288
000380 99 84 12 be 5d dd 61 3d 20 2a 96 3e 7d 33 1b bc
       -0.14308394 0.05514275 0.29329014 -0.009472725
000390 86 c6 3b 3e 6d a7 33 3e bc 25 72 bd 87 5c 19 be
       0.1833745 0.17544337 -0.059118018 -0.14976703
0003a0 5c b3 70 3e 9c 8c e9 3d a4 42 f5 3d 49 33 34 3e
       0.2350592 0.11403772 0.11975601 0.17597689
0003b0 cb 4a 04 bf f1 3e af 3e 50 13 83 be c7 a5 e2 be
       -0.51676625 0.34227708 -0.25600672 -0.44267103
0003c0 bd 81 3d 3e 26 bb d2 3e 48 68 ca 3d a6 32 66 be
       0.18506522 0.41158408 0.09883171 -0.22480258
0003d0 80 81 fc bd c1 b1 ad 3e 8b 86 cb be 28 3a 44 be
       -0.12329388 0.33924678 -0.39751086 -0.1916281
0003e0 c5 7c 0e bf 8a c0 e5 3e 92 8d a4 3e 4e 76 ba bd
       -0.55659133 0.44873458 0.3213926 -0.09104596
0003f0 35 18 82 be c6 f9 a5 3e ec 08 ba be 8c 92 c4 be
       -0.25409093 0.32417125 -0.36334932 -0.38393056
