pretrained_models/comick-25-context-size.pth (torch, 821283 bytes, 10 tensors)

feature.weight_ih_l0 f4 [512, 64]
000000 6f 78 ff be fe 4b cc 3e 4b ce 5a 3e e9 4c 79 3e
       -0.4989657 0.39901727 0.21367757 0.24345745
000010 2e 58 4e 3f 73 a7 0d 3f a7 5a 24 be 8b fb 15 bf
       0.806033 0.5533363 -0.16050206 -0.5858695
000020 e0 8b a3 3e e4 f0 0f 3f 9f 86 8c be 8d 1e 98 be
       0.31942654 0.56226945 -0.27446458 -0.29710808
000030 0b d2 fa 3e 78 67 82 3e 4a 74 81 bc 9e 6b 89 be
       0.48988375 0.25469565 -0.015802521 -0.26839918
000040 43 1e a5 3e e3 85 da 3e ed 89 ee 3e 80 16 86 3f
       0.3224965 0.42680272 0.46589604 1.0475616
000050 0b 60 71 3e 7b d0 47 3f 76 5e cf bd 0f d0 a4 be
       0.23571794 0.7805249 -0.10125439 -0.32189986
000060 95 88 c3 3e 11 e8 2e 3f 7e c7 8d bf 7a 17 9b bf
       0.3819014 0.68322855 -1.1076505 -1.211654
000070 fb 62 06 3e 26 ab 32 3f b5 32 0e 3f ec b3 72 3e
       0.13123696 0.697924 0.5554612 0.23701447
000080 29 99 e9 3e e3 f1 f3 bd 3e fd ec be b3 98 b8 3f
       0.45624664 -0.119113706 -0.46286958 1.44216
000090 11 a4 2a bf 7c f6 1e bf c0 9e 4e be ef dd ea be
       -0.66656595 -0.62094855 -0.20177746 -0.45872447
0000a0 4e 93 6a be 2c b0 88 be 56 a5 c0 be 89 72 2b 3f
       -0.22907755 -0.26696908 -0.3762614 0.6697164
0000b0 55 14 64 bf 43 30 01 be dc 65 76 3e 92 54 f5 be
       -0.89093524 -0.12616067 0.24062294 -0.47916085
0000c0 a9 1e 12 3f a1 cf 91 bf df ba 36 bf a0 16 98 3e
       0.57078034 -1.1391488 -0.7137889 0.29704762
0000d0 c3 1c 0b bf f3 de ca bd 6d dd 06 3f a2 03 5b 3e
       -0.5434076 -0.099058054 0.5268162 0.21388105
0000e0 35 af 44 3f 90 6b 4f bd 2e 87 c1 3d 5c 68 0c 3f
       0.76829845 -0.05063969 0.094496116 0.5484674
0000f0 c4 8d 37 3e 4b de 49 3f 0a f5 e2 bd 81 4b 3d bf
       0.17925173 0.7885482 -0.11081894 -0.73943335
000100 52 a5 b9 be 14 7d a2 3e ba 43 85 3e 60 93 81 bf
       -0.36258942 0.31736052 0.26028234 -1.01231
000110 9f da 99 bf fe ac fb 3e d1 9c 92 3d 68 21 90 3e
       -1.2019843 0.4915542 0.071588166 0.28150487
000120 e3 b2 67 bf 6d d9 8b be 61 d4 cb be ad 09 c2 be
       -0.90507334 -0.2731432 -0.3981047 -0.37898007
000130 dd fe 46 3e ab cc 6b 3c 54 05 7f 3f 05 06 52 be
       0.1943316 0.014392058 0.99617505 -0.20510109
000140 74 a7 c1 be b7 3c 64 3e 3e 89 c2 3e c2 31 17 bf
       -0.3782307 0.22288786 0.37995332 -0.590603
000150 70 d6 5e be a5 f4 6c bf a8 d1 25 be 02 0e 7f 3c
       -0.21761489 -0.925608 -0.16193259 0.015567305
000160 a1 47 50 bf 5a d6 7f bc 98 e3 fc ba 9b 0e ff 3e
       -0.813593 -0.01561507 -0.0019293902 0.4981583
000170 09 1c 52 3f e2 13 29 be 06 83 1a 3f 98 f9 eb 3e
       0.8207403 -0.16511491 0.60356176 0.46088862
000180 da 74 a5 3e 63 6c 10 bf e5 88 2c 3e 5c 08 b7 be
       0.32315713 -0.56415385 0.16849096 -0.35748565
000190 3a 7d b7 3e 07 92 c5 be 6c 96 18 3e ff ba 3d 3e
       0.35837728 -0.38587973 0.14901131 0.18528365
0001a0 e5 a7 e4 be 4c cb 49 bf 48 90 64 3f bf 34 0d 3e
       -0.44659343 -0.7882583 0.89282656 0.13789652
0001b0 c3 9d 3c bf b6 a9 9b be 99 fd 47 3f 53 cb 98 bf
       -0.73678225 -0.30402917 0.78121334 -1.193705
0001c0 5c 26 9f be 41 dd 91 be 8a c6 0c be ad 51 ab bf
       -0.31083953 -0.28489116 -0.13747612 -1.33843
0001d0 4c 9d ad 3d d5 ad 6b 3e 6a 1e cd 3d fd 2d 29 3e
       0.084772676 0.2301553 0.10015567 0.1652145
0001e0 94 49 0a 3f 95 8c c8 bd a1 8f ae 3e 25 de c3 bd
       0.5401852 -0.09792439 0.34093955 -0.09563855
0001f0 e1 ab 2c 3f c6 fd 83 3d 21 89 0b 3f 8a bf 2e 3d
       0.67449766 0.06444888 0.5450612 0.042663135
000200 60 f9 0e 3f c3 a7 45 3f 71 e7 ce 3c 6b 59 f5 3e
       0.55849266 0.7720911 0.025256844 0.47919783
000210 aa 87 c6 3e cd e2 80 3f 64 17 01 bf 4e 12 2a bf
       0.38775378 1.0069214 -0.50426316 -0.6643418
000220 fa 57 a5 bf 06 dc 3a 3e a4 65 6e bf 1d 82 65 bf
       -1.2917473 0.18247995 -0.9312384 -0.8965166
000230 54 d2 ce 3d d5 e6 43 3f 4e dd 40 3e c8 a8 aa 3e
       0.10098711 0.76524097 0.18834421 0.33331895
000240 eb 2e b6 be 8e be fd 3c 79 5b b5 be 65 ba 25 3f
       -0.3558267 0.030974653 -0.3542135 0.6473754
000250 0b 56 28 be 0e b3 89 bf b5 5c 28 bf 9a 36 28 be
       -0.16439073 -1.0757768 -0.6576646 -0.16427079
000260 f9 0a 6d bf 4f f9 d5 3e c2 3b 36 bf 0f 72 a9 bc
       -0.9259487 0.4179177 -0.71184933 -0.02068427
000270 31 c7 7e be 5a 76 ae bf c2 c1 05 be d8 f6 f6 3e
       -0.24880673 -1.3629868 -0.13062194 0.48235202
000280 d1 9c e2 3e 12 75 09 3f c5 81 71 be 30 55 dd bc
       0.44260266 0.5369426 -0.2358466 -0.02701816
000290 67 c0 3a bf 8e 8a 4b 3f c0 68 95 be 7b 55 c8 bd
       -0.7294983 0.7950829 -0.2918148 -0.09781929
0002a0 a2 a2 e2 3f 3b 22 36 3e aa 52 de be 26 cb 2a bf
       1.7705882 0.17786495 -0.43422443 -0.6671623
0002b0 5b 0a b5 3e f0 6f 96 3e 2b c7 40 bf 9e fe a7 be
       0.35359463 0.29382277 -0.75303906 -0.32811445
0002c0 ae 8a 2e 3f 29 b0 8c be 4f a4 a6 3e 8e 99 80 bc
       0.6818036 -0.2747815 0.32547233 -0.01569822
0002d0 36 4d b8 3e bc 1a 79 bd fa 09 e3 bd c4 67 31 3e
       0.35996407 -0.06081651 -0.11085887 0.1732474
0002e0 49 f3 c7 3e bd 97 c5 be e2 d0 51 3f 04 9a 2a 3f
       0.390528 -0.3859233 0.81959355 0.6664126
0002f0 ec 0b 38 3e d1 a0 60 3e a8 84 17 be 02 e2 e4 3e
       0.17973298 0.21936347 -0.14796698 0.4470368
000300 70 45 e6 3e 17 25 4c bf c7 4f ba be 96 98 93 bf
       0.44974852 -0.79744095 -0.3638899 -1.153094
000310 56 55 e2 3e 41 7f d2 bd 0f b5 87 3e a5 ed 5d 3e
       0.4420573 -0.10278178 0.26505324 0.21672685
000320 87 8a bb bf 5e 33 d2 3e 68 64 8e be 28 e8 99 bf
       -1.465165 0.41054815 -0.2781098 -1.2023973
000330 5d 99 94 be 07 6d 8f 3f 82 be 0b 3d 9c d6 11 3f
       -0.29023257 1.1205148 0.03411723 0.5696809
000340 c2 03 da 3e 36 e6 52 3c 03 05 8e bf 2f c2 99 3d
       0.42580992 0.012872269 -1.109528 0.07507741
000350 a4 a7 84 3f c3 ff bb be ae 46 17 3f 2f 79 b5 bf
       1.036366 -0.36718568 0.59092224 -1.4177607
000360 70 fe 55 be b9 c5 d8 be 38 93 35 3e 02 da a1 bf
       -0.20897841 -0.4233835 0.17731941 -1.2644656
000370 8e 56 9b 3e 6a 42 61 bf 73 89 b9 be 2d 76 50 3e
       0.30339473 -0.87991965 -0.36237678 0.2035758
000380 2e 0c 83 3e 86 b3 e1 3e 4f 2a ec 3e b3 bb 4e bf
       0.2559523 0.44082278 0.4612603 -0.80755156
000390 2b 3b 15 3f 27 be 09 be e9 b9 fd bf 8b 16 69 3f
       0.5829341 -0.13451444 -1.982236 0.9105002
0003a0 72 e0 ac 3e 8f e5 40 bf 87 74 fd be bf 1c bc bd
       0.33764988 -0.7535028 -0.49502966 -0.091851704
0003b0 c6 ec 7b 3f f6 b2 4b bf af 82 7d 3e 50 28 7f bf
       0.9840816 -0.7956995 0.24756883 -0.99670887
0003c0 c5 33 78 3e cd f7 2a bf 3d 33 55 bf e0 a5 20 3e
       0.24238499 -0.66784364 -0.8328131 0.15688276
0003d0 7b db 60 3f be 0c 74 3e 2b b5 89 3f c6 b0 b3 bd
       0.878349 0.23832986 1.0758413 -0.08773951
0003e0 66 4e 91 3e 00 fc 94 bd 39 37 52 3f b6 c7 24 bd
       0.28380126 -0.07274628 0.82115513 -0.04022952
0003f0 0e c1 de bd 66 17 51 bd f2 87 f0 be 72 5b 51 3d
       -0.10876666 -0.051047705 -0.46978718 0.0511126

feature.weight_hh_l0 f4 [512, 128]
000000 c8 00 a7 3e 33 12 f3 3e 10 97 09 bf 2f fc 90 3e
       0.32617784 0.47474822 -0.5374613 0.283174
000010 0e 62 6f 3e 84 21 60 3f 14 8d 34 bf 41 dd a4 3e
       0.23377249 0.8755114 -0.7052777 0.32200053
000020 fb c6 51 be 97 93 69 bd 64 36 a5 bd fd b5 0d 3f
       -0.20486061 -0.05702552 -0.08067015 0.5535582
000030 0d c5 51 3e 81 40 4d 3f 5e 95 44 be a5 a9 d5 be
       0.20485325 0.8017655 -0.19197604 -0.4173099
000040 74 a6 5a be e3 69 55 3e fb 27 cd 3e e6 70 f0 be
       -0.2135256 0.20841174 0.40069565 -0.46961135
000050 2d 8a 1e 3f 55 3a f7 bb 44 53 8f 3f aa 94 a2 bb
       0.6192959 -0.0075447955 1.1197286 -0.00496157
000060 70 f2 94 3e 09 c5 1a 3d 17 4d cb 3e 58 f9 4f bf
       0.29091215 0.037785564 0.39707252 -0.81239843
000070 8f f8 14 bf 4b a0 db 3e 2a 22 f4 be cf d1 ab 3e
       -0.5819177 0.4289573 -0.47682315 0.3355851
000080 f4 78 00 bf f1 71 19 bc fb 90 27 bb a4 0d ab 3e
       -0.5018456 -0.009365545 -0.0025568593 0.33408844
000090 76 81 22 bf 62 19 37 be 5e 5c 1c bf dc 3a 2d 3e
       -0.6347879 -0.17880777 -0.6107844 0.16916984
0000a0 d2 6b 9f 3e 81 47 a4 3e db 26 1c bf cd ba 83 3f
       0.31136948 0.32085803 -0.6099679 1.0291382
0000b0 1b 8d b0 be ff e4 bb 3d f1 6c 1e bf 1b 79 13 bf
       -0.34482655 0.09174537 -0.6188498 -0.5760667
0000c0 6f b5 51 bf 71 f7 6b be 4b 22 b1 bf 5a f6 8c bd
       -0.8191747 -0.2304361 -1.383859 -0.06882925
0000d0 6a a8 c9 bd 9f ea 13 be 53 e0 29 bc 53 6c 30 3e
       -0.098465756 -0.1444497 -0.0103684245 0.17228822
0000e0 37 18 9b 3e 06 fc 4d 3f ea 56 fd 3e db e7 e1 bd
       0.30291912 0.8046268 0.49480373 -0.11030551
0000f0 da 60 b8 3e cc 49 19 bf 20 b6 21 3f 06 d7 00 be
       0.36011392 -0.5987823 0.63168526 -0.12582025
000100 1e b3 ac be ee 45 5f bf a9 12 ac 3d a2 e0 d1 be
       -0.33730406 -0.8721608 0.08401997 -0.40991694
000110 5f d7 2e bf c9 be e4 be 64 27 c1 3e 19 c4 4e bf
       -0.6829738 -0.44676808 0.37725365 -0.8076797
000120 32 c2 b1 3c 73 76 cb 3d 90 67 2b bf fc 45 9c 3d
       0.021699045 0.09934702 -0.669549 0.07630536
000130 52 cd 7e 3d d6 44 e2 be 9b 64 ef 3e 91 12 27 3e
       0.062207527 -0.44193143 0.46756443 0.16315676
000140 ad fc 17 be a1 09 c9 3e de 88 54 3e 96 b4 ff 3e
       -0.14842482 0.3926516 0.20755336 0.49942464
000150 48 8f 9a 3d 06 71 0d 3e 94 52 ca bd c6 b0 aa bf
       0.0754686 0.13812646 -0.09879032 -1.3335197
000160 54 2c dd be 2c be 91 3e 21 86 a5 be 1d cb 7e 3e
       -0.43197882 0.28465402 -0.32328895 0.24882169
000170 c8 59 62 3f 8e a7 74 3f 23 71 9b 3d 1c cd 45 3f
       0.88418245 0.9556817 0.075899385 0.772661
000180 0e c0 da 3e 43 72 cc 3e 90 11 08 bd 93 06 3c bf
       0.4272465 0.39930925 -0.033219874 -0.7344753
000190 3b cb e7 be 82 0d a7 be bc 72 dc bd de 65 61 3e
       -0.4527224 -0.32627493 -0.10764071 0.22011515
0001a0 d6 b2 46 3e c9 57 a2 3e 8e f6 1d 3f b8 80 81 bf
       0.19404158 0.317076 0.6170434 -1.0117407
0001b0 86 72 85 3e 23 a9 1e be fc 00 98 be 8f 00 2d be
       0.26063937 -0.15494208 -0.2968825 -0.16894744
0001c0 82 a7 16 be 70 f8 9f be 82 00 12 3f 38 79 d6 3d
       -0.14712337 -0.3124423 0.57032025 0.104723394
0001d0 c9 01 d5 3e a4 40 12 be 11 2f b3 be ec 93 11 bf
       0.41602924 -0.14282471 -0.34996846 -0.56866336
0001e0 ee 6f 5c 3d 59 ff 0e bf 35 e0 7b bd 97 74 8c be
       0.053817682 -0.5585838 -0.061493117 -0.274327
0001f0 b3 32 05 3e 16 58 b2 bd a2 ac 22 bf 5f 6c e7 be
       0.13007621 -0.08708207 -0.63544667 -0.45199868
000200 7d dd c3 3e 41 6b 05 bf 2a 1d 8b 3f 36 f8 6f bf
       0.3825492 -0.5211678 1.0868275 -0.93738115
000210 98 57 24 bf 6f 1b f8 be 56 ac b2 bd b1 09 3d 3e
       -0.6419616 -0.4845843 -0.08724277 0.18460728
000220 72 10 e9 3d 10 8e 75 be 82 88 59 3e bb 9f 20 3f
       0.1138009 -0.23979974 0.2124348 0.6274373
000230 b9 f4 c2 3e cd 0c 4e bd 86 44 02 bf 4a 2c 70 3e
       0.38077334 -0.050305177 -0.5088581 0.23454395
000240 cc 2c 19 3e c8 b4 36 3d 88 17 0c bf f4 21 0c be
       0.14958495 0.044606 -0.54723406 -0.13684827
000250 30 48 8a 3e fd 71 27 bf b5 ef fe 3e a8 70 f5 3d
       0.270082 -0.6540831 0.49792257 0.11984378
000260 d3 ff 7e be 8d 08 23 be 69 40 78 bf 65 32 b8 bd
       -0.24902277 -0.1592123 -0.9697328 -0.08993987
000270 1f ae 0b bf 77 53 ab 3e 39 90 6f be 57 fc 97 3e
       -0.5456256 0.33462116 -0.2339486 0.29684708
000280 ec 7e 2e bf 5d 7b 6a 3f 74 77 00 be e4 3d 76 3f
       -0.6816242 0.9159449 -0.12545568 0.9618819
000290 86 13 90 be e3 63 6e 3e 5e 37 a5 bf 0f b0 b1 3e
       -0.28139895 0.23280291 -1.2907522 0.34704635
0002a0 82 ce b4 be d4 26 8f be 01 b6 a8 3d 22 51 71 bf
       -0.35313803 -0.2795931 0.082378395 -0.94264424
0002b0 9c 1f c8 3e ce e3 2e 3e 4c d1 b7 be 9c 1c 89 bd
       0.39086616 0.17079088 -0.35901868 -0.0669491
0002c0 79 43 35 3f 25 3f 17 3f 76 4b c2 3e 03 63 8a be
       0.7080608 0.59080726 0.37948197 -0.27028665
0002d0 7d 01 29 bf b6 94 e1 be 94 58 5f 3e 8c 62 ea 3c
       -0.66017896 -0.4405877 0.21811134 0.028611444
0002e0 ff 80 ea be 65 68 26 3e 54 4d 09 be ab e3 ba be
       -0.4580154 0.16250761 -0.13408405 -0.36501822
0002f0 f8 6a 40 3d 64 3c e9 be b1 0f be 3e 46 f3 39 3e
       0.046977013 -0.45553887 0.37121347 0.18159208
000300 6e a8 a6 be 29 0f 52 bd 09 5d a5 3e 59 7b 0d 3f
       -0.32550377 -0.05128399 0.32297543 0.5526634
000310 97 29 bb be 6b 2e a4 be 74 30 30 3f 48 f8 4b 3e
       -0.36555168 -0.32066664 0.68823934 0.1991893
000320 21 ef 9a 3e 56 bf 88 3d 1b 0a b7 bf 42 25 17 bc
       0.30260566 0.066771194 -1.4299959 -0.009225192
000330 0b e5 9b 3e ec 0f 0a bf 09 af 15 3f a8 ba 79 bf
       0.30448183 -0.53930545 0.5847021 -0.9755044
000340 bc 64 51 be 18 63 88 be 5c 37 67 bf f1 55 96 be
       -0.20448583 -0.26638103 -0.90318847 -0.29362443
000350 19 15 74 be 10 6b 3b 3e f1 d3 05 bf 93 23 83 bd
       -0.23836173 0.1830256 -0.5227652 -0.064032696
000360 0c 10 41 3f c1 7e 7f be 7a f0 04 bf 05 8f 82 bf
       0.7541511 -0.24950697 -0.5192944 -1.0199896
000370 1a 3d c2 bd 2d ce 20 3f c7 dc 78 3e 69 94 19 3f
       -0.094843104 0.628146 0.2430297 0.5999208
000380 e5 7f a1 3f 64 3b 35 be 74 6b 1a bd ad e7 6e 3f
       1.2617155 -0.17698437 -0.03770013 0.9332226
000390 75 a8 a7 bd ba 21 a7 bd 7a 3c 7b 3e 49 17 b7 bd
       -0.081864275 -0.0816073 0.24534789 -0.08939988
0003a0 a4 4f 53 3f fd 97 42 be 13 db 14 3f 44 1d 20 bf
       0.82543397 -0.19003291 0.5814678 -0.62544656
0003b0 df e3 6a bf 92 73 6b bf 95 29 eb bd 84 d1 2b bf
       -0.91753954 -0.9197322 -0.114825405 -0.6711657
0003c0 c0 2d 8d 3f 69 40 b3 bc 4e 4f 86 bf 41 d2 91 3e
       1.1029587 -0.0218813 -1.0492952 0.28480724
0003d0 8f 5e 88 3f e3 02 73 bd 45 20 b0 bd d0 e5 a4 3e
       1.0653857 -0.059328925 -0.08599905 0.32206583
0003e0 d6 bd ec 3e a7 3a 8a 3f 84 88 ce be 87 d3 8d 3f
       0.46238583 1.0799149 -0.40338528 1.1080178
0003f0 74 b7 25 3e 67 eb 0a be 1f f6 ad be 94 a8 e5 be
       0.16183263 -0.13566361 -0.33976838 -0.44855177

feature.bias_ih_l0 f4 [512]
000000 e0 79 f0 bd c2 0f a6 3e fa 58 f1 3e 0d 47 ee bd
       -0.11741996 0.32433897 0.47138196 -0.116346456
000010 a5 d4 9c 3e 85 06 98 be 91 17 7a bd 97 ee ff 3e
       0.30630985 -0.29692474 -0.06105763 0.49986717
000020 14 5f ed 3e 03 a6 87 be 19 ba 83 3e 80 50 72 3f
       0.463616 -0.26493844 0.2572792 0.94654083
000030 ec e2 6d 3e 3b 1c 59 3e 07 88 b1 3e c2 b4 43 be
       0.23231095 0.21202175 0.34674093 -0.19111922
000040 d2 2f 03 3e 20 10 5d bd a8 1a 56 3e 55 57 9d be
       0.12811211 -0.053970456 0.20908606 -0.30730692
000050 f2 1a 24 bc 8e 8a 24 be ac 57 e4 3e 3e 98 4c bd
       -0.01001619 -0.1606848 0.44598138 -0.049949877
000060 2b c1 5f be c4 fe 75 3f 93 14 8c be 73 42 6e 3e
       -0.21851031 0.96091866 -0.27359447 0.23267536
000070 56 6a b7 be c3 19 a3 be 6a 05 80 be e4 01 6e 3e
       -0.35823315 -0.31855592 -0.2500413 0.23242909
000080 79 a9 17 3d 71 37 55 3e d6 71 58 3d 32 47 23 3e
       0.037026856 0.2082193 0.052842937 0.15945128
000090 01 b8 47 3e 3f 0f 60 3d 72 48 19 3f 1f 6f 2b be
       0.19503786 0.05470204 0.5987617 -0.16741608
0000a0 3a 82 2c 3e 0e c0 98 be fd a9 7b 3f 7c cd a6 3d
       0.16846552 -0.29834026 0.98306257 0.08144662
0000b0 d8 17 24 3f ae 05 a9 be 07 37 90 3e a1 bc 9c 3e
       0.6409888 -0.33012146 0.28166983 0.30612662
0000c0 cd c4 87 be 5f 7b e9 3d ee 06 2a 3f 9d 1e 2c be
       -0.26517335 0.11400484 0.66416824 -0.16808553
0000d0 f3 8a 02 be 4f 49 93 3f 2b 01 6d 3e 0f 32 a0 be
       -0.12748317 1.1506747 0.23144977 -0.31288192
0000e0 3e 17 2f be 9f 35 d2 3d 51 7e a0 3e e3 ad 5c 3e
       -0.1709871 0.10264134 0.31346372 0.21550708
0000f0 20 3a 35 3f 54 3e 0c be 98 38 11 3e 79 30 62 3d
       0.70791817 -0.13695651 0.14181745 0.05522201
000100 64 af c3 3d c2 e2 62 3c e1 d4 c3 3e 53 6a b8 3e
       0.095549375 0.013848009 0.3824835 0.3601862
000110 8d 1a e9 3d d7 2f 89 3f d2 72 91 3f 37 c0 4a 3f
       0.11382017 1.0717725 1.1363165 0.79199547
000120 e9 73 d3 3d d7 b8 d9 bd de cc f2 3b 07 c2 15 3e
       0.103248425 -0.106309585 0.007409676 0.14624797
000130 d0 c3 1f bd 55 ad e4 3e 25 25 d1 3e 8f e9 0e be
       -0.0390051 0.44663492 0.40848652 -0.13956283
000140 54 2a 0c be 61 10 bf be ab 45 d0 3e cc b3 30 3e
       -0.13688022 -0.37317184 0.40678152 0.17256087
000150 e3 15 98 3e 19 76 bd bc 4d 3e 64 3e a7 d1 a0 3e
       0.29704198 -0.023127602 0.22289391 0.31409952
000160 0e 16 4b 3e 1b 73 97 3d c1 40 99 3c be e1 9c be
       0.19832632 0.073950015 0.018707635 -0.30640978
000170 37 04 0f be 03 11 71 3e 92 2d c1 be a8 66 06 be
       -0.13966452 0.23541646 -0.3773008 -0.13125098
000180 39 d5 5d 3f eb 2c dc 3d de 6e d6 bd e2 27 e7 3e
       0.86653477 0.10750755 -0.10470365 0.45147616
000190 fc a3 ae 3e 96 67 a1 3e b9 e0 95 be f4 a3 ec be
       0.34109485 0.31524342 -0.29273012 -0.46218836
0001a0 69 dd 8d be d0 62 e8 3c f5 8c 6d bc 6b bb 78 3d
       -0.27707985 0.02836743 -0.014498939 0.06072561
0001b0 a6 3f 2c be 12 ac 18 be 03 65 79 be b1 ae fb 3e
       -0.16821155 -0.1490939 -0.24354939 0.49156716
0001c0 ec 58 a1 3c b4 af 9d be 37 c0 39 3e bc a3 d1 bd
       0.019695722 -0.30798113 0.1813973 -0.10236308
0001d0 ce 72 80 be ef 25 33 be ab 67 3b 3f bf a5 8b 3f
       -0.2508759 -0.1749494 0.7320506 1.0909957
0001e0 1d 71 8f 3e 1d 65 e9 3e 3d 27 dc 3e 53 a7 89 bc
       0.28015986 0.45584956 0.42998686 -0.01680342
0001f0 52 7e de 3d da eb 4e be d4 df a0 3e 4f 27 a5 3e
       0.108639374 -0.20207158 0.31420767 0.32256553
000200 4d da af be 5b 4e 99 be 1e 33 01 bf 50 2f 22 bf
       -0.34346238 -0.29942593 -0.50468624 -0.63353443
000210 1d 79 a8 3c 34 03 d3 3c ed 43 a5 bd 91 3f 8f be
       0.020565564 0.025758363 -0.080695964 -0.27978185
000220 8c 91 04 3e 6b 00 81 bd 87 62 2b 3e 79 0d 15 bf
       0.12946147 -0.06298908 0.16736804 -0.5822368
000230 53 e0 6a 3c cd 98 92 be d8 b0 ff be d2 12 b0 3e
       0.01433571 -0.28632203 -0.4993961 0.3438936
000240 e8 5d 90 be 27 c7 85 be eb ea 3b be c3 08 f4 3e
       -0.28196645 -0.26128504 -0.18351333 0.47662935
000250 06 40 ae be 69 1e 20 3e 7c 9c 98 be 4b 66 be be
       -0.3403322 0.156366 -0.29806888 -0.37187418
000260 84 6f b6 3d 81 4e 1d bf 7e d5 f7 3d 48 22 94 be
       0.08907989 -0.6144791 0.12101267 -0.28932405
000270 e2 09 44 be 08 2f 2a 3d cb b3 2b 3c d0 4c 43 be
       -0.19144395 0.04154876 0.010479878 -0.1907227
000280 28 9e 1e be 27 c9 c8 3d 3b 9a 3e bd 65 96 f8 be
       -0.1549002 0.09803992 -0.046533804 -0.48552242
000290 6a 9a 88 be 73 9c 58 bf dd 23 5b 3e 3a 21 52 be
       -0.2668031 -0.8461372 0.214004 -0.20520487
0002a0 1f e3 3d bd 01 3e d8 3e 31 12 ff be e8 a9 b2 be
       -0.046359178 0.42234805 -0.49818566 -0.34895253
0002b0 b4 37 82 be 32 7c ba be 85 53 85 be 3b 09 2c bf
       -0.25433123 -0.36422879 -0.26040283 -0.67201585
0002c0 6b db 70 3e da be 97 be ed 17 29 bf 17 a2 f8 bd
       0.23521201 -0.29637796 -0.6605213 -0.12140291
0002d0 d1 fc 3e be 34 4e fc be 1e 96 4c be c1 bb 8f be
       -0.1865113 -0.49278414 -0.1997914 -0.28072932
0002e0 3c 27 93 be 69 ff f0 bc c9 4b b9 be 02 32 41 be
       -0.2874087 -0.029418664 -0.36190632 -0.18866733
0002f0 f6 0a 5b be b2 9e 66 3e dc 58 05 bd b1 7e b9 3d
       -0.213909 0.22521475 -0.032555446 0.090573676
000300 62 e2 c0 3d 38 d5 e9 be da 44 f5 be 20 33 8e be
       0.09418179 -0.45670485 -0.47904092 -0.2777338
000310 91 5a 45 be f1 5e b6 be 08 34 3d 3e f7 f4 76 3e
       -0.1927283 -0.3561931 0.1847688 0.24116884
000320 8c 36 b6 bd 29 24 51 be 4d f9 eb 3d 51 89 35 3e
       -0.08897123 -0.2042395 0.1152216 0.17728163
000330 1a 1f 95 be 3c 5b bd 3d 78 28 64 be e5 fb 5e 3d
       -0.2912529 0.09245917 -0.22281063 0.054439444
000340 c3 7f 10 3e 6a 33 2b 3e c8 6a 50 bf 87 d6 5c be
       0.14111237 0.16718832 -0.81412935 -0.2156621
000350 f0 cf 56 be 30 b8 c5 3c 78 2b 85 3e 98 4d 36 bf
       -0.2097776 0.024135679 0.26009727 -0.7121215
000360 01 1c c5 be 9d 9c 1a be 01 d8 b5 be 9d 7c 55 be
       -0.38497928 -0.15098806 -0.3551636 -0.20848317
000370 33 b8 9e be be bb c3 3e 6f 70 33 3e af 15 03 bf
       -0.30999908 0.38229173 0.17523359 -0.5120496
000380 45 ac 27 bf 85 65 dd bd 60 77 f3 be 2c df 85 be
       -0.6549724 -0.10810379 -0.47552013 -0.2614683
000390 5f 0b ed be e6 92 de 3e ee 94 25 bb 61 6f ee 3c
       -0.46297738 0.4347145 -0.002526577 0.029105844
0003a0 6a 80 45 be f6 15 17 be 36 14 ab be b2 2d e3 be
       -0.19287267 -0.14754471 -0.33413857 -0.443708
0003b0 c7 1a 0f 3e da 2f 0f bf 5f e8 cf 3d 36 c8 e5 be
       0.13975058 -0.5593239 0.10151743 -0.4487931
0003c0 43 63 5c be 91 86 0a be 0d 78 6b 3e 29 ea 8a 3d
       -0.2152224 -0.13527896 0.22995014 0.06782944
0003d0 2a b8 51 be 6f 3b d9 be dc 25 07 bf 3b af c1 be
       -0.2048041 -0.42428157 -0.52792144 -0.37829003
0003e0 c6 ef 16 bf f1 49 fb be bc 7d 9c 3d 48 c6 4e be
       -0.58959615 -0.4907985 0.076411694 -0.20192826
0003f0 a5 de ae be 3a 34 e4 bd 76 1e 78 3c 26 db 18 be
       -0.3415424 -0.11142774 0.015143981 -0.14927348

feature.bias_hh_l0 f4 [512]
000000 e8 2b 08 be 29 66 a8 3e fb 91 bf 3e 19 da cd bd
       -0.13297999 0.32890442 0.37416062 -0.100513645
000010 48 a0 45 3e d9 b0 75 be cd a6 0a be 34 71 03 3f
       0.19299424 -0.23993243 -0.13540192 0.5134461
000020 b2 5b d4 3e 80 3a 81 be 55 4e a3 3e 07 c9 67 3f
       0.41476208 -0.25239944 0.318957 0.9054112
000030 3d 60 0d 3e 24 ef 8d 3e 32 0b b5 3e 14 2e 19 be
       0.13806243 0.27721512 0.35360104 -0.14958984
000040 6f 60 05 3e a5 bf 4f be f9 9b df 3d 87 66 98 be
       0.13025068 -0.2028795 0.10918421 -0.29765722
000050 42 29 eb 3c 46 2a ff bd 30 51 13 3f 58 8f 65 3d
       0.028706197 -0.12459235 0.5754576 0.056044906
000060 13 38 6f be d9 63 71 3f 86 9a a9 be ca 05 4f 3e
       -0.23361234 0.9429298 -0.33125705 0.20217052
000070 82 e3 ae be 98 83 96 be d6 c8 89 be b9 92 22 3e
       -0.3415795 -0.29397273 -0.26911038 0.15876283
000080 84 a3 c7 3d 6e b1 88 3e ab fe 26 3d b2 04 4a 3b
       0.09747985 0.26697868 0.040770214 0.0030825553
000090 1a 23 b5 3e 82 8b 09 bd 2e a1 26 3f 0d 89 77 be
       0.35378343 -0.03358031 0.6508969 -0.24173374
0000a0 bf f4 7b 3c 48 71 86 be 65 be 78 3f 91 cc 8b 3e
       0.015378176 -0.26258302 0.9716552 0.2730451
0000b0 7f 8a 49 3f da bc 8d be 33 98 6b 3e 10 ac fa 3e
       0.78726953 -0.27683145 0.23007278 0.48959398
0000c0 a2 87 c4 be d6 3e 22 3d 02 e5 24 3f 52 5c 36 be
       -0.3838473 0.039610706 0.6441194 -0.17808655
0000d0 74 07 b9 bd 68 46 98 3f 77 b9 d3 3c dc c4 3e be
       -0.09034625 1.1896486 0.025845272 -0.18629783
0000e0 65 71 14 be f6 c7 80 3e b7 af 02 3e 1a 85 63 3e
       -0.14496382 0.25152558 0.12762342 0.22218743
0000f0 6d ee 32 3f 22 cf 31 be 91 a6 d3 3d fa 50 ab 3c
       0.6989506 -0.17364171 0.103345044 0.020912636
000100 ec ca bb 3d b7 1b db bc 9b aa bc 3e 7a cb 95 3e
       0.09169564 -0.026746614 0.36848912 0.29256803
000110 86 ec c8 3d d7 7b 8a 3f b2 fd 92 3f 37 45 3f 3f
       0.09810738 1.0819043 1.1483672 0.7471499
000120 a0 76 ed 3d c3 7a ce bb a8 e3 94 bd ae 83 72 3e
       0.115948915 -0.0063012554 -0.072699845 0.23683044
000130 e8 cc ca bd ec f8 7c 3e ea e6 ee 3e 57 b1 44 be
       -0.09902364 0.24704331 0.46660548 -0.19208275
000140 a7 04 32 be da 98 87 be 34 fa f0 3e c4 32 2b 3e
       -0.17384587 -0.26483804 0.4706589 0.16718584
000150 61 00 4f 3e b8 56 41 3e f0 8d 40 3e 54 ca 9b 3e
       0.20214988 0.18880737 0.18804145 0.30427802
000160 d8 df 25 3d 47 d3 37 3d 70 1c 0c be b5 c7 18 be
       0.040496677 0.044879224 -0.13682723 -0.14919932
000170 20 7b 88 bd 11 31 87 3e f8 24 3a be 32 1f 31 be
       -0.06664109 0.26404622 -0.18178165 -0.17297056
000180 f1 63 69 3f 22 95 d7 3d 86 7a ad 3d 4f 6f f7 3e
       0.91168123 0.10526492 0.08470635 0.4832711
000190 04 d0 c1 3e 5a 8a 51 3e 0c 42 c8 be 1e 62 bf be
       0.37854016 0.20462933 -0.3911289 -0.37379545
0001a0 60 2c 9a be 17 58 f6 3c 8d eb 21 bd 6d 47 25 3d
       -0.3011198 0.030071301 -0.03953128 0.04035132
0001b0 85 57 24 be 8a 73 42 be 65 ec be bd d0 54 04 3f
       -0.16049011 -0.18989387 -0.093224324 0.51691914
0001c0 f7 a7 4e 3d 53 6f 75 be f0 87 50 3d 83 0c 13 be
       0.050453153 -0.23968248 0.05091089 -0.14360242
0001d0 db 53 2e bd 65 1f cf 3c 90 ea 47 3f 3a f0 79 3f
       -0.04256044 0.025283525 0.7809229 0.9763218
0001e0 b7 03 91 3e ed 07 99 3e 41 ec 4e 3e 76 09 12 3c
       0.28323147 0.2988886 0.20207311 0.0089133885
0001f0 58 62 df 3d f8 6f 15 be 0c fd c3 3e f2 99 85 3e
       0.109074295 -0.14593494 0.38278997 0.26094013
000200 cb ec a8 be 69 a0 ba be 5a f0 c5 be f2 70 05 bf
       -0.3299316 -0.36450508 -0.38659936 -0.52125466
000210 f7 02 16 3d fa 7f 3e bd f4 10 22 be a5 bb a9 be
       0.03662392 -0.046508767 -0.1582678 -0.33150974
000220 9f d0 93 3d be c1 d2 bd db 88 04 3e e4 ca 0b bf
       0.07217526 -0.1029086 0.12942831 -0.5460646
000230 76 b3 ae 3d 0b 76 85 be 93 40 14 bf 11 70 b3 3e
       0.08530323 -0.26066622 -0.5791103 0.35046437
000240 50 46 8d be c7 c3 d4 be 91 12 fe bd 67 13 cc 3e
       -0.27592707 -0.41555616 -0.12405885 0.39858553
000250 16 8b 81 be 63 31 b6 3d 85 38 89 be 38 65 91 be
       -0.25301427 0.088961385 -0.26800933 -0.28397536
000260 c4 47 83 3d 2e aa 1d bf 4f 32 df bc 4a ef 28 be
       0.064101726 -0.615878 -0.027245669 -0.16497532
000270 3a df 4b be 00 62 30 3e 86 ba 01 be e5 4c b3 be
       -0.19909373 0.17224884 -0.1266881 -0.35019603
000280 80 96 31 be 6a 39 cc 3d 89 4c c8 3c a5 86 ce be
       -0.17342567 0.09971888 0.024450557 -0.403371
000290 99 d5 ac be 4f d6 6c bf bc 22 ea 3d 94 c6 f3 bd
       -0.33756712 -0.9251451 0.11432406 -0.1190311
0002a0 10 0b 90 3d 4c 71 8d 3e fa c2 e6 be c4 34 c4 be
       0.0703336 0.276255 -0.4507063 -0.38321507
0002b0 84 e9 ab be 38 a4 b1 be 16 70 95 be 81 9d 06 bf
       -0.33576596 -0.346956 -0.29187077 -0.5258408
0002c0 96 68 4d 3e de ca 9d be 8b 1e 17 bf 37 89 39 be
       0.20059428 -0.30818838 -0.5903098 -0.1811875
0002d0 84 c8 67 be 34 06 1b bf 2c ba ca bd 5c 94 71 be
       -0.22635084 -0.6055634 -0.09898791 -0.23591751
0002e0 f5 26 48 be 9b 4c a7 bd b9 ae 9c be 75 37 28 be
       -0.19546111 -0.08168908 -0.30602053 -0.16427405
0002f0 ca 3e a5 be f7 14 02 3e 58 b7 e0 3d c0 4e eb 3d
       -0.32274467 0.1270331 0.1097247 0.1148963
000300 0a d7 2d 3e c0 b7 04 bf cb cc c7 be 90 b6 a4 be
       0.16976562 -0.5184288 -0.39023432 -0.32170534
000310 af a8 34 be 6d 65 fa be 2a a2 c0 3d 03 28 3b 3e
       -0.17642473 -0.48905507 0.0940593 0.18276982
000320 0e 5f 63 be db 62 bf bd 50 32 90 3e f9 62 e6 3d
       -0.22204229 -0.09345027 0.28163385 0.11249346
000330 0b 85 db be fb 95 5c 3e 7a cd 60 be a2 9e 9b 3d
       -0.4287494 0.21541588 -0.21953383 0.07598616
000340 24 95 c8 bb 28 f2 80 3e dd 5d 3e bf ca e1 d6 bd
       -0.0061212946 0.2518475 -0.74361974 -0.104922846
000350 bc ba 43 be 05 e2 91 bd 69 1c 7c 3e a1 f9 3b bf
       -0.19114202 -0.07123188 0.24620213 -0.7342778
000360 c5 8b fb be 9a 7c 5c bd c4 ba 73 be ce 64 7e be
       -0.49130073 -0.053829767 -0.23801714 -0.24843141
000370 da 99 ad be c2 31 ab 3e 9a dd 60 3e ea 1c d2 be
       -0.33906442 0.334364 0.21959534 -0.41037685
000380 42 28 3d bf 68 b4 7a be 7e 5f e1 be 12 5e 9d be
       -0.73889554 -0.24482882 -0.44018167 -0.30735832
000390 16 eb da be 14 f4 9b 3e 20 7f c8 3c 99 22 79 3d
       -0.4275748 0.30459654 0.02447468 0.06082401
0003a0 5f 24 8a be 39 c5 70 be 10 45 2b be 41 f7 ec be
       -0.26980874 -0.23512734 -0.16725564 -0.4628239
0003b0 e5 31 e3 3c 03 d5 d5 be 89 58 ad 3d 2b e7 0f bf
       0.027733753 -0.41764078 0.08464152 -0.5621211
0003c0 ad 1f 19 be 4d 94 f2 bd f9 c6 35 3e f2 85 b5 3d
       -0.1495349 -0.118446924 0.17751683 0.08863439
0003d0 c8 98 ff bd e2 e0 c0 be d6 04 2f bf 27 e3 b1 be
       -0.124803126 -0.37671572 -0.68366754 -0.34743616
0003e0 e7 7a 12 bf b4 c2 ad be 44 6d 40 3e e6 9e 3c be
       -0.57218784 -0.3393761 0.18791682 -0.1841999
0003f0 7f 7c c8 be 37 a9 ae bd 36 25 e9 bc 53 9e ce bd
       -0.39157483 -0.08528369 -0.028460126 -0.10088792

feature.weight_ih_l0_reverse f4 [512, 64]
000000 19 97 af bf e2 29 2f 3f 96 6a 16 be 08 79 4a 3f
       -1.3717986 0.68423283 -0.14689097 0.7909093
000010 c5 af 19 bf 61 31 fb 3e ef 9a 54 bf 37 73 86 be
       -0.6003383 0.4906111 -0.8304891 -0.26259777
000020 2d 79 bf be c3 fb 49 3e ab b2 a3 3f 88 c1 10 3f
       -0.37397137 0.19724946 1.27889 0.56545305
000030 42 c8 0b 3e bf aa 8f 3f c3 99 ce bf 73 67 0f bf
       0.13650611 1.1223983 -1.6140674 -0.56017226
000040 af cb 0f bf fb f2 84 3f ba 9a fc 3d 24 bf 20 3f
       -0.5617017 1.0386652 0.12334199 0.6279166
000050 73 5b 05 3f 92 b9 a3 be 7e 70 60 be 24 c2 ae bf
       0.52092665 -0.31977516 -0.21917912 -1.3652997
000060 cd 44 e5 be 79 c2 95 3e 32 47 0e bf 73 33 28 bd
       -0.44779053 0.29249933 -0.55577385 -0.04106469
000070 8f 20 50 3e f0 bd c1 3e a4 d8 26 3f 8e d7 42 be
       0.2032492 0.37840223 0.6517432 -0.1902754
000080 17 00 4b 3f 7f ea 16 3e bd 7a 32 3d 8f 02 5b 3e
       0.7929701 0.1473789 0.043574084 0.21387695
000090 35 11 f1 be ab 3e da be d4 b1 c0 3d 20 30 96 be
       -0.4708344 -0.42625937 0.09408918 -0.2933359
0000a0 15 e6 69 be 20 9b 82 bb fe ce 3b bf ca 12 da be
       -0.22841676 -0.0039857775 -0.7336272 -0.4259246
0000b0 12 96 76 bd 90 ed 65 3c a5 9c 0e be d1 ce 6b be
       -0.060201712 0.01403369 -0.13926943 -0.23028113
0000c0 b5 dc 8d 3f 40 91 72 be cd 6a fb be ce 37 b8 3e
       1.108298 -0.23688221 -0.4910492 0.35980076
0000d0 3e 98 2c 3f af 48 5a 3c f3 ea ef 3c 91 d8 a3 be
       0.67419803 0.013322993 0.029286837 -0.32001165
0000e0 a0 4b 36 be f1 9e 50 bf a6 aa 0c bf da 72 fe bc
       -0.17802286 -0.81492525 -0.5494789 -0.031060625
0000f0 cf 42 81 bf 11 55 da 3e fb 96 1c bd 28 9e 8a 3f
       -1.0098513 0.42643026 -0.038229924 1.0829515
000100 28 65 4c bf fe 76 69 bd bb 44 26 bd 6d 79 9a bf
       -0.7984185 -0.056998245 -0.04059289 -1.2068306
000110 3a 55 77 bf 6a 19 10 3c c4 f7 37 3f b0 f9 7f 3f
       -0.9661442 0.008795122 0.71862435 0.9999037
000120 9a 2b 83 3f d9 66 05 bf 86 11 fe 3d b6 bb 1b 3e
       1.0247681 -0.5211006 0.12405686 0.15208325
000130 78 5a 72 3f 1c 69 a7 be 55 19 5d be 50 78 32 bf
       0.94669294 -0.3269738 -0.21591695 -0.6971483
000140 bc 97 03 bf 00 d0 d9 3e dd 9a ad be 51 a1 60 bf
       -0.51403403 0.42541504 -0.33907214 -0.8774615
000150 47 71 8d bc e3 49 9d 3e 79 ce 82 bd 49 ef 1d bf
       -0.017265929 0.30720434 -0.06387038 -0.61693245
000160 a1 db a1 3e 69 ba 43 3f 1c c9 c6 3e 2f 29 b6 be
       0.31612876 0.76456314 0.3882531 -0.35578296
000170 d4 fa a0 be 24 6b d5 be 69 6e 29 3f b5 81 2b 3f
       -0.31441367 -0.41683304 0.661841 0.6699479
000180 f8 03 07 3f a0 dd 46 bf c3 5b c4 3e ca 98 89 bd
       0.5274043 -0.7768192 0.3835126 -0.06718595
000190 f5 32 1c 3f 1e 19 40 bf bc 49 6f bf 6f 91 04 be
       0.61015254 -0.75038326 -0.93471885 -0.12946104
0001a0 eb 5c 38 bf d3 a8 8f 3e 86 13 94 bf 54 8f 5f 3e
       -0.7201678 0.2805849 -1.1568458 0.21832019
0001b0 6b 03 81 3e 9b 78 f4 bd 2e 00 bd be 89 d5 88 bc
       0.2519792 -0.11937066 -0.369142 -0.016703384
0001c0 96 1b 21 3f 6b 82 0d bf fa e2 00 bf 22 26 63 bd
       0.6293272 -0.5527713 -0.5034634 -0.05545629
0001d0 19 fc 18 bf 7e fe 18 3f 41 35 13 3f e6 9c 9b 3e
       -0.5975967 0.59763324 0.57503134 0.30393142
0001e0 47 5e f4 be 93 82 2e 3d 4a 36 95 3d 3e 6d 56 3e
       -0.47728178 0.042604994 0.072857454 0.2094011
0001f0 47 43 37 be b7 81 0c 3f b0 3a 42 3e 4c 7e 0c bf
       -0.17896758 0.5488543 0.189677 -0.54880214
000200 9a 1d 23 3f 22 f3 a2 3e 00 5a 33 bf 1d a5 0b be
       0.63717043 0.3182612 -0.70059204 -0.13637204
000210 64 0c b5 3e bc d1 18 be 13 bd 7c 3d 72 e3 fd 3e
       0.35361016 -0.14923757 0.061703753 0.4958759
000220 92 f5 ec bd 5e fb a9 bf 3b bd 9c 3f 53 16 2b 3f
       -0.11570276 -1.3279836 1.2245249 0.6683094
000230 e5 e1 bf be f2 99 5f be c8 fb a9 be 88 ed 9d be
       -0.3747703 -0.21836069 -0.33199906 -0.30845284
000240 51 4c c5 be 53 6a 01 bf f9 5e 38 bd 4a 7b 36 bf
       -0.38534787 -0.5055286 -0.045012448 -0.71281874
000250 61 8e 2e bf 0e 1a 94 3e 9f 1d 53 3e f3 a0 91 3e
       -0.68186 0.28926128 0.20616768 0.28443107
000260 60 cc 28 3f c8 df 4f bc 3c d5 6e 3e 2f ba 14 3e
       0.6593685 -0.012687631 0.2332353 0.14524148
000270 a9 57 3d be d7 72 e6 3d a5 8c e0 3d 59 e9 d1 bd
       -0.18490471 0.11252373 0.10964326 -0.10249586
000280 94 93 5a 3f ee fb 2d bf 98 b1 77 be 7b 58 bd bf
       0.85381436 -0.6796254 -0.2418884 -1.4792627
000290 6b 83 28 3d 53 0f 95 be 80 27 83 3e 87 87 48 3c
       0.041140955 -0.29113254 0.25616074 0.0122393435
0002a0 b4 c7 31 3f a3 9a bd be 51 15 58 be e6 be 6b 3f
       0.6944535 -0.3703204 -0.21101882 0.9208816
0002b0 b4 90 dc 3c 14 70 c1 3e 72 33 80 3f ee ed a4 bd
       0.026924469 0.3778082 1.00157 -0.08053194
0002c0 2b 98 89 3b 15 20 11 bf 35 7b 65 3f 6b 86 95 bc
       0.004199048 -0.5668958 0.89641124 -0.018252572
0002d0 b6 b5 21 3f c9 94 18 bf 2f 69 85 3e ec 62 33 be
       0.63167894 -0.5960203 0.2605681 -0.17518204
0002e0 7a ae 0a bf 2b a2 d3 3e 98 13 5e be 37 39 e6 be
       -0.5417248 0.41334662 -0.21687162 -0.44965526
0002f0 c9 fd dc 3e a0 b1 63 3f bf 8b 3d bf dc 1b 81 bd
       0.43162373 0.8894291 -0.7404136 -0.06304142
000300 6d 01 a0 be 80 fc cd be f6 1f 5b bd 6d e6 64 3e
       -0.31251088 -0.40231705 -0.053497277 0.22353525
000310 76 ce 53 bf 7c 6d 91 bf ab 3c fc 3a 05 fd 26 bf
       -0.8273691 -1.1361537 0.0019244155 -0.6522983
000320 ae 1c 23 3e ce 76 a5 bd 67 30 e8 3e f6 68 4b 3f
       0.15928909 -0.08079301 0.45349428 0.7945703
000330 2f b9 1a bf 87 94 a8 be 9b fe 25 3f dd 70 aa 3e
       -0.6043882 -0.32925817 0.6484162 0.33289233
000340 10 92 29 be e9 de 87 be d1 4c 1e 3e e9 8b 58 be
       -0.16559625 -0.26537254 0.1545899 -0.21147121
000350 ed 40 88 3e 3c 86 40 3f 6f cd 02 3f 16 15 22 3f
       0.26612034 0.75204825 0.51094717 0.63313425
000360 42 03 d0 3e 86 c6 73 bf 41 7a d5 bc 5f 7b d8 3d
       0.40627486 -0.952248 -0.026059272 0.10570406
000370 65 83 4d 3f 28 94 b6 3d 5e 91 e4 be bc dd 77 3f
       0.8027862 0.08914977 -0.44642156 0.96822715
000380 11 d8 91 be ef f8 7d 3e b8 e9 84 be fb 8a 5c bf
       -0.28485158 0.24801992 -0.25959563 -0.8614957
000390 23 13 a5 3f 4f fd cb be bc cf 3a 3e 35 99 8c 3e
       1.2896465 -0.39841697 0.18243307 0.27460638
0003a0 b9 3c d2 be 42 e8 47 3e 27 b6 1b 3f 04 d0 e1 be
       -0.41061953 0.19522193 0.6082482 -0.44104016
0003b0 17 f5 f2 bd c1 a3 17 bf 46 fb 1e 3f 26 aa 42 3f
       -0.118631534 -0.59234244 0.6210216 0.76040876
0003c0 cb a9 45 be 22 86 05 3f 06 00 3c be d2 e0 0f bf
       -0.19303052 0.52157795 -0.18359384 -0.56202424
0003d0 06 d0 f2 be ea 36 36 3e 40 f3 0c bf c5 fd bb be
       -0.47424334 0.17794386 -0.5505867 -0.36717048
0003e0 6a e4 61 3e a1 3d 5a 3f 44 91 53 3f cc 02 8d be
       0.2205979 0.8525029 0.8264353 -0.27541196
0003f0 2a 72 0f bd a1 cf c1 bc f5 d3 0e 3f ce 0d 76 3f
       -0.035020985 -0.023658575 0.5579217 0.96114814

feature.weight_hh_l0_reverse f4 [512, 128]
000000 71 50 04 3f 87 d2 fe be ef 40 55 3f 48 a8 55 3e
       0.51685244 -0.49769995 0.83302206 0.20864975
000010 6e 23 94 be 97 1d 04 bf 49 81 65 3f d3 c1 46 3f
       -0.2893328 -0.5160765 0.896504 0.776395
000020 e6 17 58 3f 68 a1 3c bd db ed a0 3e 7a b5 ac 3e
       0.84411466 -0.046052366 0.3143147 0.33732206
000030 73 0e 91 3d 08 0c a4 bd 99 b2 22 3f 5e 24 04 bf
       0.07082834 -0.08010107 0.6355377 -0.5161799
000040 cb 20 86 3e 4d 4d 02 3f 02 46 c3 3d ef 87 84 bc
       0.26196894 0.508992 0.09534837 -0.0161781
000050 56 9f 29 bd 0d 6d 92 3f a8 c2 ac 3e 20 bc 1a bf
       -0.04141172 1.143953 0.3374226 -0.60443306
000060 8a 18 fd 3e 46 8e 29 bf a0 b6 93 bd 19 8b 87 bf
       0.49432784 -0.6623272 -0.07212567 -1.0589324
000070 e8 95 3b 3f be d0 da 3e fd c5 95 be 6d 46 c7 3d
       0.73275614 0.42737383 -0.29252616 0.097302295
000080 90 42 98 3d 55 62 dd 3e 5c b6 50 3f 8a 60 d7 3e
       0.07434571 0.43239084 0.8152826 0.4206584
000090 e0 7b 88 bf 8a 03 73 3f 55 0d 2e bf fb 1b 7c 3e
       -1.0662804 0.94927275 -0.67989093 0.24620049
0000a0 93 e3 bd 3e 4e 0f 37 bf d1 e3 b0 bf 8d 04 17 bf
       0.37087688 -0.7150773 -1.3819524 -0.5899132
0000b0 12 c0 9c be 18 61 90 bf b3 16 56 bf 7f 44 21 3f
       -0.30615288 -1.1279631 -0.83628386 0.6299514
0000c0 87 a9 c4 bd fc c0 45 3e a3 62 c4 3e fd c9 70 bd
       -0.09602647 0.19311899 0.38356504 -0.05878638
0000d0 c1 c1 aa bd c4 fd a3 bd ff b3 ac 3d 67 ba 44 3f
       -0.08337737 -0.08007386 0.08432769 0.7684693
0000e0 57 6c 06 3e bb 9a b0 be 26 86 f6 be e0 00 2f bf
       0.13127266 -0.3449305 -0.48149222 -0.6836071
0000f0 af db 21 3f 7f 90 b4 bd ab 27 30 bf 40 59 13 bd
       0.63225836 -0.08816623 -0.6881053 -0.035973787
000100 49 56 b0 3e 16 6f 53 bd bb e3 c4 be 06 88 cc be
       0.3444083 -0.05161961 -0.38454995 -0.39947528
000110 81 74 d1 3d 3a 13 62 3d 27 fc 42 3f 06 af f3 3e
       0.102272995 0.055194117 0.76166004 0.4759447
000120 73 55 01 3f 12 06 07 3f d0 e5 a6 be 75 ef 3c be
       0.5052101 0.5274364 -0.32597208 -0.1845072
000130 9e c1 3d 3f 20 2d 14 bf 27 ce da bd 8d 11 f4 bd
       0.7412356 -0.57881355 -0.10683852 -0.1191741
000140 b4 e6 1f bf 51 ff 56 be 43 d6 44 bf 3f 09 1c 3d
       -0.624614 -0.20995833 -0.7688944 0.038094755
000150 96 e1 ce bc 8b 61 c4 be 7e 35 0b 3e b8 db 48 bf
       -0.025254052 -0.3835567 0.13594624 -0.78460264
000160 48 43 48 3d cc 88 35 3e 96 14 d5 bd f9 00 a9 be
       0.04889229 0.17727965 -0.10404317 -0.33008555
000170 6c 06 01 be cd 36 d6 3e 39 3e 9e be ae 6c e8 be
       -0.12600106 0.41838685 -0.30906847 -0.45395416
000180 e3 be 2f be 7c 56 4a bf 8e 3b 28 3f a4 93 4f be
       -0.17162661 -0.79038215 0.65715873 -0.20271164
000190 ec 3e 16 3e 61 d7 07 bf 75 5c e3 3d 2d 13 9e 3e
       0.1467244 -0.5306302 0.11101619 0.30874005
0001a0 b6 d9 a0 bd 74 89 5a 3d e0 f7 62 bc e0 95 c0 3e
       -0.07854025 0.05335374 -0.013853043 0.37614346
0001b0 12 0d 4b 3b 79 c7 d4 be 2f 1c f1 3d 1a f4 05 bf
       0.0030983132 -0.41558436 0.11772954 -0.52325594
0001c0 52 37 44 be ff 5e d0 be 17 3d 71 bd 5c cf 16 bf
       -0.19161728 -0.40697476 -0.05889615 -0.58910155
0001d0 27 13 71 3f cb a4 00 3d 1d a5 17 3d 54 e1 4a 3f
       0.9416985 0.03140716 0.0370227 0.79250073
0001e0 64 b1 21 3f bf 60 e0 3d 63 8a 8d 3e 6a fa 57 be
       0.631613 0.10955953 0.27644643 -0.21091619
0001f0 d1 46 05 3f e9 3f b1 bf b5 59 f1 3e 3e c7 96 be
       0.5206118 -1.3847629 0.47138754 -0.29448885
000200 9e 7b 14 3f 50 ee 4f bd a2 29 c9 bc 4d a1 aa be
       0.58001125 -0.050764382 -0.024555985 -0.33326188
000210 eb cb 75 bc 1a da 95 3e 75 e8 b7 3e 9a 5c 49 be
       -0.015002231 0.2926796 0.35919538 -0.19664231
000220 04 af 34 be 8a 8c 55 be e1 aa c0 3e 6d f1 68 3f
       -0.17644888 -0.20854393 0.3763037 0.90993387
000230 7e 40 41 bc 58 1e 58 3e ec bb 80 3e f3 98 1d bf
       -0.011795161 0.21105325 0.25143373 -0.61561507
000240 a6 28 af bd a8 18 0e bf 3f 23 9a be b5 bc 6c 3e
       -0.08552675 -0.5550637 -0.30105016 0.23118861
000250 ac 3e 47 bf 7a a3 c7 bd 44 eb 3d bf 60 ad e2 3e
       -0.77830005 -0.097479776 -0.7418711 0.442729
000260 b7 9b 56 bf e1 d5 cd 3e 8d f1 2a 3f c1 19 15 3f
       -0.8383135 0.4020224 0.6677483 0.5824242
000270 a2 30 36 bf f7 f8 8f 3c 83 38 1d bf 1c 32 bd be
       -0.7116796 0.01757477 -0.61414355 -0.36952293
000280 3d e2 c6 bd 7b ae 30 3f c0 a9 7f 3e eb cb 89 be
       -0.0971112 0.69016236 0.24967098 -0.2691339
000290 63 74 df 3d 2f 40 20 bf eb f2 92 be 77 dd 77 3f
       0.10910871 -0.62597936 -0.28700957 0.96822304
0002a0 b3 d6 76 be bf 29 e0 3d 7e 71 ce be 18 e1 89 3d
       -0.24105339 0.109454624 -0.40320963 0.06732386
0002b0 51 bb 76 3e 9e 37 b9 3b 9f e1 00 3f 34 ad eb bc
       0.24094893 0.005652382 0.5034427 -0.028769113
0002c0 ac 77 3e 3e 83 d9 fe 3d 99 cc f3 3c 26 21 af be
       0.18600339 0.12443831 0.029760646 -0.34204978
0002d0 98 b2 69 bd d3 e2 27 3e 2d 6a 29 3f 64 51 4c bd
       -0.057055086 0.1639512 0.66177636 -0.049882308
0002e0 9e cb 18 3f 4b f7 ee 3e b6 cd 00 3e 72 3b 17 bf
       0.59685695 0.46673045 0.12578472 -0.5907508
0002f0 67 2f 1e be a9 c2 84 bf 4b 87 17 3e 2e 32 33 be
       -0.1544777 -1.0371906 0.14797704 -0.17499611
000300 5b 4e 17 bf 58 ed 48 bf 8f 71 21 bf 7d cf 18 3f
       -0.59103936 -0.7848716 -0.630639 0.596916
000310 ea 58 95 3e e1 66 24 be 9f c7 7a 3e 95 b2 03 be
       0.291694 -0.1605487 0.24490212 -0.12861092
000320 62 fb 60 3e 8c f8 33 3e bf d2 83 bf 41 61 04 3e
       0.21970895 0.17575282 -1.029869 0.12927724
000330 79 36 d0 3f 32 66 15 3f b7 ed 00 3f 57 cc a1 3f
       1.6266624 0.5835906 0.50362724 1.2640485
000340 c4 26 ee bc e0 7a e7 be e5 08 ff bd 0e 25 46 3f
       -0.02907122 -0.45210934 -0.12452868 0.7740029
000350 68 94 a1 bf a2 06 0f 3d f5 ef 6f bf f4 da 17 3c
       -1.2623415 0.034918435 -0.9372552 0.009268511
000360 9c 81 94 3e ab ef 06 bf b1 b0 aa 3f 80 fd 83 be
       0.29005134 -0.52709454 1.3335172 -0.25779343
000370 f7 6e fc bc f0 1c b5 be c1 d1 88 be ec 5b 77 3d
       -0.03081463 -0.3537364 -0.2672253 0.060390398
000380 3e 9c 17 be 3e 49 21 be fb e6 25 bf 38 27 8f 3e
       -0.14805695 -0.15750596 -0.64805573 0.2795961
000390 dc de 4b 3f 2e 7a 50 be 8b da 3f bd e4 90 c6 3d
       0.7963693 -0.20359108 -0.04683928 0.096956044
0003a0 bc fe fc 3b 70 e6 85 bf d6 99 a7 be aa e4 86 3e
       0.0077207964 -1.0460949 -0.32734555 0.26346332
0003b0 4b 71 86 bd ba fe 2c 3e b3 be da bd 52 66 14 3f
       -0.06564578 0.16894045 -0.10680904 0.5796863
0003c0 fe 17 34 bf f7 b8 62 bf a3 c6 7c bd 2b 5e c1 3d
       -0.7034911 -0.88563484 -0.061712872 0.09441789
0003d0 db fb 9f 3c 2f af 38 bf a5 61 8d 3e 69 80 10 bf
       0.019529274 -0.7214231 0.2761356 -0.5644594
0003e0 44 7b 57 be 23 9f ec be c5 b1 60 bf f4 c6 b7 bc
       -0.21043116 -0.46215162 -0.87771255 -0.022433735
0003f0 ac 35 3f bf 36 ab 3d be e9 6b 08 bf 08 91 fa 3e
       -0.7469127 -0.18522343 -0.5328966 0.48938775

feature.bias_ih_l0_reverse f4 [512]
000000 c7 12 3a 3e f4 a6 b4 bb 7a 5c 9c 3d 2a 9a e5 bc
       0.18171225 -0.0055130664 0.07634826 -0.028027613
000010 4f 91 13 bc f2 e0 28 bd 79 a6 23 3e f1 f3 73 be
       -0.009006812 -0.04123015 0.15981473 -0.23823525
000020 4b 13 be be fa 92 8f 3e db c8 90 3e 0d 99 15 3f
       -0.37124094 0.28041822 0.2827824 0.5843666
000030 7a 0a fb 3e dd b1 82 3e eb ed e7 3d ed ae ab bd
       0.4903143 0.25526324 0.11324676 -0.08382974
000040 30 ef 85 3d 43 5d fa 3e 60 d1 59 be ac 7a 1f 3e
       0.06539762 0.48899278 -0.21271276 0.1557414
000050 6a 48 7d 3e f7 ee 2c 3e 59 bf 10 3e a3 68 70 bd
       0.24734655 0.16888033 0.14135493 -0.05869354
000060 fc 78 88 be b0 4e 65 3d 26 2c b8 3e 8d 08 5d bd
       -0.26654804 0.055983245 0.35971183 -0.053963233
000070 ad c7 e3 3d 4e c0 61 3d 0e 9a 43 3c 03 48 a0 3d
       0.111220695 0.055115037 0.011938585 0.07826235
000080 8d b4 28 be 4b 9e f3 3c d8 75 2e 3f 33 4e 44 3c
       -0.16475125 0.029738566 0.68148565 0.011981535
000090 ea 63 65 3e 4c 37 73 3e 1a c8 6e 3e a6 a8 e1 bc
       0.22401395 0.23751563 0.2331852 -0.027546238
0000a0 b6 77 5d 3e cd 76 51 bb 26 5a 90 be f0 87 ea 3d
       0.21627697 -0.003196168 -0.28193778 0.11451709
0000b0 69 15 4f 3e 49 18 39 3e a8 24 40 3f 8f 0e 83 3e
       0.20223011 0.1807567 0.75055933 0.25597045
0000c0 4e bc 50 be da 11 5c be 94 59 29 3f 05 e6 63 3f
       -0.20384333 -0.21491185 0.6615231 0.89022857
0000d0 03 11 ee be d3 5f 33 be 10 65 6a bd 0b 2e 8a 3e
       -0.46497354 -0.17517023 -0.057225287 0.26988253
0000e0 8a ef ca 3e 2e 5c c0 3d 67 1b 07 3e 2d 14 5b 3e
       0.3963588 0.09392582 0.13194047 0.21394415
0000f0 cb 5a 14 3e 20 f9 8e be 5f 9d e8 bd 3e f4 3a 3e
       0.1448776 -0.27924442 -0.11358141 0.18257234
000100 b2 98 66 3e cd d7 e4 3e 4b 6d 02 be cd a6 4d be
       0.22519186 0.44695893 -0.12737004 -0.2008316
000110 a5 bb 4c be 95 b1 ef be 17 5c 99 3e b2 8b bf 3c
       -0.19993456 -0.46815172 0.2995307 0.023382042
000120 3a ee 0e 3f 2e b4 12 be b5 39 6a be d2 61 0c 3e
       0.55832255 -0.14326546 -0.22873576 0.1370919
000130 5d 45 38 be 9f 7e f1 3d 15 dd 48 bd 8b 4b f9 bd
       -0.1799521 0.11791729 -0.049038965 -0.12172612
000140 62 b4 0b 3e 8e 45 c1 3c 01 96 d6 3d 3a c8 b0 3e
       0.1364303 0.023592737 0.1047783 0.3452776
000150 4d 1c 0c 3f 17 96 3f 3f 40 69 2d bc d5 c7 60 3e
       0.54730684 0.74838394 -0.010584176 0.2195123
000160 2f ed 98 3e 80 6d 47 be 63 0b 74 be 79 7d ed 3e
       0.29868457 -0.19475365 -0.23832469 0.4638479
000170 7a cf 0c 3e 43 9b 40 3e 17 35 66 be 9c ea 48 3e
       0.13751021 0.18809228 -0.2248119 0.19620746
000180 21 c9 2c bd b1 1e 1a 37 c8 bb 49 3e 8c 2a 87 3d
       -0.042184 9.186261e-06 0.19700539 0.06599912
000190 24 5c 7b bd df b7 44 3e 54 4a dc 3e 6f d2 44 3e
       -0.06136717 0.19210766 0.43025458 0.19220899
0001a0 e0 13 09 3f 89 2f 32 3f 9e 1c f3 3e 56 e5 33 bd
       0.5354595 0.6960378 0.4748277 -0.043919884
0001b0 9c e0 2d 3e 9f 94 c7 3c 20 df a8 3e 27 9f 59 3e
       0.16980213 0.02436286 0.3298273 0.21252118
0001c0 c7 bd f6 3e 80 6f 4c 3e 45 a1 32 3d 50 ab 3e 3e
       0.48191664 0.19964409 0.04361083 0.18620038
0001d0 7f ac 81 bc a7 61 ac 3d 9b ad 13 3f 5e e8 6b be
       -0.015829323 0.08417063 0.57686776 -0.2303786
0001e0 88 c2 0a 3f f6 b7 0b be fa 1f cf bc bd a0 c0 3e
       0.5420308 -0.13644394 -0.025283802 0.37622634
0001f0 58 1a 4a be 87 09 16 3f f1 48 64 3e db 03 18 3c
       -0.19736612 0.5860829 0.2229345 0.009278263
000200 51 f1 04 3d 01 37 1f 3e 3d ff ab 3e 62 c0 82 bd
       0.0324567 0.15548326 0.3359317 -0.0638435
000210 d6 a3 d2 bc 12 f5 9e 3d 50 15 31 bc 1b 5d ab be
       -0.025712889 0.07761587 -0.010808304 -0.3346947
000220 0e d4 21 bf 5e 3f a4 3e d0 31 a9 bd 91 f3 34 3d
       -0.63214195 0.32079595 -0.08261454 0.044177596
000230 3a 9b 09 3e ea 00 79 3d d7 7f 9f 3d 6d e8 22 3e
       0.1343812 0.060791887 0.077880554 0.15908976
000240 4d 20 0d be 37 83 97 3e 15 05 2a 3f 57 e9 26 be
       -0.13781853 0.29592296 0.66414005 -0.1629995
000250 a7 d4 22 3e f0 ca 47 be 40 0e 48 be 3c ae 9e 3e
       0.15901433 -0.19511008 -0.19536686 0.30992305
000260 5c b5 82 3e 81 ee 2b 3e e5 31 f1 3e ca 46 57 3e
       0.2552899 0.16790201 0.4710838 0.21023098
000270 e0 96 4c be 92 35 b3 3e 91 0b 36 3c 3a 31 29 3e
       -0.19979429 0.35001808 0.011111156 0.16522685
000280 47 f3 f2 3d b4 ce 53 bd c3 d6 10 3f 3d ed 8b bc
       0.11862808 -0.0517108 0.565777 -0.017080897
000290 ec 0d 7a bd 4f d2 d4 be 27 1c 9f 3e 13 4f 0b 3d
       -0.061048433 -0.41566703 0.31076166 0.034010958
0002a0 cd a1 3c 3f 2e bf 14 bd 12 12 91 3e cf 86 86 be
       0.7368439 -0.036315136 0.283341 -0.26274726
0002b0 93 d8 4d 3f 61 a2 84 3e 7f 89 c0 be 73 65 c9 bd
       0.8040859 0.25905135 -0.376049 -0.09833803
0002c0 a3 f7 a9 be f0 c4 75 3e 76 d4 05 be f5 7f da 3e
       -0.33196744 0.24000907 -0.13069329 0.42675748
0002d0 99 ec 2e 3f ec ac 28 3e 93 6f f3 bc ed 42 99 3e
       0.6832977 0.16472214 -0.029716289 0.29933873
0002e0 fa 58 7e be 92 77 d6 be 10 98 cd be 9e ce 61 be
       -0.2483863 -0.418881 -0.40155077 -0.22051474
0002f0 aa 68 8b bd 88 e0 85 be 8d 5a dc bd 61 fb 01 be
       -0.068070725 -0.26147866 -0.10759459 -0.1269355
000300 19 72 38 be 41 5b 16 be e0 87 be 3c e2 41 6e be
       -0.18012275 -0.14683248 0.02325815 -0.2326732
000310 66 53 eb 3e 05 5b 10 3e 13 d6 66 be 90 4c b3 3d
       0.45962065 0.14097221 -0.225426 0.087548375
000320 5d 15 43 3f 69 49 b3 3c 7e 6e 1e bf 95 b5 ae be
       0.7620447 0.02188559 -0.6188735 -0.3412291
000330 64 c3 48 3e b7 4e 9c 3c b4 5e 2e be 80 4c 1f 3f
       0.19605786 0.019080503 -0.17028314 0.62226105
000340 70 ac 40 be b5 6f 1c be a6 13 05 3e 0a 35 90 bd
       -0.1881578 -0.15276988 0.12995777 -0.070413664
000350 60 e6 88 be 5f 95 cf bc 09 60 57 3d a1 aa 10 3d
       -0.26738262 -0.02533978 0.05258182 0.035318974
000360 88 6f b6 3e 2b 5d 0b be 6d 9b ea bd 0b dc 77 be
       0.35631967 -0.1360976 -0.11455426 -0.24205033
000370 3b f0 d4 3d e3 ee 6b 3c 69 65 7d 3e 60 15 00 3f
       0.10397383 0.014400217 0.24745716 0.50032616
000380 1b 7b e6 3d 14 18 1c be e1 8d 6b 3e a3 87 2b be
       0.11253949 -0.1524356 0.23003341 -0.1675096
000390 13 5a 9e be 98 bc 94 be a1 4c 55 be 16 ff 2f 3e
       -0.30928096 -0.29050136 -0.20830013 0.17187151
0003a0 36 02 23 be 6d 81 d7 bd 0c 30 e0 3e d5 a7 95 bd
       -0.15918812 -0.10522733 0.43786657 -0.07307402
0003b0 5b 06 9d bd 51 76 3e 3f b5 60 3d 3c b3 b0 10 bc
       -0.07667228 0.74399287 0.011558701 -0.008831191
0003c0 d3 4c 37 3f 43 64 64 3f f5 c6 27 be 22 7e c5 bc
       0.716016 0.8921549 -0.1638449 -0.024107996
0003d0 2e f4 f4 bd ea ed 06 3f fe 35 52 be 95 39 5d 3d
       -0.11960636 0.5270678 -0.20528409 0.054009993
0003e0 57 f7 29 bf 67 7f 2f 3d 97 91 05 3f 8b b5 9b bd
       -0.66393036 0.04284611 0.5217528 -0.07602986
0003f0 56 06 0c 3e 9c e7 cd 3d 30 18 9d 3d 1d a3 b4 bd
       0.13674292 0.100539416 0.07670629 -0.08820174
