pretrained_models/comick-10-context-size.pth (torch, 821283 bytes, 10 tensors)

feature.weight_ih_l0 f4 [512, 64]
0.19823122 0.32785663 0.11294859 0.12956473 1.0937096 0.32812348 0.3928321 0.587353
1.0735954 -0.0703877 0.8928835 -0.15396991 0.8171488 0.44440034 0.08524182 -0.33427498
-0.8786731 -0.6639409 0.13893807 -0.32176465 -1.4627904 -0.5640128 0.09140608 -0.08326414
0.1479709 -0.048197277 -0.09768557 -0.09900484 0.07235527 0.38655084 0.1356345 1.5266502
-0.6617051 0.72208947 -0.51799047 0.29653475 -0.80159825 -0.37994555 -0.32038948 -0.79493874
0.17153044 0.5920351 -0.44251046 -0.2760175 1.3591588 -0.19796927 -0.5503672 -0.021731867
0.16251136 0.14277948 -0.60608286 0.76377916 -0.85330874 -0.79978406 -0.5354345 -0.6441837
-0.50800526 -0.0040465 -0.48213035 -0.44820058 -0.51196617 0.95229536 -0.82037205 0.63983464
-0.015063625 0.99565905 1.0073246 1.0976559 -0.3058795 0.6332383 -0.20804255 0.10474458
0.86620206 0.95490956 -0.5116992 -0.8676821 -0.7486212 -0.80053437 1.0317237 -0.44634122
-0.0923907 -0.033387538 0.58424133 -0.32856184 -0.3187161 -1.2780378 0.04277403 0.16268349
-0.21952106 0.3922081 0.66463053 -0.6541227 0.058386415 -0.40914905 0.23037691 0.49988234
-0.08192522 0.89725506 -0.17039405 -0.6108876 0.32763693 -0.63486713 0.17590958 -0.3768027
0.6153455 -0.30398336 0.08305738 -0.20119707 -1.0100938 0.346816 0.8707141 0.6164999
-0.34081703 0.26702723 0.24882482 -0.23453933 -0.28555274 -0.45223168 -0.39631188 -0.9596082
-0.4333214 0.806602 0.0120942155 -0.6930987 -0.15354775 0.1176282 0.79013056 -0.7797701
-0.59736097 -0.11033259 0.3412119 0.119615816 0.8196381 -0.24144845 -0.36400154 0.5566229
-0.59437925 0.3619588 -0.6178874 -0.6946809 -0.584903 -1.3916978 0.06190108 -0.21709833
0.3800816 0.44256645 -0.01955433 -0.73251915 0.0141419545 -0.83478576 -0.45433295 -0.59513175
-0.047095086 0.009388939 -2.1003244 -0.40929747 1.0807302 0.11433888 -0.5735679 -0.29737142
-0.88074404 0.6978125 0.25313756 0.44698393 1.0587999 -1.1681361 -1.2770296 -0.6987023
0.53594846 0.15215321 -0.18490691 0.24987245 -0.49801713 0.18389353 0.991041 -0.21214367
-0.65550923 -0.88394177 0.4224009 -1.2841277 0.28431445 -0.37104928 -0.017134508 -0.45051354
-0.34478 0.50358564 -0.3488751 -0.6659421 0.3914088 0.32127413 -0.28674516 -1.2633082
-0.052033365 0.06754491 -0.73230183 -1.3924645 0.25740358 -0.1627403 -0.24507895 -0.80961335
-0.5186514 -0.25678203 0.07642152 -0.21381499 0.049376484 1.1759399 -0.4053592 -0.4596297
0.032178074 -0.50211006 -0.58818674 0.25094667 -0.24020198 -0.4491945 -0.31030858 -0.91398877
0.35322416 -0.7636753 0.018416414 -0.6283212 0.6605043 0.99810845 -0.28487933 0.29012054
0.095133364 0.12558961 1.1103767 -0.17463331 -0.17946334 -0.13644281 -1.0085804 -0.42801672
0.4437917 0.1957453 -0.46888843 0.67053777 0.914916 0.39127246 -0.5126407 0.48673877
-0.1606952 -0.17425813 -0.83721495 0.3152272 0.67726207 0.21561807 0.041503996 0.4764144
-0.5017633 0.08337423 -0.5527145 -0.10925953 -0.44756892 -0.80884373 -0.19186379 -0.410467
00000000: 20fd 4a3e d3dc a73e 9751 e73d 9eac 043e
00000010: adfe 8b3f cdff a73e 4a21 c93e c45c 163f
00000020: 936b 893f 6d27 90bd 0394 643f 4aaa 1dbe
00000030: aa30 513f 7188 e33e 4393 ae3d 1726 abbe
00000040: b8f0 60bf 08f8 29bf c845 0e3e 56be a4be
00000050: b73c bbbf 2563 10bf 1c33 bb3d 6486 aabd
00000060: af85 173e 826a 45bd 5f0f c8bd 0dc3 cabd
00000070: 002f 943d fee9 c53e c5e3 0a3e 4669 c33f
00000080: 8165 29bf dbda 383f 069b 04bf 67d3 973e
00000090: 8b35 4dbf 3988 c2be 170a a4be 1b81 4bbf
000000a0: ada5 2f3e 9d8f 173f bb90 e2be 2a52 8dbe
000000b0: eaf8 ad3f 75b8 4abe dde4 0cbf 0707 b2bc
000000c0: 6169 263e c934 123e 3f28 1bbf 0887 433f
000000d0: 7172 5abf a6be 4cbf 3c12 09bf 39e9 24bf
000000e0: a20c 02bf 8198 84bb cad9 f6be 8c7a e5be
000000f0: 3710 03bf a1c9 733f e703 52bf 34cc 233f
00000100: 6ccd 76bc 83e3 7e3f 03f0 803f fd7f 8c3f
00000110: 3d9c 9cbe e81b 223f 1b09 55be 5484 d63d
00000120: 6bbf 5d3f f474 743f b8fe 02bf 6a20 5ebf
00000130: a4a5 3fbf d2ef 4cbf 860f 843f d686 e4be
00000140: 5637 bdbd 5fc1 08bd d790 153f 4239 a8be
00000150: c22e a3be be96 a3bf d233 2f3d 8096 263e
00000160: 21ca 60be 80cf c83e 3a25 2a3f 9674 27bf
00000170: 9826 6f3d fc7b d1be ede7 6b3e 94f0 ff3e
00000180: 69c8 a7bd 82b2 653f c77b 2ebe 2163 1cbf
00000190: 07c0 a73e a786 22bf a421 343e 49ec c0be
000001a0: 4887 1d3f b5a3 9bbe fd19 aa3d 9b06 4ebe
000001b0: c14a 81bf de91 b13e 1fe7 5e3f f0d2 1d3f
000001c0: 927f aebe cbb7 883e efcb 7e3e 142b 70be
000001d0: f833 92be e98a e7be 64e9 cabe e2a8 75bf
000001e0: 4ddc ddbe 787d 4e3f d126 463c eb6e 31bf
000001f0: 9f3b 1dbe 0ee7 f03d ff45 4a3f 039f 47bf
00000200: a6ec 18bf 0ef6 e1bd 53b3 ae3e 23f9 f43d
00000210: cdd3 513f 433e 77be 695e babe d77e 0e3f
00000220: 3d29 18bf aa52 b93e de2d 1ebf 9cd6 31bf
00000230: 34bc 15bf 2723 b2bf fd8b 7d3d 064f 5ebe
00000240: 0e9a c23e 1298 e23e 6730 a0bc 6086 3bbf
00000250: a8b3 673c 85b4 55bf 549e e8be 8e5a 18bf
00000260: c7e6 40bd 10d4 193c b76b 06c0 708f d1be
00000270: 5e55 8a3f 812a ea3d 59d5 12bf 1141 98be
00000280: 7178 61bf d7a3 323f 3f9b 813e 14db e43e
00000290: c186 873f 7c85 95bf b575 a3bf 27de 32bf
000002a0: eb33 093f 0dce 1b3e 3d58 3dbe 90de 7f3e
000002b0: 1afc febe 964e 3c3e ddb4 7d3f 313c 59be
000002c0: 74cf 27bf 024a 62bf ee44 d83e 4c5e a4bf
000002d0: aa91 913e 2cfa bdbe ab5d 8cbc b6a9 e6be
000002e0: 0187 b0be fdea 003f c29f b2be 2e7b 2abf
000002f0: bc66 c83e 0b7e a43e 43d0 92be 15b4 a1bf
00000300: f020 55bd fc54 8a3d 2278 3bbf 473c b2bf
00000310: 67ca 833e 65a5 26be faf5 7abe d242 4fbf
00000320: 57c6 04bf ef78 83be e382 9c3d 51f2 5abe
00000330: ff3e 4a3d 3385 963f 3e8b cfbe 9654 ebbe
00000340: 28cd 033d 498a 00bf 6893 16bf 157c 803e
00000350: 82f7 75be d2fc e5be c4e0 9ebe 2bfb 69bf
00000360: ccd9 b43e 3980 43bf 05de 963c a8d9 20bf
00000370: cf16 293f 0984 7f3f b4db 91be ae8a 943e
00000380: 48d5 c23d 909a 003e d320 8e3f 13d3 32be
00000390: 3dc5 37be aab7 0bbe 2a19 81bf 0225 dbbe
000003a0: aa38 e33e 7571 483e 2512 f0be 5da8 2b3f
000003b0: ef37 6a3f dd54 c83e 6c3c 03bf d335 f93e
000003c0: 488d 24be b970 32be b853 56bf 7665 a13e
000003d0: 0c61 2d3f fcca 5c3e 1800 2a3d 97ec f33e
000003e0: 8f73 00bf 1cc0 aa3d b37e 0dbf 76c3 dfbd
000003f0: c127 e5be 6210 4fbf f177 44be bb28 d2be

feature.weight_hh_l0 f4 [512, 128]
-0.7013885 0.16728848 0.14017662 0.00020014563 -0.574279 0.19729029 -0.4274688 -0.17835194
-0.08501713 -1.366669 -0.15226732 0.22152366 0.110018544 0.17028078 0.45108956 0.39713335
-0.55962294 0.6491601 0.0036594735 -0.6043658 -0.13007313 -0.11289245 -0.3575662 -0.6117941
0.16259104 -0.18036115 0.32120934 0.8968866 -0.79793656 -0.8117269 0.25391057 -0.44217694
-0.45087826 -0.37714988 -0.3244706 0.39187634 -0.28901306 0.100574024 -0.39181966 -0.11398324
-0.06805288 0.6106692 -0.42977905 0.9474334 -0.16504212 0.027871171 0.2212544 -0.36334133
0.9803253 0.6779937 0.1178115 -0.98917586 1.0207398 0.64540404 0.041976243 -0.1921099
0.91048527 -0.2317166 0.29200217 -0.0056320475 0.3300222 -0.59791845 0.045831446 0.0063192695
0.04806824 0.5270588 -0.19152595 -0.17582612 0.88237965 0.4355693 -0.41372788 -0.03368701
0.52620834 -0.09105482 0.18994094 -0.21416144 -0.38133395 -0.3673405 0.8386466 0.107270665
-0.5124112 -0.44677317 -0.06267448 0.023533268 -0.40570736 0.13295892 -0.11844607 -0.20493421
0.3068526 0.13787797 -0.25633267 0.40892634 -0.47983134 -0.18991609 -0.016754186 -0.2595556
0.10746461 0.65785766 -0.6869776 0.17299798 -0.08790991 0.4544483 -0.22542453 -0.046557926
0.5408433 -0.6071685 -1.0557495 -0.21949922 0.2787746 -0.5177378 0.03775293 -0.0028091914
0.16047715 -0.4866619 0.50501025 0.19998385 -0.3697251 -0.15280595 0.23299037 -0.44670054
0.8131243 0.26348144 0.3909707 -0.5714194 0.29367515 0.994006 0.4643666 -0.111356854
0.33224633 -0.1506166 -0.4504179 -0.3272626 -0.749112 0.06729559 -0.10902439 -0.52624524
0.6026119 -1.0705066 0.270049 0.368337 1.2042608 -0.288383 0.16200589 0.39262763
0.6137799 0.53324956 0.82305425 -0.312112 0.018596368 0.8111595 0.52141273 -0.20183776
-0.9344876 0.4997669 0.67626244 -0.33075467 0.37245756 0.63960713 -0.22447981 0.436558
-0.13139696 -0.22347704 0.13054499 -0.62454474 1.449824 -0.7551215 0.97526157 0.015025732
0.50093263 0.52284735 0.37399936 -0.042917304 -0.60630417 0.24968833 -0.5424996 -0.32708085
0.33405903 0.5699413 0.0701832 0.12279194 -0.6784813 -0.5359529 -0.033755857 0.86551505
0.76075864 0.15786485 -0.48531565 -0.11397026 0.44964516 0.29568642 0.68498427 -0.7798274
-0.06924047 0.27675968 -0.6835707 0.6716747 0.4666302 -0.1896443 -0.7557977 -0.32215482
-0.19654574 -0.7214127 -0.7430747 0.49667448 0.051910594 0.33086622 -0.29111236 0.4799196
0.079623505 -0.5779194 0.7235098 0.6059391 -1.6904299 0.011165235 -0.14083444 0.6565519
-0.23281024 -0.37739316 0.3543577 -0.37230125 -0.00017202755 -0.17048588 -1.0153104 1.076728
-0.7788092 0.37423074 0.23669864 -0.7103104 -0.44453982 0.043147773 0.08601664 0.2522487
-1.2031597 -0.052072674 1.2148321 0.26863983 -0.1674692 -0.5625809 -0.15530598 0.41165724
0.10235145 0.26969466 0.029606177 0.34536254 -0.52082896 0.2731183 0.0084516695 -0.28414786
-0.842169 -0.77191454 -1.0873545 0.6824005 -0.15062901 -0.0022675015 -0.4084643 -0.49898133
00000000: 328e 33bf ac4d 2b3e 768a 0f3e 2fde 5139
00000010: f303 13bf 7706 4a3e 31dd dabe e4a1 36be
00000020: 761d aebd 03ef aebf f7eb 1bbe 19d7 623e
00000030: 6751 e13d 165e 2e3e 36f5 e63e 1055 cb3e
00000040: 7343 0fbf 5b2f 263f c7d3 6f3b b8b7 1abf
00000050: e431 05be 2834 e7bd eb12 b7be 8a9e 1cbf
00000060: 447e 263e 98b0 38be 8d75 a43e 5c9a 653f
00000070: 9245 4cbf 56cd 4fbf 9100 823e 0465 e2be
00000080: 84d9 e6be ca19 c1be 0321 a6be 04a4 c83e
00000090: 85f9 93be c1f9 cd3d 969c c8be 0c70 e9bd
000000a0: 4f5f 8bbd d154 1c3f 000c dcbe ff8a 723f
000000b0: cd00 29be 1552 e43c 8390 623e e007 babe
000000c0: 99f6 7a3f ff90 2d3f 2847 f13d a13a 7dbf
000000d0: 9aa7 823f 3339 253f 48ef 2b3d 75b8 44be
000000e0: 9015 693f 1e47 6dbe 4f81 953e 0a8d b8bb
000000f0: abf8 a83e 2f11 19bf c1b9 3b3d e011 cf3b
00000100: 34e3 443d 53ed 063f 611f 44be c30b 34be
00000110: a2e3 613f f002 df3e 24d4 d3be 64fb 09bd
00000120: 97b5 063f f37a babd e17f 423e 234d 5bbe
00000130: 343e c3be 0e14 bcbe 8bb1 563f b9b0 db3d
00000140: 612d 03bf 74bf e4be 7a5b 80bd d7c8 c03c
00000150: e0b8 cfbe 6226 083e da93 f2bd 46da 51be
00000160: c91b 9d3e e22f 0d3e 093e 83be cb5e d13e
00000170: 74ac f5be 5d79 42be 1340 89bc 79e4 84be
00000180: 6816 dc3d 5c69 283f c4dd 2fbf 6226 313e
00000190: 1c0a b4bd 73ad e83e b0d5 66be 86b3 3ebd
000001a0: b574 0a3f 656f 1bbf cd22 87bf 67c4 60be
000001b0: 8bbb 8e3e 778a 04bf d1a2 1a3d 691a 38bb
000001c0: 1f54 243e c02b f9be 5a48 013f 91c8 4c3e
000001d0: 9c4c bdbe 2a79 1cbe 0795 6e3e efb5 e4be
000001e0: ea28 503f 0ae7 863e 502d c83e 8b48 12bf
000001f0: 975c 963e 2d77 7e3f 76c1 ed3e 100f e4bd
00000200: 311c aa3e 3d3b 1abe 2d9d e6be f78e a7be
00000210: cec5 3fbf 45d2 893d 2e48 dfbd 02b8 06bf
00000220: c644 1a3f 5c06 89bf dd43 8a3e ab96 bc3e
00000230: 3825 9a3f f0a6 93be dfe4 253e 7d06 c93e
00000240: ae20 1d3f 0b83 083f afb3 523f 25cd 9fbe
00000250: 6957 983c 26a8 4f3f 4e7b 053f 8fae 4ebe
00000260: 943a 6fbf 72e1 ff3e 891f 2d3f ad58 a9be
00000270: c2b2 be3e 4bbd 233f 09de 65be 8884 df3e
00000280: ed8c 06be 2ad7 64be 96ad 053e 2ae2 1fbf
00000290: d593 b93f a54f 41bf beaa 793f 7d2e 763c
000002a0: 1f3d 003f 53d9 053f d87c bf3e 0eca 2fbd
000002b0: c036 1bbf 4cae 7f3e 41e1 0abf 2477 a7be
000002c0: c909 ab3e ace7 113f 36bc 8f3d 577a fb3d
000002d0: f3b0 2dbf 3634 09bf 9543 0abd 6592 5d3f
000002e0: 14c1 423f 53a7 213e 4b7b f8be 3d69 e9bd
000002f0: e437 e63e 3664 973e 215b 2f3f c5a2 47bf
00000300: f3cd 8dbd 72b3 8d3e 7dfe 2ebf e0f2 2b3f
00000310: 27ea ee3e 1e32 42be f57b 41bf 7af1 a4be
00000320: 4943 49be 81ae 38bf 253a 3ebf 1e4c fe3e
00000330: 34a0 543d 4c67 a93e ae0c 95be 06b8 f53e
00000340: a611 a33d 87f2 13bf f037 393f d31e 1b3f
00000350: 0260 d8bf 64ee 363c e736 10be c913 283f
00000360: cf65 6ebe ad39 c1be 5f6e b53e 459e bebe
00000370: 4b62 34b9 da93 2ebe b1f5 81bf 39d2 893f
00000380: 0a60 47bf 2c9b bf3e 2161 723e e7d6 35bf
00000390: b99a e3be b8bb 303d 7e29 b03d be26 813e
000003a0: 2301 9abf 284a 55bd 9e7f 9b3f 298b 893e
000003b0: 0c7d 2bbe 4d05 10bf 8808 1fbe bdc4 d23e
000003c0: a39d d13d 6b15 8a3e a788 f23c 5cd3 b03e
000003d0: 0c55 05bf 29d6 8b3e df78 0a3c d47b 91be
000003e0: 6398 57bf 319c 45bf 6f2e 8bbf cdb1 2e3f
000003f0: 7e3e 1abe 5d9a 14bb 3c22 d1be 7b7a ffbe

feature.bias_ih_l0 f4 [512]
0.15137091 0.90355015 -0.33918488 0.25404513 -0.005384016 0.21781734 -0.13162045 0.020809632
0.5989458 -0.1818331 -0.0876882 0.0868275 0.37537152 0.019668963 1.3658321 0.1508812
-0.0060944 0.2664368 -0.37644476 0.062155876 0.14031768 -0.40278536 0.1888197 0.53322744
0.73534477 0.9878796 0.3967777 0.3766577 0.7413101 0.34002268 0.3279262 0.061736066
0.82380277 -0.15756859 -0.065617494 -0.2959875 -0.29576287 0.61335486 -0.014734478 0.8308346
0.6856257 -0.16225775 0.87443495 0.21843964 0.2621458 -0.12929122 -0.47856286 1.0436656
0.7249097 1.000819 0.27068093 0.70239747 0.6169647 0.2942766 0.217478 0.13820268
0.2171668 0.20283583 -0.06244992 0.17930047 0.8958605 0.12618291 0.2445503 -0.25551927
0.64496446 0.20279774 -0.0064440873 1.2389303 0.018086672 1.3092041 -0.36533916 0.72514427
0.28405854 -0.22936514 -0.13185129 0.22207786 0.11971053 0.05266415 -0.27571103 -0.12930627
-0.013804964 1.1048136 0.7926911 0.020241534 0.07822322 -0.05815196 0.27008334 9.9331104e-05
-0.33012998 -0.06395835 0.21445769 0.26083586 0.76450187 0.021260688 -0.015341948 0.38395524
0.6969454 0.61989677 0.3407573 0.8075721 -0.03300214 0.48158887 -0.21996598 0.4707676
0.06529284 -0.16857363 -0.1718043 -0.02827537 0.30420366 0.022901244 0.31012988 0.20369133
0.86651504 0.07853413 0.100997195 0.2036719 0.25654158 0.2102907 0.25546485 -0.25550514
0.46938652 -0.090370975 0.076187216 -0.095323496 -0.18213038 0.47399768 0.7481981 -0.13318358
0.01851284 -0.21768579 0.041349854 -0.05822272 0.015769085 -0.41626358 -0.24264108 -0.09742839
-0.502845 0.060012095 -0.106089965 -0.019645678 -0.035689313 0.09690877 -0.9466987 0.023152202
-0.050176833 -0.023691745 0.06713865 -0.17177252 0.60981333 -0.44961855 -0.046416145 0.06940223
-0.5918876 -0.03925524 0.3575535 -0.37089244 0.52688175 -0.32635537 -0.07748665 -0.24537927
-0.5065457 0.063258156 -0.013431657 0.10231319 0.036444556 0.12707481 -0.71280783 0.07379365
-0.31825098 -0.08023002 -0.17225723 -0.17851326 -0.5422632 -0.10318176 -0.14164157 0.48002088
-0.06729501 -0.5091858 -0.72307545 -0.23980857 0.06707719 0.24307854 -0.2977536 -0.61397034
-0.15526669 -0.3814597 -0.07498302 -0.14060205 -0.35331532 -0.05109205 0.051291782 0.06892333
-0.35691494 -0.28144464 -0.08124938 -0.74177945 -0.31188595 -0.18650892 0.29199174 -0.41691315
0.14470884 -0.0073328386 -0.6069128 -0.36360198 -0.2956708 0.011782433 -0.119014904 0.22707653
-0.16459267 0.89115834 0.11976293 -0.3070122 0.18577585 -0.18259628 -0.17012168 -0.22954118
-0.43027893 0.21284279 -0.2784576 0.12668051 0.26782838 -0.35460296 -0.23345639 -0.5773814
-0.39748123 -0.2405593 -0.17822064 -0.1745425 0.24498504 0.09139907 -0.6069132 0.3085367
-0.32341692 -0.43745512 -0.34963197 -0.093988456 -0.72424376 -0.08402053 -0.31016216 -0.027948715
-0.019296622 0.29069534 -0.4396091 -0.24673179 0.22421557 -0.49423933 0.03637366 -0.022128759
0.013224338 -0.44689256 -0.0046846718 -0.16780035 -0.044995416 -0.051252916 -0.42401406 -0.8564946
00000000: fa00 1b3e 104f 673f a4a9 adbe 3412 823e
00000010: 666c b0bb 820b 5f3e 83c7 06be f678 aa3c
00000020: 8354 193f 7532 3abe df95 b3bd 9ed2 b13d
00000030: b230 c03e ce20 a13c 96d3 ae3f 9a80 1a3e
00000040: 88b3 c7bb 676a 883e 5ebd c0be 2997 7e3d
00000050: 70af 0f3e e239 cebe f459 413e 9881 083f
00000060: 8e3f 3c3f ade5 7c3f 7226 cb3e 47d9 c03e
00000070: 80c6 3d3f 7417 ae3e f1e5 a73e f5de 7c3d
00000080: bde4 523f a959 21be 7762 86bd ac8b 97be
00000090: 3b6e 97be d304 1d3f e168 71bc 94b1 543f
000000a0: 2a85 2f3f e526 26be f8da 5f3f a4ae 5f3e
000000b0: f937 863e eb64 04be 3106 f5be d696 853f
000000c0: af93 393f d61a 803f b196 8a3e 52d0 333f
000000d0: 66f1 1d3f 6cab 963e 8eb2 5e3e 0185 0d3e
000000e0: f960 5e3e 32b4 4f3e 7dcb 7fbd 8b9a 373e
000000f0: 1d57 653f 1836 013e 656b 7a3e 6cd3 82be
00000100: 641c 253f 36aa 4f3e ec28 d3bb 4595 9e3f
00000110: 802a 943c 0094 a73f bc0d bbbe 0ea3 393f
00000120: 1f70 913e b2de 6abe 0604 07be 6168 633e
00000130: cb2a f53d 5db6 573d ff29 8dbe dd68 04be
00000140: 372e 62bc 886a 8d3f ceed 4a3f 93d1 a53c
00000150: 7f33 a03d c030 6ebd 5d48 8a3e fb4f d038
00000160: cc06 a9be 98fc 82bd cc9a 5b3e 478c 853e
00000170: 65b6 433f e52a ae3c cb5c 7bbc c895 c43e
00000180: 046b 323f 8eb1 1e3f be77 ae3e 0cbd 4e3f
00000190: 402d 07bd d192 f63e c33e 61be 7308 f13e
000001a0: 41b8 853d 919e 2cbe 77ed 2fbe c0a1 e7bc
000001b0: 95c0 9b3e 649b bb3c 58c9 9e3e 7694 503e
000001c0: eed3 5d3f 80d6 a03d 9ed7 ce3d 5e8f 503e
000001d0: 6b59 833e 7256 573e 4acc 823e 92d1 82be
000001e0: 6e53 f03e 6b14 b9bd 0b08 9c3d f738 c3bd
000001f0: 6380 3abe d3af f23e e989 3f3f 4761 08be
00000200: 3da8 973c 06e9 5ebe 775e 293d f27a 6ebd
00000210: 2b2e 813c 8020 d5be e776 78be 8988 c7bd
00000220: 73ba 00bf 3ecf 753d b245 d9bd f9ef a0bc
00000230: f52e 12bd 1b78 c63d d95a 72bf b0a9 bd3c
00000240: 3986 4dbd 3115 c2bc fd7f 893d 23e5 2fbe
00000250: ba1c 1c3f 6734 e6be db1e 3ebd c222 8e3d
00000260: f285 17bf 1aca 20bd 4111 b73e 9de5 bdbe
00000270: b9e1 063f 0d18 a7be 52b1 9ebd b444 7bbe
00000280: fbac 01bf 7e8d 813d 7410 5cbc 9489 d13d
00000290: e346 153d e61f 023e 937a 36bf 2021 973d
000002a0: cbf1 a2be a34f a4bd 3364 30be 2ecc 36be
000002b0: c3d1 0abf f550 d3bd 7d0a 11be 4cc5 f53e
000002c0: f7d1 89bd 005a 02bf 791b 39bf 6190 75be
000002d0: c45f 893d 95e9 783e 2973 98be 292d 1dbf
000002e0: 3bfe 1ebe b04e c3be b390 99bd fcf9 0fbe
000002f0: bfe5 b4be e645 51bd 5517 523d ad27 8d3d
00000300: 8ebd b6be 8319 90be 1366 a6bd 42e5 3dbf
00000310: 84af 9fbe 32fc 3ebe f17f 953e a475 d5be
00000320: 8e2e 143e 4f48 f0bb a35e 1bbf 0a2a babe
00000330: 2a62 97be 1b0b 413c 16be f3bd c086 683e
00000340: fb8a 28be f422 643f 4446 f53d b430 9dbe
00000350: 063c 3e3e 85fa 3abe 6134 2ebe d80c 6bbe
00000360: 854d dcbe 76f3 593e ff91 8ebe 89b8 013e
00000370: cd20 893e 858e b5be 310f 6fbe 44cf 13bf
00000380: a982 cbbe 2d55 76be 797f 36be 45bb 32be
00000390: 5cdd 7a3e 702f bb3d aa5e 1bbf 86f8 9d3e
000003a0: e796 a5be 1efa dfbe f602 b3be 057d c0bd
000003b0: 0a68 39bf f512 acbd 93cd 9ebe b4f4 e4bc
000003c0: f313 9ebc 05d6 943e 7214 e1be 42a7 7cbe
000003d0: c498 653e f00c fdbe 8cfc 143d 5f47 b5bc
000003e0: e5aa 583c 1acf e4be e081 99bb dbd3 2bbe
000003f0: 1d4d 38bd 94ee 51bd 5f18 d9be 3b43 5bbf

feature.bias_hh_l0 f4 [512]
0.04469981 0.88826334 -0.31721967 0.14100017 -0.014551961 0.2221998 -0.18898204 0.13449962
0.62030244 -0.14283554 -0.052866437 0.12962452 0.49436444 -0.041029166 1.3117822 0.243896
0.09885339 0.27003795 -0.32176515 -0.071122535 0.118982345 -0.43736398 0.24804471 0.4762307
0.7539621 0.9981505 0.50246286 0.2896684 0.9148151 0.3067194 0.35378775 0.07749415
0.88680476 -0.19610792 -0.0694962 -0.30632007 -0.2277037 0.6924793 0.0037279155 0.84886926
0.63600177 -0.34852123 0.95179284 0.19268288 0.31355664 0.10184963 -0.6205179 0.97177047
0.6276698 0.9686312 0.24369638 0.8182457 0.6255189 0.3541386 0.25162065 0.0525824
0.15764536 0.19344449 0.03763006 0.18375759 1.0048282 0.2672559 0.2719405 -0.29726467
0.6580906 0.050326154 0.03176569 1.1714866 0.051879786 1.2175916 -0.16217244 0.7764735
0.1481601 -0.19401698 -0.06893185 0.14245245 0.050916526 0.0072354586 -0.2161448 -0.15229313
0.022427388 1.065034 0.78125834 0.15106641 0.18902726 -0.07462428 0.28943607 0.14937828
-0.3929477 -0.24541713 0.07579695 0.39350578 0.7832387 0.14963049 -0.034843665 0.3173857
0.73825055 0.5763569 0.2696688 0.9460732 0.0118777845 0.3268503 -0.20113523 0.536198
0.11616087 -0.08866307 -0.3072071 -0.04447678 0.35893264 -0.017210795 0.33184177 0.2213619
0.8588376 -0.068613335 0.056621008 0.26727885 0.30480552 0.22010763 0.09521225 -0.3255874
0.46916294 -0.2450545 -0.011264591 -0.25991222 -0.20167546 0.30156726 0.73022795 -0.05995944
0.047001444 -0.20218161 0.0023376062 -0.14130983 0.057279453 -0.431677 -0.34417927 -0.14769132
-0.5009297 -0.057129454 -0.14366911 -0.13998947 -0.008942643 0.04791516 -0.8820644 0.0976569
-0.06867814 -0.017043784 0.22998099 -0.20414649 0.5129629 -0.19137606 -0.21473478 0.04249737
-0.5281236 0.014302223 0.43843207 -0.34284592 0.61463153 -0.31613114 -0.18434976 -0.23122068
-0.3379342 -0.037771914 0.1657359 0.04039599 -0.20128268 0.28796646 -0.5880074 0.05228835
-0.33245066 0.05258333 -0.069343716 -0.26550186 -0.5365783 -0.0905897 -0.20397468 0.4282803
-0.07533403 -0.4325498 -0.79692566 -0.22131678 0.17106846 0.18438503 -0.43801406 -0.7429055
-0.1472868 -0.4405051 -0.06580886 -0.050130412 -0.47236496 -0.14647307 -0.10446944 0.056969944
-0.4264706 -0.31044114 -0.17310928 -0.7679011 -0.18380119 -0.2029329 0.36885753 -0.48285192
0.3052696 -0.015656348 -0.65903807 -0.36349872 -0.397163 0.02033483 -0.109196864 0.22428362
-0.14430241 0.888671 0.088786654 -0.41433233 0.13794674 -0.2642557 -0.2464982 -0.25667566
-0.34381297 0.11839792 -0.25783125 0.20146172 0.42838314 -0.27744323 -0.19552612 -0.5305718
-0.41806853 -0.21525286 -0.24600613 -0.13842115 0.27869824 0.03770612 -0.602355 0.27644387
-0.40166637 -0.454684 -0.3885011 -0.16702679 -0.71694374 -0.14393511 -0.22045854 -0.010595507
0.12152827 0.1662991 -0.4242923 -0.3275701 0.18210962 -0.43150485 0.11795959 -0.07042524
-0.04436168 -0.5572689 0.075792335 -0.22659631 -0.12229587 -0.19169123 -0.5223096 -0.9168437
00000000: 2617 373d 3a65 633f 9e6a a2be 5962 103e
00000010: 596b 6ebc 5888 633e 8284 41be 45ba 093e
00000020: 24cc 1e3f 7b43 12be 7a8a 58bd 4abc 043e
00000030: 561d fd3e 330e 28bd 7be8 a73f dfbf 793e
00000040: a573 ca3d 6a42 8a3e 67be a4be b1a8 91bd
00000050: 04ad f33d 2cee dfbe 6fff 7d3e 83d4 f33e
00000060: a903 413f cb86 7f3f 68a1 003f 6b4f 943e
00000070: 5331 6a3f 530a 9d3e ab23 b53e 41b5 9e3d
00000080: a305 633f 84d0 48be 0654 8ebd fcd5 9cbe
00000090: 292b 69be 5346 313f 0b50 743b 7f4f 593f
000000a0: 03d1 223f 6071 b2be b2a8 733f a94e 453e
000000b0: 7f8a a03e 8a96 d03d 43da 1ebf f3c5 783f
000000c0: f8ae 203f 37f8 773f 8b8b 793e 8d78 513f
000000d0: 0222 203f a851 b53e 6cd4 803e a560 573d
000000e0: c96d 213e 5016 463e fa21 1a3d f32a 3c3e
000000f0: 369e 803f c4d5 883e c93b 8b3e 1333 98be
00000100: a078 283f cc22 4e3d bd1c 023d 46f3 953f
00000110: e67f 543d 0bda 9b3f 8810 26be f8c6 463f
00000120: 48b7 173e 63ac 46be 242c 8dbd 0edf 113e
00000130: d98d 503d 6d17 ed3b 1055 5dbe bbf2 1bbe
00000140: a4b9 b73c 0953 883f 8c00 483f 27b1 1a3e
00000150: 5d90 413e 9dd4 98bd f730 943e 9ff6 183e
00000160: 7130 c9be a14e 7bbe 6e3b 9b3d 9779 c93e
00000170: 5582 483f bc38 193e 3bb8 0ebd 6180 a23e
00000180: fdfd 3c3f 208c 133f 0712 8a3e da31 723f
00000190: 0a9b 423c ec58 a73e 65f6 4dbe 4644 093f
000001a0: c0e5 ed3d fc94 b5bd 404a 9dbe 492d 36bd
000001b0: 05c6 b73e a7fd 8cbc 2ae7 a93e b2ac 623e
000001c0: c8dc 5b3f 2685 8cbd 6eeb 673d c6d8 883e
000001d0: 780f 9c3e e563 613e a4fe c23d 64b3 a6be
000001e0: 2036 f03e 91ef 7abe 1e8f 38bc 3713 85be
000001f0: 0384 4ebe 0667 9a3e 38f0 3a3f 0898 75bd
00000200: 9684 403d b208 4fbe 8632 193b 86b3 10be
00000210: dc9d 6a3d c504 ddbe 4438 b0be 653c 17be
00000220: ee3c 00bf 9300 6abd ff1d 13be 6659 0fbe
00000230: 2a84 12bc b042 443d f9ce 61bf 5700 c83d
00000240: 20a7 8cbd 689f 8bbc 2380 6b3e c70b 51be
00000250: 8951 033f 16f8 43be 6fe3 5bbe b911 2e3d
00000260: 1c33 07bf df53 6a3c 2b7a e03e 8089 afbe
00000270: 7e58 1d3f f1db a1be 2fc6 3cbe 1dc5 6cbe
00000280: b605 adbe b9b6 1abd acb6 293e 4476 253d
00000290: 0c1d 4ebe 5770 933e a787 16bf 4f2c 563d
000002a0: f936 aabe 9e61 573d 1404 8ebd dcef 87be
000002b0: 325d 09bf 1887 b9bd bdde 50be 8e47 db3e
000002c0: ba48 9abd 2b77 ddbe 5203 4cbf dea0 62be
000002d0: 922c 2f3e 6ecf 3c3e 6143 e0be 0e2f 3ebf
000002e0: 5ad2 16be e289 e1be ccc6 86bd 8c55 4dbd
000002f0: d2d9 f1be 09fd 15be 13f4 d5bd 5159 693d
00000300: 5b5a dabe 24f2 9ebe 8f43 31be 2b95 44bf
00000310: 6136 3cbe a4cd 4fbe e5da bc3e 5e38 f7be
00000320: 4c4c 9c3e be41 80bc b8b6 28bf 811c babe
00000330: f358 cbbe 3b95 a63c 9ba2 dfbd 9baa 653e
00000340: 03c4 13be f17f 633f c7d5 b53d 5e23 d4be
00000350: e941 0d3e 864c 87be 066a 7cbe fe6a 83be
00000360: 4108 b0be 9c7a f23d 7502 84be fb4b 4e3e
00000370: 0955 db3e 0a0d 8ebe 0038 48be 8ed3 07bf
00000380: 140d d6be 3f6b 5cbe 08e9 7bbe 46be 0dbe
00000390: 89b1 8e3e bc71 1a3d f033 1abf 0d8a 8d3e
000003a0: 37a7 cdbe 57cc e8be 9ee9 c6be 1209 2bbe
000003b0: a089 37bf ba63 13be e2bf 61be c798 2dbc
000003c0: d0e3 f83d 504a 2a3e d73c d9be 45b7 a7be
000003d0: f27a 3a3e 34ee dcbe cc94 f13d 1c3b 90bd
000003e0: 98b4 35bd 2da9 0ebf 0339 9b3d dd08 68be
000003f0: 4276 fabd b54a 44be 15b6 05bf 45b6 6abf

feature.weight_ih_l0_reverse f4 [512, 64]
-0.43858272 -0.33697054 0.6785691 0.3551125 0.101970695 0.302181 -0.25387582 -0.31295165
0.31515178 -0.5398065 -0.46843436 0.63511586 0.19425419 -0.24021743 -0.55912435 0.11835933
1.0684057 -0.6516504 0.82158625 -0.52722234 -0.5791733 0.6538899 -0.67621475 0.65800744
0.6409073 -0.8305001 0.069483295 0.11684963 0.30765632 -0.40182948 -0.4084744 -0.94180864
-0.09302255 -0.7286566 0.008639513 0.2620881 -0.2770531 -0.8400106 0.23654191 0.77498287
-0.72082376 0.14574762 -0.35339564 0.39432585 0.35710472 0.004265424 0.47052094 0.41742358
-0.7605728 -0.32604796 0.40566376 -0.33194783 -0.24568683 0.07218015 -0.7566278 -0.16822991
0.3078874 -0.30769268 -1.5196087 -0.060532838 0.095230095 0.6895339 -0.34407696 0.025121568
0.6289654 0.19018157 0.03448798 0.29411155 -0.1821713 -0.2031763 1.1673706 -0.18950108
-0.11299125 -0.6002228 -0.6313072 0.7440072 -0.004727867 -0.7567719 0.17699794 0.061290745
0.17399181 0.49774423 0.42778832 0.78535825 -1.1553469 0.080480225 -0.04143651 -0.2759223
-0.68385464 1.0203868 -0.23714732 0.1060342 -0.8211516 -0.16889422 0.2736851 0.9749488
-0.07010566 0.3692082 0.09008091 -0.26468655 0.26792756 0.50849277 0.65295124 0.06427906
0.004710625 -0.2860664 0.08308245 -1.1695803 0.49771926 -0.21196772 -0.3738636 -1.2152166
0.5207442 -0.19179617 -0.18014249 0.4398366 -1.0806892 0.057402093 1.1063063 -0.073487796
-0.29031083 -0.817094 0.2453507 -0.6788374 0.25287253 0.51623136 -1.2485099 0.6660867
-0.21598586 -0.3950554 0.35427502 -0.40083912 -0.27032956 -0.9820008 0.007731956 -0.021655919
-0.8987095 0.9159904 0.04169095 -0.27291527 -0.89445114 0.40830505 -0.39572757 0.102816775
-1.3878711 0.44626755 0.018495971 0.2744228 -0.054133806 0.036324143 0.47198638 -0.060532182
-0.44948414 -0.050351884 -0.85267353 -0.8906308 0.87823117 0.47594202 0.21742149 -0.23088354
0.5605369 0.49921116 1.7042706 -0.12227105 -0.52708244 0.08221205 0.009082228 -0.7433142
0.6580224 0.18884057 0.58360153 0.10403484 -0.30432752 -0.019368012 0.5180923 0.4714741
-0.31468713 0.21873002 -0.36444986 -0.7182983 -0.10747951 0.4284012 -0.005438986 -0.0005551364
0.29202452 0.57587034 0.37033862 -0.49744785 0.3428273 -0.7103783 0.13819997 -0.06637441
-0.6565992 0.23630944 -0.9226291 0.6898865 -0.9054838 0.4625201 0.1393675 -0.3301333
1.0824342 -1.1966641 0.91919935 0.17914641 -1.0907655 -0.6958249 -0.27833784 0.6763351
0.642576 0.6099114 -0.75744236 -0.44722298 0.043337177 -0.45397097 -0.25982884 -0.43039596
-0.55816275 -0.52504605 0.34964913 -0.48444822 -1.4416299 -1.420475 -0.17494567 1.093935
1.1188567 -0.3074341 -0.32661283 0.105127834 0.124010295 0.11250704 0.7604111 0.1666365
-0.81485665 0.29751885 -0.16096929 -0.63247144 -0.891301 -0.5201539 0.56841165 0.81656945
-0.1743389 -0.316871 0.3621619 0.16013597 0.90680027 -0.4522957 0.0326946 0.8953125
-0.33002248 -1.7392169 -0.8256348 0.17296986 -1.4966974 0.34476796 -0.49347943 0.32538274
00000000: ea8d e0be 6787 acbe b4b6 2d3f 4ed1 b53e
00000010: 03d6 d03d 78b7 9a3e 03fc 81be 333b a0be
00000020: 935b a13e c230 0abf a1d6 efbe f496 223f
00000030: 92ea 463e 8ffb 75be c622 0fbf 6066 f23d
00000040: 85c1 883f 90d2 26bf 7a53 523f 0bf8 06bf
00000050: b444 14bf 5465 273f 691c 2dbf 2d73 283f
00000060: 8012 243f a89b 54bf 424d 8e3d dc4e ef3d
00000070: 2185 9d3e 98bc cdbe 8e23 d1be 5f1a 71bf
00000080: 9b82 bebd 3d89 3abf be8c 0d3c 6930 863e
00000090: e7d9 8dbe ef0a 57bf 0b38 723e 4765 463f
000000a0: e887 38bf dd3e 153e 46f0 b4be 14e5 c93e
000000b0: 6ed6 b63e f8c4 8b3b 1fe8 f03e 8bb8 d53e
000000c0: e6b4 42bf c2ef a6be 29b3 cf3e 11f5 a9be
000000d0: 5495 7bbe 30d3 933d 5cb2 41bf 7644 2cbe
000000e0: 6ba3 9d3e e589 9dbe 8a82 c2bf 48f1 77bd
000000f0: ff07 c33d 4b85 303f db2a b0be bfcb cd3c
00000100: e003 213f f5be 423e 4543 0d3d ca95 963e
00000110: 1d8b 3abe 730d 50be 666c 953f 920c 42be
00000120: f567 e7bd 34a8 19bf 599d 21bf 4177 3e3f
00000130: 39ec 9abb cebb 41bf f33e 353e 010c 7b3d
00000140: e92a 323e 55d8 fe3e 1207 db3e 3d0d 493f
00000150: 68e2 93bf d1d2 a43d 54b9 29bd b045 8dbe
00000160: 1911 2fbf 099c 823f bfd6 72be 7528 d93d
00000170: fe36 52bf 9bf2 2cbe 7420 8c3e 3f96 793f
00000180: 8e93 8fbd db08 bd3e 577c b83d ff84 87be
00000190: cd2d 893e 952c 023f d027 273f bda4 833d
000001a0: 965b 9a3b 4c77 92be 2227 aa3d cfb4 95bf
000001b0: 0fd5 fe3e 110e 59be 0d6b bfbe 388c 9bbf
000001c0: 7e4f 053f 3766 44be 4677 38be 4332 e13e
000001d0: 0654 8abf 751e 6b3d 729b 8d3f c580 96bd
000001e0: 9fa3 94be 132d 51bf 373d 7b3e 4ac8 2dbf
000001f0: 8278 813e bd27 043f 2ccf 9fbf a884 2a3f
00000200: 662b 5dbe b444 cabe 8963 b53e c93a cdbe
00000210: a368 8abe 6864 7bbf 595c fd3b c167 b1bc
00000220: d311 66bf 597e 6a3f 21c4 2a3d 8dbb 8bbe
00000230: c0fa 64bf 5c0d d13e ce9c cabe 9a91 d23d
00000240: c3a5 b1bf 2e7d e43e dd84 973c 2581 8c3e
00000250: 69bb 5dbd a0c8 143d 33a8 f13e 98f0 77bd
00000260: c922 e6be c73d 4ebd d048 5abf 6100 64bf
00000270: c2d3 603f acae f33e bda3 5e3e bc6c 6cbe
00000280: 597f 0f3f 9b98 ff3e 8a25 da3f 3f69 fabd
00000290: e0ee 06bf cb5e a83d a0cd 143c d749 3ebf
000002a0: 2874 283f 6c5f 413e e966 153f 3810 d53d
000002b0: d1d0 9bbe aaa9 9ebc b2a1 043f 0e65 f13e
000002c0: ac1e a1be c3fa 5f3e 2c99 babe 66e2 37bf
000002d0: 381e dcbd 6757 db3e 8539 b2bb 9386 11ba
000002e0: 3d84 953e 3d6c 133f 069d bd3e 7cb1 febe
000002f0: 0f87 af3e 5adb 35bf 4b84 0d3e 4fef 87bd
00000300: e316 28bf 1afb 713e 6c31 6cbf 679c 303f
00000310: c9cd 67bf 6fcf ec3e 5bb6 0e3e 3b07 a9be
00000320: 348d 8a3f 4a2c 99bf a650 6b3f 2872 373e
00000330: 349e 8bbf 9521 32bf 4c82 8ebe 4c24 2d3f
00000340: dc7f 243f 2723 1c3f bee7 41bf 69fa e4be
00000350: 5382 313d e26e e8be 4908 85be dc5c dcbe
00000360: c1e3 0ebf 6b69 06bf 3605 b33e 9909 f8be
00000370: 5487 b8bf 20d2 b5bf f524 33be 1006 8c3f
00000380: b236 8f3f 0168 9dbe cc39 a7be 434d d73d
00000390: 1cf9 fd3d 176a e63d 4daa 423f c2a2 2a3e
000003a0: 729a 50bf 6454 983e 22d5 24be a6e9 21bf
000003b0: 4d2c 64bf ce28 05bf 6d83 113f b20a 513f
000003c0: e685 32be ea3c a2be 496d b93e affa 233e
000003d0: 1024 683f 4d93 e7be c6ea 053d 3333 653f
000003e0: b5f8 a8be a99e debf cd5c 53bf 031f 313e
000003f0: c893 bfbf 6d85 b03e 56a9 fcbe 9198 a63e

feature.weight_hh_l0_reverse f4 [512, 128]
-0.4396074 -0.69388866 0.9389777 0.081897736 -0.60362095 -0.29628077 -0.304683 -0.24642548
-0.69098943 -0.6546061 -0.07242287 0.48788863 1.0678593 -0.4634732 -0.25791895 0.02371895
-0.34395224 0.07674433 -0.2800933 0.26326954 0.132765 0.6851523 -0.111887604 -0.5027423
-0.39570794 -0.07383146 0.22274473 0.18816255 0.22555023 -0.4414859 0.1310439 -0.012913246
0.12854168 -0.09435077 -0.07600214 -0.2043081 -0.14825043 -0.70693904 0.3566464 0.49742293
-0.49678028 -0.58138806 0.518066 -0.029514693 -0.16094275 0.17720202 -0.42545092 0.0138403345
0.64067537 -0.17564376 -0.11075729 0.34089926 -0.30402696 -0.09696718 -0.031147707 0.67933804
0.86070776 -0.030782918 0.26607215 -0.35672256 0.10120495 -0.09507631 -0.4078397 0.28013453
0.29264003 -0.414273 -0.4802422 -0.372416 -0.25852755 -0.1641607 0.7512016 -0.13450474
-0.02701949 -0.047486596 -0.567925 0.028802484 0.32797456 -0.14020245 0.2308117 0.39195928
0.0787962 0.3707022 -0.26808497 -0.36290437 0.069949105 -0.3930235 -0.35037312 0.5759694
0.6292287 -0.4357803 -0.6348797 0.8953491 0.03129246 -0.3436217 0.46766445 -0.13431707
0.28073156 -0.8135149 0.6518315 0.6796879 0.14477865 0.22848247 -0.18756202 0.26190227
0.20253189 -0.0073594195 0.26428807 -0.64611125 0.72710884 -0.48834017 0.54420835 -0.31178957
0.08432246 -0.7511338 -0.25633454 -0.11484193 0.004341297 -0.28428712 0.22795454 0.12679672
0.13380967 0.3468274 -0.9323368 -0.3681962 -0.7847775 0.6961191 -0.21773537 0.7908363
-0.5622754 0.2229856 0.72548354 0.046019323 -0.029425355 -0.65371555 -0.41775206 -0.5496742
1.0125147 0.49287975 -0.24216668 -0.3118077 0.05418434 -0.14557411 -0.12569554 0.22027296
-0.2596288 0.06039134 -0.26148292 0.46757492 -0.2114441 0.35557005 0.270147 -0.090781815
-0.7108445 -0.423153 -0.018362846 -0.47518525 0.16587135 0.10642702 0.73087233 0.23657314
-0.5401349 0.36145756 -0.47354507 0.4635205 0.41341037 0.24950142 -0.8284703 0.2939189
-0.26320007 -0.18349402 0.039950844 0.12435092 0.40914324 0.72452784 -0.38192767 0.4063436
0.16123268 -0.17624144 0.33117458 -0.07587181 0.55315286 -0.01550063 0.32159606 0.65234166
-0.27280864 -0.19615568 -0.555109 0.48203874 0.69543123 -0.7981388 -0.79644346 0.36625665
-0.5573699 -0.046691906 -0.31931344 -0.69221675 0.36428568 0.6888562 -0.15192635 -1.303235
0.37981644 0.728266 -0.73675966 -0.502559 0.36647293 0.37189665 -0.00649045 1.0525221
0.11751948 0.48021317 -0.20934497 0.5686891 -0.6373571 0.7022186 0.9265635 -0.18160005
-0.39120787 -0.41034767 -0.40005717 -0.17624676 0.3576737 -0.09296917 -0.48901877 0.4057763
-0.087148145 -0.2391387 0.4890398 0.56444186 -0.6000091 0.24343002 -0.17862189 0.06928205
-0.1920028 -0.2812451 -1.0149063 0.6292213 0.63376844 0.020983811 -0.15924768 -0.57811177
0.3277877 0.093221135 0.2377681 0.056902837 -0.1255043 0.3400915 0.07821891 -0.28498206
0.059304733 -0.29637742 -0.12708135 -0.10776082 -0.38303825 0.07109656 -0.04906804 0.2259341
00000000: 3914 e1be b0a2 31bf d860 703f 00ba a73d
00000010: e786 1abf 1db2 97be 69ff 9bbe f656 7cbe
00000020: afe4 30bf 4494 27bf 7152 94bd 8acc f93e
00000030: 9daf 883f 5c4c edbe f40d 84be 3e4e c23c
00000040: 821a b0be 222c 9d3d 6468 8fbe 44cb 863e
00000050: 8cf3 073e 2466 2f3f 5425 e5bd b8b3 00bf
00000060: 3b9a cabe f334 97bd 3217 643e afad 403e
00000070: a4f6 663e 710a e2be 5f30 063e 1492 53bc
00000080: 6ea0 033e fa3a c1bd 03a7 9bbd 2436 51be
00000090: f6ce 17be f5f9 34bf 5b9a b63e 38ae fe3e
000000a0: fc59 febe d9d5 14bf f99f 043f ccc8 f1bc
000000b0: 2dce 24be 7274 353e b4d4 d9be 92c2 623c
000000c0: 4d03 243f f5db 33be b8d4 e2bd 598a ae3e
000000d0: 6ca9 9bbe bb96 c6bd 7a29 ffbc 19e9 2d3f
000000e0: 5857 5c3f 752c fcbc 9c3a 883e 57a4 b6be
000000f0: 8a44 cf3d 5eb7 c2bd 5dd0 d0be cb6d 8f3e
00000100: ead4 953e 971b d4be 4ee2 f5be 4fad bebe
00000110: b95d 84be be19 28be c04e 403f 9cbb 09be
00000120: fa57 ddbc 4e81 42bd 8863 11bf 30f3 eb3c
00000130: 48ec a73e 3b91 0fbe e759 6c3e e3ae c83e
00000140: e75f a13d aecc bd3e 6f42 89be 9ace b9be
00000150: 7a41 8f3d 603a c9be 1b64 b3be bb72 133f
00000160: 2215 213f 981e dfbe 7a87 22bf 9935 653f
00000170: 862c 003d 2fef afbe b771 ef3e 6a8a 09be
00000180: 0cbc 8f3e 8342 50bf 6ede 263f 0700 2e3f
00000190: db40 143e 4ff7 693e 4210 40be 0e18 863e
000001a0: 8564 4f3e 4927 f1bb c450 873e 8c67 25bf
000001b0: ce23 3a3f b907 fabe 3d51 0b3f e2a2 9fbe
000001c0: 41b1 ac3d 4e4a 40bf 483e 83be 3f32 ebbd
000001d0: 7041 8e3b 158e 91be ea6c 693e 00d7 013e
000001e0: 6705 093e 5c93 b13e a0ad 6ebf 3684 bcbe
000001f0: 2ee7 48bf dd34 323f 05f6 5ebe 3f74 4a3f
00000200: 48f1 0fbf 5656 643e 4ab9 393f c27e 3c3d
00000210: 710d f1bc e759 27bf 99e3 d5be 73b7 0cbf
00000220: 159a 813f bc5a fc3e 8bfa 77be 42a5 9fbe
00000230: 66f0 5d3d 6111 15be 55b6 00be 3c8f 613e
00000240: 11ee 84be e95c 773d 17e1 85be fb65 ef3e
00000250: cd84 58be 470d b63e b550 8a3e d1eb b9bd
00000260: e8f9 35bf 83a7 d8be ae6d 96bc 7b4b f3be
00000270: 2eda 293e 69f6 d93d 731a 3b3f 3b40 723e
00000280: 4846 0abf f710 b93e 8074 f2be 8f52 ed3e
00000290: 86aa d33e 4d7d 7f3e a116 54bf 8a7c 963e
000002a0: 29c2 86be dbe5 3bbe 7fa3 233d b2ab fe3d
000002b0: 397b d13e a87a 393f 068c c3be 450c d03e
000002c0: 2e1a 253e a378 34be b78f a93e ae62 9bbd
000002d0: 6d9b 0d3f 5bf6 7dbc 3da8 a43e ddff 263f
000002e0: 93ad 8bbe 09dd 48be a01b 0ebf c8cd f63e
000002f0: c807 323f d352 4cbf b8e3 4bbf fe85 bb3e
00000300: cbaf 0ebf 0340 3fbd 0d7d a3be 1e35 31bf
00000310: a783 ba3e e158 303f 9592 1bbe 68d0 a6bf
00000320: 4d77 c23e a46f 3a3f 489c 3cbf b5a7 00bf
00000330: 57a2 bb3e 3d69 be3e d7ad d4bb 0bb9 863f
00000340: 0eae f03d 80de f53e 875e 56be 9c95 113f
00000350: d629 23bf 99c4 333f 4433 6d3f 5df5 39be
00000360: 664c c8be 1719 d2be 4bd4 ccbe 087a 34be
00000370: 0221 b73e 9f66 bebd ab60 fabe e9c1 cf3e
00000380: ba7a b2bd c6e0 74be 6d63 fa3e 437f 103f
00000390: 329a 19bf b845 793e a8e8 36be bfe3 8d3d
000003a0: 629c 44be 5cff 8fbe 73e8 81bf a614 213f
000003b0: a63e 223f 3ee6 ab3c d311 23be 22ff 13bf
000003c0: cad3 a73e b9ea be3d 7b79 733e f312 693d
000003d0: 3384 00be 7920 ae3e 3c31 a03d 2be9 91be
000003e0: 85e9 723d c8be 97be 9d21 02be b4b1 dcbd
000003f0: 971d c4be 139b 913d 92fb 48bd 455b 673e

feature.bias_ih_l0_reverse f4 [512]
-0.42913282 -0.16200323 -0.12665102 -0.112913296 -0.5122178 0.031850014 -0.0726236 0.59259176
0.045316543 0.21006826 0.2967715 0.39225134 0.071436755 0.103354484 -0.07266398 0.087640844
0.26944247 0.47604215 0.122682676 0.26945528 0.36781725 -0.24804018 0.42981288 0.359901
0.41512874 0.28879178 -0.20581542 -0.101975925 -0.26578823 0.005225585 0.06378136 -0.12417438
-0.14306487 -0.33580217 0.15354274 0.19529414 0.06368423 0.6751106 0.10567949 -0.21444216
0.05420728 0.40627453 -0.1215947 0.050416123 0.14500648 0.40159467 0.44176522 0.05009693
0.016955622 0.3929145 -0.03379 0.030237019 0.3007084 -0.052346487 -0.09861577 -0.27740204
0.26926428 -0.14949396 0.35126817 0.76294917 0.16976297 -0.016566366 -0.08802283 -0.037371438
0.48921025 -0.04356801 0.18835296 0.27139595 -0.21307167 -0.14529188 -0.45209876 0.42132375
0.2947358 0.61626655 0.30650404 0.20523435 0.11960179 -0.4686182 0.112908825 0.013327628
0.7309104 0.031284954 0.79909277 -0.016303644 0.46050435 0.30498436 0.45197815 -0.38725218
0.3977793 -0.19734657 0.09416486 -0.014022634 0.24842064 -0.09097695 -0.17474562 -0.045064654
-0.49499735 0.30754694 0.1791639 -0.2806837 -0.08481798 0.21826378 0.47007796 -0.70531785
-0.35504365 0.09414093 0.10579988 0.1508341 0.6764539 0.22388782 -0.07788679 0.5283356
0.27392602 0.4182708 0.0794675 0.095947236 -0.20575017 0.40968952 -0.37020645 -0.3620821
0.31881943 0.5002969 0.41000086 0.4083021 0.120828606 -0.07412586 -0.6063894 -0.2981847
-0.123604126 -0.21581715 0.1892184 -0.0012436197 -0.020234449 -0.22314796 0.009775686 -0.49390697
-0.47985476 -0.120694615 0.5087613 0.15984201 -0.3135841 0.24233092 -0.1678801 0.2182285
-0.2185113 0.053732708 0.18071683 0.28936097 -0.2531031 0.293018 0.46545547 -0.068703495
0.019943096 -0.03260381 0.0045839553 0.1832763 -0.19656332 -0.40439847 0.13927047 1.028415
-0.10777688 -0.1285183 -0.41520992 -0.3133699 -0.20444392 -0.38378775 -0.13529977 -0.44872782
0.1038261 -0.037499487 0.22845252 0.14705364 -0.09287828 -0.14551386 -0.30141 0.0025773216
0.10644554 -0.022118764 -0.20266333 -0.093660615 -0.043020483 -0.1651651 -0.0515167 -0.19112548
-0.32612288 0.2679464 -0.32971135 0.0748991 -0.40093336 -0.26381433 -0.43889898 0.19868366
-0.16707057 -0.13287699 -0.09246796 -0.29029417 -0.13940378 0.01958822 -0.07594907 -0.33609083
0.46944943 -0.83039594 -0.7110469 -0.07714349 0.016573144 0.35289478 -0.15852216 -0.26692954
-0.4784141 -0.2685457 -0.14798194 -0.029894348 -0.14716144 -0.112871885 -0.041443713 -0.081422575
-0.4704379 -0.25157094 -0.11613199 -0.19567849 -0.50768 -0.2111153 -0.28042763 -0.1824188
-0.49302673 0.11845427 0.0500959 0.0070489557 -0.0067725275 -0.62684685 0.07004228 -0.010069556
-0.16030227 -0.19611642 -0.013796994 0.46483493 -0.15147161 -0.23275843 0.014669398 -0.5387923
-0.19772986 0.5889923 -0.023644079 -0.14534405 -0.087946005 0.4213877 -0.03807499 0.17532147
0.015702114 -0.09139223 -0.1412496 -0.60069144 -0.3117468 -0.0070517673 -0.22257869 0.056761857
00000000: 4cb7 dbbe 2de4 25be ceb0 01be 163f e7bd
00000010: b520 03bf 2975 023d afbb 94bd 18b4 173f
00000020: d79d 393d 221c 573e 6ff2 973e 2bd5 c83e
00000030: 6f4d 923d 84ab d33d dad0 94bd 0b7d b33d
00000040: 5df4 893e ccbb f33e 0e41 fb3d 0bf6 893e
00000050: 8b52 bc3e 3ffe 7dbe 6f10 dc3e f244 b83e
00000060: c18b d43e 84dc 933e 47c1 52be c1d8 d0bd
00000070: 6515 88be 623b ab3b cd9f 823d 234f febd
00000080: 997f 12be 43ee abbe 4f3a 1d3e 30fb 473e
00000090: e16c 823d 0cd4 2c3f 7d6e d83d ba96 5bbe
000000a0: 7408 5e3d 3703 d03e a406 f9bd 2381 4e3d
000000b0: 947c 143e d19d cd3e 0d2f e23e 7032 4d3d
000000c0: 84e6 8a3c 172c c93e 6267 0abd a0b3 f73c
000000d0: 74f6 993e 4569 56bd 11f7 c9bd a407 8ebe
000000e0: 02dd 893e f214 19be 6cd9 b33e a350 433f
000000f0: 58d6 2d3e 30b6 87bc 5045 b4bd cb12 19bd
00000100: c479 fa3e 5f74 32bd 99df 403e 69f4 8a3e
00000110: 762f 5abe 65c7 14be 7d79 e7be bfb7 d73e
00000120: 9ce7 963e a5c3 1d3f 19ee 9c3e f428 523e
00000130: c9f1 f43d baee efbe be3c e73d 205c 5a3c
00000140: f21c 3b3f a724 003d 5891 4c3f 388f 85bc
00000150: 3ac7 eb3e e926 9c3e ae69 e73e eb45 c6be
00000160: baa9 cb3e 3815 4abe 82d9 c03d 31bf 65bc
00000170: fb61 7e3e 2052 babd 84f0 32be b795 38bd
00000180: 4b70 fdbe cb76 9d3e be76 373e c6b5 8fbe
00000190: 0db5 adbd 8a80 5f3e 0fae f03e b68f 34bf
000001a0: 48c8 b5be f6cc c03d 9cad d83d 4174 1a3e
000001b0: 152c 2d3f d942 653e 1c83 9fbd 0041 073f
000001c0: 0840 8c3e 9727 d63e dbbf a23d fc7f c43d
000001d0: 2cb0 52be d3c2 d13e b38b bdbe d362 b9be
000001e0: 4d3c a33e 7513 003f a2eb d13e f90c d13e
000001f0: fd74 f73d 4dcf 97bd 563c 1bbf aaab 98be
00000200: 2924 fdbd 2cff 5cbe 78c2 413e f400 a3ba
00000210: b7c2 a5bc e680 64be 332a 203c 60e1 fcbe
00000220: 86af f5be bd2e f7bd 2e3e 023f a0ad 233e
00000230: 188e a0be 9925 783e c3e8 2bbe 4b77 5f3e
00000240: 6dc1 5fbe d416 5c3d d50d 393e 1f27 943e
00000250: bb96 81be 7506 963e 2e50 ee3e 6bb4 8cbd
00000260: b45f a33c 938b 05bd 0135 963b c8ac 3b3e
00000270: e547 49be 510d cfbe eb9c 0e3e 1aa3 833f
00000280: 20ba dcbd 4d9a 03be 6596 d4be 0572 a0be
00000290: bf59 51be d47f c4be 068c 0abe a7bf e5be
000002a0: c7a2 d43d 1099 19bd 75ef 693e 3b95 163e
000002b0: f836 bebd 9601 15be 6952 9abe 48e8 283b
000002c0: 1f00 da3d 6932 b5bc fa86 4fbe 23d1 bfbd
000002d0: 3f36 30bd 0a21 29be 2d03 53bd 66b6 43be
000002e0: 94f9 a6be 4530 893e edcf a8be b364 993d
000002f0: 2347 cdbe ac12 87be 5eb7 e0be bb73 4b3e
00000300: 8c14 2bbe e810 08be d85f bdbd 70a1 94be
00000310: ddbf 0ebe 7a77 a03c 308b 9bbd 1914 acbe
00000320: ad5b f03e d494 54bf 2b07 36bf 68fd 9dbd
00000330: 67c4 873c a0ae b43e a253 22be fdaa 88be
00000340: b1f2 f4be d27e 89be 9488 17be fee4 f4bc
00000350: 7db1 16be 6029 e7bd e2c0 29bd e1c0 a6bd
00000360: 3ddd f0be e8cd 80be 9cd6 edbd f15f 48be
00000370: 51f7 01bf 9c2e 58be 3694 8fbe fecb 3abe
00000380: 006e fcbe 2798 f23d 5c31 4d3d edfa e63b
00000390: 14ec ddbb 0979 20bf 5472 8f3d c7fa 24bc
000003a0: 4726 24be bed2 48be ca0c 62bc d8fe ed3e
000003b0: 601b 1bbe 3a58 6ebe ea57 703c 4bee 09bf
000003c0: b279 4abe 33c8 163f 3ab1 c1bc 12d5 14be
000003d0: 091d b4bd 21c0 d73e 85f4 1bbd 7987 333e
000003e0: b8a1 803c d92b bbbd bca3 10be eac6 19bf
000003f0: 479d 9fbe 8312 e7bb abeb 63be 1f7f 683d

feature.bias_hh_l0_reverse f4 [512]
-0.40055108 -0.022371544 -0.19803752 -0.08022888 -0.37560248 -0.006480148 -0.04773537 0.61941004
-0.040620033 0.24132244 0.22951797 0.43882412 0.04538252 0.24847129 -0.05136483 0.036957975
0.2915037 0.5129082 0.20371829 0.27934003 0.29546878 -0.2748249 0.21673283 0.3166483
0.2498922 0.20794845 -0.19958286 -0.039730687 -0.24861702 0.13674192 -0.05836588 -0.11705239
-0.08891706 -0.24102083 0.19351153 0.24117142 0.028058615 0.6312388 0.06135808 -0.12649842
0.11690621 0.28074908 -0.027526468 0.09133006 0.16195045 0.31618142 0.4705202 0.078167215
0.034309216 0.26744068 -0.050822984 0.046038076 0.24975008 -0.08245149 -0.009167122 -0.3969375
0.35492963 -0.08642166 0.43293622 0.81272817 0.27891168 -0.024245303 -0.061149158 -0.20417498
0.31154966 -0.00079533574 0.12408259 0.22558662 -0.37746236 -0.17324221 -0.39732072 0.45250118
0.23257594 0.62512916 0.4815673 0.19362181 0.18997394 -0.3808179 0.1864932 -0.07884511
0.7091134 0.015552268 0.8341774 -0.11825626 0.50868154 0.31827763 0.31450918 -0.31879622
0.33814964 -0.036129232 0.07353197 0.060926657 0.31865227 -0.22395012 -0.06918597 0.034533627
-0.522755 0.20093638 0.15066014 -0.43574443 -0.05143261 0.12807122 0.6980963 -0.58576715
-0.25475085 0.039400455 -0.021116016 0.31984466 0.7362864 0.18234147 -0.24650869 0.46904585
0.32829812 0.3372176 0.034166917 0.020363893 -0.29568 0.45865044 -0.33876464 -0.44170144
0.31134012 0.58102155 0.5104051 0.40015897 0.03471761 0.058900457 -0.64197755 -0.32795033
-0.16258399 -0.19904296 0.23042573 -0.14703639 -0.1509095 -0.25565964 -0.08982597 -0.43624052
-0.40286776 -0.18483536 0.4408675 0.31846613 -0.39084485 0.16492309 -0.22232856 0.3200694
-0.3110889 0.04145043 0.1838574 0.23534013 -0.18521601 0.19523875 0.4101321 -0.16379489
0.0866307 -0.03234611 0.043179363 0.16519143 -0.1889394 -0.48801854 0.15294784 1.0609912
-0.12341404 -0.1268039 -0.31774896 -0.34871224 -0.13632774 -0.41574952 -0.046346325 -0.44530162
-0.013001359 -0.18854071 0.29290813 0.24237023 -0.1500226 -0.21337427 -0.35348982 -0.035000645
0.18337494 0.033243604 -0.12712474 0.094371535 0.15370107 -0.23739436 0.012919155 -0.20232967
-0.3293222 0.3054276 -0.37152275 0.066251256 -0.43790147 -0.2809259 -0.38738963 0.34411517
-0.32419685 -0.35657844 -0.20642518 -0.39381358 -0.13319476 0.1052069 -0.0066673597 -0.30529106
0.43696967 -0.8758026 -0.7666363 -0.053482752 0.17263421 0.29998446 -0.22007383 -0.29132175
-0.33945388 -0.2125576 -0.17393357 -0.07342455 -0.19038233 -0.10970074 -0.0989952 -0.030079411
-0.4602301 -0.30732605 -0.07561238 -0.21161714 -0.5029976 -0.12358271 -0.25736588 -0.21786776
-0.5979434 0.001919367 0.1553674 0.033661157 -0.080206566 -0.57213855 0.07984861 0.10751448
-0.1943622 -0.25602078 -0.07847723 0.56342065 -0.07636762 -0.28110623 -0.11904246 -0.66883266
-0.15964116 0.7364088 -0.1280388 -0.18687254 -0.051624496 0.40698513 -0.09512952 0.14422664
-0.072137006 -0.1674878 -0.037618645 -0.5946868 -0.26496655 0.062215444 -0.31763446 -0.014943837
00000000: 0815 cdbe 8744 b7bc 59ca 4abe 0a4f a4bd
00000010: f84e c0be 6c57 d4bb 2a86 43bd a891 1e3f
00000020: 3161 26bd 3b1d 773e c206 6b3e 8ead e03e
00000030: 05e3 393d 426f 7e3e ee63 52bd 3f61 173d
00000040: f93f 953e f44d 033f 879b 503e a805 8f3e
00000050: af47 973e d9b5 8cbe 36ef 5d3e ba1f a23e
00000060: bee3 7f3e 70f0 543e 735f 4cbe a5bc 22bd
00000070: 7695 7ebe 1306 0c3e 1011 6fbd 2ab9 efbd
00000080: 261a b6bd 2ace 76be e327 463e a4f5 763e
00000090: 2edb e53c de98 213f 9c52 7b3d cd88 01be
000000a0: 866c ef3d 58be 8f3e 307f e1bc 410b bb3d
000000b0: 57d6 253e 88e2 a13e 06e8 f03e 2216 a03d
000000c0: d287 0c3d fced 883e c32b 50bd 6c92 3c3d
000000d0: 7cbe 7f3e 54dc a8bd b231 16bc 643b cbbe
000000e0: 56b9 b53e d7fd b0bd d1a9 dd3e f40e 503f
000000f0: 83cd 8e3e 169e c6bc 8a77 7abd 3f13 51be
00000100: 7083 9f3e 147e 50ba 031f fe3d 2e00 673e
00000110: bf42 c1be 6866 31be 9f6d cbbe 3cae e73e
00000120: 6328 6e3e 7708 203f fd8f f63e cc44 463e
00000130: 8788 423e 90fa c2be 13f8 3e3e 8c79 a1bd
00000140: 7588 353f f1ce 7e3c a68c 553f 5730 f2bd
00000150: f438 023f 49f5 a23e 5907 a13e 4239 a3be
00000160: f321 ad3e 3ffc 13bd ee97 963d 3b8e 793d
00000170: 6426 a33e 2e53 65be 60b1 8dbd 2273 0d3d
00000180: 46d3 05bf 44c2 4d3e a746 1a3e e519 dfbe
00000190: 00ab 52bd 1a25 033e 70b6 323f d6f4 15bf
000001a0: b46e 82be 5f62 213d 7ffb acbc aec2 a33e
000001b0: 447d 3c3f b9b7 3a3e c66c 7cbe c726 f03e
000001c0: b116 a83e c9a7 ac3e 9cf2 0b3d 2ed2 a63c
000001d0: 5e63 97be 3bd4 ea3e 8f72 adbe b126 e2be
000001e0: f967 9f3e d4bd 143f e9a9 023f a3e1 cc3e
000001f0: 0d34 0e3d 9b41 713d a458 24bf 1be9 a7be
00000200: 6b7c 26be ebd1 4bbe b9f4 6b3e b590 16be
00000210: 0588 1abe d2e5 82be aef6 b7bd eb5a dfbe
00000220: af44 cebe 7b45 3dbe 63b9 e13e fe0d a33e
00000230: d11c c8be 99e1 283e 19aa 63be 23e0 a33e
00000240: 0b47 9fbe edc7 293d 1d45 3c3e 01fd 703e
00000250: 44a9 3dbe abec 473e d6fc d13e d9b9 27be
00000260: 706b b13d 5b7d 04bd d8dc 303d f127 293e
00000270: 5479 41be 91dd f9be 5c9e 1c3e 8fce 873f
00000280: 80c0 fcbd e2d8 01be feaf a2be 698a b2be
00000290: 8099 0bbe 1fdd d4be a5d5 3dbd 93fe e3be
000002a0: a703 55bc d110 41be 0ef8 953e e72f 783e
000002b0: 869f 19be c97e 5abe 9efc b4be d65c 0fbd
000002c0: a4c6 3b3e 722a 083d fd2c 02be dd45 c13d
000002d0: d063 1d3e 8217 73be ddaa 533c 822f 4fbe
000002e0: eb9c a8be 0261 9c3e 3b38 bebe bdae 873d
000002f0: 9f34 e0be 85d5 8fbe ef57 c6be dd2f b03e
00000300: 21fd a5be 7391 b6be 1f61 53be efa1 c9be
00000310: 3564 08be b776 d73d de79 dabb 1c4f 9cbe
00000320: 7dba df3e 9934 60bf 4742 44bf bb10 5bbd
00000330: 06c7 303e 9097 993e 095b 61be 2028 95be
00000340: e6cc adbe b3a8 59be a41b 32be 9c5f 96bd
00000350: 96f3 42be c8aa e0bd ffbd cabd 1969 f6bc
00000360: 48a3 ebbe d759 9dbe aada 9abd 2ab2 58be
00000370: 73c4 00bf ef18 fdbd 76c5 83be ba18 5fbe
00000380: d212 19bf 4593 fb3a a218 1f3e 48e0 093d
00000390: 5743 a4bd ac77 12bf ab87 a33d 8d30 dc3d
000003a0: e206 47be 2815 83be acb8 a0bd 563c 103f
000003b0: a066 9cbd 28ed 8fbe 89cc f3bd 9e38 2bbf
000003c0: f978 23be 4a85 3c3f 9a1c 03be 845b 3fbe
000003d0: 3574 53bd 5b60 d03e 44d3 c2bd 26b0 133e
000003e0: 91bc 93bd ec81 2bbe 0216 1abd 653d 18bf
000003f0: b2a9 87be 9fd5 7e3d fca0 a2be ffd6 74bc
