pretrained_models/comick-75-context-size.pth (torch, 821283 bytes, 10 tensors)

feature.weight_ih_l0 f4 [512, 64]
000000 10 77 fd 3e e4 f5 60 bf 46 4c 8d 3e 0a a2 11 bf
       0.495049 -0.878752 0.27597255 -0.56887877
000010 97 db bd bf 7d f1 07 bc 55 6a e5 bd f1 03 5b 3f
       -1.4832639 -0.008297321 -0.11201922 0.8555289
000020 aa c7 16 3f d0 96 9f bd 64 c7 15 3f fb 0a c4 be
       0.58898413 -0.07792437 0.5850737 -0.38289627
000030 ed ee 41 be 10 0d 1b 3f e8 9b dd be ab 36 91 3e
       -0.18938799 0.60566807 -0.4328301 0.2836202
000040 ac 6a 83 bf ca 64 33 bf de fe 8d 3e 80 e6 80 bf
       -1.0266929 -0.70075667 0.2773351 -1.0070343
000050 e1 e9 88 3f b5 61 0b 3f f0 eb 43 3f 45 52 4e 3d
       1.0696374 0.54445964 0.7653189 0.050371427
000060 cf 43 2e 3d b6 32 11 3f 18 0a d7 be f6 7f 11 bf
       0.042545136 0.56718004 -0.41999888 -0.5683588
000070 34 72 3c 3e 62 4f fa bd bb e9 9d bf a9 06 ba 3e
       0.1840294 -0.12222172 -1.2336954 0.36333206
000080 23 ed ea 3c cd f9 1f 3d ea f8 1d be 85 4e 0d be
       0.028677529 0.039056588 -0.15426984 -0.13799484
000090 55 2a 6b 3f 91 1b aa 3e 61 47 4c bf d0 df c9 3e
       0.9186147 0.33224156 -0.79796416 0.39428568
0000a0 55 00 8a be 40 1c 42 3c 44 dc 23 3b 14 49 ef 3e
       -0.26953378 0.011847556 0.0025003115 0.46735442
0000b0 33 48 42 3f 54 df 0e bf 19 ff c2 3e ae aa ec 3d
       0.7589142 -0.5580952 0.3808525 0.11555992
0000c0 91 9d 1b 3e 68 7b 68 3d 20 32 4e 3e d5 b8 52 3f
       0.15196826 0.056758314 0.20136309 0.8231328
0000d0 fd cc 80 3e 21 8a 39 bf 38 e2 e3 bd 9b 46 2e 3f
       0.25156394 -0.72476393 -0.11127132 0.68076485
0000e0 1c 88 9c 3f 9a 23 43 bf 9c 34 82 3f a2 02 89 3f
       1.2229037 -0.762262 1.0172305 1.0703928
0000f0 7b cd b3 be df 0d ac be b6 06 f2 bd e4 17 00 be
       -0.35117707 -0.33604333 -0.11817686 -0.12509114
000100 42 62 3c 3f e8 24 0f be bb e6 3c 3d 19 91 c2 3e
       0.7358743 -0.13978922 0.04611848 0.38001326
000110 40 e7 ab 3f 87 20 83 3e 58 fc a6 be 85 ca a5 be
       1.3429947 0.25610754 -0.32614398 -0.32381073
000120 46 22 aa 3f 6f d0 8e 3f c9 ee 33 3e 72 62 0c 3e
       1.329171 1.1157359 0.17571558 0.13709429
000130 cb 98 5f 3f 94 9b 73 3e bb 7d d9 3e 3d 1d a8 be
       0.8734252 0.23789817 0.42478737 -0.32834807
000140 f1 f0 b9 be 9d 39 99 bd 53 86 14 bf 4e 76 e1 3e
       -0.36316636 -0.07481692 -0.5801746 0.44035572
000150 2c cf a0 3d f8 21 9a 3e 61 1c a4 be 0e 6f f1 bd
       0.07852015 0.3010404 -0.320529 -0.1178876
000160 07 bf 0a bc a4 66 b2 be 34 1f 8d 3f 8d 6f 1a 3f
       -0.008468396 -0.34843934 1.1025147 0.60326463
000170 0e 1d 5f 3f f2 e2 7b 3e d9 52 54 3e 65 44 7f bf
       0.8715371 0.24598292 0.20734729 -0.99713737
000180 1b 32 68 3e 02 38 4a 3e 20 5d 2b bf ec 93 df bd
       0.22675364 0.19747928 -0.6693897 -0.10916886
000190 28 8e 6e 3e 3b 37 54 3e f0 e8 00 bd c8 84 c2 3e
       0.23296416 0.20724194 -0.031472147 0.3799193
0001a0 eb 2f 7f 3f bd fe e1 be 29 0e a1 3e 02 74 3e 3e
       0.9968249 -0.44139662 0.31456116 0.18598941
0001b0 ae 4f a5 3e 70 d0 9f 3f 5b e1 d0 be a9 2b 52 bd
       0.32287353 1.2485485 -0.40796933 -0.05131117
0001c0 a2 06 fe be 62 6b 26 3e 54 9f 9d 3f f6 68 01 bf
       -0.49614435 0.16251901 1.2314248 -0.5055078
0001d0 fc 27 13 3f 4f 80 b7 3e 8f ab 08 bb e2 93 bf 3e
       0.57482886 0.3584008 -0.002085421 0.37417513
0001e0 3a e1 54 bf 43 d5 1f 3f 67 f1 fe be 8b da c3 be
       -0.8315617 0.62434787 -0.4979355 -0.38252673
0001f0 7a 3b da 3d 40 ab 0c bf 2c 9d a8 3e ba 72 06 bf
       0.106558755 -0.54948807 0.32932413 -0.5251881
000200 13 ae f7 3f 31 da ba 3f 36 fb 54 bf 2c 36 e7 be
       1.9349998 1.4597837 -0.8319582 -0.45158517
000210 2d d6 9f bf b9 cd 69 bf 06 d9 44 3e 30 b2 b4 bf
       -1.2487236 -0.9132953 0.19223413 -1.4116879
000220 1d ae ff bd 6b 56 ee 3e d3 ba cc be ac e7 93 3f
       -0.12484381 0.46550307 -0.39986286 1.1555076
000230 65 a3 6f 3f 1b 13 48 3e c2 ec b4 3f 7b bd 0f be
       0.93608695 0.19538538 1.4134753 -0.14037125
000240 8a 1f 26 bf 32 ad 02 bd 09 0c 52 be c5 f2 db be
       -0.64891875 -0.031903453 -0.20512404 -0.42958656
000250 2a be c3 3d 33 ca 51 bf 27 54 e3 bf 20 e0 c2 bf
       0.09557755 -0.81949157 -1.7760056 -1.5224648
000260 22 1f b1 bf 1a 0c ad bf df 20 ab 3f b6 35 a0 3e
       -1.3837626 -1.3519318 1.3369406 0.31290978
000270 1b 52 cc bf bc db f6 3e c5 10 3f be 66 bf 6d bf
       -1.5962557 0.4821452 -0.18658741 -0.92870176
000280 42 82 c7 3c 52 a2 11 3f 90 7b ba 3e 0e cf 1c bd
       0.024354104 0.56888306 0.36422396 -0.0382834
000290 d5 3e 3c 3f 23 a1 15 bf 8a 83 05 bf 25 d4 e7 3f
       0.73533374 -0.58449 -0.5215384 1.8111616
0002a0 6b 2b f7 be fc d5 99 bf 77 79 0c 3f 52 3a 47 3e
       -0.48275313 -1.2018428 0.5487284 0.19455841
0002b0 a8 bf 97 3e aa 53 b8 3e a8 a9 24 3f 69 86 2b 3f
       0.2963841 0.3600133 0.64321375 0.6700197
0002c0 e0 93 36 3f f1 0e ae 3f b5 8f 0b 3f 7c 20 8f 3e
       0.7131939 1.359831 0.54516155 0.2795447
0002d0 9a 9e cf be ad 20 9f bf 8e 7a bf 3f f8 e0 35 3f
       -0.4055069 -1.2431847 1.4959276 0.710464
0002e0 cd b4 cb be 6b 80 07 3f bb 1c 19 3e 14 ee 77 3f
       -0.39786378 0.52930325 0.14952366 0.96847653
0002f0 43 0b 69 3e 8c 0f 03 3f cf a2 3c bc d0 88 f8 3e
       0.22758202 0.511956 -0.011513426 0.4854188
000300 59 7f 29 3f b3 aa f2 b8 fc 6a 3e bf 48 bc ea 3e
       0.6620994 -0.000115712544 -0.74381995 0.45846772
000310 d9 4e d6 be 7e d8 d4 3e ba 9c 1f bd 24 89 cc be
       -0.4185703 0.4157142 -0.038967825 -0.3994838
000320 7b ba 3c 3f 30 f7 24 3d 90 2c a4 3f f7 c3 d7 bd
       0.73722047 0.0402748 1.2826099 -0.10535424
000330 43 f5 63 3f b9 24 ac bd 58 64 59 3f 47 f8 54 bf
       0.89046115 -0.08405442 0.8491874 -0.8319134
000340 e3 1c 4a be 95 90 f5 be 1d a7 d7 3e 71 26 3a bf
       -0.19737582 -0.4796187 0.42119685 -0.72714907
000350 4f b8 55 bf 6a 0a 90 3f 3f ce e0 3d db 15 9d 3e
       -0.8348436 1.1253178 0.10976838 0.30680737
000360 a7 47 cc 3e 68 dc c3 3e 6a 7c 82 be e8 bb 23 3f
       0.39898416 0.38254094 -0.25485545 0.639586
000370 b5 cf 7d 3e 78 c6 8c 3e 54 2f d4 bd e4 71 24 bf
       0.24786265 0.2749517 -0.103605896 -0.64236283
000380 d1 b5 8c 3f 6b 2d 29 3e 20 81 f1 3e 78 31 d1 3d
       1.0992986 0.16521232 0.47168827 0.102145135
000390 d9 3a be be 8b e2 d7 be e5 66 9b 3e 0f cc b9 bd
       -0.37154272 -0.42165026 0.3035194 -0.09072124
0003a0 90 55 04 bf 9b b8 e3 be 96 80 05 bf a0 a1 b2 bd
       -0.5169306 -0.4447678 -0.5214933 -0.08722234
0003b0 53 21 8d bf 25 57 4c 3f e6 e1 30 bf 29 ee 10 3f
       -1.1025795 0.7982047 -0.69094694 0.56613404
0003c0 37 b8 c6 3e 04 da 3f 3f 46 9b 02 3f 17 82 32 bf
       0.3881242 0.7494204 0.5101818 -0.6972975
0003d0 52 7e aa be 04 75 18 be 54 bc 09 3f 04 00 b6 3e
       -0.332995 -0.14888388 0.5380299 0.35546887
0003e0 d1 75 3d 3f 8e db 60 bf 63 02 31 39 dc ac 06 bf
       0.740079 -0.87835014 0.00016880925 -0.5260751
0003f0 d8 66 10 3f 47 28 87 3f a5 7d 2c bf ff 40 0f be
       0.5640693 1.0559167 -0.6737922 -0.13989638

feature.weight_hh_l0 f4 [512, 128]
000000 51 6a ff bd 13 f3 e0 3e 98 40 ac 3e 46 21 0c 3e
       -0.1247145 0.4393545 0.3364303 0.13684568
000010 9d 11 df 3e 5a 68 0d 3e c2 12 ca 3e 57 bf b7 3e
       0.43568125 0.13809338 0.39467436 0.35888168
000020 b4 35 99 be ba 88 aa 3f 32 8b 9a 3e 05 74 27 bd
       -0.29923785 1.3322976 0.30184323 -0.04088213
000030 5d 97 d9 be 1e 41 21 3e 71 1c e9 3e e7 01 a9 be
       -0.42498294 0.15747496 0.45529512 -0.33009264
000040 b2 85 d7 bc e4 05 a3 3e 38 42 7d 3d 5e ce 9a be
       -0.026308868 0.31840432 0.06183073 -0.3023557
000050 a1 5c 06 3f 6a 2c ed be 10 e5 9a 3d a6 b8 1f 3e
       0.5248509 -0.46322948 0.075632215 0.15597782
000060 98 8f ad be 70 71 84 3d 50 f3 53 3e c0 9a b0 3e
       -0.33898616 0.06466949 0.20698285 0.34493065
000070 bd 51 fb 3d 61 3a e5 bd d0 bd 32 3e 7d a5 7c 3d
       0.1227145 -0.111927755 0.1745522 0.06168126
000080 ee 43 40 3f 38 c8 98 bd bc c7 50 bd d3 6a d5 3e
       0.7510365 -0.07460064 -0.05097173 0.41683063
000090 62 3c 31 bf 05 c4 bc be 40 bd 9a 3e cd d9 85 bf
       -0.6923276 -0.368683 0.3022251 -1.0457093
0000a0 41 08 5b bf 67 54 35 3f c3 60 68 3c c4 88 34 be
       -0.8555947 0.7083191 0.014183226 -0.17630297
0000b0 a9 ae 85 3e 8d ae bf bd 5e 1b ab be 6a 20 bf 3d
       0.26109818 -0.09359465 -0.33419317 0.09332354
0000c0 6e 3d 16 bf 63 ba 27 3f 84 1c 9d bc 32 a6 bd 3c
       -0.58687484 0.6551878 -0.019178636 0.023150537
0000d0 61 06 ac 3e 17 d5 20 3f a3 16 98 be d2 95 ad bd
       0.33598617 0.6282515 -0.2970477 -0.084758416
0000e0 3f b5 34 3f 02 2f 52 3e 58 c8 17 3e a0 b7 50 be
       0.7058906 0.20525745 0.14822519 -0.20382547
0000f0 9b 89 ad 3e 44 0a 6e 3e c2 d6 be 3e e2 61 9a 3e
       0.33894047 0.23246104 0.37273222 0.30152804
000100 c0 0a 6a be 5e b1 72 3c 58 2e d4 bd 20 92 2b 3f
       -0.22855663 0.014812795 -0.10360402 0.67019844
000110 08 00 3d be 0d 8f b6 3d f7 90 40 3e d5 df 99 bd
       -0.18457043 0.089140035 0.188053 -0.07513396
000120 9a 17 e0 bd 39 5f 1b be 74 da 1b 3e e1 74 0b bf
       -0.10942002 -0.15173043 0.15220052 -0.5447522
000130 92 f9 bc 3c 72 d0 a1 be 77 2c 4c be c7 ae 3f be
       0.023068223 -0.31604344 -0.19938837 -0.18719016
000140 30 2d de 3e 4f 58 80 3e 69 17 fc 3d 0a c5 cc 3e
       0.4339385 0.25067374 0.12309153 0.3999408
000150 e2 04 c1 3d 50 88 21 3f eb 4c b2 3e 41 55 c5 bd
       0.094247594 0.6309862 0.3482431 -0.096354015
000160 2b 34 fd be be 44 2c bd 87 c1 9f be 22 cb 11 3f
       -0.49453864 -0.042057745 -0.31202337 0.5695058
000170 9e 07 6e be eb d5 0a bf 5b 9e 2c be 08 27 1d bf
       -0.23245093 -0.5423266 -0.16857283 -0.6138768
000180 a3 56 c8 3e db 8e bb be 0a ff f7 3d 81 89 b7 3d
       0.391286 -0.36632428 0.12109192 0.08961774
000190 94 15 22 bf 2c cf d8 be 51 f3 50 bf 3d 4d 3b 3d
       -0.63314176 -0.4234556 -0.8162127 0.045727957
0001a0 02 fe 88 be 45 cf e3 3e 62 64 c9 3f 9a c6 72 3d
       -0.26756293 0.44494072 1.5733759 0.059271432
0001b0 17 7e 19 bf 91 17 33 bf 01 f5 cb 3e 91 dc 13 be
       -0.5995802 -0.69957834 0.3983536 -0.14439608
0001c0 a3 ad 59 bf 54 51 20 be fb e2 1e 3f e6 f5 d8 be
       -0.85030574 -0.15656024 0.62065095 -0.42375106
0001d0 28 cd 08 bf bd 85 2d be d1 87 2c 3f f7 61 9a 3e
       -0.53438044 -0.16945548 0.6739474 0.30152866
0001e0 d3 9c 92 3e 22 96 15 be ef eb b0 be ee 0a ad 3e
       0.28635272 -0.14608052 -0.34555003 0.337974
0001f0 b4 56 3e be 98 38 e3 be b1 2e 1c 3f 82 83 c2 3e
       -0.18587762 -0.44379115 0.61008745 0.37990957
000200 1a 2c 6e 3d 7f ea 62 bf 71 df 88 3e 46 03 1b 3e
       0.058147527 -0.8863906 0.26732972 0.15137967
000210 64 da 1a bf 7e 49 b5 bd 16 1c f5 bd 1a 36 ce be
       -0.6048949 -0.08851908 -0.119682476 -0.4027565
000220 18 57 16 3e 14 c1 00 3f e2 c5 c8 3e 34 fd 7d be
       0.14681661 0.50294614 0.39213473 -0.2480362
000230 3f 37 69 bc 00 ec 42 be 1b 0e 00 3e 47 bf 72 3e
       -0.014234363 -0.1903534 0.12505381 0.23705779
000240 16 56 c6 3d cc ae d4 be 21 ad cd 3e 23 d9 55 be
       0.09684388 -0.4153961 0.4017115 -0.20883612
000250 9d d1 30 be 8d ff 4d bd 3e d4 48 bd e8 0c ae 3e
       -0.17267461 -0.05029254 -0.049030535 0.33994222
000260 fb 5b 81 bd d3 c8 6a be 9f 7c ff bb 18 f0 bd 3e
       -0.06316372 -0.22928171 -0.0077968384 0.3709724
000270 73 21 08 bd 07 74 2c be a6 8b 44 bf a4 5c a8 3e
       -0.033235025 -0.16841136 -0.76775587 0.3288318
000280 97 10 ab 3d 1b ed 4b 3e 75 ae 37 bf 45 7d bd ba
       0.08352774 0.19914667 -0.71750575 -0.0014456889
000290 20 25 04 bf a7 d7 08 be 5f 8c 29 bf a2 60 80 be
       -0.5161915 -0.13363515 -0.66229814 -0.25073725
0002a0 33 ad 11 be c1 c8 cd 3e 71 19 74 bf 43 c2 1e 3f
       -0.14226227 0.40192226 -0.9535132 0.6201517
0002b0 2f e0 e7 be 47 32 5a bf 96 a1 be bd 47 38 2a 3e
       -0.45288226 -0.8523297 -0.09308164 0.1662303
0002c0 27 d0 95 bd eb 58 8f 3f f9 db 31 3d b4 96 2b 3f
       -0.073150925 1.1199011 0.043422673 0.6702683
0002d0 3a 93 2b be 90 a5 c3 be 81 36 53 3f c4 39 56 3f
       -0.16755381 -0.38212252 0.8250504 0.83681893
0002e0 28 93 5b 3e 89 1e 45 3e a2 d6 03 bf 27 09 94 be
       0.21442854 0.1924993 -0.5149938 -0.28913233
0002f0 6b 5d 89 bd 1a cf ec 3e 2f e9 f8 3e f7 4e 54 3e
       -0.06707271 0.46251756 0.48615405 0.20733248
000300 18 f8 44 be bf 18 48 be ca 6e d0 be 59 1a 5a 3e
       -0.19235265 -0.1954069 -0.40709525 0.21299113
000310 bd 35 f7 3e 6f 99 14 bf 4e 7c f3 be 00 99 0f bf
       0.48283187 -0.5804662 -0.47555774 -0.56092834
000320 05 88 c4 3d 66 b6 5b 3e c4 b2 2d 3f db 8f 1b bf
       0.09596256 0.21456298 0.678509 -0.6076638
000330 ff 00 62 3e 79 9e 77 be d4 6a 3c be 42 b5 a9 3e
       0.22070692 -0.24181546 -0.18400127 0.331461
000340 d9 3a 3c be f3 02 be 3e ed e0 b1 3e d1 b2 99 3f
       -0.18381824 0.37111625 0.34741917 1.2007695
000350 f3 7d 3a 3e 06 a3 1a 3f 35 80 bc 3e 19 ba 10 bf
       0.18212108 0.60405004 0.36816564 -0.5653396
000360 1e af fb be 4c dc 60 bf 35 ba 30 3e c5 35 c7 be
       -0.4915704 -0.87836146 0.17258532 -0.3890821
000370 cd 1e cd 3e c6 27 f5 3e b9 d2 3e be 03 97 8c 3f
       0.40062562 0.47881907 -0.18635072 1.0983585
000380 1c 2d 18 bf 7d 6a 13 3f 55 e6 ef bd 25 c4 2d 3e
       -0.5944383 0.57584363 -0.11713854 0.16969354
000390 17 d2 90 be 4c 62 64 bd 0a d4 26 bb c7 a3 01 be
       -0.28285286 -0.055757806 -0.0025455975 -0.12660132
0003a0 fb 78 45 3e 60 0a b7 3d 25 11 1c bf fe 33 e3 3e
       0.19284432 0.08937526 -0.6096366 0.44375604
0003b0 d1 19 38 3f 07 b5 5c 3c 2f 3b 83 3f 83 6d bc be
       0.7191439 0.013470895 1.0252436 -0.368023
0003c0 96 e1 1e 3f 08 5c 4f bf cf 8c 61 3f 53 6c 37 3f
       0.62062967 -0.80999804 0.8810548 0.71649665
0003d0 e3 63 70 bd b7 67 9f be e4 e6 59 be 76 3e ea be
       -0.05868901 -0.31133816 -0.21279484 -0.4575078
0003e0 d6 4d dc be 21 2e a3 bb 87 1b d3 be 0c 41 11 bf
       -0.43028134 -0.004979864 -0.4123194 -0.5673988
0003f0 eb 39 28 3d c8 92 4b 3d 31 2d 8c bb 89 15 0e bd
       0.04107086 0.04970053 -0.004277848 -0.034688506

feature.bias_ih_l0 f4 [512]
000000 46 7a d8 bb 96 5f c1 3f 1d 0e db 3c 17 87 4b be
       -0.006606373 1.5107296 0.026740128 -0.19875751
000010 87 62 0f 3f e0 38 0a 3f 2e 93 bc be 23 2a b0 bd
       0.56009716 0.53993034 -0.3683104 -0.08601787
000020 fa 37 d9 bd 1f b0 f8 3d 85 6c da bd 19 69 71 3e
       -0.1060638 0.121429674 -0.1066523 0.23575248
000030 28 a7 7b 3e 99 54 8e 3e 4e 64 9a bd 89 41 0b 3e
       0.24575484 0.27798918 -0.07538663 0.13599218
000040 a5 92 9f 3d 52 37 c0 be b0 ee 5b 3f 57 63 c6 be
       0.07791642 -0.37542206 0.85911083 -0.38747665
000050 02 eb 41 3e 34 df 0e 3f 47 26 84 3d 04 8e 3d 3f
       0.18937305 0.5580933 0.06452613 0.74044824
000060 54 42 3f 3e 03 2f b9 3d 93 66 df 3e 5d a0 58 be
       0.18677646 0.0904217 0.43632945 -0.21154924
000070 eb a7 16 3f 2c d9 15 3e 4f 85 14 3d 24 6d 05 3a
       0.5884997 0.14633626 0.036259945 0.00050898106
000080 57 8c 7f be b5 74 ef 3d b0 7b 07 3f fe 9d 92 bd
       -0.24955879 0.11692182 0.5292311 -0.07159041
000090 16 6c 74 3e 92 e1 b2 bd 7d e7 ad be da ef c3 be
       0.23869357 -0.087344304 -0.33965674 -0.3826893
0000a0 1d 57 9f 3e e5 f7 dc 3e 37 0a db bd 2a 51 17 3f
       0.3112115 0.4315788 -0.10695308 0.5910822
0000b0 81 29 90 be dd 69 c2 be b4 d6 35 bc 35 64 bb be
       -0.28156665 -0.37971392 -0.0110985525 -0.3659989
0000c0 4c ac 41 3f 48 09 2d 3f 3b 71 7b 3d 72 22 96 3e
       0.7565353 0.6759229 0.061387282 0.29323155
0000d0 2f 5f f5 3e 8b 4f 9b 3d dc 40 90 3f 56 be 1b 3f
       0.47924182 0.07583531 1.1269794 0.60837305
0000e0 66 31 61 3d d8 ac e9 3e 8b 1c e4 3e 67 78 94 3d
       0.05497875 0.45639682 0.44553027 0.072495274
0000f0 34 d3 1f 3f a7 75 a9 3e 3f 34 be 3e 9f 87 d3 be
       0.62431645 0.33097574 0.37149236 -0.41314408
000100 23 33 3d be 6d aa d4 b9 18 e6 ae 3f 51 aa 2a be
       -0.18476538 -0.00040562768 1.3663969 -0.16666533
000110 15 89 24 3e 7d 16 a7 3e 0c 41 c1 be 66 1e 5b 3e
       0.16067918 0.32634345 -0.3774494 0.21398315
000120 24 24 97 3e a3 66 74 3f 8c 88 a9 3d fa ca 36 3f
       0.2951976 0.9546911 0.082779974 0.7140347
000130 56 bd bd 3c ee 56 9d bd ef 73 e5 3d 96 62 08 be
       0.023161571 -0.07682596 0.11203753 -0.13318858
000140 ba 4f 9f be f0 0f 99 3e 58 e6 2a 3e e9 96 20 3e
       -0.31115514 0.29894972 0.16689432 0.15682568
000150 b6 3f 70 3e bb 9f c2 3e 38 f2 3a 3d 3d 5c 61 be
       0.23461804 0.3801249 0.045641154 -0.22007842
000160 e8 8e 1a bd d2 93 b8 3e 52 7c 50 3f 9c b3 55 be
       -0.037733942 0.36050278 0.814397 -0.20869297
000170 10 03 e3 3e 4b 86 13 3f 57 11 b6 bd 24 4a 9b 3e
       0.44338274 0.5762679 -0.08890026 0.30330002
000180 b7 e9 d5 bc b4 d0 b9 3c 56 46 21 be 88 59 0a 3f
       -0.02611242 0.022682525 -0.15749487 0.54042864
000190 4d e7 38 3e 5b 19 81 3e 11 45 63 3e aa 7f 6b 3f
       0.18056984 0.25214657 0.22194315 0.91991675
0001a0 c4 1b 89 bc 23 30 f3 3d ff ac 9a 3f 5f 53 76 3e
       -0.016736872 0.11874416 1.2084044 0.24055241
0001b0 a9 40 25 be 8d 11 74 ba a3 58 be 3e 62 52 f0 bd
       -0.16137947 -0.00093104766 0.37177 -0.11734463
0001c0 f9 99 94 3e 86 75 d6 3e 69 23 6a 3f 20 91 24 be
       0.29023722 0.41886538 0.9146028 -0.16070986
0001d0 44 c2 2f be 96 30 0b 3f a1 4b 19 3e 62 44 25 3e
       -0.1716395 0.5437101 0.14970256 0.16139367
0001e0 db be 89 be 79 d2 b3 bd 51 3d 88 3e 2f c8 88 be
       -0.26903424 -0.08780379 0.2660928 -0.26715228
0001f0 d7 a5 b2 be 74 ce 73 3d 4d 6e a4 3f bf 33 95 3e
       -0.3489215 0.05952306 1.2846161 0.29141042
000200 c6 63 36 3d 99 8e dd 3e 30 ac fc bd e3 85 ba 3c
       0.044528745 0.43272856 -0.1233753 0.02276892
000210 e2 21 94 bd d7 ec 36 3e 27 83 ad bd 1a 28 cd 3d
       -0.07233025 0.17863785 -0.08472281 0.100174144
000220 00 3a 82 3c ac d1 dd be ab 21 81 be 53 d5 ed be
       0.015896797 -0.4332403 -0.25221 -0.46451816
000230 f7 f1 3f be 71 8b 33 be c5 f5 83 3e d9 20 80 be
       -0.18744646 -0.17533661 0.25773445 -0.2502506
000240 36 4b dc be 87 a4 b2 be 8a f4 25 bf be 5c 24 3e
       -0.4302613 -0.3489115 -0.6482626 0.16051003
000250 b0 53 ca 3e ae 0c b0 3d 36 97 1a be 84 19 93 be
       0.39516973 0.085961685 -0.15096745 -0.28730404
000260 eb f4 63 3e 89 78 c8 be 66 28 22 bf fa 38 d2 3b
       0.22261398 -0.3915446 -0.63342893 0.0064154835
000270 f1 dc a2 be b8 39 4b be c6 75 fe be 1d 3b 17 bf
       -0.3180919 -0.19846237 -0.4969923 -0.59074575
000280 6c 1f 04 bf f0 f8 2b be a3 e5 bd be 50 1d 81 bc
       -0.51610446 -0.16794181 -0.3708926 -0.015761048
000290 7c 62 9c be ec 54 1f 3e d3 51 e5 be ad 41 ef be
       -0.30543888 0.15559739 -0.4478899 -0.46729794
0002a0 19 e6 eb be 2f 57 57 3c c8 e1 52 bd bb 2d 03 3e
       -0.46073988 0.013143345 -0.051484853 0.12810414
0002b0 9f 6d d8 be 4e e6 6e 3e a3 2b dd bd 52 35 79 3b
       -0.42271134 0.23330042 -0.10799339 0.0038026166
0002c0 c1 c9 e7 be 7d 99 3a 3e ca 63 44 3e 16 9f 61 be
       -0.45271114 0.18222614 0.19178692 -0.22033343
0002d0 a9 d2 1b bf 4e f0 27 be e9 4e 02 be 27 5a 1f be
       -0.60868317 -0.16400263 -0.12725414 -0.15561734
0002e0 fa 7c 9b bd 2f 85 0e be 32 12 f0 be 0f 30 bb bd
       -0.07592197 -0.13917993 -0.46888882 -0.09140026
0002f0 c3 de 6b bc ec 1d 22 bf 6f 5f 11 3d ba f7 53 bc
       -0.014396372 -0.6332691 0.035491403 -0.012937481
000300 a2 cd 56 3e b7 35 0a 3f e2 54 3a 3c 86 a5 4c be
       0.2097688 0.5398821 0.011372777 -0.19985017
000310 5b 8c 9d be 1e 5c 73 be 7c 72 32 bf 48 e6 52 be
       -0.30771145 -0.23765609 -0.6970594 -0.20595658
000320 6e f3 68 3d 28 65 c7 be 8f 20 65 3e 56 1c 2d bf
       0.056872778 -0.38944364 0.22375701 -0.6762136
000330 ce 53 26 3d f2 5b a1 3e 0e f9 82 be c0 a6 1b bf
       0.040607266 0.3151546 -0.2558064 -0.60801315
000340 cd c6 b7 be 83 a4 28 be c0 99 ab bd 77 d2 68 be
       -0.3589386 -0.16469006 -0.08378935 -0.22736536
000350 ca 83 55 be fe 04 16 bf 04 31 86 be 85 1a 93 bc
       -0.20851055 -0.5860137 -0.2620927 -0.017956981
000360 3e 42 1d be f9 50 94 be 05 34 19 bf 54 17 ea 3d
       -0.153573 -0.28968027 -0.59845 0.11430231
000370 e0 77 8d 3e 90 81 25 bd f0 5e de be 46 67 ad be
       0.2763052 -0.040406764 -0.43431807 -0.33867854
000380 da 30 61 be 28 b4 eb be 79 16 0b be dd 95 f0 be
       -0.21991292 -0.46035886 -0.13582791 -0.46989337
000390 1e 67 ed be 38 d8 e8 3c 75 34 bf be 55 f1 23 bf
       -0.46367735 0.028423414 -0.3734471 -0.6404012
0003a0 67 a3 a3 be e0 e0 6e 3d b9 82 53 bf 0a ca a5 bd
       -0.31960604 0.058319926 -0.8262134 -0.080951765
0003b0 46 7b 89 3c 54 c4 06 3f d1 fa 1d be 09 fd da be
       0.016782414 0.5264332 -0.1542771 -0.42771176
0003c0 7d c1 7a be 96 55 fd be b1 38 00 bf bd 73 84 be
       -0.24487872 -0.4947936 -0.50086504 -0.2586955
0003d0 18 44 fe bd d5 7e a2 3e 89 e7 0b 3e 92 ff 77 bd
       -0.124153316 0.3173739 0.13662542 -0.060546465
0003e0 8e 5f 3e bd 8f a4 2f be 81 33 c9 3a f9 bd 8f be
       -0.046477847 -0.17152618 0.0015350432 -0.28074625
0003f0 5c dd ac be 61 1d c1 be a6 97 2e 3f 07 29 76 3e
       -0.33762634 -0.37717727 0.6820015 0.24039088

feature.bias_hh_l0 f4 [512]
000000 26 e6 13 3d 4c 1d bc 3f d6 76 7d bd 31 91 57 be
       0.03610816 1.4696441 -0.06188091 -0.2105148
000010 50 b2 e0 3e 44 9a 02 3f 49 be e3 be 94 90 49 3d
       0.43886042 0.5101664 -0.44481114 0.049210146
000020 2f 5c 36 bd 30 e1 a3 bd 07 3b 70 bb 1a 63 82 3e
       -0.044521507 -0.080019355 -0.0036656277 0.25466233
000030 d4 5d 48 3e 96 e5 4e 3e 88 e2 1a be 42 be bc 3d
       0.19567043 0.20204768 -0.15125477 0.09215976
000040 c4 1e 30 3d 81 a3 ba be 2c 06 59 3f b2 18 c6 be
       0.04299809 -0.3645287 0.8477504 -0.38690716
000050 94 85 71 3e fd bc 33 3f 5b ff 3c 3c 6a 56 34 3f
       0.23586112 0.7021025 0.011535491 0.7044436
000060 1b d1 f2 3d 9d 5d 68 3d 4d 08 c5 3e 98 a1 ab bd
       0.1185629 0.0567299 0.38482895 -0.08380431
000070 c8 c0 05 3f 57 79 34 3e f0 0e da 3d 6f e8 0f 3e
       0.52247286 0.17624412 0.1064738 0.1405351
000080 b9 e6 42 be de 3a 82 3e f7 84 18 3f ff 0f fc bc
       -0.19033326 0.25435537 0.5957789 -0.030769346
000090 c4 ed ad 3d be cb 40 bd 29 33 c6 be 0f a6 93 be
       0.08492616 -0.047069304 -0.38710907 -0.2883763
0000a0 17 18 9e 3e 07 69 f7 3e 61 90 ef bd 4c b5 0c 3f
       0.30877754 0.48322317 -0.1169746 0.5496414
0000b0 b7 9a 94 be 4c 7b 01 bf bf 94 22 be 01 24 a1 be
       -0.29024288 -0.5057876 -0.15877055 -0.3147278
0000c0 9f 3a 31 3f ce 53 37 3f 6d 10 36 3d cd ca 1d 3e
       0.69230074 0.7161225 0.04444926 0.15409394
0000d0 e3 db e5 3e b3 eb 77 3d ed 1a 93 3f ab c5 e1 3e
       0.44894323 0.060527515 1.1492592 0.4409612
0000e0 d8 16 18 3e c4 c9 c5 3e 5a 02 a2 3e df 16 2d 3e
       0.14852464 0.38630497 0.3164242 0.16903256
0000f0 ad c4 25 3f 1b 6a d1 3e f0 de cb 3e 14 07 c2 be
       0.6475323 0.40901265 0.39818525 -0.37896025
000100 88 02 51 be 3f 5b 35 be 0c a8 c1 3f e8 42 95 be
       -0.20411122 -0.17710589 1.5129409 -0.29152608
000110 ea 85 f2 3d ea 03 c7 3e 58 01 d7 be 89 fb bf 3e
       0.11841948 0.38870174 -0.41993213 0.37496594
000120 3f d2 53 3e 01 63 60 3f 4c 79 c0 3d bf 03 22 3f
       0.20685671 0.8765107 0.093981355 0.63286966
000130 a0 62 47 3c 41 e0 73 be 53 08 00 3e 12 86 bc bc
       0.01216951 -0.23816015 0.12503175 -0.023013148
000140 ad 82 80 be d8 d7 43 3e f4 d3 c1 bc 29 41 c8 3c
       -0.25099698 0.19125307 -0.023660637 0.024445133
000150 77 39 8c 3e 15 9d 0f 3f 0e c5 03 3e 9e 19 22 be
       0.27387592 0.56099063 0.12868139 -0.15830085
000160 ad 12 ce bd bd 72 6b 3e a7 e7 60 3f b7 a4 82 be
       -0.10062156 0.22992988 0.87853473 -0.25516292
000170 09 e6 01 3f cd 31 16 3f 57 ec c6 bd 31 dd 79 3e
       0.5074163 0.5866974 -0.09713047 0.24400784
000180 1c f9 0d be ae ac 2d 3e 51 95 2d be 21 8c fe 3e
       -0.13864559 0.16960403 -0.16951491 0.49716285
000190 da 8c cf 3d d2 5d cc 3d d1 ff 83 3e d8 9a 59 3f
       0.10134287 0.09978832 0.2578111 0.850019
0001a0 3d 82 97 3c 15 1e a5 3d 0b 57 9a 3f f9 a1 89 3e
       0.01849472 0.08062378 1.2057813 0.26881388
0001b0 03 75 46 be b4 d2 e7 bd 8d 08 d2 3e fa 35 46 be
       -0.19380574 -0.11319485 0.4102215 -0.19356528
0001c0 5c 35 57 3e f1 c9 c8 3e f1 27 74 3f 3b a4 2a be
       0.21016449 0.3921657 0.95373446 -0.16664211
0001d0 00 37 4a bd fa 05 0c 3f 4d 85 56 3c 3d 11 ed 3d
       -0.04936886 0.5469662 0.013093305 0.115755536
0001e0 be 4b 54 be ea 64 f5 bc a1 45 70 3e 16 48 6f be
       -0.20732018 -0.029955346 0.23464061 -0.23367342
0001f0 bd 9c a6 be 44 51 17 3e ac 5d 9a 3f 8f 68 ba 3e
       -0.32541457 0.14777094 1.2059836 0.36407897
000200 40 db 8d 3d d2 95 ee 3e b8 4c c4 bd 72 be e1 3d
       0.06926584 0.4659868 -0.095849454 0.11022653
000210 bf 64 50 be bd 8e 13 3e 82 2a a9 bd ba a1 ff 3d
       -0.20350932 0.14409919 -0.08260061 0.12482019
000220 ce 5b 0c bd ef aa 07 bf 3b ad 0e be 30 44 d9 be
       -0.03426724 -0.529952 -0.1393327 -0.42434835
000230 a6 af a7 bd b6 99 05 be 9b 9b 03 3e 8c 63 8a be
       -0.08187799 -0.13046917 0.12852328 -0.27029073
000240 cd 9d c4 be cb db 33 be c2 fe 1a bf 6c 87 04 3e
       -0.38401642 -0.17564313 -0.6054498 0.12942284
000250 b6 8a b7 3e d3 90 85 3d d5 60 e9 bd 7d 8d 3e be
       0.35848016 0.06521764 -0.11395422 -0.18608661
000260 a0 0a 8b 3e d4 4f da be 28 10 0d bf 59 c9 b8 3d
       0.27156544 -0.4263903 -0.5510278 0.09022779
000270 f0 75 bd be 7a bc 2e be c6 0c d4 be 08 33 1d bf
       -0.37004042 -0.17064086 -0.41415995 -0.6140599
000280 bb b9 f3 be 83 6d ab bd f4 1a ba be e1 b9 b4 bc
       -0.4760264 -0.08370497 -0.3634869 -0.02206129
000290 97 4d d1 be 61 a6 f4 3d 7d c4 e5 be 09 e2 03 bf
       -0.4087951 0.11945797 -0.4487647 -0.5151678
0002a0 f9 ea bc be 0b 1f 22 bd f1 f0 f2 bc 41 18 5c 3e
       -0.3689802 -0.039580386 -0.029655905 0.21493627
0002b0 2c 01 b4 be d7 2f b2 3e 02 5f a6 3b 1f af 13 be
       -0.35157144 0.34802124 0.005077244 -0.14422272
0002c0 c7 ca 00 bf be 45 d9 3d 9e 5c 66 3d ca 25 4e be
       -0.50309414 0.106090054 0.05624067 -0.20131603
0002d0 e7 68 14 bf fc f3 4e be b4 6e 4d 3c 32 b9 91 be
       -0.5797257 -0.2021026 0.012538601 -0.28461605
0002e0 ce e8 5d be 67 91 81 be 64 ee 04 bf 53 ab 9c bc
       -0.21670839 -0.25306246 -0.51926255 -0.019124663
0002f0 63 3b 7f bc 63 06 20 bf b6 ce 8a 3c f3 7a 62 bd
       -0.015578124 -0.62509745 0.01694427 -0.055293035
000300 cb 45 14 3e 56 9e f5 3e 70 3d 15 bd 58 c8 e5 bd
       0.14479749 0.47972363 -0.036435544 -0.11219853
000310 10 02 c3 be f4 02 4b be 0c e5 04 bf af b9 fe bd
       -0.3808751 -0.19825345 -0.51912 -0.1243776
000320 63 c4 af 3d e8 41 cb be 30 1a a8 3e 7e 81 33 bf
       0.0858238 -0.3969872 0.3283248 -0.70119464
000330 e8 13 9b 3d 37 39 6b 3e 7a 48 82 be a2 fe 1d bf
       0.07572156 0.22971044 -0.2544592 -0.61716664
000340 05 4f 64 be 60 68 9b bd c4 95 3e bd c4 68 99 be
       -0.22295769 -0.07588267 -0.046529546 -0.29962742
000350 aa 37 53 be 10 68 2a bf b7 e9 30 be f8 86 bf bd
       -0.20626703 -0.66565037 -0.17276655 -0.09351915
000360 3b c0 2d bd 0f 3b 54 be 0e f0 30 bf 92 c1 a8 3d
       -0.042419653 -0.20725654 -0.69116294 0.082400456
000370 56 27 a5 3e d0 09 1a bd 5a 11 06 bf 1e 80 b3 be
       0.32256573 -0.037607014 -0.52370226 -0.35058683
000380 f0 28 6d be 22 0f d5 be 25 48 8f bd 29 0c a8 be
       -0.23160148 -0.41613108 -0.06996182 -0.32821777
000390 bf 56 12 bf 45 c1 71 3d c7 70 9c be 25 ca 2f bf
       -0.57163614 0.059022207 -0.30554792 -0.68667823
0003a0 96 cb 85 be a7 68 8c 3c 6f e9 4a bf 32 ef cd 3d
       -0.26131886 0.017139746 -0.7926244 0.100553885
0003b0 87 ae c9 3c 65 5a e4 3e ea b7 94 3c 20 e2 81 be
       0.024619354 0.44600216 0.018154103 -0.25367832
0003c0 50 9d 37 be e2 e9 c5 be ee a3 a5 be bf 9a 97 bd
       -0.17931104 -0.38655 -0.3235163 -0.07402562
0003d0 cb 9d 3e be 0d 4e 9c 3e 2c 34 75 3e 50 cc d2 bd
       -0.1861488 0.30528298 0.23945683 -0.10292876
0003e0 0b ad 00 be 33 e1 65 be 98 4b 55 3d ab 63 79 be
       -0.1256601 -0.22449188 0.052074045 -0.24354427
0003f0 58 cd d3 be 12 ac 82 be ed 4a 0d 3f 63 25 62 3d
       -0.41367602 -0.25521904 0.5519245 0.055211436

feature.weight_ih_l0_reverse f4 [512, 64]
000000 67 c2 e0 3e a7 81 2f bf 02 a1 7d 3d 6b ea 8e 3e
       0.43898317 -0.6855721 0.061921127 0.27913222
000010 ac 65 7e 3f ee 21 ff 3e d9 90 a6 3e b4 27 5d 3e
       0.9937389 0.49830574 0.32532385 0.21597177
000020 0c 65 8b 3e ae 8e d6 3e 81 33 ea bf 5b 1c 0a bd
       0.2722553 0.4190573 -1.8296968 -0.033718448
000030 85 a1 a8 3e 11 23 16 bf 0e b3 1c 3f bb 84 1f 3e
       0.3293573 -0.5864726 0.61210716 0.15577976
000040 4b 11 a6 be 3d 9c 4c be b3 48 77 bf 55 95 a4 be
       -0.32435068 -0.19981475 -0.96595305 -0.3214518
000050 28 d4 a3 3d 0d 20 a8 3e 86 67 c3 bf 17 eb 8c be
       0.0799945 0.32836953 -1.5265968 -0.2752311
000060 92 73 57 be d3 9f cf be 3c 2e 95 bf 66 ca c1 3d
       -0.2104018 -0.40551624 -1.1654735 0.094624326
000070 8d 31 f7 be f3 ea f3 bd 50 f4 89 3d 7b 1f 95 3e
       -0.48279992 -0.119100474 0.06736052 0.2912558
000080 5b ae 98 bc be 79 42 be 82 a3 5f 3f a9 77 17 3f
       -0.018637827 -0.18991753 0.8735887 0.5916696
000090 4e 05 0c be 80 cb 3c bf 8e 8d 80 3e c4 16 7c be
       -0.13673899 -0.73748016 0.25107998 -0.2461806
0000a0 75 db 19 bf 31 7b cb 3e 8d 44 07 bf ce 92 18 3f
       -0.6010049 0.39742425 -0.52838975 0.59599006
0000b0 8e 5c 4c 3f 49 07 e9 be f3 c9 13 3e c5 09 18 bf
       0.7982873 -0.4551337 0.14432506 -0.5938991
0000c0 e7 4a a0 3f 29 4e a5 be 67 b4 48 3e fd c6 b5 3e
       1.2522858 -0.32286194 0.19600068 0.3550338
0000d0 15 31 ab 3e e3 a0 4f bf 0c b5 93 bf 7f ce 92 be
       0.33435884 -0.8110487 -1.1539626 -0.2867317
0000e0 86 b5 4b bd b6 59 27 be 69 7b 9b 3c 40 46 05 3e
       -0.04973366 -0.16342816 0.018979745 0.1301508
0000f0 70 d4 b4 be 15 04 18 3f 70 06 26 bf d2 d6 c0 be
       -0.35318327 0.5938123 -0.6485357 -0.37663895
000100 4d b9 57 3e 2b fe 22 3e aa 3f 93 3f 35 4d 05 40
       0.2106678 0.1591727 1.1503804 2.0828373
000110 ca e4 fe 3e da f7 da 3e d2 23 ee bf c4 1d 1e 3e
       0.49783927 0.4276722 -1.8604681 0.15441042
000120 82 f0 11 3f bb 38 06 3f ac e9 6c bf f0 4b 40 bf
       0.5700761 0.52430314 -0.92544055 -0.7511587
000130 90 2a 13 bf ad e2 4b bf f0 98 38 3f a7 53 a8 3f
       -0.5748682 -0.79642755 0.72108364 1.3150529
000140 1b 11 88 3f c0 08 af be 7b 84 a5 3e 6d b1 46 be
       1.063022 -0.34186363 0.32327637 -0.1940362
000150 f7 72 e2 be 9c 40 7b 3e bf d8 b1 3e e3 6f 94 bf
       -0.44228336 0.24536365 0.34735677 -1.1596645
000160 ad 1f 98 3f 19 25 ac 3e a6 32 b5 bf e9 71 82 3f
       1.1884667 0.33622053 -1.4156082 1.0191013
000170 46 68 7e bd f3 81 87 bf 00 ac 6d 3e 74 24 a6 bf
       -0.06211116 -1.0586532 0.23210144 -1.2979875
000180 9e 77 75 bf 35 34 0f bf 41 e5 98 bf 42 79 ae bd
       -0.95885646 -0.55939037 -1.1944963 -0.08519222
000190 a4 e6 38 3e 77 43 f3 3d 21 ae 99 3f 87 4a 0c 3f
       0.18056732 0.11878102 1.2006265 0.5480122
0001a0 20 86 d4 be b6 56 cc 3f 66 c9 c6 bf 14 53 05 3f
       -0.4150858 1.5963962 -1.5530212 0.5207989
0001b0 f0 64 aa be 82 42 97 bd 5b 8f b5 bf 62 20 93 3e
       -0.33280134 -0.07385732 -1.4184374 0.28735644
0001c0 83 f3 0b be a0 b7 38 3d bd af 84 3f c7 04 e2 3f
       -0.13667111 0.045096993 1.0366131 1.7657708
0001d0 bf 1c 6f bd 23 8d 7f be c7 76 28 be a3 b3 bc 3e
       -0.058377024 -0.24956183 -0.1645156 0.36855802
0001e0 23 b1 67 3f 27 01 e4 be 85 96 2d bf 9a a1 e4 ba
       0.90504664 -0.4453213 -0.678078 -0.001744318
0001f0 30 9b 24 3e 07 e5 c1 be f0 90 93 bf 5c 6f ea be
       0.16074824 -0.37870046 -1.1528606 -0.45788085
000200 b4 18 50 3f 82 79 71 3b 72 7f a8 bd 12 2d 30 3f
       0.81287694 0.0036846106 -0.08227433 0.6881877
000210 5a fd ca 3d 66 72 1d bf e8 4a 1c 3d d1 cf 81 bf
       0.09911604 -0.61502683 0.038157374 -1.0141546
000220 ea 27 54 3f d7 0e fd 3e 6e 6d c8 be 49 6a 4d 3f
       0.82873404 0.49425384 -0.39145988 0.80240303
000230 e6 f0 43 3f 45 af 4d 3e e3 91 c9 be 0f 93 93 bd
       0.76539457 0.20086391 -0.39369115 -0.072057836
000240 3a 9e 17 bf 3e 60 f0 be 2d bb c2 bf 6f cc 8c 3e
       -0.5922581 -0.46948427 -1.5213372 0.2749972
000250 3c f1 cf bd 71 1d 85 3e 55 2e b4 be 11 38 2d bf
       -0.10153434 0.25999025 -0.351916 -0.67663676
000260 7d 95 8a bd 6f 73 05 bf bd dc 58 3f 25 bb cb bb
       -0.06766794 -0.5212926 0.8471182 -0.0062173777
000270 c4 18 30 3f 7a 95 9c 3e a2 1a 91 bf f4 a4 19 3f
       0.6878779 0.30582792 -1.1336253 0.60017323
000280 e4 90 21 3d ea 30 99 3f 12 e0 8c 3e cb c0 60 bc
       0.03944482 1.1968052 0.27514702 -0.01371784
000290 7c 66 08 bf 76 c3 05 be 8f 40 4e bf 9d e4 31 be
       -0.5328138 -0.13062844 -0.8056726 -0.17372365
0002a0 d9 b7 4e be 6b a8 84 bf 7f e9 0e 3f b7 f3 c6 3d
       -0.2018732 -1.0363897 0.55825037 0.09714454
0002b0 e9 74 14 bf 76 dd 08 3f 30 b3 c0 3d 1c a9 35 bd
       -0.5799089 0.5346292 0.09409177 -0.04435073
0002c0 55 4b 6b 3e a8 0d b1 3f 06 66 12 3f d9 ea 18 be
       0.22977956 1.3832293 0.57186925 -0.14933337
0002d0 5e 75 81 3e 0c 95 49 3f 19 63 9b bb 50 30 25 be
       0.25284857 0.7874305 -0.004742038 -0.16131711
0002e0 5f 8b 5e bf fc 7b b9 3d 8d 56 30 3d 5f f8 07 3f
       -0.86931413 0.09056851 0.04305129 0.5311336
0002f0 3c c2 66 3e b3 0b 46 bf f1 68 e8 bd 92 99 45 be
       0.22535032 -0.773616 -0.11348141 -0.19296864
000300 a5 42 23 bf be 9d f8 3e 03 aa 92 3f ac c1 24 3f
       -0.63773566 0.48557848 1.1458133 0.6435802
000310 0d fe 05 bd 0d f2 d3 be c9 cd e2 3e f0 05 e1 be
       -0.032712985 -0.41395608 0.44297627 -0.43949842
000320 3f 8b 99 3e 9b 8d f1 be 08 85 07 3f a4 cb 7a bd
       0.2998905 -0.4717835 0.52937365 -0.061229363
000330 a6 70 10 be ab 00 84 3f 05 d9 7c 3f 6c 79 c8 3e
       -0.14105472 1.0312704 0.98768646 0.39155138
000340 0b 4a 6a 3c 28 ff cd be c8 94 2c 3f 54 ef 50 3e
       0.01429988 -0.4023373 0.6741452 0.20403796
000350 6d 4b 78 be c8 88 8d 3f e3 8b 2c bf 85 d6 a8 3f
       -0.24247523 1.1057367 -0.6740095 1.3190466
000360 b7 53 84 be 2a e1 5d 3d 95 8f 64 3e 9a 58 90 3e
       -0.2584512 0.05416981 0.22320397 0.28192598
000370 7d 08 3e 3f 79 e9 f9 be fc 17 77 bf 00 05 91 3e
       0.742317 -0.48810938 -0.9652097 0.28324127
000380 cf 29 83 3f 85 5e 80 3e c8 9b 17 be 2f 69 e0 be
       1.0247134 0.25072113 -0.1480552 -0.4383025
000390 02 96 9b bb f0 c0 a3 3e e8 e5 c6 be 50 a3 93 be
       -0.004748107 0.31983137 -0.3884728 -0.28835535
0003a0 35 c7 13 3f 44 6b 9e be ac 59 b0 3e 89 0b a8 3e
       0.5772584 -0.30941212 0.34443414 0.328213
0003b0 54 ba 85 be 5e 8c dc bd 2d 04 ab bf 28 96 8d bf
       -0.2611872 -0.107689604 -1.3360649 -1.1061449
0003c0 85 a6 08 bf af 42 17 3e 06 f6 99 3e e9 39 a8 3d
       -0.5337909 0.14771532 0.30070513 0.082141705
0003d0 12 32 df be e5 24 11 3f 29 20 c3 be 12 09 5c bb
       -0.43592888 0.5669692 -0.38110474 -0.0033574742
0003e0 fa 5c 06 bf 13 bc 9f be 7b 66 69 bf 20 fe c9 be
       -0.5248562 -0.31198177 -0.91172 -0.39451694
0003f0 14 c8 39 bf 0e a2 54 bf 15 5f a8 3e 5d 3c 10 3e
       -0.7257092 -0.83059776 0.32885042 0.14085527

feature.weight_hh_l0_reverse f4 [512, 128]
000000 50 29 24 bf 2e 1f fa be d5 26 c1 3e bd 19 04 bf
       -0.6412554 -0.48851913 0.3772494 -0.51601774
000010 d7 6a b0 3e 7b d8 ca be 89 8c 3f be 83 93 8b 3d
       0.34456512 -0.39618286 -0.18705954 0.06815245
000020 ee b9 c6 3d 23 f4 a2 3e 3f fd b8 bd 7c f8 80 be
       0.09703432 0.31826887 -0.09032678 -0.2518958
000030 8d 0d d2 bc f6 79 be bb 8d 2f bb 3e bf b3 24 3e
       -0.025641227 -0.0058128787 0.36559716 0.16084193
000040 29 cc de 3e ea c4 f3 3d 0f f5 0d bf cd b2 7b be
       0.43515137 0.11902793 -0.55452055 -0.24579926
000050 67 34 07 bf 18 fd 9d 3e 51 da b3 3e 79 0c 14 3e
       -0.52814335 0.30857158 0.351275 0.14457883
000060 a6 66 06 bf b3 05 8e 3f b5 bc f4 3e 61 c8 ce be
       -0.5250038 1.1095489 0.47800222 -0.40387252
000070 fe 71 9b 3f 08 69 2d be 06 f2 fb be bd ba e1 bd
       1.2144163 -0.16934597 -0.49208087 -0.110219456
000080 3f bd 09 be 66 8f 0d be 4b 70 b5 be 48 d0 5c bf
       -0.13451098 -0.13824233 -0.35437235 -0.8625531
000090 4c b8 39 bd 8c a6 0e 3e 42 f6 9b bc 9d 99 fa be
       -0.045341775 0.1393072 -0.019038323 -0.48945323
0000a0 7b 78 f0 be 47 ac bc be 9f cc d8 3c 11 fc fd 3e
       -0.4696692 -0.36850187 0.026464758 0.49606374
0000b0 bc 42 21 3f c1 13 c6 3e dd 78 1e bf b7 d3 bc be
       0.62992454 0.38686946 -0.6190317 -0.36880276
0000c0 28 0d 86 bd 90 6a a8 bf be 4f 14 3f cc f2 d4 bd
       -0.06545478 -1.315752 0.57934177 -0.10397872
0000d0 1e a0 ea be 30 c1 04 3e 01 5c 2c 3e 51 d8 19 bf
       -0.45825285 0.1296432 0.16831972 -0.600957
0000e0 6e ad 87 be 5b aa 70 3e 48 80 63 be 03 ef 11 bf
       -0.26499504 0.23502485 -0.22216904 -0.5700533
0000f0 41 c8 e8 be 41 6f 88 3e 05 59 28 bf 10 3f fe bd
       -0.45465282 0.2664738 -0.65760833 -0.12414372
000100 32 8c 19 bf 39 7c 44 be 9b 76 b8 bd fb a7 ae 3d
       -0.59979546 -0.19188012 -0.09006997 0.085281335
000110 35 30 82 be f6 b9 fa 3e d1 9d 79 3f a3 50 3f 3e
       -0.25427404 0.48970002 0.97506434 0.18683104
000120 08 a6 43 3f 8e c1 06 be 37 c5 c3 3e 8a ff 03 3d
       0.7642522 -0.13159773 0.382364 0.032226123
000130 34 fb 22 3f ee cf 32 3f 46 5b a0 be f7 9f 4f bf
       0.63664556 0.69848526 -0.31319636 -0.8110346
000140 c5 ec 84 3f 77 df 23 be 1e 34 b5 3e e5 82 56 3d
       1.0384756 -0.16003214 0.35391325 0.052370925
000150 ea 27 95 3e a3 b8 73 3c 1f d8 35 3f c3 33 3c 3f
       0.29132015 0.014875564 0.710329 0.7351648
000160 5a a4 c6 3e b6 1a 39 bf 94 00 45 be 0f 8f d0 3e
       0.38797265 -0.7230638 -0.19238502 0.40734145
000170 29 9d 91 3e 0a 94 d6 be c3 c1 51 3f d5 c3 23 bf
       0.28440216 -0.4190982 0.8193628 -0.6397069
000180 b0 79 be be 0f 90 81 bc f7 06 c0 3a c0 ea 11 3d
       -0.37202215 -0.015815763 0.0014650513 0.035624266
000190 00 76 81 bf 1d 7f 67 3f 37 57 26 3e 23 98 20 bf
       -1.0114136 0.90428334 0.16244207 -0.6273214
0001a0 fe 5c 2b 3f ee da 4e bf 4a 26 13 3f 9b a4 e8 bb
       0.6693877 -0.8080281 0.574803 -0.0070997006
0001b0 a0 b3 3a 3f 52 a7 4a bf 21 a3 39 3f dd 1c 9f 3e
       0.72930336 -0.7916156 0.7251454 0.31076708
0001c0 a6 f7 9a 3e 83 ba 85 be db bb 24 bf 07 78 6e 3e
       0.30267066 -0.2611886 -0.64349145 0.23287974
0001d0 fd 99 16 3e fd 45 c7 3e f9 3a ad 3e 9e 62 ba be
       0.1470718 0.38920584 0.33834055 -0.36403364
0001e0 b7 18 f3 3d 56 05 df 3a 5b d8 19 bd a2 0d 88 3e
       0.11869948 0.001701514 -0.03755985 0.265729
0001f0 d7 cc ec 3e c7 b3 83 bf a1 40 4b 3e 3e cf 9f bd
       0.4625003 -1.0289239 0.19848873 -0.078032
000200 85 a7 18 3d 15 61 ba be c3 5c 44 be 9e a3 e7 bd
       0.037269134 -0.36402193 -0.19176011 -0.113105044
000210 2d 94 c9 3d c8 fe d6 3d e4 b3 58 bf d3 4b 1b be
       0.098427154 0.104978144 -0.8464949 -0.15165643
000220 46 0a 29 bd 9b 1b 13 3e 05 50 22 3f 20 d1 25 3e
       -0.041269563 0.14366 0.6340335 0.16193056
000230 23 36 f6 3e 9e 19 11 bd 14 ea bb bd 1d c3 82 3e
       0.48088178 -0.03542482 -0.09175506 0.25539485
000240 4f c0 52 3f 01 09 5a 3e d1 f9 94 3f 7f 37 04 bf
       0.8232469 0.21292497 1.1638738 -0.5164718
000250 43 f0 15 3e b3 90 b7 3e 25 93 51 3e c7 dc 04 bf
       0.14642434 0.35852584 0.20466287 -0.5189938
000260 9a dc b9 3d 15 63 83 3d f7 9a 0e 3e 5c 7d 78 be
       0.090752795 0.06415383 0.13926302 -0.24266571
000270 4b 7d 2b 3e 3e 37 82 3e a9 f3 2a 3f e6 8c 4f 3e
       0.16747014 0.2543277 0.66778046 0.20268592
000280 d2 92 36 3d 3c d6 9a be 56 cb ee 3d 49 17 e6 3c
       0.044573613 -0.30241573 0.11659877 0.028087275
000290 d5 39 89 be 04 5a fc 3e e4 91 c1 be 83 f2 1d bf
       -0.26801935 0.49287426 -0.37806618 -0.6169817
0002a0 dc 82 07 3e c0 cc 6d 3f 1a 5c d9 bd c9 2f 29 be
       0.13233513 0.9289055 -0.1061327 -0.16522135
0002b0 ec 9f 26 3d 33 e9 43 ba c4 3e f0 be 4a be e4 3e
       0.040679857 -0.0007473409 -0.46922886 0.4467643
0002c0 49 db 24 3d 7b b4 2b bd 04 82 a9 be 7e 62 02 3f
       0.04024819 -0.041920166 -0.33107007 0.5093154
0002d0 0d 2a b5 3d 54 fc e5 3e 3f 4e 33 3f d2 d4 88 bd
       0.08845911 0.44919074 0.7004127 -0.06681217
0002e0 6b 4e cd 3e 84 c8 1c 3f 35 f0 01 bf ed 0c f0 bd
       0.4009889 0.6124346 -0.5075715 -0.117212154
0002f0 5b 6f 12 bd df eb 5e bd dc eb 4a bd 1c 62 3e 3f
       -0.035750728 -0.054424163 -0.04954134 0.74368453
000300 d6 18 ea be 40 7e a7 bf e3 2b ba 3e 66 97 d6 be
       -0.45722073 -1.3085403 0.36361608 -0.41912383
000310 b6 ee 00 bf d9 a3 44 3f 70 a3 c7 3e 5f 3a cc 3e
       -0.50364244 0.7681251 0.3899188 0.39888284
000320 50 5f 1b bf 5d ef 9b 3e 61 6f 18 3e b9 3e b1 3e
       -0.6069231 0.30456057 0.14886238 0.34618166
000330 7f 2e 5f 3f 99 f8 e1 3b e5 4b 26 3f fb 94 bc 3d
       0.8718032 0.00689609 0.64959556 0.09208103
000340 64 16 05 3f 14 4d 03 bf 0c a1 09 bf ee 57 aa bd
       0.5198729 -0.51289487 -0.53761363 -0.083175525
000350 c6 e9 80 3f 3a 8b 45 3e be e3 3a bf f0 16 3a b9
       1.0071342 0.19291392 -0.73003757 -0.00017746887
000360 36 f1 95 3d b7 54 15 3f 06 fc b1 bb 90 dd 10 3d
       0.07321398 0.5833239 -0.005431655 0.03536755
000370 1b 7b 21 bf fe f6 1d be 96 48 9f 3e 6f 9e 7b 3f
       -0.6307847 -0.15426251 0.31110066 0.98288625
000380 5e 19 66 3f 50 c7 ba 3e c1 22 ed 3e 8b 37 02 be
       0.8988246 0.36480188 0.46315578 -0.127165
000390 ab 35 96 3e ac 5c ba 3e bc dc dd be 33 a3 f0 bd
       0.2933782 0.36398828 -0.4333247 -0.11749878
0003a0 8b b5 80 be 79 7e 3e 3f 34 d8 ea 3e 69 72 b8 3e
       -0.25138506 0.7441173 0.45868075 0.36024788
0003b0 eb ba 1a 3e 80 e3 b2 be c0 ee 7f 3d d3 02 f0 3e
       0.15110366 -0.34939194 0.06248355 0.46877155
0003c0 7e 99 cd 3d 07 30 05 bf e0 6d a7 3e 09 5c 25 be
       0.10039042 -0.5202641 0.32701015 -0.1614839
0003d0 74 ec 79 be 52 f2 3c 3d c1 c6 bb 3e 6a 65 f1 be
       -0.24406606 0.046129532 0.36675075 -0.47147685
0003e0 32 ce d8 be 1a a8 a1 be 4c d3 67 3f 29 91 b1 be
       -0.42344815 -0.31573564 0.9055679 -0.3468106
0003f0 3e 28 58 bd 4d d7 b3 be 31 30 3a bf 6b 67 29 be
       -0.052772753 -0.351252 -0.72729784 -0.16543357

feature.bias_ih_l0_reverse f4 [512]
000000 8f c0 86 3d ee a5 55 3d 91 2a fb 3e f3 2f 99 3d
       0.065796964 0.052160196 0.49055913 0.07479849
000010 60 6e 7e 3e e9 b4 49 3b 3a 13 4a 3d 27 79 91 3e
       0.24846792 0.0030777997 0.049334742 0.28412744
000020 c4 3c 78 3b 34 e6 75 3e 2a eb 6c be fa 21 01 3e
       0.0037878016 0.24013597 -0.23136583 0.12610617
000030 1b 3d 80 be 46 c5 61 bc da c2 88 3f 4f 5e 2f 3d
       -0.2504662 -0.013779944 1.0684464 0.04281455
000040 9b 90 a6 3e 4b 47 45 3d 9f 2c 4d be 0f cc 3f 3f
       0.325322 0.048163693 -0.20036553 0.74920744
000050 b4 9d d9 bc bb 2c a9 3e 3d e5 bf bc 95 f9 0e 3f
       -0.026564457 0.3304194 -0.023424739 0.5584958
000060 b2 2e 00 3e 0d 47 64 bd 77 d2 73 3e 70 0e 11 3e
       0.12517813 -0.05573182 0.23810755 0.14165664
000070 4b 2a 5b bd bc db 15 bf d9 36 3a 3d 3d 92 80 3d
       -0.05350713 -0.58538413 0.045462463 0.06277893
000080 38 c3 31 be 5b 95 6c 3e f3 4f 5c be a6 a2 80 be
       -0.17359626 0.2310385 -0.21514873 -0.2512409
000090 04 b3 e2 bc 38 82 ce 3e f7 bf 10 3f d4 22 9b 3e
       -0.027673252 0.40333724 0.56542915 0.3030001
0000a0 40 b4 c4 3d 08 6f cf bd 7d b3 15 bd 99 51 92 3d
       0.096046925 -0.101285994 -0.036548126 0.0714447
0000b0 e2 ba c3 3e 1f bd 32 be af 4e 9a 3e 78 d2 94 3e
       0.38228518 -0.17454956 0.30138156 0.29066825
0000c0 c2 b5 cc be 3b f9 d9 3e 45 5a 79 bd 39 d1 15 be
       -0.3998242 0.4257296 -0.060877103 -0.14630593
0000d0 b8 be 26 3e 2e 77 ee 3e 8f ab 76 bd 08 bb 93 3e
       0.16283691 0.46575302 -0.060222205 0.2885363
0000e0 3f 83 07 3e 3a 61 ad be a5 dc a8 be 1d 2f 9c bd
       0.1323366 -0.3386324 -0.32980838 -0.07626174
0000f0 33 4d 27 be 75 45 60 3d 0c 83 18 3e df e6 7c 3e
       -0.16338043 0.05475374 0.1489374 0.24697445
000100 b5 e2 c9 3e 40 c3 3f bd f3 83 19 be f6 ef b3 3d
       0.39430776 -0.046817064 -0.14991741 0.08786003
000110 dd 09 a1 bd 19 b0 5a bc 47 d1 0c 3e ba 4c 4b 3e
       -0.078632094 -0.013347649 0.13751708 0.19853488
000120 97 0c 30 3c 65 1d 94 3d e7 d1 8c 3e 34 4e aa bc
       0.010745189 0.07232169 0.27503893 -0.020789243
000130 1a bd 40 3d 02 b0 e9 bd 35 c1 5d 3e 0a 59 5e 3d
       0.04705534 -0.11410524 0.21655734 0.054284133
000140 9f 69 c5 3e 2a be 6e bd 6f 10 b9 3e 08 9d 33 3e
       0.38557145 -0.058286823 0.3614535 0.17540371
000150 d6 6b 71 bd f4 af 41 3f 61 c6 fe bc fd a8 23 3f
       -0.05894073 0.7565911 -0.031100454 0.6392973
000160 b3 7c d6 3d e5 38 39 3f 0c 28 e2 3d 4b 0c 64 be
       0.10473003 0.7235244 0.110427946 -0.22270314
000170 cf bc 10 3d 24 d1 be 3d 14 5c 9e 3d cc 0a 25 be
       0.035336312 0.09317234 0.07732406 -0.161174
000180 5c 68 b6 3e 90 14 8d 3e 14 c9 11 3e 36 0b 55 be
       0.35626495 0.2755475 0.14236861 -0.20805058
000190 51 ba 8c bd 76 d8 f5 bd dc b7 82 3e f9 32 3d be
       -0.068714745 -0.12004177 0.255309 -0.18476476
0001a0 e3 2a 4d bd 84 d3 92 3e a2 a8 7b be 8f c0 60 3e
       -0.050089728 0.28677 -0.24576047 0.21948455
0001b0 c8 58 3b 3f b2 91 45 3e 2b e9 8f bc c8 eb 7f 3e
       0.73182344 0.1929386 -0.017567238 0.24992287
0001c0 e4 cb 3c 3f 8a 90 5b 3e 1d 29 02 3e b5 ce bd bc
       0.7374861 0.21441856 0.12710996 -0.023169855
0001d0 9e 21 b2 bd 6c d3 32 be 63 65 73 3e 94 9c 79 be
       -0.08697818 -0.17463464 0.23769145 -0.24376136
0001e0 fe 23 80 be d7 3a eb 3e 6f 65 19 3d bf 19 42 3e
       -0.2502746 0.4594333 0.03745025 0.18955134
0001f0 54 cf dd 3e fe 80 e5 3e 2c f2 21 3d ed 62 50 3e
       0.4332224 0.44824976 0.039537594 0.20350237
000200 53 0f 6d be 86 b9 30 bf 65 47 2e be d0 e7 da bd
       -0.23150377 -0.69033086 -0.17019422 -0.10688746
000210 79 58 74 3e e2 aa 95 be 74 67 03 3d fa 01 06 be
       0.23861875 -0.29231936 0.032081082 -0.13086691
000220 d5 a0 6d bf e0 56 36 3f 03 6e 35 3f 40 00 05 be
       -0.92823535 0.7122631 0.7087099 -0.12988377
000230 21 d4 17 be e9 cc f8 3d 47 6a 09 3e cd e7 a2 be
       -0.14827015 0.121484585 0.13419448 -0.31817475
000240 0a 25 24 3d e1 89 40 3e 52 3b 9a 3e 66 0b f6 bd
       0.040074386 0.18802597 0.30123383 -0.12013893
000250 82 e3 35 bd 60 91 1c 3d d3 fc c5 be c2 8d a6 be
       -0.04440642 0.038224578 -0.38669452 -0.32530028
000260 aa b2 2a 3f 0a e8 97 be bd e4 8c 3e 9a 2a 1e 3f
       0.6667887 -0.2966922 0.27518263 0.61783755
000270 ff 2d 7b be 5d d1 d4 3e 4e 96 9a 3e fe 2d de bb
       -0.24529265 0.41565982 0.30192798 -0.006780385
000280 23 af e3 3e 9e d4 bb 3d 3a 8c 88 be 4c 12 cf 3e
       0.44469556 0.09171413 -0.26669484 0.40443647
000290 4b c1 de 3d 96 22 28 3f 74 71 46 3f 40 42 64 bd
       0.108767115 0.65677774 0.77516866 -0.055727243
0002a0 8b fb 25 be 3c 53 8a be b9 56 a6 3e 9c ce 29 be
       -0.16209237 -0.27016628 0.3248804 -0.16582721
0002b0 22 fd 08 3e f4 31 b6 3e cd 3a a9 be d4 7c 3a 3e
       0.13377813 0.35584986 -0.33052674 0.1821168
0002c0 8c 6e 04 be 1a f6 9a be 4a 33 a1 be 3a 9b bf 3e
       -0.12932795 -0.30265886 -0.31484443 0.37423116
0002d0 0d ea 4d be a6 9b 63 be 38 bb eb be ab fc 0c be
       -0.20108815 -0.22227344 -0.46041274 -0.1376826
0002e0 3c 8b 5d 3e 29 2e 82 be 02 e0 96 3e 82 31 a2 3d
       0.21635145 -0.25425842 0.2946778 0.07919599
0002f0 55 9e bb 3e 59 f8 ff 3d 51 63 80 3d 70 06 37 3e
       0.36644235 0.124985404 0.06268943 0.1787355
000300 ac 34 26 bf 95 56 80 3c 25 c3 21 bf 71 d0 05 be
       -0.6492412 0.015666286 -0.6318839 -0.13067795
000310 1e 45 b5 3e 4e 03 1f be b6 a1 10 be 8c 9d 6a be
       0.35404295 -0.15528604 -0.14124188 -0.22911662
000320 e0 c8 19 3e c8 0e d0 be cc 32 df 3e 2d 1b 6e bd
       0.15018034 -0.40636277 0.43593442 -0.058131386
000330 d9 5c 7a 3c 8d 54 45 3d bd cf 97 3b 59 53 dc 3d
       0.015280926 0.048176337 0.0046329186 0.10758085
000340 c8 1a 0d be 02 10 b6 3d 48 04 cd 3e 2a 3e c4 bd
       -0.13779747 0.08889772 0.4004233 -0.09582169
000350 e5 7b 37 3e 95 f1 65 3e e3 26 28 bf 3c 2b 72 be
       0.17918356 0.22455437 -0.65684336 -0.23649305
000360 c4 c8 6a bc f0 64 26 be c9 47 5f be ad db f5 3e
       -0.014330093 -0.16249442 -0.21804728 0.48019162
000370 bf 70 00 3f e0 07 21 3d ba 4a 62 3e f6 ff 88 3d
       0.50172037 0.03931415 0.22098818 0.06689446
000380 46 01 69 be c9 71 f5 ba 3b 92 99 bd de 8d 44 bc
       -0.22754392 -0.0018725927 -0.074985944 -0.011996714
000390 14 a8 cc bd 61 e2 88 3e 47 27 a1 bd a0 ba be be
       -0.09992996 0.26735213 -0.0786882 -0.3725176
0003a0 d4 ff 04 3d e4 f3 f7 be 7e bd 47 3d 4f 87 b8 3e
       0.03247054 -0.4842826 0.0487647 0.36040732
0003b0 aa d5 01 be 13 56 21 bd 02 67 6e 3e d1 85 53 be
       -0.12679163 -0.039388727 0.23281482 -0.20656516
0003c0 f7 dd f3 be 33 1e 9d 3e df ef 7d bd 68 df 20 3f
       -0.47630283 0.30687103 -0.061996337 0.6284089
0003d0 8c 73 94 bd 4b dc 07 3f 4c 74 37 bf b7 39 7b be
       -0.07248601 0.53070515 -0.7166183 -0.24533735
0003e0 a9 63 1d be 8d 12 57 3e 68 74 a6 be 60 4f 48 bd
       -0.15370049 0.2100317 -0.32510686 -0.048903823
0003f0 48 32 ea be fe 23 90 3e e7 45 80 3e c4 f4 9f 3d
       -0.45741487 0.2815246 0.2505333 0.07810357
