pretrained_models/unk.pth (torch, 821283 bytes, 10 tensors)

feature.weight_ih_l0 f4 [512, 64]
00000000: 2fe2 873e 28ab 163e 2297 933d 8416 923e
00000010: 6c80 a2bf 799f 1e3e 79c0 92bf f3bf 053f
00000020: cf0e 2a3f 147e cdbd d67a 493e 65e2 1c3f
00000030: b7f2 1cbf d5b3 0bbf db71 2dbe f6dd 15be
00000040: 6230 8e3e 5e2e 54bf 2b7e 0cbe aac7 83bf
00000050: cbf1 3c3e a696 96be 0943 88be 1e06 5e3f
00000060: d6a4 4ebf 577f d2bf a1ae a1bf 63d4 003e
00000070: 38a5 023f ad4f babe b0bd 03c0 1d7e 8c3e
00000080: 5bbf 293f a9f7 4fbe 6f1c 07bf df37 5c3f
00000090: ab25 113f 3b63 a93e 1f22 8e3e 7c0b be3e
000000a0: 491e 813f 4b35 973d e9fa 883f ec9d ba3d
000000b0: a223 353e 197e 4a3f 86c3 ba3e 361a 403f
000000c0: 3545 913e 66d7 b43e cac8 7f3c 0bae 64bd
000000d0: 02a3 7f3f b30b 4c3e 5b62 c8be 6208 b83f
000000e0: 84ef 183f 7c39 e3be 9de0 c9be 6c72 3b3e
000000f0: 9f86 293f 4e59 8b3e 215a 263f 9b28 1e3f
00000100: ca2f a3be eb95 7d3e 5f3e a13e f261 8e3f
00000110: be79 273f a632 f43e 9f02 b7bf b880 1c40
00000120: 1ee3 763e 58b9 eb3e 27c8 62be a53e 11bf
00000130: 0f68 cabe bd41 89bf 5dcc ad3e 91a0 93be
00000140: 9d16 4e3f 48b5 a2be 04c8 b2bd 4ccc 5c3f
00000150: 8e62 b3be 1298 903b a576 983e 2fca 1c3f
00000160: 8388 983f 7fc1 55bf 3382 073f e50e 293f
00000170: 4cba 143f 84fb 3d3e ccd1 c03d 8ff9 8dbf
00000180: a62a 303e 66fd de3e 4ebf 053e 4f19 cb3e
00000190: 68b0 8cbf 71f0 3c3f 86cf 223f 959f 1d3f
000001a0: 4a83 683e bd29 f03e 3f2b c63e 1f14 d83f
000001b0: 045b 0f3e 78d6 ac3e d34b 0bbe a378 7e3f
000001c0: 091a 33bf 3cb1 87bf a0d7 a1bf a1db b3be
000001d0: 091c 4e3f 311f 93bf 4cf0 563e 344e acbf
000001e0: 6a26 a03e a4cb 91bc 409d 8d3e 900c 81bf
000001f0: 68f9 893f 2de9 5d3e cb79 8a3f 1fd1 d0be
00000200: 3e65 7f3e a1a5 8abe 7771 73bf eb99 ec3f
00000210: 4802 e0bf 3582 95bf 2f9b 82bf 3cf9 16bf
00000220: 3d55 c2bf 739b b63d 01f5 fe3f 2459 1cbe
00000230: 1c5c febe 6ec6 083e adc1 323e 03fb a5be
00000240: 6279 9cbc e231 a5be 042c b53e 69d6 42ba
00000250: 86f1 513e a026 1dbd c903 a6be 5bb5 b13f
00000260: 3135 dd3f 1440 cd3e 8ff2 a3bf 826f 0abf
00000270: 1ea6 cd3d 76a1 7a3e 5cd5 49bf ff00 01bf
00000280: a3b3 693f 034c ba3e 4717 6bbf 9c3c 403d
00000290: 0940 993f 27c0 8fbe 7600 2cbf 1afb 353f
000002a0: 1cc1 fbbe 2eff 03bf 734f 5f3f 5e5c 9bbf
000002b0: 557e 61bf 020b b9be a0a8 cb3f 1ffc 4f3f
000002c0: 18b3 e6be 33b4 943f 1db8 10bf 370e 8c3e
000002d0: 249d b23f 333f 273f dd20 1e3f 4801 0e3e
000002e0: 2499 ae3e acc6 1dbf c237 01be 99bd b73f
000002f0: 34d5 0cbf 4a66 c0bf 995c 4dbf 3985 3fbf
00000300: 80ad bbbe d5b0 b4be 7b0e 223e 030b 6bbe
00000310: 8e41 703f 8221 66bd 4dd1 413f e6d2 413d
00000320: a573 b43f 191a 713f 9d75 08c0 b572 17bf
00000330: 723d 1abf 73cc 85be 59fe 3ebf a319 a6bb
00000340: 1a58 63bf fe5e c3be 9d79 893e 2053 3cbf
00000350: 05eb 08be feaa b83d 317d 21bf 32e2 cbbf
00000360: af91 473f c789 c03e 01be 2dbe 8a03 01be
00000370: c9e3 a0be ba92 1abf e41d 8b3f 8f39 9a3e
00000380: 60e1 013f c150 82be 73eb 5ebd d16f 8abe
00000390: 721d 63be ea0a 513d 7b7c de3e 5573 413e
000003a0: 2e17 febd 5713 10bf a0bf b3be a1f6 ebbe
000003b0: fd2b b53f fa7c 683e 6668 273f 6c5e ac3d
000003c0: 67f6 443f a975 4ebf 5872 9a3d 7b76 7c3e
000003d0: e75f 30be 50b5 91bf 4b13 5a3e 5b37 303f
000003e0: 7625 efbe 88ad 85be 332f 8ebd 5a57 0fbf
000003f0: d439 a13e a6ab f23e 3963 bdbe 9f13 9a3e
0.26539752 0.14713728 0.07206561 0.28532803 -1.2695441 0.15490521 -1.1464988 0.52246016
0.66428846 -0.10033813 0.19675764 0.6128295 -0.61307853 -0.54571277 -0.16937964 -0.14635453
0.27771288 -0.8288325 -0.13720004 -1.0295308 0.18451612 -0.2941181 -0.26613644 0.86728084
-0.8072027 -1.6445111 -1.2631418 0.12581019 0.51033354 -0.36388913 -2.0584526 0.27439967
0.6630761 -0.20309319 -0.5277776 0.8602275 0.566981 0.3308352 0.27760407 0.37118137
1.0087367 0.07383212 1.0701572 0.091121525 0.17689374 0.7909866 0.36477298 0.75039995
0.28373113 0.35320586 0.015611837 -0.055830043 0.99858105 0.19926338 -0.3913754 1.4377558
0.5974047 -0.44379795 -0.3942918 0.18305367 0.6622104 0.27216572 0.64981276 0.6178071
-0.31872398 0.2476422 0.31492898 1.112364 0.6542014 0.47694892 -1.4297675 2.4453564
0.24110076 0.46039844 -0.22146665 -0.5673621 -0.39532515 -1.0723187 0.3394498 -0.2883344
0.80503255 -0.31778932 -0.08729556 0.8624923 -0.3503613 0.0044126594 0.2977802 0.6124601
1.191666 -0.83498377 0.52933043 0.6603835 0.58096766 0.18552977 0.094150156 -1.1091784
0.17203769 0.43552703 0.13061258 0.39667746 -1.0991335 0.73804384 0.63597906 0.6157163
0.22706333 0.46906844 0.3870487 1.688114 0.13999563 0.33757377 -0.13603143 0.9940283
-0.699616 -1.0600963 -1.2643929 -0.351285 0.8051153 -1.1493894 0.20990103 -1.3461366
0.31279308 -0.017797299 0.27659035 -1.0081959 1.0779238 0.21670981 1.0818418 -0.40784547
0.24940965 -0.2707949 -0.9509501 1.8484472 -1.7500696 -1.1680361 -1.0203608 -0.5897405
-1.5182263 0.08916368 1.9918519 -0.1526838 -0.4967965 0.13356945 0.17456694 -0.3241807
-0.019100849 -0.3226462 0.35385144 -0.00074324623 0.2050229 -0.038366914 -0.32424763 1.388347
1.7281858 0.4008795 -1.2808398 -0.540764 0.1004145 0.24475655 -0.78841186 -0.50392145
0.9128973 0.36386117 -0.91832393 0.0469328 1.1972667 -0.28076288 -0.67188203 0.71086276
-0.49170768 -0.5156125 0.87230605 -1.2137563 -0.8808339 -0.3614121 1.5910835 0.8124408
-0.45058513 1.1617492 -0.56530935 0.27354595 1.3954206 0.6533081 0.61768895 0.13867676
0.34101212 -0.61631274 -0.12618926 1.4354736 -0.5501282 -1.5031216 -0.8021942 -0.74812657
-0.36655807 -0.35291162 0.15825836 -0.2295342 0.9385003 -0.0561843 0.7570999 0.04732027
1.4097792 0.94180447 -2.1321785 -0.59159404 -0.6025001 -0.26132545 -0.74606854 -0.005068974
-0.8880631 -0.3815841 0.26850596 -0.7356434 -0.13370903 0.09016989 -0.6308165 -1.5928404
0.7795667 0.37605116 -0.16967012 -0.12599006 -0.31423786 -0.60380137 1.0868497 0.3012204
0.5073452 -0.25452235 -0.05442376 -0.27038434 -0.22179201 0.0510358 0.43454346 0.18891652
-0.12406765 -0.5627951 -0.35107136 -0.460866 1.4154049 0.22703925 0.65393674 0.08416447
0.7693848 -0.80648285 0.075413406 0.24654572 -0.17224084 -1.1383457 0.21296422 0.68834466
-0.46708268 -0.26108956 -0.06942596 -0.5599266 0.31489432 0.47396582 -0.36989763 0.30093095

feature.weight_hh_l0 f4 [512, 128]
00000000: 14de b43e 0c21 0c3e 9733 44bf 1390 bc3e
00000010: ab4a be3e c4cd 5e3d cbff 2e3f b82b d33e
00000020: 17f5 873e 0ca5 e3be 4c0e d0bc 5a49 33bf
00000030: 57c4 113f b5c6 963f 4e5a e0be b71e 57bd
00000040: 8bd9 44bf f7ac a83f f110 1cbd 38ee 063f
00000050: 6fd6 d7be 56f1 5c3e dbbc 063e f4f6 c53e
00000060: 0833 553e 4cd9 a2be 8561 2fbc a4c1 babe
00000070: 70af 933f 149f 0dbf c592 dc3e b0b7 123e
00000080: 8f11 c13e ddf7 ebbe 0ced 50bf 724d 9d3d
00000090: d54e da3e bb40 403f 0a76 8cbf 34fc 8e3e
000000a0: 4448 65bf be31 97be 01f4 52bf c518 cebe
000000b0: 493d 12bf 2a32 643e 8d0b 9abe e121 273f
000000c0: c605 283d 98a9 5fbd 13d4 243f 35f6 6abc
000000d0: d437 84bf 8f24 af3e c9f0 3d3e 31fb 8d3d
000000e0: 3fbd 36be 39a8 013f a30d e93e 95f2 3c3d
000000f0: 9133 ce3e 2e54 05be f4e0 9f3d 3f1e b9be
00000100: a3ec 9e3e 1119 533d 2d32 d63e a89e e6be
00000110: 245f 733e 43cc 1b3f 2fec 53be e0ea 823f
00000120: ec34 d33e 0baf 5c3f 3b42 cf3e 974f a8be
00000130: c872 2fbf d8fd 113e 2d5b 993e 833a dc3d
00000140: e191 203f 99e9 913e 7aa0 3b3e ffd3 1b3d
00000150: c65b 3e3e be97 14be 95eb abbf 6cf7 10bf
00000160: 1f5f a43d c5f4 cd3e 7316 fc3d 650f 66bd
00000170: 69e0 1e3d 031e e1bc d401 dfbe c297 47be
00000180: 5ad0 5b3e e47a 9b3e cdef cb3e 15c0 933d
00000190: cad3 1ebf 7bec 10bf 5e55 9f3e b933 c23e
000001a0: 7e49 c9bf 183e c53e 6599 6dbf 28f6 96bf
000001b0: 9380 1c3f 978c 9bbf 147b a2bd 968c d8be
000001c0: cc16 a63e 558e fabe edac b8be 9740 d53e
000001d0: 6966 8abe e0e1 0a3f 8108 fbbd 6012 7ebe
000001e0: e3c2 18be 9883 7a3e 3e24 543f 2334 babe
000001f0: c407 a7be cfb1 a83e 7fc2 f0be d687 a53e
00000200: 41b0 883f e511 3a3e b533 06bf 2574 983d
00000210: 1bda 92bf ab83 0a3f fa2f b2bc a221 143e
00000220: 9fa2 a4be 5cb4 8fbd f296 23bf 75d1 a1be
00000230: a80e db3e db81 90be e82c 473c 6a6e 783d
00000240: 3404 afbd b4d4 253f 7f40 413d 2da1 483d
00000250: 7108 d1b9 15ae d83e cf60 18bf 2598 273e
00000260: f38a ffbe e33c 2bbc 312e e7be 9834 35be
00000270: 6759 8bbe 84e5 533d d050 df3c 3c80 a23e
00000280: ab7a 63bf 54cc ebbe ec52 91be 8fb0 38bc
00000290: cf22 d63e b3f4 093e 5d9d 4a3f 8b31 28be
000002a0: c266 993f 9524 173e 32e9 82bf b2d5 853e
000002b0: 4c1f 6bbe b2fc 263e ccac 48be ad88 5a3e
000002c0: d610 e2be 87d2 32bf 3ced 3bbe db35 2ebe
000002d0: 6d0b 983f 99d2 a33e d46e 3d3f 7ca3 133f
000002e0: 1e66 54bd f8db 263e 5ec2 693d 2cee e83d
000002f0: 9f3c 533e 46a9 443e 69c3 64bb 798f 183e
00000300: f343 ce3e 750e 48be 23f6 48be 74ca 8c3e
00000310: 446a ecbe d170 a4be ad24 8b3e da2d c83e
00000320: 4a37 3dbf 4c03 8c3e 0a36 72bf 04c0 d93e
00000330: 56a5 1a3e 72df b5be 658a 653f 451a e13e
00000340: 5f56 5fbe b49e 343f 3ef9 263f ef27 41be
00000350: 25d6 82be 3346 9fbe 195c 4abf 28c3 0fbf
00000360: 7305 3a3e 3eca 493f 25aa 323e ed73 f53d
00000370: 79cd 9cbe 6172 96bd 17a1 4f3e 0728 0c3e
00000380: 72f3 293f fe72 bb3d e7e1 073f 624b 803f
00000390: c132 42bb 4af4 3c3e 285c 96bd ba4b 213f
000003a0: 87e6 75bf f05a 923e ae2c 19be c92d fd3d
000003b0: c5ff 79be 14df 6ebe 3688 febe f4d5 85be
000003c0: 2232 8c3e aac7 84be 15f6 883e 8c29 273e
000003d0: 3e66 083e f286 063f 3f9e 85be 3b34 d43d
000003e0: c4a6 44bf 4266 113f 9aae 1fbc 6dc5 9e3e
000003f0: 4b46 2cbf 6c74 9d3c 3b0a 82be 01bf f63e
0.35325682 0.13684481 -0.7664122 0.3682867 0.37166342 0.054395452 0.6835906 0.41244292
0.26554176 -0.44461858 -0.025397442 -0.700338 0.56940216 1.177939 -0.43818897 -0.052519526
-0.76894444 1.3177785 -0.038102094 0.5270724 -0.42155787 0.21576437 0.1315798 0.38664973
0.20820248 -0.3180641 -0.010704403 -0.3647586 1.1537914 -0.5532086 0.43080726 0.14327884
0.3770871 -0.46087542 -0.81611705 0.07680787 0.4263827 0.7509877 -1.0973523 0.2792679
-0.89563394 -0.29530138 -0.8240357 -0.40253273 -0.57124764 0.22284761 -0.30086938 0.6528607
0.04102113 -0.054605097 0.643861 -0.014340927 -1.0329537 0.3420758 0.18548883 0.069326766
-0.17845629 0.5064731 0.45518216 0.04612978 0.40273717 -0.13020393 0.07806578 -0.36155888
0.31039914 0.051537577 0.41835156 -0.4504292 0.23766762 0.60858554 -0.20695566 1.0227928
0.41251314 0.86204594 0.40480217 -0.32873222 -0.6853452 0.1425699 0.29952374 0.10753348
0.62722594 0.28498533 0.18322936 0.038043972 0.18589696 -0.1451101 -1.3431269 -0.56627536
0.080259554 0.40225807 0.12308969 -0.056167025 0.038788233 -0.027480131 -0.43556082 -0.19491485
0.21466199 0.30367196 0.3983139 0.07214371 -0.62041914 -0.5661084 0.31119817 0.37930086
-1.5725553 0.38523936 -0.92812186 -1.1793871 0.6113369 -1.215228 -0.079336315 -0.4229476
0.32439268 -0.48936716 -0.36069432 0.4165084 -0.27031258 0.5425091 -0.12257481 -0.24811697
-0.14918093 0.24464262 0.828678 -0.36367902 -0.32623112 0.32948157 -0.4702339 0.32330197
1.0678788 0.18170889 -0.5242265 0.07444028 -1.147281 0.5410716 -0.021751393 0.14465955
-0.3215532 -0.07016823 -0.639022 -0.31605116 0.4278462 -0.28224072 0.012156703 0.060652174
-0.085457236 0.64777684 0.04718065 0.048981834 -0.00039869876 0.42320314 -0.5952272 0.16366632
-0.49910697 -0.010451528 -0.4515243 -0.17695844 -0.27216646 0.051732555 0.027260214 0.3173846
-0.8885905 -0.46054327 -0.28383577 -0.011272564 0.41823432 0.13472252 0.7914637 -0.16425149
1.1984484 0.14760049 -1.0227416 0.261396 -0.22961158 0.16307333 -0.19597167 0.213412
-0.4415347 -0.6985249 -0.18352216 -0.17012732 1.1878487 0.3199661 0.73997235 0.5767133
-0.0518552 0.16294849 0.05707013 0.11373553 0.20628594 0.19205198 -0.0034906513 0.1489848
0.40286216 -0.19536765 -0.19625144 0.2749821 -0.46174824 -0.32117322 0.2717642 0.39097482
-0.7391249 0.27346265 -0.9461371 0.4252931 0.15102133 -0.35522038 0.896643 0.43965355
-0.21810292 0.7055466 0.65224063 -0.1886289 -0.25554004 -0.31108245 -0.7904678 -0.5615716
0.18166141 0.7882422 0.17447717 0.11985002 -0.30625513 -0.07346035 0.20276295 0.13687144
0.66387093 0.091527924 0.53079075 1.0023005 -0.0029632302 0.18452564 -0.07341796 0.63006175
-0.9605488 0.28585005 -0.1495845 0.123622485 -0.24413975 -0.23327285 -0.49713296 -0.26139796
0.27381998 -0.25933582 0.26750246 0.16324443 0.13320252 0.5254966 -0.26097295 0.10361525
-0.76816964 0.5679666 -0.009746218 0.3101 -0.6729476 0.019220553 -0.2539843 0.481926

feature.bias_ih_l0 f4 [512]
00000000: be14 9abd 9dca 6a3e 9b48 0b3e cc5d 80bd
00000010: 82a7 7c3e 4cba 09be 2324 74bd 5069 85be
00000020: ec2a 9cbd d229 1bbe 1a47 83be c232 eb3e
00000030: 447f 993e 34b5 08be 48a8 093e b9ef 383e
00000040: f725 7c3d b873 993d c18a 413e 5ac8 6fbe
00000050: 0a37 0a3f 17e6 acbd 8e91 1cbf 440a c33c
00000060: 008e 33be 44ef 6fbe e3d2 9bbe fee6 90bd
00000070: e70e 513d 95f9 05be 6887 e83d e12e c3be
00000080: ba18 edbc b790 32be 2823 c0be 50bc f03d
00000090: f662 dfbe 3e75 c13d 3a3a aebe 33f9 72be
000000a0: 7a74 573e 4de6 7cbe 48bf 633d f22d 81be
000000b0: 1d6b 4abe 3871 6fbd ed85 10be 2bd6 233f
000000c0: 2281 95be 9675 853e 1471 13be dd6b 413d
000000d0: 9088 b83e d680 e7bc 0913 b4be a787 b1be
000000e0: ad9b 4ebe 0b4e b4be d10a 703e 0954 64be
000000f0: 7eac edbe 83ac a13e 6919 7ebe a2df c2be
00000100: 3bd1 6c3c 35e9 67be ffc7 6abe 2dc3 5dbe
00000110: 7f96 02bf 0023 c93d fd29 383e bce1 ef3d
00000120: f70b 9cbe f79a 513e ce0d 1dbe f165 a0bd
00000130: fa1b 6bbe 6421 8c3d e8d4 8fbd 9704 d7bd
00000140: 2ab8 053e b822 b03c 9d5b 84bd 78dc 623e
00000150: 18fe 343c 29f0 97be 9998 9abe f1cf b43c
00000160: 1d59 b23e 7585 ae3d 30e4 7a3d 7d64 74be
00000170: b3e5 6abe a9d7 debc c4da 563f 875b 833c
00000180: 30da e1bd 9618 aabe 3019 edbd a64b 6e3e
00000190: d3a1 4ebd 374d 08bf a267 54be 1f59 f33d
000001a0: 2f9d 633f 83e8 713e 8ed8 1ebe 6338 dc3d
000001b0: 3d2f 1b3e 39d3 b4be cb6d c83d 3fcd 8dbe
000001c0: a626 c7bd a537 2a3d 3176 b63d 5fd6 70be
000001d0: 2dac 123e e1f8 ddbe c882 21bd 088c 6cbe
000001e0: 2d1b 973e a931 90be abff 66be f3df 11be
000001f0: 1471 063b f869 d7bd eb30 66be cdfc 77be
00000200: d9a8 50bd d433 f83d 4cc5 8b3c 493e 84be
00000210: 22d1 54be de91 2f3d 232f e1be 2685 a53e
00000220: 10fb 293e e1c2 2ebe cda1 873e adae 0fbf
00000230: efad cbbe ee1a ccbd 71b2 f7be 6d80 70be
00000240: 7952 353e d1ca 26bd 1874 393e aca1 74be
00000250: 96a4 de3e 88da 18be 892e 0bbe 79a4 a3bc
00000260: 1767 993d fd70 c43d e2c8 c3be 3227 c1bd
00000270: 4fb5 b6bd 133d 3a3f 4ec9 86bc 4b9f 9abe
00000280: 81f4 13bf 2617 103e b9ac e4bd 42bf fcbe
00000290: ee89 923c c187 693e 70be 903e 8710 29be
000002a0: 8ae1 a3be 1cac b3be 196a cb3c 0027 493e
000002b0: 3e0c efbe f7f6 98be d93a 30bd 4d26 d5be
000002c0: 9019 52bd 13d0 5c3e c73d 5e3e 940f cebe
000002d0: 0928 b5be d166 a23d 3b48 383e 248b b83d
000002e0: 7736 95bd ed7d 32bd f918 1c3d 4f8f 753c
000002f0: 2368 ff3d 016d e9be b4bc f23b 33f8 55be
00000300: 4ff1 49bd bde1 74bd f4e7 d5bd c980 e8bd
00000310: 8a7c 90be 9172 87bd d577 aebd 1df2 86bd
00000320: 3c79 993c 0ecf 0ebf 8a37 15be 302c 38be
00000330: 9307 07bf 2193 99be e354 0ebf 70f7 b33e
00000340: ac05 b7be 584b 4c3e d6f7 5dbd ba56 023d
00000350: 0b22 06be 1679 d4be f046 56be 745d d5be
00000360: 7a45 fcbd a617 c23c 1b4d f7be 56f5 073e
00000370: ee42 a7be 1e66 93be 58c8 11bf d69f eebe
00000380: 2953 ed3d 6cb0 d4be 3666 43bd 7bb8 9bbe
00000390: 1500 703e dcd5 8bbe a441 a4be 683a debe
000003a0: 44b8 eb3a 691a c9be 55ae 453d a71d 1d3d
000003b0: 00a2 e4bd a70d cabe 03d3 423c be17 05be
000003c0: b6e0 26bd 801b 2fbf 2800 18be 957a 65be
000003d0: 72b7 483e aecd 2f3e b9c7 b6be 5f5c d0be
000003e0: 97f8 063e 5e05 fb3d 57fd 7cbe e40d a43d
000003f0: d964 8bbe b678 62be 3e20 ac3e 6b08 84be
-0.075234875 0.22928853 0.13601916 -0.0626789 0.24673274 -0.13449973 -0.059604775 -0.2605691
-0.07625374 -0.15152672 -0.25640184 0.45937163 0.29979908 -0.13350374 0.134431 0.18060197
0.061559644 0.07492775 0.18900587 -0.23416272 0.5399023 -0.08442324 -0.611596 0.023808606
-0.17534637 -0.23431116 -0.3043433 -0.07075308 0.051039603 -0.13083489 0.11353952 -0.38121703
-0.028942455 -0.17438017 -0.37526822 0.11754668 -0.4363019 0.0944619 -0.34028798 -0.23727874
0.21040526 -0.24697228 0.055602342 -0.25230366 -0.19767423 -0.058457583 -0.14113589 0.6399867
-0.29200083 0.26066273 -0.14398605 0.047222007 0.3604169 -0.028259676 -0.35170773 -0.34673807
-0.20176573 -0.35215792 0.23441626 -0.22297682 -0.46420664 0.31576928 -0.2481438 -0.38061243
0.014454181 -0.22647555 -0.22927855 -0.21656485 -0.5101089 0.09821129 0.17984767 0.11712977
-0.30477878 0.2046927 -0.15337297 -0.07831944 -0.22959891 0.06842306 -0.070230305 -0.10498922
0.13058534 0.02150093 -0.06462786 0.22154415 0.011046909 -0.29675415 -0.30194548 0.02207181
0.34833613 0.08521549 0.061252773 -0.23866458 -0.22939186 -0.027202444 0.8392756 0.016034855
-0.11027944 -0.33221883 -0.1157707 0.23271045 -0.050447296 -0.5324282 -0.20742658 0.11882233
0.8891172 0.23623852 -0.15512297 0.107529424 0.15154739 -0.353174 0.09786566 -0.27695653
-0.097241685 0.041556973 0.08909262 -0.23519276 0.14323492 -0.43353942 -0.039431363 -0.23100293
0.2951292 -0.28162888 -0.22558467 -0.14245586 0.0020514177 -0.10518259 -0.22479598 -0.2421753
-0.050942276 0.121192604 0.017061852 -0.2582877 -0.20782903 0.04286372 -0.43981275 0.32328147
0.16599679 -0.17066528 0.26490632 -0.5612591 -0.39781138 -0.09966074 -0.48378327 -0.2348649
0.17707242 -0.040720765 0.18110693 -0.23889798 0.43484944 -0.14927113 -0.1359197 -0.019975888
0.07490366 0.09591863 -0.382392 -0.09431304 -0.089213006 0.7274944 -0.016453411 -0.30199656
-0.5779496 0.1407133 -0.11165757 -0.49364668 0.017888036 0.22805692 0.28270292 -0.16510211
-0.3200801 -0.35092247 0.024830865 0.19643784 -0.46689028 -0.2987592 -0.04302487 -0.41630784
-0.05129391 0.21563749 0.21703254 -0.4024626 -0.35382107 0.07929767 0.17996304 0.09010914
-0.07285779 -0.043577123 0.038109753 0.014987781 0.124710344 -0.45590976 0.007407749 -0.20895462
-0.049302395 -0.059785593 -0.10444632 -0.11352689 -0.28220016 -0.06613649 -0.0851895 -0.06589148
0.018734567 -0.5578469 -0.14571968 -0.17985606 -0.5274593 -0.29995063 -0.55598277 0.35149717
-0.35746515 0.19950616 -0.054191433 0.03182099 -0.13098924 -0.4149863 -0.20925498 -0.41672862
-0.12317939 0.023692917 -0.48301014 0.13277182 -0.3266825 -0.28788847 -0.56946325 -0.4660632
0.11588127 -0.4154085 -0.047704898 -0.30414185 0.23437531 -0.273116 -0.3208133 -0.43403935
0.0017983993 -0.39277962 0.04826196 0.038358357 -0.111637115 -0.3946354 0.011891129 -0.12997338
-0.040741645 -0.68401337 -0.1484381 -0.22410043 0.19601229 0.17168304 -0.3569925 -0.40695474
0.13180767 0.12256883 -0.24706016 0.08010462 -0.27225378 -0.2211636 0.3361835 -0.25787672

feature.bias_hh_l0 f4 [512]
00000000: 62a8 ba3d 9739 783e 63ab 2e3b c646 9f3d
00000010: 4ac7 843e 6f8f 24be 5402 23be 4f7d 9fbe
00000020: c1b3 8dbe f06c 4ebe 9f64 e8be 3289 ce3e
00000030: d716 a53e f7d2 29be 15d6 c83e 3504 a53d
00000040: f11b 053e 7f31 d1bc f8e8 a33d 16f2 88be
00000050: 4818 e13e 4e4d 9cbd 846f 2abf 1670 023e
00000060: b37a 17be 5f5d 77be 3c90 a1be faba 04be
00000070: 1d31 ad3b aadd bfbd 0e87 2e3e 8e77 9dbe
00000080: ee0b c9ba 2cc5 7cbe 6dfe 81be b3b1 953d
00000090: 9a4d b4be 5c03 0e3d d2cc 8bbe a830 15be
000000a0: 12b4 c23d 686f 80be c43b b9bd d44b 56be
000000b0: 11bd bd3b f1bf 3cbe a8a6 4fbe 2d40 1a3f
000000c0: 9ffe adbe 993c 963e 6bf4 ccbd 2462 a53d
000000d0: db04 7a3e 6cb3 a9bd 4ee2 cdbe aac1 b3be
000000e0: 281a 2fbe f475 77be 1b38 183e 8583 6fbe
000000f0: ea1e d9be 232c ee3d e2ee 10be a11c d0be
00000100: f40e 54b7 8495 b9bd 5ad7 a4be b7c6 a6be
00000110: 3667 f4be dda0 b93d 0eeb 6c3e caf7 2cbc
00000120: e779 3cbe 4580 733e 4375 54be f3e6 86be
00000130: e5fd 0fbe b8aa 253e 2350 edbd 716d a4bb
00000140: 5d5b 863d 7124 92bd f8b7 1bbe c1dc b23e
00000150: 2ff6 26bd 1f9b 8bbe 716c 81be b47f 0b3e
00000160: 6591 a43e c995 343e a368 74bd b5f0 e9be
00000170: 4ac9 a5be 5794 f1bd cb73 493f 81e3 a93d
00000180: 612b 81bc c756 6bbe 4dbf edbc d330 4b3e
00000190: 691e b83c 6d38 d9be e3fb 87be b7a1 153e
000001a0: 609e 6f3f 9031 293e 747c 18be a29e 4a3e
000001b0: 08e8 ca3d ffcf 3fbe 748d 503e 5f07 f3bd
000001c0: d55e 1abe 0395 9b3c 42a3 f0bd b01a 53be
000001d0: e13a db3d bf76 82be 7add 0d3c e37a a7be
000001e0: c153 993e e033 21be 9d2b 22be 0a13 2fbd
000001f0: bdf4 6abd 2121 95be cdb4 b0be e9ef 77be
00000200: 9fa2 41bd 4575 e23d d695 3c3d bf96 babe
00000210: a29b 7abe d913 b63c d141 bcbe 7c7d 9a3e
00000220: 9015 123e e58b 39be 5577 983e 2f69 0cbf
00000230: ad4e bcbe e897 c0bd 849d 09bf e71d a3be
00000240: 6aac 353e 629c 713d 2171 573e a2c5 a8be
00000250: e48a c43e 25c0 05be 921e b2bd 35d1 833d
00000260: 82d2 ab3d 2dac 1d3e d035 a8be a65a 68bd
00000270: 63f0 c8bc 3a7e 463f 0eea a2bc 9acc 78be
00000280: fbb6 fdbe 8f69 853e 80ed e6bd 6770 b5be
00000290: 6fed 31be fc19 a83e d6ac 913e b63d 74be
000002a0: e568 cabe 9f09 9ebe 9cd2 92bc dc30 063e
000002b0: accc ebbe ea9f 8abe a410 59be 2a42 e4be
000002c0: b2bb 383d bf43 163e ccce ab3e f4a4 edbe
000002d0: 1cae babe 138c d23c 6eec 353e 9693 68bd
000002e0: cc15 49bd abc4 1cbe fffa 5bbb 922b 6d3c
000002f0: 0848 adbb 4e4d e4be cc6d 3e3c 220a 1bbe
00000300: 3f86 17bd e9fe b0bc 6612 dfbd 0cd9 3bbe
00000310: 419c 0abd 16c9 37bc 4f11 babd 6a3d abbd
00000320: 25c3 be3b 8bc0 debe 89f6 41be 2ccb 47be
00000330: ff4f e9be 5fa8 bfbe bcc4 04bf 4cb6 b83e
00000340: fe2e 93be f834 863d dc30 b83c 555c e93d
00000350: 19bc 63be 70cb 83be 891d 39be 743a 06bf
00000360: fa5d c7bd 8e93 9c3d 6e07 debe 7f5f 3c3e
00000370: 57a0 b1be 7e6d 30be b493 06bf 2576 b4be
00000380: 8f16 bd3d 4128 97be c8d0 08be 7a7b a5be
00000390: feda a63e e4d4 7cbe d460 a8be 1eca 6cbe
000003a0: f07f 27bd a833 b6be a849 9abc 3821 623d
000003b0: 1d49 22be 3725 a0be c54c eebd 7b79 acbd
000003c0: 4444 7fbd a6e4 23bf 0295 94be d139 6cbe
000003d0: 61ad 783e 898d 853e d0db 9fbe b941 d5be
000003e0: 3039 d53d ad19 be3d ecc9 52be d721 123e
000003f0: 72a3 8abe 1ee9 71be a225 8f3e be27 cebe
0.09114148 0.24240719 0.0026652447 0.07777171 0.25933295 -0.1607034 -0.15918857 -0.3115029
-0.27676204 -0.20158744 -0.45389268 0.40339047 0.32243988 -0.16584383 0.39225832 0.08057443
0.1299894 -0.025536297 0.0800342 -0.26747197 0.43963838 -0.07631932 -0.6657641 0.1273807
-0.147929 -0.24156712 -0.31555355 -0.12961951 0.005285396 -0.09368451 0.17043707 -0.30755275
-0.0015338638 -0.2468459 -0.25389424 0.07309284 -0.35215455 0.034671172 -0.27304703 -0.14569342
0.09507002 -0.25084996 -0.090446025 -0.20927364 0.0057903607 -0.18432595 -0.20278418 0.60254174
-0.33983323 0.29343107 -0.100075565 0.080753595 0.24415915 -0.08286175 -0.4021172 -0.3510869
-0.17099822 -0.2416609 0.14865153 -0.23390014 -0.42406398 0.11629512 -0.14153627 -0.40646842
-1.2639666e-05 -0.09061721 -0.3219555 -0.32573482 -0.47734994 0.09063885 0.23136541 -0.010557124
-0.18405877 0.237794 -0.20747857 -0.26348075 -0.14061697 0.16178405 -0.115875505 -0.0050179292
0.06560395 -0.07135857 -0.15206897 0.34934047 -0.040762123 -0.27266786 -0.25278047 0.13622934
0.32142177 0.17635264 -0.0596701 -0.45691457 -0.32380134 -0.11795872 0.7869231 0.08295346
-0.015767755 -0.22982322 -0.029021883 0.19842844 0.022475438 -0.42425862 -0.26559362 0.1461247
0.93601036 0.16522813 -0.14891225 0.19787076 0.09907538 -0.18731688 0.2036646 -0.1186664
-0.15075238 0.018991953 -0.11749889 -0.20615649 0.1070459 -0.2548122 0.008658761 -0.32710943
0.29946712 -0.15742445 -0.1583695 -0.042742766 -0.057362307 -0.29126838 -0.3451294 -0.24212612
-0.04727423 0.11057524 0.046041332 -0.36443135 -0.24473432 0.022226261 -0.36768964 0.30173862
0.14266038 -0.18119772 0.29778543 -0.54848 -0.36778775 -0.09403974 -0.53755975 -0.3185875
0.17741552 0.05898703 0.21039249 -0.32963282 0.38387215 -0.13061579 -0.08697237 0.064363874
0.083897606 0.15397711 -0.32853556 -0.056727074 -0.024528688 0.77536356 -0.019886997 -0.242968
-0.49553666 0.26057097 -0.11275768 -0.3543732 -0.1737573 0.32832325 0.28452176 -0.23851666
-0.39533153 -0.30866715 -0.017922692 0.13104576 -0.4605459 -0.2707513 -0.21197754 -0.4458173
0.045100875 0.1467428 0.3355621 -0.46414912 -0.3646096 0.025701558 0.17765972 -0.056781374
-0.049093053 -0.15309398 -0.0033566353 0.01447572 -0.005288128 -0.4459023 0.011622857 -0.15140584
-0.03699326 -0.021605926 -0.10892181 -0.18344516 -0.03384042 -0.011217376 -0.090853326 -0.08361323
0.005821603 -0.43506274 -0.18941702 -0.19511098 -0.45568845 -0.37433144 -0.5186269 0.3607658
-0.2874679 0.06553072 0.022484235 0.11394564 -0.22239722 -0.25741148 -0.18077673 -0.5243294
-0.097347215 0.07645331 -0.43365043 0.18395804 -0.34692642 -0.17229268 -0.5256913 -0.35246387
0.09232818 -0.295229 -0.13360894 -0.32320768 0.32588953 -0.24690586 -0.32886374 -0.23123977
-0.040893495 -0.35586286 -0.01883395 0.05520746 -0.15848203 -0.31278393 -0.116357364 -0.08421608
-0.062320963 -0.64020765 -0.29019934 -0.2306893 0.24284889 0.26084545 -0.3122239 -0.41651705
0.10411298 0.09282241 -0.2058484 0.14270721 -0.27077824 -0.23624083 0.279584 -0.40264696

feature.weight_ih_l0_reverse f4 [512, 64]
00000000: a805 dc3e 2cd7 30be 401d a5bf ff85 0c3f
00000010: 17d8 48bf 107c cc3e fa78 093e bc5a ee3f
00000020: 7719 693e 5f0d 0d3f 6fcd fdbd 32e9 163e
00000030: f0b6 7b3f e52e dc3e 2d10 d83e b266 1dbe
00000040: 1e1c 3f3f 3cef ebbe 83d7 ed3e 51f7 33be
00000050: 72c2 c0bc c786 c0bf fcb6 b0be 0300 903d
00000060: c0d8 adbe 768c 0fbf 2ef5 773f 676f 883d
00000070: b9a2 5abe 8bcb ad3e 7a1f 753e 1ca6 143f
00000080: 45b7 d9bd d33f 0dbd c483 9e3e a13c 82bf
00000090: a4f1 e53e a22a f83d 4144 2ebe 9ccb 3fbe
000000a0: f506 cb3e 0d78 043f 5383 2fbf 5f05 303f
000000b0: a2dc 82be e3af 003f 90e1 6bbf 272f aabc
000000c0: f9a0 523f 6547 523f 4204 97bf 6aa7 dfbe
000000d0: 6298 0abf 5a76 053f c28b 06bf bf8c 053d
000000e0: f9ae a0be aa07 d0bd 982a e73e b8ba 94bd
000000f0: f4b1 0f3f 83e2 b9bd f49e ce3e 41e4 24bf
00000100: 6920 933d 0630 16be 3f81 b53e f964 723d
00000110: 5f4b 03be 67ad a63d 2588 5e3d ced9 f8bc
00000120: a6a9 5b3e a1cc 0fbe 84ac 29bf f122 f0bb
00000130: bb09 933d a4c4 853e edd9 55be 596d 1e3d
00000140: a1cb 77bd e2fa 15bf ab30 c3bd c2db 71be
00000150: f94c 703e 102e 903e 911b 273e 42b3 413d
00000160: 6f8e f0be 8fe3 d4bc 0c02 c8be 3b1b 06bf
00000170: 0566 4e3e b285 02bd 9923 a5bc 1965 b43e
00000180: 65d1 9ebe 9ba8 c0bd 90cd b83c 73c1 26be
00000190: 79c9 81be 9996 d9bd 5d20 ba3e abe7 203e
000001a0: 9811 6fbe 2f16 04be bf98 5d3c 34f4 1cbb
000001b0: a6b6 033f 6ef5 6b3e 10ed b73e d4b7 093f
000001c0: 9e3e 783d 517c 2c3e 902d ac3e 871d 023e
000001d0: 1138 0fbd 2bc6 473c e148 383e 8f1d 7bbe
000001e0: 9629 43be 577b eb3c 1b31 b3be c410 55be
000001f0: 302a 1dbe da7f aabd dd38 9bbe e591 963d
00000200: 0a93 023f e31a 1f3e d8e1 ff3d 01b5 20bf
00000210: 58ad 0fbf 0021 0abe 3ab4 873f 21a1 d7bb
00000220: 1f2c 53bd 8678 c33e c458 a83e db49 893f
00000230: 9476 7fbe c9d5 1dbf 90e7 81bf 17cb 03bf
00000240: f4b3 7fbf ebfc 223f b5ec dcbd a799 cc3e
00000250: a647 0d3f d34b 253f e996 453f b4e6 6fbe
00000260: c02c 053f bd6e 37bf 86a8 8cbe 31cd 3fbf
00000270: 7fd8 813e ca00 dbbe 4361 833e 3722 40bf
00000280: 2632 3fbf 899c b3be 4acc 763f 5e04 033f
00000290: 80ab 53bf 1296 d13e 668e 373f fa89 a7be
000002a0: 3736 62be 58c3 ae3a dbe0 2ebe 0914 d8bd
000002b0: e73d 49bf fe5f 9f3f 494b da3e 3897 dabd
000002c0: 5a08 f33e 7eda 1b3f e0cb 74bf 9c73 473f
000002d0: 6213 35bf 4cc9 a83e c026 663f 4aa2 003f
000002e0: 99e1 f5be b3e7 ecbe c144 16bf 83c1 c4bd
000002f0: 88d4 793e 51e7 5e3f cd48 36be 474f 9abe
00000300: b796 9c3d 9d9a 8d3e 398f 433d 67c0 843f
00000310: 5705 673f 463f 92be 779b 7fbe 52cd b8bf
00000320: 1de8 dabd ac54 a2bf f7d8 4a3e 2981 19bf
00000330: af25 45bd ed85 743e 6a57 d63e e236 c63f
00000340: 3ea9 3b3f ed0a dabf c27d ea3e 9c4a 59bf
00000350: 2468 ae3e 1201 0b3d 7851 92be d3ef acbd
00000360: 7b5e 84bf 4325 93bf d04c 91be ed2d db3e
00000370: e481 f4bd 378b 803e b708 cdbe 1bbe b0bd
00000380: edb2 aebd 06d0 6d3f fee8 4dbf 7415 0b3f
00000390: b8fc ffbe 2182 68bc 26ad 7c3e 8bd3 15bb
000003a0: 606b c93d a727 c4bd 245e 323e 4b19 273f
000003b0: 2680 0fbe d93c 5ebf 04ac a0bf 4c15 f5be
000003c0: 207f 2ebe 551f 2ebf 7dca 23bf f778 3fbb
000003d0: ed79 583f 5657 0b3d 7f97 9bbd 657a 17bf
000003e0: 651b 553d 1882 893f f5dd e6be 0e74 1abf
000003f0: 41e9 73be 6799 8f3c 7063 e9be 4dc2 b7bd
0.42973065 -0.17269582 -1.2899551 0.5489196 -0.78454727 0.39938402 0.13425055 1.862144
0.2276362 0.5509853 -0.12392699 0.14737394 0.98326015 0.43004528 0.4219984 -0.15371206
0.7465228 -0.4608096 0.46453485 -0.17574812 -0.023530219 -1.5041131 -0.34514606 0.07031252
-0.3395443 -0.560737 0.9685849 0.06661873 -0.21351136 0.33944353 0.23937789 0.5806596
-0.10630659 -0.034484696 0.30959904 -1.0174752 0.4491092 0.121175066 -0.17018224 -0.18730015
0.39653745 0.5174568 -0.6855976 0.68758196 -0.25558954 0.5026838 -0.92141056 -0.020774437
0.82276875 0.8214019 -1.1798174 -0.43682414 -0.5413877 0.52133715 -0.52557003 0.03260493
-0.31383494 -0.10157712 0.45149684 -0.07262176 0.5613091 -0.09076407 0.40355647 -0.6441079
0.07183916 -0.14666757 0.3545017 0.059178326 -0.1282172 0.081385426 0.054329056 -0.030377295
0.21451434 -0.14042903 -0.6627886 -0.007328384 0.0717959 0.26126587 -0.20883913 0.0386785
-0.06049693 -0.5858594 -0.09530767 -0.23618987 0.23466863 0.28160143 0.1631911 0.047290094
-0.46983668 -0.025987415 -0.39064062 -0.523853 0.20156105 -0.031865783 -0.020158576 0.3523338
-0.3101913 -0.09407159 0.022558957 -0.16284733 -0.25349024 -0.10624427 0.36352816 0.15713374
-0.23346555 -0.12899087 0.013525187 -0.0023949267 0.51450574 0.23042843 0.35923052 0.53796124
0.06060659 0.16844298 0.3362851 0.12706576 -0.03496558 0.012193243 0.17996551 -0.24522994
-0.19058833 0.028745336 -0.34998402 -0.20807177 -0.15348125 -0.08325167 -0.3031682 0.07352046
0.51005614 0.155376 0.12494248 -0.6277619 -0.56123877 -0.13489151 1.0601876 -0.0065804874
-0.05155575 0.3817789 0.32880223 1.0725664 -0.24947578 -0.61654335 -1.0148792 -0.51481766
-0.9988396 0.6366717 -0.10787336 0.39960977 0.5518745 0.64568824 0.77183396 -0.2342785
0.5202141 -0.7165335 -0.27472323 -0.7492247 0.25360486 -0.4277404 0.25660142 -0.7505221
-0.74685895 -0.35080364 0.9640547 0.5117854 -0.82683563 0.40934807 0.7170166 -0.32722455
-0.22090994 0.0013333363 -0.17077963 -0.105506964 -0.7861008 1.245117 0.42635563 -0.10673374
0.4746731 0.6088027 -0.9562359 0.7791078 -0.707327 0.32966077 0.8990288 0.50247633
-0.4802368 -0.46270522 -0.5869866 -0.09607222 0.2439748 0.8707171 -0.17801209 -0.3013861
0.07645934 0.27657023 0.04774401 1.0371217 0.9024252 -0.285639 -0.24961649 -1.4437659
-0.10688803 -1.268209 0.19809328 -0.5996271 -0.04813164 0.23879214 0.41863567 1.5485499
0.7330512 -1.7034584 0.4579907 -0.8487947 0.34063828 0.033936568 -0.2857778 -0.0844418
-1.0341333 -1.1495746 -0.28378916 0.42808476 -0.11938837 0.25106212 -0.4004571 -0.0863001
-0.08530221 0.92895544 -0.8043364 0.5432961 -0.49997497 -0.014191181 0.24675426 -0.0022861685
0.09834933 -0.095778756 0.17418724 0.6527297 -0.14013728 -0.86811596 -1.2552495 -0.4786781
-0.17040682 -0.6801656 -0.6398085 -0.0029216388 0.84561044 0.034018837 -0.07597255 -0.59171134
0.05202808 1.0742826 -0.45091215 -0.60333335 -0.23819448 0.017529203 -0.45583677 -0.08972607

feature.weight_hh_l0_reverse f4 [512, 128]
00000000: 5661 b2bd 64c1 60be 7358 8d3d 86b4 46bf
00000010: 60d4 55be c9fa dcbe 4b24 803e 9878 de3e
00000020: 8def 963e 56b1 ed3d 98d6 5fbd 4f98 34be
00000030: cc04 73be 5275 92be 33d8 69bb a152 b83c
00000040: 4bd8 72bf c136 51bf 7d83 583c 8a95 08bf
00000050: ea25 8dbf 4e06 56be 9efc 1ebe 4672 e53e
00000060: 9959 a33e 5e32 b73e 8485 e23e 4c23 043f
00000070: 9aca 343f 3d8c fcbc 62ae 283e ea05 bb3d
00000080: 68be 993d ef56 0b3f 5ece d63d 12c5 0bbf
00000090: f7bf 24be 8159 61be b550 c5bd 6105 133f
000000a0: 191b b63e 6c34 943e af4b 6f3e 2344 c43e
000000b0: d19e 193e 9906 1e3f c353 7d3e fd3d d3bd
000000c0: a4b1 b53c bfb9 bbbd 8c55 c83e 61af f33e
000000d0: 0986 e4be 0d9e b1bd 332c e7be 3acd 423e
000000e0: bc6e 67bf 683a a1bd 48e0 3dbf 85e5 e9be
000000f0: e9d1 b1bb 5600 a83e 6e06 79bd 079f b73d
00000100: 7159 adbe 5906 433f 0710 d8be 10bc 43bb
00000110: 8b00 733e 181a 343c ee56 6fbf 6aa2 f33e
00000120: 6556 2a3e bae5 a3be 6aa9 233f cecd 28be
00000130: df8c 5f3f 7473 13bc 6bed 69be 4f44 08bf
00000140: feb8 d4be 6385 06bf cc09 3dbe 52f8 1cbf
00000150: a518 d9be 7d70 35bf 888d 77bf 3b99 52be
00000160: 96b3 5a3d 7dcf ecbe afb4 b6be e7a0 44bf
00000170: e10b bb3e 949b e23c 873f 7d3f dd98 8cbc
00000180: 7105 173f 8884 fcbe ada6 a5be 2293 2ebe
00000190: e2a2 9a3e 5ddf 633e 72d2 37be 254d 0f3f
000001a0: 7183 133f 6174 31bf 3881 00bf accb f63c
000001b0: a41d 813e a006 02bf 23dc 5cbf 0d29 173f
000001c0: a08a aabe e1c3 82bd 142f f43e 685f 50bf
000001d0: 2fad 24be a919 07bd 5ea5 acbd 7012 afbc
000001e0: 5405 713d 0180 053f 162a dd3d 29ba a7bd
000001f0: 1d5f 74be 7cde 8fbd f203 cbbe 43bd 38bd
00000200: ddeb 233d bad7 acbd 992d 7dbd 2e2e 95be
00000210: e73b d1bd c670 2d3d 5129 633e 8d38 ef3c
00000220: 8e6b dc3d 49dd 99be c64d f63d a08a 703e
00000230: e917 e73c 6f6e 32bd b1dc 29be 55ff 1c3e
00000240: 5939 a5bd b3f5 37be b4cc a13b 4e84 febd
00000250: 5615 57be be72 01be 24c1 17bd 703a a83e
00000260: 250a ca3d 19dc f43c a0a5 f33d b979 f3bd
00000270: 2bd7 a03d bdec 2cbe d5f4 9f3d cc0b 053d
00000280: 46ea 8cbd 45b1 11be 98b0 2bbd 5178 6bbe
00000290: c215 483e a93f 95bd a91f 93be eace 7d3e
000002a0: 30d6 9abd 92f0 473d bb47 853d 0aa1 7cbe
000002b0: ddb9 7fbe 0268 493c 050e 28bc 64ab 15bc
000002c0: 389b e3bd 0bb0 053e cd52 253c 5e43 153e
000002d0: 2f3a 9a3d a317 27bb b3cc 01be b1c9 213e
000002e0: 27ee d63d 1a36 73bd a493 a6be ad35 9e3d
000002f0: 1753 5cbd 8afa 913c 601d 81be facc 8c3c
00000300: 316d 1bbe c9e6 91bd 0c43 21be 808b 0abe
00000310: fe11 2c3d a71c 793c f9b3 80bb 042f 24bd
00000320: 12bb e73d 31b6 bebe 35be 9dbe 9555 003e
00000330: 7f66 bf3e e531 04be 684f bbbd a3f2 1a3e
00000340: 9e7a 4abd 0b3e a4bc 0674 49be ecb6 1bbe
00000350: 40b2 86bd d020 923e 4cb8 83be 9337 ecbe
00000360: 132b 8e3b bfae 16be 2c5d a2bd 4b5d fc3c
00000370: 9be6 523d 16f6 403d 2456 193f 3b0d 7cbd
00000380: 8f37 8e3d ffc2 86bd 8081 92be cc88 053d
00000390: 8b49 383e fc5a 833e 692a a83e 6d61 a4be
000003a0: bb85 bbbe da54 13be ce9c 1dbd b0f9 bc3d
000003b0: d2d5 6abc 0a89 793e f6af 53bc 2583 eebb
000003c0: dd18 90bd 3211 0fbe 61a5 0fbe aa93 6cbd
000003d0: 444d cc3d 969f 5fbd ab2a 373e 1d53 10be
000003e0: 2999 7bbe 7e89 eebd a0e1 69be 38c5 433d
000003f0: 911d 98bd ff04 bb3d 973f 9f3d ecfa 53be
-0.087099716 -0.21948773 0.06901636 -0.77619207 -0.20881796 -0.43160084 0.2502769 0.4345138
0.29479638 0.1160609 -0.054648012 -0.17636226 -0.23732299 -0.28605133 -0.0035681843 0.022500338
-0.94861287 -0.8172417 0.013214943 -0.5335318 -1.1027195 -0.20900843 -0.15526053 0.44813746
0.31904295 0.35780615 0.4424249 0.5161636 0.70621645 -0.03082859 0.16472772 0.091319874
0.0750702 0.54429525 0.1048858 -0.5459758 -0.16088854 -0.220068 -0.09634534 0.5743008
0.3556755 0.28946245 0.23368715 0.38333234 0.1500199 0.6172882 0.24738984 -0.10314558
0.022179432 -0.09166288 0.39127767 0.4759474 -0.4463351 -0.08672724 -0.4515091 0.190236
-0.9040334 -0.07872468 -0.7417035 -0.45682922 -0.0054266346 0.32812756 -0.060797147 0.08965879
-0.338573 0.7618156 -0.42199728 -0.0029866733 0.23730676 0.010992549 -0.9349202 0.4758485
0.1663452 -0.32011205 0.6393038 -0.16484758 0.8732433 -0.008999694 -0.22844474 -0.5322923
-0.41547388 -0.5254728 -0.18460768 -0.61316407 -0.42401615 -0.7087477 -0.96700335 -0.20566265
0.053393923 -0.4625205 -0.35684726 -0.7680802 0.365325 0.027662076 0.9892506 -0.017162735
0.5899268 -0.49319863 -0.32353726 -0.17048314 0.30202395 0.22253175 -0.17951372 0.5597709
0.5762244 -0.69318205 -0.5019717 0.030126415 0.25217927 -0.5079136 -0.862734 0.59047014
-0.33308887 -0.06385017 0.47692168 -0.8139558 -0.1608169 -0.032983456 -0.08429979 -0.021371096
0.058842972 0.52148443 0.10799043 -0.08189804 -0.23864408 -0.070248574 -0.39651448 -0.04510237
0.04001986 -0.08439584 -0.061811063 -0.29136795 -0.102165036 0.042343877 0.2218373 0.02920177
0.10762702 -0.3005164 0.12026553 0.23490381 0.028209643 -0.04356235 -0.16588093 0.15331776
-0.08067579 -0.1796482 0.0049377326 -0.12427579 -0.21004233 -0.12641427 -0.037049428 0.32857084
0.09865216 0.029890107 0.11896825 -0.11888451 0.0785354 -0.16887183 0.0781037 0.032481954
-0.068806216 -0.14227779 -0.04191646 -0.22995116 0.1953955 -0.07287533 -0.28735092 0.24785963
-0.07560384 0.04881341 0.06507822 -0.24670807 -0.24973245 0.012292864 -0.010257249 -0.009135101
-0.1111359 0.13055436 0.010090542 0.1457648 0.07530629 -0.0025496266 -0.12675743 0.15799595
0.10494643 -0.059377767 -0.32534516 0.077250816 -0.05379018 0.017819662 -0.25217724 0.017187584
-0.15178372 -0.07124097 -0.15748233 -0.13529778 0.042009346 0.015204585 -0.0039277044 -0.0400839
0.11314978 -0.37248376 -0.3080918 0.12532647 0.37382886 -0.12909658 -0.09146005 0.15131621
-0.049433343 -0.020049116 -0.19673166 -0.15206498 -0.06576967 0.2854066 -0.25726545 -0.4613615
0.004338631 -0.14715098 -0.079279274 0.030806204 0.051489454 0.047109686 0.59897065 -0.061536055
0.06944191 -0.06580161 -0.28614426 0.032601163 0.17996804 0.25655353 0.32844856 -0.3210558
-0.36625466 -0.14387837 -0.03847962 0.092273116 -0.014333205 0.24368683 -0.01292037 -0.0072788172
-0.07035992 -0.13971403 -0.14027931 -0.05775801 0.09975675 -0.054595552 0.1788737 -0.14094205
-0.24570145 -0.11647318 -0.22839975 0.047795504 -0.07427514 0.09131812 0.07775801 -0.20701188

feature.bias_ih_l0_reverse f4 [512]
00000000: 3854 7e3e 61bb 703e a271 bdbc 7201 763e
00000010: 3901 cd3d 4526 c9bd 96d7 8ebd 643b 393d
00000020: 0f2c 06bd 51d1 583e 06d4 053e 7525 053f
00000030: 5680 95be c1fd 5ebd 7d40 ae3d 09ee 303e
00000040: 852c 2c3e 7a38 e63e fcbe cd3d 8588 eb3e
00000050: d563 4cbe 6e51 8b3e 177d abbe ec84 b13d
00000060: b6bd dc3c e392 3a3c 1227 71be ff0f ca3e
00000070: be5d 1c3e 5193 213e ae98 263d 985a 9d3e
00000080: f743 6e3d ae82 97be 3be0 2fbe 46b9 fdbd
00000090: 5d49 2e3d 8860 08be 1e21 463e 5c5b 2ebe
000000a0: 69b7 90bd 9f8f e63e 07d4 193d 5b21 633e
000000b0: 6342 afbe 2130 8b3e a7a7 393f c7e5 a7bb
000000c0: 0dda 88bd 414f 2e3f fbe5 55be b017 bcbc
000000d0: 753c 50be 3f6c 383e 4ca8 07be c9b8 04be
000000e0: 1360 a93e 93fc 55bd 0df9 923e f15c a43e
000000f0: 718d d63c fc6d 1f3e c139 1bbe de96 de3e
00000100: d801 0d3f a669 bf3e 1d09 7d3d f566 573d
00000110: ee8f 19bd 08c2 dabd 04ff 93bd 4e08 8fbe
00000120: 315b b83e 6428 bfbe b6b5 7e3e e2cc e93d
00000130: 08c2 6f3e a625 383e 5086 ca3c fb24 c9bc
00000140: 408b c63d 7f1b 413d e3dc 613e 07c8 1e3e
00000150: d122 803e ce1d 0cbe cbd0 323e fce1 bd3e
00000160: 6300 7abe f417 ccbd 0207 2ebe a438 9a3e
00000170: c8a3 b63c 3d9b b53c 528c 08be a6ff aabd
00000180: e58e ee39 97f6 a33c 0413 ccbd 16ea 213e
00000190: 838c 0d3f a62c 07bf 26ba 2c3e 72dc 423e
000001a0: a632 c53e 8cfa 873e 0e3a 833c f034 37be
000001b0: 2423 48bd 6705 36bd 488c 90bc fa27 a1bd
000001c0: 33c7 12be 5d8a dd3c 6049 ef3c 3981 aa3d
000001d0: b73d a7bd 8315 59be 815c 1abe 47c8 7fbd
000001e0: 6d94 bbbd 6366 873d 52dc 32be 045a 8d3e
000001f0: 9e6c 053e bba1 d0bd 3905 853e c53f 643e
00000200: 96ac 523e 2de4 973e ff55 b4bd 91ba 30be
00000210: d25b d7be 3862 f23c b962 683e 9700 3b3e
00000220: 2410 b33c 75df 123e b8b5 dc3c 5ea9 94be
00000230: 9d2b 58bd e715 2dbd 7ce5 d43e 25aa 0f3e
00000240: f35f 94be 841f 243e 4f88 c03e 1c6e 0bbd
00000250: e28b 9d3e df39 d13d cc78 7abe edec d23e
00000260: caf4 903b 9576 833b f591 6d3e 7121 373e
00000270: 91ff 80bd 571f 1fbe a823 873d e5f4 8c3e
00000280: 3a8f 443e 4ba1 95bd b0d2 2c3e 9e94 393d
00000290: 75e9 013e 0fdc dbbd e3f7 a83e 6ad0 74bd
000002a0: a717 9a3b 6f67 ebbe 3b18 093d 1cf1 edbd
000002b0: 612c d1bb aa92 593e eee6 12bf 8d41 9abe
000002c0: a746 5d3d 98e5 6b3e b191 e5be 567d aebd
000002d0: 5a1e 3ebe ffd0 b03e 12a3 28bf 1e90 4e3b
000002e0: 5e60 22bf a59b 34bd a7ad 0f3f d602 cfbd
000002f0: c2de 22bd 2e6a 023f fc45 193e c6e0 9abe
00000300: ac5c a13e 06c1 b73e 159e 17be e549 4e3e
00000310: f01f 19bd f356 b23e 5727 533e 56d0 ffbe
00000320: 2b07 453e c8ef c7be e940 0fbd 255c f2bd
00000330: 9098 2ebe e31d 9e3d 4737 e5bd 1cb7 a2be
00000340: 1f0b b2bd e94a 7ebe 70c8 ba3c 9dca c13e
00000350: 743e 3c3e 52a2 14bd d6df 533e 3e8a 8f3e
00000360: 647d d3be 982e bd3d 1606 a93e e1e6 67be
00000370: 3dce 2fbe 5663 ebbd a829 453d 768b 2f3c
00000380: 4fda 573e 66c5 033e 676a b1be 358c 303e
00000390: d032 d0be 681e 073e cdf1 d5be d128 913e
000003a0: 2d4a 00bf 9248 cc3d e968 20be 45b6 a6be
000003b0: f391 883d e1a5 a43e b9d0 a7be b0eb 6cbd
000003c0: 1ba9 0b3e 8a31 cc3d 95da f1bc a67f 3d3e
000003d0: b0b1 703e 67a8 2f3e 8e38 b3bd 5424 dbbd
000003e0: ece4 993e df1d 04bf 770e 65be 5fa3 5dbe
000003f0: 0889 8b3e da56 2bbe c275 743e 0f1f a7be
0.24836814 0.2350898 -0.023125473 0.24023989 0.10009999 -0.098217525 -0.069747135 0.045222655
-0.03275686 0.21173598 0.13069162 0.5201028 -0.29199475 -0.054441217 0.08508394 0.17278303
0.16813858 0.44964963 0.10046193 0.46002594 -0.19959958 0.27210563 -0.33493873 0.08667931
0.02694593 0.01138756 -0.2355006 0.3946533 0.15270135 0.15778853 0.04067295 0.3073318
0.058170285 -0.29591888 -0.17175381 -0.12388854 0.042550433 -0.13318074 0.1934857 -0.17027038
-0.07066233 0.4503145 0.03755572 0.22180693 -0.34230337 0.27185157 0.7252144 -0.005123827
-0.06682215 0.6808968 -0.20888512 -0.022960514 -0.20335563 0.18010043 -0.13247794 -0.12961115
0.3308111 -0.052242827 0.28705636 0.3210216 0.026190491 0.155693 -0.1515875 0.43474478
0.5508094 0.3738529 0.06177627 0.05258842 -0.037490778 -0.1068154 -0.07226375 -0.27936023
0.36007074 -0.37335503 0.24874005 0.114160314 0.23413861 0.17983112 0.024722248 -0.024553766
0.096945286 0.047145363 0.22056918 0.15505992 0.25026563 -0.13683245 0.1746246 0.37086475
-0.2441421 -0.09965506 -0.16994861 0.30121338 0.022294894 0.02216875 -0.13334778 -0.08349542
0.00045501362 0.020015044 -0.099645644 0.15811953 0.5529253 -0.52802503 0.16867885 0.19029406
0.38515204 0.2655834 0.016018894 -0.17891288 -0.048861638 -0.044438746 -0.017645016 -0.07868953
-0.14333801 0.027043516 0.029209793 0.083254285 -0.08166068 -0.21199612 -0.1507435 -0.06244686
-0.09159169 0.066113256 -0.17466858 0.2760774 0.13029715 -0.10187098 0.25980547 0.22289951
0.20573649 0.29666272 -0.08805465 -0.1725867 -0.4206224 0.02958785 0.2269391 0.18261944
0.021858282 0.14343055 0.026942119 -0.29035467 -0.052775968 -0.042257216 0.41581333 0.14029749
-0.28979453 0.16027647 0.37603995 -0.034040555 0.30770785 0.10216116 -0.24460143 0.41196385
0.0044237124 0.004011939 0.2320021 0.1788385 -0.062987454 -0.15539299 0.06598598 0.2753059
0.19195262 -0.07306155 0.16877246 0.045307748 0.12686713 -0.10735332 0.33001623 -0.05976907
0.0047025266 -0.4597735 0.033470374 -0.116182536 -0.006383464 0.21247354 -0.5738362 -0.30128136
0.054022457 0.23036802 -0.44837716 -0.0852 -0.18566266 0.3453445 -0.65873826 0.0031519006
-0.63428295 -0.044093747 0.5612435 -0.10107963 -0.03976322 0.5094327 0.14968103 -0.30249614
0.31516016 0.35889453 -0.14806397 0.20145376 -0.037383974 0.34831962 0.20620476 -0.49963635
0.19241016 -0.39050126 -0.034974013 -0.118339814 -0.17050385 0.07720544 -0.11192184 -0.31780326
-0.086935274 -0.24833263 0.022800654 0.37849894 0.18383199 -0.036287613 0.20690855 0.28035158
-0.41306603 0.09237403 0.33012456 -0.22646667 -0.17168517 -0.11493556 0.04813543 0.010714402
0.21079372 0.1286827 -0.3465149 0.17240985 -0.40663767 0.13195193 -0.41786042 0.28351453
-0.50113183 0.09974779 -0.1566502 -0.32560936 0.066684626 0.32157806 -0.3277643 -0.057841957
0.13638727 0.09970386 -0.029523173 0.18505725 0.23505282 0.17154084 -0.08751021 -0.107002884
0.30057466 -0.5160808 -0.22368799 -0.21644352 0.27252984 -0.1673235 0.23873046 -0.32640883

feature.bias_hh_l0_reverse f4 [512]
00000000: fabf 463e 567c 1e3e 268e 293d 162e 8e3e
00000010: 9aae 613d 7a3f 56bd effd c2bd 6d6f 853d
00000020: 7fc5 1abd 65c0 8b3e 30f1 553e d940 d83e
00000030: 2eaf 84be 4a50 673c 478b 6c3d f07c 8a3d
00000040: 7a96 053e c74b be3e 5a0f b73d 4358 a73e
00000050: 0a0c adbd 0855 b03e 4da5 81be 9c0a 49bc
00000060: 5aa4 52bc 3918 833d 2310 53be 005f 9b3e
00000070: 7702 f73d 3c77 dc3d 789f e93c 09bd 333e
00000080: ba6a 4b3c 92bf abbe f5fc 31be 3999 c739
00000090: 4bfe e63d 44b0 e7bd 3b90 4f3e 9227 e6bd
000000a0: c72a 18bc 4bc1 bf3e 199e 233e db9b 1e3e
000000b0: c0d9 c7be 3a19 733e 6176 323f 2b69 1e3e
000000c0: c7f8 a1bd f1a0 1d3f 56e4 5fbe 17fe 82bd
000000d0: aeef 9ebd 46c8 143e 7cc5 b7bd def6 92be
000000e0: ca89 123e a9ba adbd 9a0b 9a3e 9b0a bf3e
000000f0: e58d 7cba 3115 193e baa4 25bc bf98 d83e
00000100: ce25 083f abc8 953e 677c df3b c0f1 343e
00000110: 4fd7 f03d 7d65 cabd 42c5 c9bc eb1b e9be
00000120: 112e da3e 2782 98be 9b02 8c3e 2e86 0cbd
00000130: 6c56 a23e 5293 903d e696 9ebd 433f 573d
00000140: b5e7 b53d fc04 ee3c a7be 89bc e021 223d
00000150: dfd0 6f3e 5a7a 14be af94 063d bcd5 d73e
00000160: 1a54 1dbe 0687 2abe 6ffb 8ebe 0077 813e
00000170: e620 5a3d ae38 7d3d dbe8 68be 9600 593d
00000180: 81d8 07bd cf0e 683e 0232 14be bb41 3c3c
00000190: f61c 133f 0a90 d4be 7fab 623e 8b55 873e
000001a0: 15e0 da3e fdb3 f73e d69a 3bbd 6872 a0bd
000001b0: c52d 0cbd 9f00 043c 1a37 6dbc cbbe 5abc
000001c0: aac4 683c e3df c23d efdc 243d b46d 8b3d
000001d0: 709e 2dbd 3168 1ebe 5f71 95bd 948d 98bd
000001e0: 9b4a 193d 24de 693e c88c 59be 2cfd 9e3e
000001f0: d9c3 a53d d174 e6bc 12a4 173e e5b7 9b3e
00000200: 34aa 6e3d 1f93 973e f2f3 073d cbec 46be
00000210: 097c acbe 7979 72bd abc5 2c3e cfc9 5c3e
00000220: b7c8 86bd 9ccc f0bc 4ae9 36bd 44be c7be
00000230: cb48 47bd e03a 7fbc 68eb 733e 9c76 1d3d
00000240: 11d1 aebe 5cc7 493e 0c6c be3e 1a9a 67bd
00000250: f7cb b03e 9e1c a93d 49e0 96be 4b8e 7b3e
00000260: 5054 8bbd 87eb f2bd 9dea 563e f742 743e
00000270: 5e88 d83d 0fe1 9db9 a427 1e3d 0b76 b53e
00000280: 2bf8 b93e 6681 ab3b 4808 1a3e db68 ad3d
00000290: 0ec5 843c 333c cbbd 1460 883e 9a88 7a3d
000002a0: 2cc7 0bbe fb18 e6be f58e 00bd c238 a5bd
000002b0: 0de8 a23d 3e40 053e 3578 07bf efad 7bbe
000002c0: d338 ec3d 02f8 943e 17c1 f5be d2ea 28be
000002d0: 45db bcbe 07f3 653e 7441 18bf db2c 103d
000002e0: 79aa 17bf 5516 5abd c423 003f ddfb e2bd
000002f0: 4d19 53bd f180 8a3e d5d4 8b3e 1a73 74be
00000300: 49b9 bc3e 7f78 943e a03d 7ebd c5bf 863e
00000310: d284 72be 5eab a63e 0efc 233e 59bf 22bf
00000320: a55c 683e 19f3 babe f675 62be 847a 9fbd
00000330: 979f bfbb 6e8d a4bc 7dc3 84bd f6b1 d3be
00000340: e58b 7cbb bc63 a6be 7d6d e93d 229c 9a3e
00000350: 0e29 c13e 4315 92bd d4c3 813e 74cb 893e
00000360: 2e39 68be d0ef a53d 7cee a33e 9a8f 8abe
00000370: 48ec 64be e3ff 5aba 8f69 5c3d d4b2 863d
00000380: b6dc 253e 76f8 5a3e a732 c8be 816a 773d
00000390: 40b1 06bf 1415 5e3e e627 a1be 5d6a 3b3e
000003a0: 4e3c 14bf 45cc 593d 4c58 6bbe 973e e8be
000003b0: 2b63 9c3c dfe9 c23d 21f1 acbe f6c8 14be
000003c0: e5b8 823e fe70 f23d 2fc5 34bd f147 cc3d
000003d0: a08e fd3d 4d75 f13d 23a8 f8bd c2e7 a1bd
000003e0: 2d83 333e cd57 f0be 6dac 82be 485b 24be
000003f0: 90d9 203e b3fe 01be 6d23 853e 03ba 99be
0.19409171 0.15477118 0.04139533 0.27769536 0.055098154 -0.05230663 -0.0952109 0.065153934
-0.037786003 0.27295223 0.20892787 0.42236975 -0.25914901 0.0141182635 0.057750013 0.06762111
0.13045684 0.3716719 0.08938475 0.32684526 -0.08449562 0.34439874 -0.25321427 -0.012270596
-0.012856567 0.064011045 -0.20611624 0.30345917 0.12061017 0.1076493 0.028518423 0.1755258
0.012415582 -0.33544594 -0.17381652 0.00038070398 0.11278971 -0.11312917 0.20269863 -0.11238016
-0.009287543 0.37452158 0.15978278 0.15489142 -0.39033318 0.23740092 0.6971188 0.15469806
-0.07908779 0.615737 -0.21864447 -0.0639612 -0.07760559 0.14529523 -0.08973214 -0.2870397
0.14310375 -0.08482868 0.30086976 0.3731278 -0.0009634181 0.1494949 -0.010110075 0.42304036
0.53182685 0.2925466 0.00682025 0.17670345 0.11759817 -0.098826386 -0.024630193 -0.45529112
0.4261327 -0.29786798 0.27345738 -0.03430765 0.3170656 0.07059349 -0.07743625 0.052550565
0.08882085 0.029055111 -0.016814543 0.039583087 0.23419522 -0.14499798 0.03285664 0.42155254
-0.15364113 -0.1665307 -0.27926204 0.25286102 0.05325403 0.061821632 -0.22745077 0.052979074
-0.03316546 0.22661899 -0.14472201 0.011490281 0.57466066 -0.41516143 0.22135733 0.26432452
0.42749086 0.48379508 -0.04580196 -0.07834321 -0.034223337 0.008056789 -0.014478469 -0.013351153
0.014207045 0.09515359 0.04024976 0.068080336 -0.042387426 -0.15469433 -0.072970144 -0.07448879
0.037424665 0.22838646 -0.2124511 0.3105253 0.080939956 -0.028131874 0.14808682 0.30413738
0.058267787 0.29604432 0.03319163 -0.19426267 -0.3368838 -0.059197877 0.1687228 0.21561359
-0.06581252 -0.02939444 -0.044656076 -0.3901235 -0.048653405 -0.015578002 0.23820269 0.038443193
-0.3414388 0.19704956 0.37191808 -0.056543447 0.34530613 0.082574114 -0.2946799 0.24565999
-0.06803191 -0.118613295 0.20987935 0.2385367 0.10572885 -0.00030113055 0.038612023 0.35441622
0.3632215 0.0052339314 0.15042222 0.08467265 0.016207244 -0.099235915 0.26635802 0.06116543
-0.13650197 -0.44940934 -0.031386334 -0.08067466 0.079544164 0.13012788 -0.52917796 -0.24578069
0.11534276 0.29095465 -0.47998878 -0.16495827 -0.3688604 0.22455989 -0.59474874 0.035199028
-0.59244496 -0.053243954 0.50054574 -0.11083195 -0.0515378 0.270515 0.27310815 -0.23872033
0.3686011 0.2899818 -0.06207049 0.26318184 -0.2368348 0.32552618 0.1601412 -0.63573223
0.22691591 -0.36513594 -0.22115311 -0.0778704 -0.005847882 -0.02008697 -0.06482599 -0.4134671
-0.0038535532 -0.32497966 0.11397836 0.30197245 0.37726635 -0.071329616 0.25344718 0.26913035
-0.22678062 0.08102381 0.32017887 -0.27062684 -0.22355759 -0.000835417 0.053811606 0.065770775
0.16197476 0.21383843 -0.39101145 0.060404304 -0.5261421 0.21687728 -0.31475753 0.18302293
-0.5790452 0.053173322 -0.22982901 -0.45360252 0.019090256 0.095172636 -0.33777717 -0.14529786
0.25531688 0.11837958 -0.04413336 0.09974659 0.12380719 0.117899515 -0.121414445 -0.079055324
0.17530508 -0.46941987 -0.25522175 -0.16050446 0.15707994 -0.12694816 0.2600359 -0.30024728
