pretrained_models/zero.pth (torch, 821283 bytes, 10 tensors)

feature.weight_ih_l0 f4 [512, 64]
000000 24 10 46 bf 55 f1 9f be 22 39 1b be ff 1e dd 3f
       -0.7736838 -0.3123881 -0.15158513 1.7275084
000010 c8 72 f6 be 20 f1 26 be bf a5 b4 bd b7 94 86 3f
       -0.48134446 -0.1630292 -0.08820676 1.0514134
000020 05 33 50 3f 62 29 26 3f bf b4 c4 be 8f 4a 1c bd
       0.8132785 0.64906895 -0.38419148 -0.038157042
000030 ae 89 fd 3d 6b ee 2d 3e da 57 2b 3f ff 39 64 3d
       0.12379776 0.1698548 0.66930926 0.055719372
000040 25 8b 48 bf f0 69 25 3f 18 11 52 bf 90 6c 05 be
       -0.7833732 0.6461477 -0.82057333 -0.13029695
000050 40 87 a7 3f cb 90 43 be d9 a8 83 3e ef 3a 72 bf
       1.308815 -0.19098203 0.25714758 -0.94621176
000060 01 4e 4c bf e8 94 d1 3e 96 04 1e bf b4 24 3a 3e
       -0.79806525 0.4093392 -0.6172575 0.18178064
000070 a5 c3 95 be c7 3e 17 bf 3b 54 21 3f 8a 6d fa bc
       -0.29250827 -0.59080166 0.6301915 -0.03056981
000080 e2 e5 0d 3e bb 3e 0e 3d 8f d6 d5 3e 2a 8d 24 bf
       0.13857225 0.034727793 0.41765258 -0.642779
000090 4b a0 18 bf 6a 8a 2d 3e b1 ea 14 3f f7 3d 59 bf
       -0.5961959 0.16947332 0.5817061 -0.84860176
0000a0 ee d2 ec be 57 b1 b1 3e 9c e1 cf be e7 e0 2a bd
       -0.46254677 0.34705612 -0.40601814 -0.04171839
0000b0 9f 8f a2 3d fe 55 86 3f fb aa ca be 8b d0 ae bf
       0.0793755 1.0494993 -0.39583573 -1.3657392
0000c0 6f 31 77 3e 5b 70 e9 3e df 52 8a bd 73 4e d0 bc
       0.24139951 0.45593533 -0.06754088 -0.025428033
0000d0 0f d8 84 39 c5 a9 b2 3f 02 61 2b bf 70 52 d6 be
       0.00025337978 1.395806 -0.669449 -0.4185977
0000e0 66 65 54 be b3 4a d5 3d 85 1a 80 3e 72 43 b9 be
       -0.20741805 0.10414638 0.25020233 -0.3618427
0000f0 db 15 62 3e 7d 47 1f bf d8 11 3a 3e 4c ed 25 be
       0.2207865 -0.6221846 0.1817087 -0.16203803
000100 3d 31 38 3e e2 c4 19 bf 33 96 80 bf 68 8b ad bf
       0.17987533 -0.60066044 -1.0045837 -1.3558168
000110 86 dd 81 bf 18 52 a0 be 76 d8 7e bf b0 00 4a bf
       -1.0145729 -0.31312633 -0.99549043 -0.789073
000120 b4 58 2a be be 43 75 3e 79 b9 8b 3f 5e d7 18 3e
       -0.166354 0.23951623 1.0915977 0.14925906
000130 2b 8a 3c 3f 25 fd 9e 3e b4 22 b1 be 9d fe c5 be
       0.7364833 0.3105251 -0.3459679 -0.38670817
000140 e3 7e 0a 3f d5 75 19 3f 4e 64 ad bd 15 16 3a bf
       0.54099864 0.5994542 -0.08466397 -0.72689945
000150 e4 b5 e4 3e c5 0d 62 bf 2e 71 c0 3e b2 43 09 3f
       0.44670022 -0.8830226 0.3758635 0.5361892
000160 4a 69 a0 3f 0e 4a 39 3f 8d a9 54 3e b4 ca e4 3d
       1.2532132 0.72378623 0.20767803 0.11171475
000170 1c 5a 6d 3c 3f 34 6f be ec 8b 99 3f 61 e1 1d bf
       0.014486816 -0.23359774 1.1995826 -0.61672026
000180 ec 55 96 3e 01 cb 12 3f 4e 42 52 bf 4c e3 54 be
       0.29362428 0.5734101 -0.8213242 -0.20789832
000190 ff 73 14 3f 3b 76 5a bf 65 e4 62 bf c9 2a 92 3f
       0.57989496 -0.85336655 -0.8862975 1.1419307
0001a0 f6 9b d4 3e b3 76 30 3f 95 ce b2 bf 3b fb 5c bd
       0.4152524 0.6893112 -1.3969294 -0.05395053
0001b0 5c ad 03 bf d4 63 90 3e 88 4c 56 3f cf 93 10 3f
       -0.514364 0.28201163 0.8371053 0.5647554
0001c0 16 8c cd bf 95 2a ba be 91 46 b2 be 55 b7 c7 bf
       -1.6058376 -0.36360613 -0.34819463 -1.5602823
0001d0 5a ee 3e 3e 50 f6 c2 bc 01 11 05 3f 0c fc 2d 3f
       0.18645611 -0.023799092 0.5197907 0.6796272
0001e0 a4 a0 3a 3f b1 db bc 3d eb 5c 96 3e a9 1f b3 3f
       0.7290137 0.0922159 0.29367766 1.3994037
0001f0 87 cc 2f bf 7a ff 86 bf 10 ef 82 bf 15 73 83 bf
       -0.6867146 -1.0546715 -1.0229206 -1.0269495
000200 30 a4 d7 bc f6 85 68 bf dc 8e c6 bf 8c 1d 12 3f
       -0.026323408 -0.9082941 -1.5512347 0.57076335
000210 cc a6 e5 be a5 22 c1 3e 0f 9e 09 bf af 6c 0b 3f
       -0.44853818 0.37721744 -0.53756803 0.54462713
000220 ef 7f 9e 3f f0 6c 2b 3f e6 8b 88 3e bc fc 82 bf
       1.2382792 0.669631 0.26669234 -1.0233378
000230 7f cb 86 be 07 bd 1f 3f 65 04 ba 3d 14 68 7a be
       -0.2632713 0.6239781 0.090828694 -0.24453765
000240 1f 1f 24 3e 5f 89 75 3e dd 49 61 bf d0 f5 52 3d
       0.16027497 0.23978184 -0.8800333 0.051503956
000250 90 78 52 3f 0a 96 93 bf 55 0f c6 3e b7 2c 24 3f
       0.82215214 -1.1530163 0.38683572 0.6413073
000260 67 be d0 bf 48 7f c5 3f 68 f7 9a 3e e2 04 44 3d
       -1.6308106 1.5429468 0.3026688 0.04785622
000270 a4 58 02 3f 15 81 0c 3f 0f c6 99 bf a9 4f 62 3e
       0.50916505 0.54884464 -1.2013568 0.221007
000280 ec 4c 84 be 69 4a c2 3f 3b c7 85 3f e9 26 ac bf
       -0.25839937 1.5178958 1.0451425 -1.3449374
000290 73 e8 8e 3f da 57 a3 3c 7c a4 37 bf 8e 16 93 3e
       1.1164688 0.019939352 -0.7173536 0.28728145
0002a0 b7 b0 59 3f 71 b8 98 bf 10 ab 69 be 1e f6 8d 3f
       0.8503527 -1.1931287 -0.22819161 1.1090734
0002b0 9b 31 cb bd 8c c3 e8 3f 1f de 83 3f 3e be 51 bf
       -0.09921571 1.8184676 1.0302161 -0.8193091
0002c0 55 72 21 be dd e2 a5 3f 63 44 95 bf f0 bf 6d bf
       -0.1576627 1.2959858 -1.1661495 -0.92871
0002d0 f6 6c d7 3d 02 15 c5 be 2f 17 0e bf 8a 37 99 be
       0.105188295 -0.3849259 -0.55504125 -0.29925185
0002e0 e6 0f 81 bf 70 de 83 3e a7 45 e9 be dc af cb be
       -1.0082977 0.25755644 -0.45560953 -0.39782608
0002f0 fe 6f 7b be 52 3b ef be b4 4c 92 3e 10 7c 49 bf
       -0.2455444 -0.46724945 0.28574145 -0.7870493
000300 bf 5d f7 be 3d 22 c1 3c 24 17 8c be 98 18 87 be
       -0.4831371 0.023575896 -0.27361405 -0.2638595
000310 33 b0 0e 3f ff c2 cb 3e 50 a5 f2 3e 9c 90 67 3a
       0.5573761 0.39797208 0.47391748 0.0008833499
000320 62 34 42 3f 9e 65 d8 3c 79 db f0 be 26 1f bf 3d
       0.7586118 0.026415642 -0.47042444 0.09332113
000330 c5 24 95 be 33 8f df be 1d 15 12 bf ac fe ca be
       -0.29129615 -0.4366394 -0.57063466 -0.39647424
000340 b0 1f 14 3f ed 8d 2a 3d 9f 26 0a 3f cb 12 68 bf
       0.5786085 0.041639257 0.5396518 -0.90653676
000350 db 4d d8 be da 24 61 bf b4 72 41 bf 25 f7 08 bf
       -0.422469 -0.87946856 -0.7556565 -0.5350211
000360 1a 08 9c 3f 0f da b8 3e e2 75 99 be 03 15 fd 3e
       1.2189972 0.36103866 -0.2997275 0.49430093
000370 df 52 a6 be 81 b9 fd bd 54 38 c3 be 3c bc 31 3f
       -0.324851 -0.12388898 -0.38128912 0.6942785
000380 07 f1 e6 3e 23 45 4b be 51 03 eb 3e 9d 6f 92 be
       0.45105764 -0.19850592 0.45900968 -0.2860078
000390 26 be a3 3e b8 e6 25 be 32 1e 02 3f 45 78 b5 3e
       0.3198101 -0.16201293 0.50827324 0.3544332
0003a0 2d b7 84 be 08 d7 8d 3f 5e 33 39 bf 74 cb f4 3d
       -0.25921002 1.1081247 -0.72344005 0.11952868
0003b0 4b 83 be 3f 06 57 9e bd 65 05 27 3f 4b 20 0f 3f
       1.4883817 -0.07731442 0.65242606 0.5590865
0003c0 f4 23 12 bf 91 65 9c 3f 32 44 76 3f be 53 3f bd
       -0.5708611 1.2218496 0.9619781 -0.046710722
0003d0 5f cf 0f 3c 38 bf da bf 83 74 ca bf 7f 47 1d 3e
       0.008777468 -1.7089605 -1.5816807 0.15359305
0003e0 9f 96 56 3f fb eb 61 bd cd 0a 0d bf 37 8e 19 bf
       0.8382358 -0.05515669 -0.55094606 -0.5998263
0003f0 b5 42 5f bd d9 10 bf be c5 11 09 bf 08 25 26 3f
       -0.054506976 -0.3731754 -0.5354274 0.64900255

feature.weight_hh_l0 f4 [512, 128]
000000 90 1d 27 3f 79 c8 c6 3e 39 c9 9f be fb 37 26 3f
       0.65279484 0.38824823 -0.31208208 0.6492917
000010 20 79 00 3e db 7b 30 be ce 3a 99 3d 9d 97 56 be
       0.12546206 -0.17234747 0.07481919 -0.20956273
000020 d2 59 9c be 9d aa a7 3b e0 8a b8 3e 70 3c f9 bd
       -0.30537277 0.0051167742 0.36043453 -0.12169731
000030 8d b8 69 3e 9c 49 09 3f 7e c6 12 bf 55 17 fc bd
       0.22824307 0.53627944 -0.57334125 -0.12309138
000040 e3 a1 63 3f 00 cb 82 be 1f 3e 0c 3f b6 36 3b 3e
       0.88918895 -0.25545502 0.5478229 0.1828259
000050 3c a8 c3 3d 64 a1 0e 3e 94 3b 3d bf df 38 1f bd
       0.095535725 0.13928753 -0.73919034 -0.038872596
000060 38 4f 3d 3f fd 78 25 bf 83 2d 6a bf ab 47 10 3f
       0.73949003 -0.6463774 -0.91475695 0.56359357
000070 d3 9e 37 3f 2e ff af 3e 60 12 80 be e2 33 47 3e
       0.7172672 0.34374374 -0.2501402 0.19453385
000080 a3 81 ef be 55 91 07 3e 0d a0 2d 3f b4 54 d8 3e
       -0.46778592 0.13239034 0.67822343 0.42252123
000090 fa d9 21 bf 80 21 8b be 22 0d 04 3f c6 b2 e9 bd
       -0.6322323 -0.27173996 0.5158254 -0.114110515
0000a0 dc e5 8a 3f 5f 62 6f 3e 4e 11 f4 3d d7 55 98 3d
       1.0851398 0.2337737 0.11917363 0.07438248
0000b0 57 33 89 3d c2 80 03 bf 76 8f 51 be 0a 33 7e 3e
       0.066992454 -0.51368344 -0.20464882 0.24824157
0000c0 a0 01 6f be 82 93 28 be 7b 96 0f be fe 9b a9 bf
       -0.23340464 -0.1646252 -0.14022247 -1.325073
0000d0 3a 9a d4 bd 43 83 0c 3d ec 1a 25 bf 53 9c 29 3f
       -0.10380979 0.03430487 -0.64494205 0.66254157
0000e0 bf 2e 53 be bb 19 83 be 32 d7 4c bf 7e 82 80 3e
       -0.20623301 -0.25605568 -0.8001586 0.25099558
0000f0 a6 41 8d 3d c0 7b 50 3f 21 e8 37 3f 06 b8 2a 3f
       0.06897287 0.8143883 0.71838576 0.6668705
000100 fc 7d 39 be 1b 7b ee 3e e5 62 19 3f de 1f 52 bf
       -0.18114465 0.46578297 0.59916526 -0.82079875
000110 bf 85 41 bd ce 9b a9 bf 64 27 bc be c6 07 3b 3f
       -0.04724669 -1.3250673 -0.36748803 0.73058736
000120 89 09 3f 3f 9c 3f b2 be 22 de 50 3b ca 6c a1 bf
       0.74623924 -0.34814155 0.0031870683 -1.2611325
000130 e9 d0 1c bf 30 24 c3 be cc 58 dd 3e e7 5d b9 3e
       -0.6125627 -0.38113546 0.4323181 0.36204454
000140 fe 49 af 3d 74 83 66 3e d3 74 97 be 69 6b a3 3e
       0.08559035 0.22511083 -0.29581317 0.31917885
000150 38 c0 8a 3e ab d1 30 bf 37 cf b2 3e 5d 0a 98 bd
       0.27099776 -0.6906993 0.34923717 -0.07423852
000160 b0 ab ff be a8 88 1c 3f e0 fb a6 bf 66 93 8b 3f
       -0.49935675 0.6114602 -1.3045616 1.0904357
000170 ea 25 95 3e 3c 03 37 bf b2 2b 03 3e ec b2 47 3d
       0.2913049 -0.7148931 0.12809637 0.048754618
000180 01 6f 72 3d 03 ce 21 bf 50 7b 13 be 0b e0 9e 3e
       0.059187893 -0.63204974 -0.14402509 0.31030306
000190 7f 5f 22 bf f8 d5 1e bf 80 36 08 3f cf bd ab 3e
       -0.63426965 -0.6204524 0.5320816 0.3354325
0001a0 12 37 a3 be 5a 24 55 3f 53 60 3c bf ad 5c d5 be
       -0.31877953 0.83258593 -0.7358448 -0.41672269
0001b0 ae 2b a7 3e fd 68 1b bf 6e 94 ab 3e 88 73 91 3d
       0.32650512 -0.60707074 0.3351168 0.07102114
0001c0 f4 b7 43 bf 49 fe 0a 3c 12 ed 44 bf f6 da 77 3f
       -0.76452565 0.008483478 -0.7692424 0.9681848
0001d0 4a dc ea be f6 61 96 3e c4 43 8b 3f bf 84 88 bf
       -0.45871192 0.29371613 1.0880055 -1.0665511
0001e0 bf e1 91 3e ba 42 94 be 5d 98 e8 3e 9e e1 6d be
       0.28492543 -0.28957158 0.45428744 -0.23230597
0001f0 45 c5 fb be f4 58 97 be 9b 24 1d 3f a7 ee 7a bf
       -0.49173942 -0.29560053 0.6138398 -0.98020405
000200 f2 98 5c 3e 4c a8 eb 3e 55 9f f6 be 1a 4d 1a bf
       0.21542719 0.46026838 -0.48168436 -0.602739
000210 5a 64 24 bf 57 33 e1 3d 4f 44 9b be e2 6f c5 3e
       -0.64215624 0.109961204 -0.30325553 0.38561922
000220 67 0d a9 3f b4 92 3e bf a0 ff 81 3e 48 a5 13 bf
       1.3207215 -0.744426 0.2539034 -0.57674074
000230 73 e1 bc 3d 1d 70 72 be de d2 e8 3e b9 cf 25 3e
       0.092226885 -0.2367558 0.4547338 0.16192521
000240 09 9f 44 be 9b 8a 32 3f fb 35 b9 3b b0 a9 8a 3e
       -0.19201292 0.69742745 0.005652187 0.27082586
000250 ca 56 d9 3d 7c 4c 91 bf 14 73 85 3f 8e 9e e3 bf
       0.10612257 -1.1351466 1.0425744 -1.7782762
000260 35 11 fa be d8 2b 63 be 8a 4f b3 be 64 83 86 bf
       -0.48841253 -0.22184694 -0.3502162 -1.0508847
000270 21 ec b5 3e 6b 77 4b bf 2c 96 4b bf aa ff 4c 3f
       0.35531715 -0.7947909 -0.7952602 0.8007761
000280 92 33 01 bf d8 02 e5 bd 18 33 8b 3d db 2a 11 bf
       -0.50469315 -0.11182183 0.06796855 -0.5670602
000290 f9 58 e0 3e 6a 54 39 bf c3 1e ed be 22 56 9e be
       0.4381788 -0.7239443 -0.46312532 -0.3092509
0002a0 c0 8d 14 bf ec ef 1d bf 20 88 4e bf f0 20 b7 3f
       -0.58028793 -0.61694217 -0.8067646 1.4306927
0002b0 4b a5 38 bd 65 4c cc be ea 11 dd 3c 52 cc 55 3d
       -0.04507951 -0.39902034 0.026986081 0.05219681
0002c0 1f 87 26 be e3 8e 2c bf 9c 2d b8 3c 01 1d 61 bf
       -0.16262482 -0.6740553 0.022482686 -0.8793488
0002d0 de 89 94 bf 18 ff 88 3c 46 f9 4f bf fc 0d cf 3e
       -1.1604574 0.0167232 -0.81239736 0.40440357
0002e0 a4 00 34 bf b5 dc 48 bf 14 34 ba be 59 9d e0 be
       -0.7031348 -0.7846177 -0.36367857 -0.43870047
0002f0 32 5a dc 3e a6 6d 41 3f 61 e7 21 3f ec 2c 17 bf
       0.43037564 0.75557935 0.6324368 -0.5905292
000300 c7 27 28 3f 0a 54 b7 be 12 7f 8a 3e 50 aa 2f 3d
       0.65685695 -0.35806304 0.27050072 0.042887032
000310 c3 de d5 be 34 8e 01 3e 4d 19 f9 3e 26 9b 4b be
       -0.41771516 0.12651902 0.48652115 -0.19883403
000320 95 80 c0 be 21 90 98 bf 82 8a 15 bf 0e cc 07 3e
       -0.375981 -1.1918985 -0.5841447 0.13261434
000330 f0 0f af 3f 0c 5f 33 3f 55 3a 6a 3e 64 0f a6 bf
       1.3676739 0.70066905 0.22873814 -1.2973447
000340 ea 9d 82 bf 3b d4 80 3f b9 87 8b 3f 85 05 16 3f
       -1.0204442 1.0064768 1.0900794 0.5860217
000350 61 bb 86 3c f2 fc e2 3e 74 d2 81 bf 86 fa 51 bf
       0.016446771 0.44333607 -1.014235 -0.82022893
000360 a8 40 22 3e bd 9a 3a bd 53 06 94 3e ce 3d 09 3e
       0.15844977 -0.045557726 0.28911075 0.13402483
000370 e0 48 f8 3c ca 69 57 3f 85 f8 11 bf d3 a1 5d bf
       0.030308187 0.84145796 -0.57019836 -0.8657505
000380 cf e4 c0 be 93 1a 2b be db a7 b9 bd 25 74 f5 3e
       -0.37674567 -0.16709356 -0.09065219 0.47940174
000390 3b 7f 7a bf 86 7b 30 bf 48 b4 2f 3f b3 a0 6c 3c
       -0.9785039 -0.6893848 0.6863446 0.014442611
0003a0 96 fe b9 3e 4b e6 7d 3e 06 a5 44 3f 6d 78 65 3f
       0.36327046 0.24794881 0.76814306 0.8963688
0003b0 70 44 8c 3e e3 f7 0e 3e e0 b8 3b be 5e 5d 87 3e
       0.27395964 0.13961749 -0.18332243 0.2643842
0003c0 76 b5 32 be ef 78 9d be de 63 82 be 5f 6b 2d 3f
       -0.17452034 -0.30756328 -0.25466818 0.6774196
0003d0 2a d1 a2 3e ac 29 cf 3d b0 45 8b 3f 08 1c 0e 3f
       0.31800205 0.1011537 1.0880642 0.5551152
0003e0 b1 a9 d7 be ab 5d df 3d 01 08 c5 be 64 6d 41 bf
       -0.42121652 0.109065376 -0.3848267 -0.7555754
0003f0 e0 fe 18 bf bb 96 3b be ba 12 05 bf 71 2e c6 3e
       -0.5976391 -0.18319218 -0.519817 0.38707307

feature.bias_ih_l0 f4 [512]
000000 8c 1b b8 be 74 75 80 3e c5 3f 96 3e 44 c7 1a 3d
       -0.35958517 0.2508961 0.29345527 0.03778769
000010 69 72 56 be 4b 06 27 bc 60 f1 56 3e 60 60 39 3e
       -0.20942082 -0.010194371 0.20990515 0.1810317
000020 15 03 7e 3e 21 a9 85 3e 37 b1 83 3e 03 7d fb be
       0.24805863 0.26105598 0.25721142 -0.49118814
000030 ba 85 9e be b5 53 99 3e 00 a5 0b bd 3b 2a 4d be
       -0.309614 0.29946676 -0.034092903 -0.20035641
000040 c5 df 3a be cf 39 82 3d ca 87 a8 3e f0 f8 ee 3e
       -0.18249424 0.06358682 0.329161 0.466743
000050 0c 53 8a 3d e0 83 0b be 4f 91 04 3f f5 b1 58 be
       0.06754121 -0.13624525 0.51784223 -0.21161635
000060 e1 eb 60 be cf b6 e2 3e d3 35 83 be bb ae 1d 3f
       -0.2196498 0.44280097 -0.25627002 0.6159474
000070 c5 93 b9 bd 25 34 aa 3e c7 0e 4b 3e 3e 9c 6a be
       -0.09061388 0.33242908 0.19829856 -0.22911164
000080 36 df ca 3e 4c 77 e6 3e 70 ef a7 be a9 94 7d 3d
       0.3962342 0.4501289 -0.32799864 0.06190935
000090 88 dc 1e 3e 16 41 51 3b 51 c3 e0 3e a0 2d e6 3e
       0.15513813 0.0031929663 0.43899015 0.44956684
0000a0 82 f0 12 3e ff d8 5c 3d 56 16 7a 3e ed 6a 3f be
       0.14349559 0.05391788 0.24422583 -0.18693133
0000b0 56 32 00 3f 9c 16 fb 3d bd 58 84 3e 24 6d e2 bc
       0.50076807 0.12260172 0.25848952 -0.027639933
0000c0 14 ff 5e bd 07 6d c1 3e d4 6e 07 be 1d 09 2e bd
       -0.05444248 0.37778494 -0.13225871 -0.04248916
0000d0 df 73 66 be b9 c4 2c 3f 02 04 b5 3c 88 7b 04 be
       -0.22505139 0.67487675 0.022096638 -0.12937748
0000e0 b9 bf 85 be aa 3e 9b be 23 a9 a2 3e 3c 45 26 be
       -0.26122835 -0.30321246 0.31769666 -0.16237348
0000f0 4a db 00 3e c0 6f 79 3e 0b 92 31 be 07 92 ee be
       0.12583652 0.24359035 -0.17340867 -0.46595785
000100 a5 26 0e 3f cf 5c 74 be 47 aa 9f be e7 86 ba bd
       0.55527717 -0.23863529 -0.311846 -0.09107762
000110 70 75 5e 3f e2 c3 db bd f9 38 00 3d 73 f9 74 be
       0.86897945 -0.10730721 0.031304333 -0.23923282
000120 63 8a 27 3f 62 e7 8c bd cd 27 5c be ec 09 82 3e
       0.65445536 -0.0688007 -0.21499558 0.25398195
000130 83 3b b7 bc cf d4 0f be f5 49 61 3e bb c6 68 be
       -0.022367245 -0.14046024 0.22000869 -0.2273206
000140 92 4a 7f be 90 ff 65 be 44 d9 90 be 3d 63 00 be
       -0.2493079 -0.2246077 -0.2829076 -0.12537856
000150 e1 79 01 bf 41 d5 c2 be b1 12 67 3e 22 9b 00 3c
       -0.505766 -0.38053325 0.22565724 0.007849487
000160 1c db b5 3b ca 43 74 3e af cf a1 be 76 e0 ba 3e
       0.0055498015 0.23853984 -0.31603763 0.36499375
000170 49 25 e2 3e a4 f0 89 3d 59 0e b5 bd 9d fd 9e 3e
       0.4416907 0.06735352 -0.08840627 0.31052867
000180 7b db 13 be f6 29 30 3f be 80 39 3e 6b 4d b1 be
       -0.14439194 0.6881403 0.18115517 -0.34629378
000190 13 15 0b 3f d7 82 70 be 4f 33 30 bb 70 a1 b7 3e
       0.5432903 -0.23487411 -0.002688605 0.35865355
0001a0 3a 02 4d bd 01 21 5e 3f f1 3c e8 3d bf b4 9d 3d
       -0.05005095 0.8676911 0.11339749 0.0770049
0001b0 27 a2 18 be f5 58 bf 3d 9e 02 bb bd c7 14 0d bd
       -0.14905606 0.09343139 -0.091313586 -0.034443643
0001c0 16 4d d5 3d ce e6 2f 3e 61 b7 89 be 24 92 57 3d
       0.104150936 0.17177889 -0.2689772 0.052629605
0001d0 48 4c 86 be 08 3c 2a 3f e6 93 41 be d8 b8 20 3e
       -0.26230073 0.6649785 -0.18904075 0.15695512
0001e0 df 5e 96 be 21 18 dd bd 2f d2 eb 3e 74 b7 14 3f
       -0.29369256 -0.10795618 0.46058795 0.5809243
0001f0 8e b1 27 3e c7 59 57 be 83 34 97 be 1f de ea be
       0.16376325 -0.21030341 -0.2953225 -0.4587259
000200 07 2e 80 be bd 2d 4b be bf ae bd be 7f 6f ab be
       -0.25035116 -0.19841667 -0.37047383 -0.33483502
000210 12 a0 35 be a4 4d 8a 3d 1d cb 84 bd 22 b0 9f be
       -0.17736843 0.0675309 -0.06484053 -0.31189066
000220 c7 ef 1b be 5f 11 12 3d a2 55 8f bd 7d 53 36 be
       -0.15228187 0.035661098 -0.06998755 -0.17805286
000230 1a 85 37 be 31 79 e5 bc 24 d4 c2 be f5 db 08 3e
       -0.17921868 -0.02801189 -0.38052475 0.13365157
000240 4c 41 2c bd 11 6d 14 3c d5 59 a8 be cc 3b 5b be
       -0.04205446 0.009059207 -0.32881036 -0.2140953
000250 12 c7 9c 3d 4c 72 00 bf 3f 91 f9 3d 44 76 bc 3c
       0.07655157 -0.50174403 0.121859066 0.023005612
000260 c9 61 65 be d3 57 aa 3e 9c 8c 94 bd ec c7 98 be
       -0.22400583 0.3327013 -0.072533816 -0.29840028
000270 42 f9 3a bf 0a a8 fa 3c c0 e8 38 be 4b c9 b3 bd
       -0.7303659 0.030597705 -0.18057537 -0.08778628
000280 54 e5 b1 3c 1f ee 15 be 4f da 21 be 90 ed 9c bd
       0.021715797 -0.14641617 -0.15805934 -0.07662499
000290 40 0b dd 3b 36 38 80 be ad fd 6e bb 0c 70 e5 be
       0.006745726 -0.25042886 -0.003646712 -0.44812047
0002a0 e5 f4 19 3d 10 b3 a1 bb c1 f1 85 3d 9d a4 f2 3b
       0.037587065 -0.004934676 0.065402515 0.0074048773
0002b0 f3 bb 51 3e 35 36 24 be ec 5b 97 be 5c 68 dd bd
       0.20481853 -0.16036303 -0.29562318 -0.108109206
0002c0 d6 5c e7 bd 9d fe b6 be 13 b6 c8 bd 22 56 21 bf
       -0.11297004 -0.3574113 -0.09800353 -0.63022053
0002d0 56 f6 63 3e a8 22 f1 3e e1 46 01 bd ec 10 b2 be
       0.22261938 0.47096753 -0.031561736 -0.34778535
0002e0 f4 1a 71 be f0 5b 95 bc 1d 13 73 bd e3 21 e9 bc
       -0.23545438 -0.018232316 -0.0593444 -0.028458541
0002f0 24 31 e5 be 31 b4 d5 be 69 5c b7 3d 22 0c 5c bd
       -0.44764054 -0.41739038 0.08953173 -0.05372251
000300 5c 2d ef be 8c c6 b3 be 7a ea 9b 3d 48 be 45 bb
       -0.46714294 -0.35112417 0.07613082 -0.003017323
000310 21 51 22 be 5e 2b 7f 3d 54 0d b9 3c 79 66 c6 be
       -0.1585126 0.062297218 0.022589363 -0.38750055
000320 f4 b9 b2 be fb df b9 be a6 b1 38 bd 7d db 80 be
       -0.34907496 -0.36303696 -0.045091294 -0.25167456
000330 55 5c d7 3d 16 12 60 bd 5d d6 a5 be 94 bb 82 3d
       0.10515658 -0.054704748 -0.3239011 0.06383434
000340 f4 10 05 3d 7f 46 23 be d3 57 9d bd cf 06 03 bf
       0.03248687 -0.15944861 -0.07682767 -0.51182264
000350 d6 51 f0 3d 98 72 c2 be e8 00 71 be f4 20 91 be
       0.11734359 -0.37978053 -0.23535502 -0.28345454
000360 28 4d 6a be 4c 2e 3c 3e 54 6a 26 be 72 a2 de bd
       -0.22880995 0.18377036 -0.16251498 -0.10870828
000370 62 6c 1a bc 27 be b4 3e 55 00 56 bd 83 1c a1 bc
       -0.009425255 0.35301325 -0.05224641 -0.019666916
000380 be 1d 9c 3d 77 cf 79 be b5 bc 90 3e d6 b5 06 bf
       0.0762286 -0.24395548 0.28268972 -0.5262121
000390 36 0a 02 bd 5c 29 2e 3e 20 97 0c bf 4a 91 fb 3d
       -0.03174802 0.17007965 -0.549181 0.12283571
0003a0 f6 18 f0 be 49 2b 3e be d2 72 ab be 53 9d 36 3e
       -0.46894044 -0.185712 -0.33486038 0.17833452
0003b0 54 de fb be a9 1f ad 3e 67 35 20 3c 7e 36 f7 be
       -0.4919306 0.33813217 0.009778357 -0.48283762
0003c0 3f 42 35 bd 60 f7 91 be 7d ae 02 3e 1c b9 0d be
       -0.04425263 -0.28509045 0.12761874 -0.13840145
0003d0 11 80 bd bd 84 45 b0 bc 4d e0 67 be 10 9b 90 bd
       -0.09252942 -0.021517523 -0.22644158 -0.07060826
0003e0 3f 28 82 3d f5 3f 4b be c1 a3 57 be 22 55 c3 be
       0.063553326 -0.19848616 -0.21058561 -0.3815089
0003f0 1d 83 3a bf e2 06 ab 3d 01 19 d8 3d 76 43 05 bf
       -0.72856313 0.08350922 0.10551644 -0.5205606

feature.bias_hh_l0 f4 [512]
000000 25 54 8a be 69 9d 8b 3e 7b 11 67 3e a1 d9 23 be
       -0.27017322 0.27268532 0.22565262 -0.16000988
000010 4e 6c 23 be eb 6d 25 3c 77 5d 4a 3e 43 32 04 3e
       -0.15959284 0.010097007 0.19762217 0.12909798
000020 70 88 26 3e 94 38 78 3e 2e c3 a3 3e 56 72 0e bf
       0.16262984 0.24240333 0.31984848 -0.5564321
000030 fd 60 a2 be 98 ba 32 3e b4 7e 72 bd c1 f0 4c be
       -0.3171462 0.17453992 -0.059202865 -0.20013715
000040 a6 da 27 be 42 a6 bd 3d d2 b1 9f 3e 8c 00 b0 3e
       -0.16392002 0.09260227 0.31190354 0.34375417
000050 d7 a5 05 3d b1 99 15 bd 31 e9 0c 3f 6d e4 26 be
       0.03262886 -0.036523525 0.5504332 -0.16298075
000060 17 a9 a7 be 9f 3d 11 3f 8a ec 6d be 23 a1 25 3f
       -0.32746193 0.5673465 -0.23234764 0.64699
000070 a0 7b 53 be ec a3 86 3e e9 f4 87 3e a8 3e 6c be
       -0.20652628 0.26296937 0.2655404 -0.23070776
000080 54 ff a6 3e fe 66 c0 3e e8 61 4c be 36 5d a7 3d
       0.32616675 0.37578577 -0.19959223 0.081720755
000090 c4 f4 65 3e 8f c6 e2 bc 85 f1 d1 3e 72 97 ec 3e
       0.22456652 -0.02768257 0.41004577 0.46209294
0000a0 9d ba f9 3d cc 83 47 bd 84 ab 93 3e 1d d0 94 be
       0.12193797 -0.048709676 0.28841794 -0.29065028
0000b0 c1 ef c1 3e 2c 43 cc 3d 63 64 8d 3e 43 dd 30 be
       0.3787823 0.099737495 0.2761565 -0.17271905
0000c0 25 dc a8 bd 6d 21 d2 3e 09 55 3b be 86 63 be bd
       -0.08245114 0.41041127 -0.18294157 -0.09296326
0000d0 ab d6 a3 be 32 e5 21 3f 8d e0 5f 3d 18 64 41 be
       -0.31999716 0.6324035 0.054657508 -0.18885839
0000e0 64 92 85 be 8b 35 be be c2 4e aa 3e 86 54 74 be
       -0.2608825 -0.37150225 0.33263212 -0.23860368
0000f0 2d 3c 00 3e e7 16 a3 3e 79 e8 6b be dd 5d d0 be
       0.12522955 0.3185341 -0.230379 -0.40696612
000100 3c 9b 1a 3f e5 8d cb be 46 10 a5 be dc 4d 28 bd
       0.6039312 -0.39756694 -0.32238978 -0.041089877
000110 71 dd 64 3f 3e 33 9b bd 46 79 b8 bb 1c 75 b9 be
       0.8940039 -0.07578133 -0.0056296913 -0.3622216
000120 d3 98 1c 3f af b4 9b bd 74 6e bc be 59 b4 69 3e
       0.6117069 -0.07602822 -0.3680302 0.22822703
000130 5a 5b b0 bd 78 80 88 be eb 26 a0 3d fa b9 33 be
       -0.08611174 -0.26660514 0.07819923 -0.17551413
000140 fc c4 2c be 08 23 92 be 60 29 eb bd 77 62 c2 bd
       -0.16872019 -0.28542352 -0.11482501 -0.09491437
000150 2b 3f f1 be 39 3b 86 be 5d 01 42 3e e4 bc 37 bd
       -0.47118506 -0.26217058 0.18945833 -0.044857875
000160 c3 ee b8 3d 3d 1c 5b 3d 66 90 97 be dc 43 c0 3e
       0.09029915 0.053493727 -0.29602355 0.37551773
000170 cc 87 d8 3e aa f2 47 bc 8c 01 38 bc fd 04 74 3e
       0.42291105 -0.012203852 -0.011230838 0.23830028
000180 a5 96 99 bd bf 3e 3d 3f 67 35 b5 3d 53 3f a4 be
       -0.07499436 0.7392387 0.08848076 -0.32079563
000190 32 a7 dc 3e 20 4e 8e be 6f fa 98 3d f4 9f 41 3e
       0.4309631 -0.2779398 0.074696414 0.18908674
0001a0 83 43 50 bd 01 4f 1f 3f 20 c1 63 3e ae 07 18 3e
       -0.050845634 0.62229925 0.2224164 0.1484668
0001b0 b1 3a 8b be f5 2e 92 3d 5b 9e ce 3d ac 32 09 be
       -0.27193215 0.071378626 0.10088798 -0.13398236
0001c0 33 d0 96 3d 54 64 5a 3e e3 d4 a5 be 3c 04 ef 3b
       0.073639296 0.21327335 -0.32388982 0.007294206
0001d0 fb ce 99 be f4 a3 40 3f 9e 6e d9 bd de d1 1a 3e
       -0.30040726 0.7525017 -0.10616802 0.1511912
0001e0 6e 82 e6 be 47 1a 48 be f0 8e f4 3e f1 1a e8 3e
       -0.45021385 -0.19541274 0.47765303 0.45333055
0001f0 e0 b2 90 3d 1c 4a b3 be 70 32 95 be 65 a9 a9 be
       0.07065368 -0.35017478 -0.29140043 -0.3313705
000200 7a 2f 3e be 70 29 ca bd 5e 8c c0 be 38 78 a4 be
       -0.18572798 -0.09871185 -0.37607092 -0.3212297
000210 4e 42 3f be 07 81 89 3d 64 4d fa bd ac 55 07 be
       -0.18677637 0.06714063 -0.12221792 -0.13216275
000220 27 1a 03 be 88 c7 d2 3d 68 61 90 bd 64 1c dc bd
       -0.12802945 0.10291964 -0.07049829 -0.107476026
000230 fb 3d ba bd 02 6f 9a bd 75 b9 de be 85 7f 2f 3d
       -0.09093853 -0.07540704 -0.43500867 0.04284622
000240 8b 55 01 3d a5 0c 3b be 38 94 d7 be ae 46 94 be
       0.03157572 -0.18266542 -0.4210527 -0.28960174
000250 c5 2d 5c 3d 0d a6 c3 be 3f 24 85 bd f4 e1 2f 3d
       0.053754587 -0.38212624 -0.06501054 0.042940095
000260 d1 ab 49 be b0 55 ac 3e 40 78 3d bd d0 e0 8c be
       -0.19694449 0.33659124 -0.046257257 -0.27515268
000270 70 f6 0f bf bd 75 a7 bd b1 7e c7 3d 57 7c 9f bd
       -0.5623541 -0.08176754 0.09740961 -0.07787388
000280 80 4b 3d bd 2c 9e 84 be 8a 2f 67 be 97 54 99 3d
       -0.04621458 -0.25901926 -0.22576728 0.07486837
000290 af 2c 63 3d 63 47 b7 be c2 b3 95 bd b1 20 fd be
       0.055462535 -0.3579665 -0.07309677 -0.49439004
0002a0 57 4d 04 3e 12 14 08 3e 24 b4 b7 3c e5 30 2e 3d
       0.12920128 0.13288906 0.022424765 0.0425271
0002b0 83 2e ed 3d 1f fe fc bd 5a 02 92 be 66 7d dc bd
       0.11581137 -0.12353157 -0.2851742 -0.10766105
0002c0 4f 7f 99 be 14 7c b5 be 89 b6 11 be 80 74 29 bf
       -0.2997994 -0.35446227 -0.14229788 -0.6619339
0002d0 d6 b2 64 3e 63 dd bb 3e cc 29 a7 bd 5a 35 ab be
       0.22333845 0.36692342 -0.08162269 -0.33439142
0002e0 84 7d 98 be a1 b1 e5 3c 93 93 ba 3d e6 9e 2a 3d
       -0.2978326 0.028038802 0.09110179 0.041655444
0002f0 f9 3e df be b7 ff e7 be 29 ec 2e 3e 6e 30 4f bd
       -0.43602732 -0.45312282 0.17082275 -0.050583296
000300 b2 f8 d2 be 78 4a bf be aa 91 84 bd f7 7a b4 bd
       -0.41205364 -0.37361503 -0.06473096 -0.08812516
000310 ef 75 1a be 41 ed cd bb 84 cd 14 39 4e da a4 be
       -0.1508405 -0.0062843864 0.0001419094 -0.32197803
000320 b2 8a 94 be 7a ee b3 be 36 bc 17 bd 89 8f ab be
       -0.29012066 -0.3514288 -0.037044726 -0.33507946
000330 43 f0 f4 3d 52 68 84 3d a2 8e d3 3b 9c 0c 7a 3d
       0.11959889 0.0646521 0.006456212 0.06104718
000340 eb c4 0f 3d 26 e8 04 bd 61 ce 71 bd cc 92 e2 be
       0.035099905 -0.032447957 -0.05903471 -0.44252622
000350 c8 ac a3 3d f4 f8 cb be 27 02 83 be 48 2e 65 bd
       0.0799194 -0.39838374 -0.2558758 -0.05595234
000360 77 f3 28 be 90 99 13 3e 28 d5 31 be 1e 3c 16 be
       -0.16499124 0.14414048 -0.17366469 -0.1467137
000370 02 f3 d1 3d e8 30 d9 3e f4 46 f2 bb 08 68 04 be
       0.10251428 0.42420125 -0.007393712 -0.1293031
000380 aa c0 30 3d e1 e9 53 be 1e 31 84 3e d3 c8 11 bf
       0.04315249 -0.20694686 0.25818723 -0.5694706
000390 c3 0f 46 be de e0 a7 3e 73 82 d1 be 78 ab b6 3d
       -0.1934195 0.32788748 -0.40919837 0.08919424
0003a0 eb 7e 08 bf 9b f3 eb bd 02 b4 c4 be eb ff 34 3e
       -0.5331866 -0.115210734 -0.38418585 0.1767575
0003b0 32 96 09 bf 00 f8 98 3e 55 47 d5 bc 49 fe e7 be
       -0.53744805 0.2987671 -0.02603499 -0.45311192
0003c0 d6 1d 3f bd b9 4a bb be 2a 5c 82 3c 05 39 8e 3c
       -0.046659313 -0.36580446 0.015913088 0.017361173
0003d0 3a 4e 05 be 94 e9 04 bd df c9 1d be f4 6e f7 bd
       -0.13018122 -0.03244932 -0.15409039 -0.120817095
0003e0 70 a3 21 3d af 3c 56 be 95 77 12 be 6c 64 bf be
       0.039462507 -0.20921586 -0.1430343 -0.37381303
0003f0 1f 52 28 bf e3 18 3d 3d 52 0e 65 3e 22 46 d1 be
       -0.65750307 0.046166312 0.22368744 -0.4087382

feature.weight_ih_l0_reverse f4 [512, 64]
000000 1d 20 a1 3d d4 e4 b3 be b5 a9 9f 3f bf 44 a6 3e
       0.07867453 -0.3513552 1.2473665 0.32474324
000010 a6 cf f9 3e a4 f2 03 bf a2 11 53 bf 97 ee cb 3e
       0.48791236 -0.51542115 -0.8244878 0.39830467
000020 fd 8d 0d 3f 5a 71 56 3f b6 8d fa bd 4c e0 2b 3d
       0.5529478 0.8376671 -0.122340605 0.041961953
000030 bb 84 b7 3d 65 c6 8a bf d9 8b b9 3f a9 9d 6a bf
       0.08960863 -1.0841795 1.4495803 -0.9164682
000040 c1 42 eb 3e ef 70 7f 3f 8d 22 74 be 42 41 1e bc
       0.45949367 0.997817 -0.23841305 -0.009659113
000050 6a 20 b9 3e 3a 8c 01 bf cc 28 4d 3f ab 9e c5 be
       0.36157542 -0.50604594 0.80140376 -0.38597617
000060 32 20 75 3e 10 f7 88 3f 08 00 f5 3b cd 83 bd 3e
       0.23938063 1.0700397 0.0074768104 0.3701462
000070 22 dd 44 be b9 0d 89 3f 40 2d 14 3e b6 e5 a0 bf
       -0.1922498 1.0707313 0.14470387 -1.2570102
000080 82 8b 49 bf 2b 8f 52 3e 38 6d a4 be 1f d2 9c 3e
       -0.787285 0.20562427 -0.32114577 0.3062906
000090 52 85 00 bf c5 04 26 3e 18 d1 7b be 8d 4a a4 be
       -0.5020343 0.16212757 -0.24591482 -0.32088128
0000a0 78 e0 8d bf 10 b7 10 3e a8 40 08 bf 2a 4c 85 bd
       -1.1084127 0.14132333 -0.5322366 -0.06508668
0000b0 f8 b8 8b be dc 78 24 3f 08 30 37 3f 4b 1a 33 bf
       -0.27289557 0.64246917 0.71557665 -0.69961995
0000c0 f4 d0 cf be 66 3b f3 3e 19 91 48 be 0e 84 47 bf
       -0.40589106 0.47506255 -0.195866 -0.77935874
0000d0 c7 5d 84 bf 37 a5 8f 3f 48 47 83 bf 2f fc 4e bf
       -1.0341119 1.1222295 -1.0256128 -0.8085355
0000e0 dd 42 80 3e 08 b1 5f be 66 6c 00 c0 57 fe 8b bf
       0.25051013 -0.21844876 -2.006616 -1.0936993
0000f0 68 90 a7 be 1c 7c 0c bf 51 2a 11 3f 71 e8 81 3e
       -0.3272736 -0.54876876 0.56705195 0.2537265
000100 02 9c 17 3f 30 d2 16 3e 68 81 8f 3e 59 9c 64 bf
       0.59222424 0.14728618 0.28028417 -0.8930107
000110 9d ce 77 bd d6 d0 92 bf ee ee f3 bd 58 3b 3c 3f
       -0.060499776 -1.1469982 -0.119108066 0.7352805
000120 84 22 49 3f 34 99 2a 3e 4c 29 70 bf 49 9a fe 3e
       0.7856829 0.16660005 -0.93813014 0.49727085
000130 71 13 a4 bc 5f bd 16 bf 1c 16 9b be ed 11 09 bf
       -0.020028802 -0.5888271 -0.30290306 -0.5354298
000140 d0 68 07 c0 07 e0 fe bc 98 e9 54 bf ec 97 c9 3f
       -2.1157722 -0.031112684 -0.83168936 1.5749488
000150 ec 8d 84 be 24 84 d2 3f b6 bd 26 c0 0a 45 08 bc
       -0.25889528 1.6446576 -2.605329 -0.008317241
000160 db a1 30 3f 09 36 8b 3e 1b 65 85 3f ba 0f 8c 3e
       0.6899697 0.27189663 1.042148 0.27355748
000170 2d e9 e3 3e 00 98 3f bf 51 9f 81 3e cd 31 69 3f
       0.44513837 -0.7484131 0.2531686 0.91091615
000180 45 4f 6e bf da 05 bb 3c 1a 69 03 3f 82 a3 ce 3e
       -0.93089706 0.022829939 0.5133225 0.40359122
000190 22 c1 3d bf 73 fa b3 3f 18 44 1d be 08 82 19 3f
       -0.7412282 1.4060806 -0.15358007 0.59964037
0001a0 be 64 53 3f bb 38 a8 3b 24 ed 4f bf ea 11 0e 40
       0.82575595 0.005133716 -0.8122122 2.2198434
0001b0 85 7e b8 3f 65 cd 8e bf 21 3b 04 3f 31 5b b2 bf
       1.4413611 -1.1156431 0.51652724 -1.393408
0001c0 f4 f9 7b 3e a8 78 49 3e fa b3 1b bd 8c 57 46 bf
       0.24607068 0.19674933 -0.038013436 -0.77477336
0001d0 b8 e7 28 be 96 b2 9d be 60 59 a0 3f 5d f3 cd 3f
       -0.16494644 -0.30800313 1.2527275 1.6089894
0001e0 34 0c 34 bf 54 77 82 3f 49 e7 7c be ad 8c 32 3f
       -0.7033112 1.0192666 -0.24697603 0.69745904
0001f0 6c cf 05 3f 42 10 83 3f 5f 37 1c 3f 84 84 d2 be
       0.52269626 1.0239336 0.6102199 -0.41116726
000200 c5 95 88 be c3 b3 fe 3e d9 c4 3e 3f 49 79 25 bf
       -0.26676765 0.49746522 0.74519116 -0.6463819
000210 be c0 e3 3e e3 15 bc bf 5a 5f 5c 3f 68 68 f2 be
       0.44482988 -1.4694179 0.86082995 -0.4734528
000220 54 db 1b 3f 57 fe 78 3e 6a 59 81 3f 3b 8d 40 3e
       0.60881543 0.24315773 1.0105412 0.18803875
000230 14 c9 83 be d8 fb b7 3d 38 04 25 c0 c1 dd 21 3f
       -0.25739348 0.08983582 -2.5783825 0.63228995
000240 a0 a7 60 bf 2a 27 dc bf 6c e6 ba be 07 85 2c bf
       -0.87755775 -1.7199452 -0.36503923 -0.67390484
000250 69 26 37 3f 6d 01 a4 bc 4b 60 b8 bd b9 ab 0e bf
       0.71542984 -0.020020211 -0.090027414 -0.5573078
000260 af 82 ec 3e b5 0f 8b bf 3b 85 8e 3d 5b c5 6c be
       0.46193454 -1.0864168 0.069590054 -0.2312216
000270 0a 37 3d 3d 3a bb 16 3f b3 bd 3c 3f cf e6 81 3d
       0.046195067 0.58879435 0.7372696 0.06342851
000280 16 04 29 3f 65 cb ea 3e 7d 15 f8 be 2f ce 36 3e
       0.6602186 0.45858303 -0.48453894 0.1785209
000290 ab 16 00 bf f6 99 71 3c ab 69 57 bd 68 03 1c 3f
       -0.5003459 0.01474618 -0.052591007 0.609427
0002a0 da 43 ba 3c 8e 2c 41 be 01 42 f0 be dd cf 7a 3d
       0.022737432 -0.18864653 -0.46925357 0.06123339
0002b0 cd d2 bf 3e 0e cf a5 bf bc b9 00 3f 8e 28 aa 3e
       0.37465516 -1.2953813 0.5028341 0.33234066
0002c0 12 b7 d0 3e f3 24 36 bf b8 65 91 bf bc 5e b1 3f
       0.40764672 -0.7115013 -1.1359167 1.3857036
0002d0 60 0c ae bf 47 29 ca 3d 21 cc 04 3f 21 43 b6 bf
       -1.3597527 0.09871154 0.51873976 -1.4239236
0002e0 16 75 25 3d f9 57 a7 3f b9 f1 cb 3e e2 a5 7f be
       0.040394865 1.3073722 0.39832857 -0.24965623
0002f0 48 a3 22 be 23 b7 a6 be d6 af 4d bf 7b f9 81 bd
       -0.158826 -0.32561597 -0.8034643 -0.06346413
000300 4c 89 e6 be 42 1a 21 3f 78 d5 82 bf ba 5c 81 bf
       -0.45026624 0.6293069 -1.0221395 -1.0106423
000310 5d 62 37 be 7c 17 a6 3f f5 35 9a be cd fa b2 bf
       -0.17908616 1.2975917 -0.3011929 -1.3982788
000320 85 df 53 bf a1 f1 c1 be ca 84 b9 be fc a3 22 3f
       -0.8276294 -0.3787966 -0.36234123 0.6353147
000330 cd 9b 54 3e 6d 47 c6 bd 5f a9 31 be 15 db 7e 3f
       0.20762558 -0.09681592 -0.17349766 0.9955304
000340 a1 9c ea bf 9e 4b 30 be 66 32 78 3f 25 1d 05 bf
       -1.8329049 -0.17216346 0.969519 -0.51997596
000350 e0 6f 51 bf cd 37 4d bf 9f e9 a8 3f b5 32 ec 3e
       -0.8181133 -0.8016327 1.3196295 0.46132436
000360 23 b9 0f bf a1 62 0a 3e 12 7e 87 bd df 26 73 bf
       -0.5614187 0.13514186 -0.06615843 -0.9498119
000370 ae de 1b bf f8 5c a3 bf 70 2a 80 bf 35 53 25 3e
       -0.6088666 -1.2762747 -1.0012951 0.16145022
000380 39 54 38 bf 2f 4d 1d bf 77 a8 0b bf e2 2a 4d 3f
       -0.72003514 -0.614459 -0.5455393 0.8014356
000390 89 ea c7 bd 06 ce 0c bf 6b 28 0e 3e 29 01 db be
       -0.09761531 -0.55001867 0.13882606 -0.42774323
0003a0 a7 e8 c1 3e 88 d3 90 3f bb fb 75 bf 1a 91 ef 3e
       0.37872812 1.1314554 -0.96087235 0.4679039
0003b0 94 5d f6 3d c2 c3 40 3f af db 41 3f 51 09 ec 3e
       0.12029567 0.752987 0.75725836 0.46100858
0003c0 fa 56 6a 3f 5d a3 9e 3f ee a4 55 be 96 9b a3 3e
       0.91538966 1.2393605 -0.20863697 0.3195464
0003d0 3f 58 24 bf d9 74 5d bf b9 bb 4d bf 1b 3b c4 be
       -0.6419715 -0.8650642 -0.8036457 -0.38326344
0003e0 e7 09 16 be 74 ca 3a bf 24 4a 2f be 87 1f c2 be
       -0.14652215 -0.7296517 -0.17118126 -0.37914678
0003f0 43 c9 ff bd 45 5e 38 3f 3d ef eb 3e 41 2c 63 3e
       -0.124895595 0.72018844 0.46080962 0.2218485

feature.weight_hh_l0_reverse f4 [512, 128]
000000 58 de 52 3f df 9f 43 3f 07 2b b2 3e b3 97 f7 bd
       0.8237052 0.7641582 0.34798452 -0.12089481
000010 f9 83 3b 3d e5 37 da 3d 28 0e b9 be 4a 5a 43 be
       0.045780156 0.10655192 -0.36143613 -0.19077411
000020 b9 86 f8 be b4 e0 b0 be fe 87 8b 3e e4 e4 a6 bf
       -0.48540285 -0.34546435 0.2725219 -1.3038602
000030 0a 2a 18 3f 3d 32 66 be af 12 85 3e df 45 9b be
       0.59439147 -0.22480102 0.25990817 -0.30326745
000040 9d f9 bf 3e dc 99 02 bd 33 6e f9 bd e4 13 e8 3c
       0.37495127 -0.031885013 -0.12179222 0.028329797
000050 b8 ad 33 be c0 89 81 3e 94 88 74 be 11 8f 1d bf
       -0.17546737 0.25300407 -0.23880225 -0.61546427
000060 ba a1 cf 3e f6 ed 5e be e6 b9 93 bf da 22 e1 be
       0.40553075 -0.21770462 -1.1541107 -0.43971902
000070 9d ac 18 3e cf 94 2f 3f ee 2f 28 bf d8 16 3a be
       0.14909597 0.6858644 -0.65698135 -0.18172777
000080 d7 2d cc be bb c6 83 3f 73 7c 11 3f be f0 15 bf
       -0.39878723 1.0295023 0.5683052 -0.5857047
000090 96 43 ee 3e 83 1b a6 be 60 98 78 3e b8 6e 8f 3e
       0.4653594 -0.32442865 0.24276876 0.2801416
0000a0 0b 54 d8 be 1c 97 fe bc d3 ae 14 3f 5c 90 51 bf
       -0.4225162 -0.031077914 0.5807926 -0.818609
0000b0 b4 fb e9 be 36 80 ad be 1e a5 e5 3c ce a1 1c 3d
       -0.45699847 -0.3388688 0.028032836 0.038240246
0000c0 df 30 a7 3e 15 7b db 3e 5e 2f 47 3f b9 f0 b4 bd
       0.32654473 0.42867342 0.7780665 -0.08834977
0000d0 80 13 24 3f 56 05 5f 3e ef 99 a0 bf 9c d9 87 bf
       0.64092255 0.21779379 -1.2546977 -1.0613284
0000e0 63 68 9f 3e 82 b1 09 bf f4 67 4f bf 9a 98 da 3d
       0.31134328 -0.5378648 -0.81017995 0.10673638
0000f0 98 fd 4e bf 61 4e a0 3e bb 32 8e bc 79 41 e0 3e
       -0.80855703 0.31309798 -0.017358175 0.43799952
000100 43 db 75 bf 0d fe 1a 3e ee 29 a8 bf 34 fa 8e be
       -0.9603769 0.15135975 -1.3137796 -0.27925265
000110 be dd b5 3d 31 7d ab be 61 aa 6b bd 1f bd a4 3e
       0.088801846 -0.3349395 -0.057535533 0.32175538
000120 a3 e8 19 bf 7e c3 be 3e 45 d4 3a 3f af 64 76 3e
       -0.601206 0.37258524 0.7298015 0.24061845
000130 36 47 0d bf b9 e9 08 bb a6 27 28 3f 09 97 88 3e
       -0.55186784 -0.0020891263 0.656855 0.2667773
000140 68 05 a7 3e f9 7a 92 be 91 94 32 bf 8d dd 1b 3e
       0.32621312 -0.28609446 -0.69757944 0.15221234
000150 02 6e 81 be a1 63 ee be 0c 5c 40 bf 81 27 00 bf
       -0.25279242 -0.46560386 -0.7514045 -0.5006028
000160 55 32 91 3c e8 cb 36 bf fa b0 3d 3f 89 34 ef 3e
       0.017724195 -0.71404886 0.7409817 0.4671977
000170 47 d3 99 be 72 3f a7 3e 2f 73 53 bf 23 54 1d be
       -0.30044004 0.32665592 -0.8259763 -0.15364127
000180 f1 c2 3a be 76 bf 89 3e ed fe 86 bf 0c de 9e be
       -0.18238427 0.26903886 -1.0546547 -0.31028783
000190 ce d2 93 be 86 2d 14 3f 1e 51 40 bf 1e f5 5f bf
       -0.2887177 0.57881963 -0.75123775 -0.87483394
0001a0 b1 b9 c4 3e 6c 62 f2 3e ae 25 8e bf b6 d7 14 bf
       0.3842292 0.47340715 -1.1105249 -0.5814165
0001b0 6d 27 1a 3f 53 49 07 3f 74 9e 6c bf a9 52 a5 bf
       0.6021641 0.5284626 -0.9242928 -1.2915851
0001c0 1f 0e 9d bf 4d b1 c9 3c 10 ea aa 3e 19 2b 37 bf
       -1.2269934 0.024620676 0.333817 -0.71550137
0001d0 6d c7 56 3e e2 24 e8 3e e6 8f e9 3e 88 15 82 bf
       0.20974512 0.4534064 0.45617598 -1.0162821
0001e0 8e c0 7a 3f 4c 2f 42 3f 15 68 30 bf a9 16 25 bb
       0.97950065 0.7585342 -0.68908817 -0.0025190508
0001f0 c2 34 71 3d 7a 17 17 3f 60 33 12 bf 33 85 69 3c
       0.058888204 0.590202 -0.5710964 0.014252949
000200 dd 21 ae be ef bc 37 3d a4 c4 d7 be 76 66 d8 3e
       -0.3401021 0.044857915 -0.42142212 0.42265671
000210 66 12 e5 bd 0d bf 0d 3d e3 77 09 3f d8 fe 81 be
       -0.1118515 0.03460603 0.5369856 -0.25389743
000220 4e aa 22 bf e0 b3 73 3f 24 ef be bd 67 a9 0d 3f
       -0.63541114 0.9519634 -0.09322956 0.5533661
000230 3c ee 74 3e 05 50 e3 be 66 d3 4f 3e ad 9e 97 bd
       0.23919004 -0.44396988 0.20295486 -0.07403312
000240 f4 17 9e 3e ee 3a 15 bf 31 25 49 be 40 a1 15 bf
       0.3087765 -0.58293045 -0.19643094 -0.5844917
000250 28 46 6a 3e ce 0d 07 3f 14 e1 27 be 62 4f 27 3f
       0.22878325 0.5275544 -0.16394454 0.65355504
000260 9d 82 05 bf 26 bc 11 3e 4d c2 8a bf da 78 5b 3e
       -0.52152425 0.14231929 -1.0840546 0.2143282
000270 19 70 a3 bd 41 80 35 3f 72 52 51 3d 87 ba 59 bd
       -0.07980365 0.70898825 0.051104017 -0.053156402
000280 66 90 49 bf bd b1 dc be 6e d5 05 be 5a c1 7f bd
       -0.7873596 -0.43104354 -0.13069698 -0.062440254
000290 50 45 89 bf 9e 68 38 3e f6 a5 d5 bd 50 13 41 be
       -1.0724277 0.18008658 -0.10432045 -0.18855023
0002a0 75 fe 08 3f 6d d8 84 bf 46 83 0f 3f 1f a6 a1 3d
       0.5351327 -1.0378548 0.5605968 0.07893013
0002b0 3a 62 05 3f ce 79 ad bf a5 d6 0a bf e3 36 0f bf
       0.52103007 -1.3552797 -0.5423377 -0.55943125
0002c0 20 94 fd 3c 8c 0e 87 be 6a 93 a1 3e 53 f9 8c bf
       0.03095442 -0.26378286 0.3155778 -1.1013588
0002d0 77 ea 11 bf 84 a4 4d be ed 4a 62 3e e1 b0 c5 3d
       -0.5699839 -0.20082289 0.22098894 0.096528776
0002e0 f7 70 ea 3e 78 9c d5 3e f6 b2 eb bc 3c 42 35 3f
       0.4578931 0.4172094 -0.028771859 0.7080419
0002f0 6c c5 8a be 9f 9a 59 3f a3 a0 c3 be ab 1f a6 3e
       -0.27103746 0.8500156 -0.38208494 0.32446036
000300 69 b0 b6 3d 75 74 3d 3f be 9d 04 3d 10 fa 3c bf
       0.08920366 0.74005824 0.032376997 -0.73819065
000310 63 02 dc be 66 52 61 bf 86 4e 8e 3e 0f ad 10 bf
       -0.4297057 -0.88016355 0.27794284 -0.56514066
000320 ba 70 4f 3e 72 bc fb 3e 3d 20 a3 3c a5 7f fb 3c
       0.20257846 0.4916721 0.019912833 0.030700514
000330 98 d1 c7 3d 2f d0 8e bf a6 b8 1e bf b8 5d b1 be
       0.09756774 -1.1157283 -0.620005 -0.34641814
000340 c4 fb b9 3d 90 68 11 3e 62 75 4a bf 6a 73 b1 be
       0.090812236 0.14200044 -0.7908536 -0.34658366
000350 e3 84 40 3e fa 77 32 3f f8 a2 a8 3d d3 d2 9a be
       0.18800692 0.6971432 0.08234209 -0.3023897
000360 f2 80 00 bf 91 f9 8f bf e0 f7 20 3f fc f3 be 3d
       -0.50196755 -1.1248037 0.6287823 0.0932388
000370 ee f3 46 bf 49 0c cc 3e b8 dd 6b be 39 1d 10 3e
       -0.7771596 0.39853123 -0.23033798 0.14073648
000380 cb c9 1b be b2 28 55 bf 4e 4e a9 3d 32 24 eb 3d
       -0.15213697 -0.8326522 0.082668886 0.11481513
000390 3c 33 8a bf 32 f8 8b 3e a4 40 c2 3d f0 c0 c4 bd
       -1.0796885 0.27337795 0.094849855 -0.096071124
0003a0 60 44 69 3f 23 a0 88 3e 72 3b 9f bc 36 f2 6c 3f
       0.91119957 0.26684675 -0.019437525 0.92557085
0003b0 11 7e b4 be 13 02 70 3e d9 39 a0 be 08 49 9e bd
       -0.3525243 0.23438291 -0.31294134 -0.07728773
0003c0 a1 6e 95 3f a2 38 13 bf 8f 2e 5c 3d 48 0a 00 bf
       1.1674386 -0.5750829 0.05375534 -0.5001569
0003d0 00 b4 23 3f d2 6d 03 bf 55 7a 11 3f 3a 3c fb be
       0.63946533 -0.5133945 0.5682729 -0.49069387
0003e0 a0 69 03 3f da cc d0 3e 72 c9 e7 3e b8 e1 45 3d
       0.51333046 0.4078129 0.45270878 0.048310965
0003f0 70 c8 f1 be 04 b9 fc bd 85 3b c8 bd 6c f9 64 3f
       -0.47223234 -0.123399764 -0.097769774 0.8944309

feature.bias_ih_l0_reverse f4 [512]
000000 04 a9 be be f3 17 63 bd a1 f9 fe bd 87 23 db 3b
       -0.37238324 -0.05544276 -0.12449957 0.006687585
000010 e3 08 d7 3d 33 6c b6 bd 73 18 80 bd f3 de e3 3d
       0.10499742 -0.08907356 -0.06254663 0.111265086
000020 2b e4 78 3e 5f 13 82 3d 2a 61 64 be 2e 97 74 be
       0.24305789 0.06351351 -0.2230269 -0.23885795
000030 bc 89 26 be 20 ea 06 bd e7 63 77 3e e6 e8 fd 3e
       -0.16263479 -0.032938123 0.24159203 0.4959175
000040 00 ab c8 3e 12 fc 8f 3e ef bd 07 be a4 40 dd 3d
       0.39192963 0.28122002 -0.13256048 0.10803345
000050 dd 7d 98 3e 1c 72 b7 3d 84 ba f2 3c 15 82 1a 3e
       0.29783526 0.089573115 0.029629953 0.15088685
000060 5a 61 6b 3d 2c a2 3a 3e 23 a5 aa 3e 65 c3 96 39
       0.05746589 0.18225926 0.33329114 0.0002875581
000070 7f 1b a9 3e 9a 7a a2 3e 99 fc a8 3e f1 b8 05 3d
       0.3302879 0.31734163 0.33005217 0.032647077
000080 72 eb 84 3d 1e 18 01 3e 78 fc 16 be 78 13 f7 3e
       0.0649022 0.12606856 -0.14744747 0.4825704
000090 e7 0b 54 3e 81 10 e0 bd c6 65 3b 3e a3 bc 71 3c
       0.20707665 -0.10940648 0.18300542 0.014754447
0000a0 52 85 33 3e d4 6d a0 bd 04 26 ed bd 35 ec 45 be
       0.17531326 -0.07833448 -0.115795165 -0.19328387
0000b0 c7 7a e8 bd 2e af f9 3e 83 9f e6 3d 59 eb 11 3e
       -0.11351543 0.48766464 0.11260893 0.14249934
0000c0 7e e6 28 3e 4a 4e 6d 3e 62 20 cb be b2 14 95 bc
       0.16494176 0.23174396 -0.39673144 -0.018198345
0000d0 97 50 d0 bd 0f fc 9d 3e 08 26 d5 bd ca 86 64 3e
       -0.10171621 0.30856368 -0.104076445 0.22317043
0000e0 c3 58 02 3d 37 bc f8 bd 34 c0 b7 3e 15 3d 8f 3d
       0.03182293 -0.12145274 0.35888827 0.06994072
0000f0 d6 f6 9a be f7 62 f2 be 4d db f2 bd 2e 96 37 3e
       -0.30266446 -0.4734113 -0.118582346 0.17928383
000100 88 28 40 3c 09 77 a6 3e e0 d3 65 3e f6 c3 59 3d
       0.011728413 0.32512692 0.22444105 0.0531654
000110 48 b5 c6 3c e7 f4 d0 3d 5e 82 11 be 2b ad 3b 3e
       0.024256364 0.102029614 -0.14209887 0.18327777
000120 b0 0b 12 3a 9f a7 51 be 22 a2 d7 bd f0 ae 81 3c
       0.00055711996 -0.20474099 -0.10528971 0.015830487
000130 e5 12 52 be 9a 2c 80 be 5e f4 8a be e9 16 dc 3d
       -0.2051502 -0.25034028 -0.27139562 0.10746557
000140 f7 e3 12 3e 1a 38 41 3e 81 58 aa bd 0b 8a 22 3e
       0.14344774 0.18869057 -0.08317662 0.15872972
000150 fa 81 e0 3e 18 df ce 3d a7 5b be 3e f5 0d 5b be
       0.43849164 0.101011455 0.371793 -0.21392043
000160 f4 72 22 be ea 6f 10 be e0 39 22 3e 1a 65 5c bc
       -0.15864164 -0.14105192 0.1584239 -0.013451839
000170 a5 f6 24 be fb b3 9f be 21 1a c9 3e 04 c0 09 bd
       -0.16109712 -0.31192002 0.39277747 -0.033630386
000180 87 a0 cd 3d 8d 17 de 3e e3 7e 0d 3e 84 42 a9 3e
       0.10040384 0.43377343 0.13817935 0.3305856
000190 40 ea 45 3e 39 a5 6e bd ff 52 23 3e e6 80 3a be
       0.1932764 -0.058263037 0.15949629 -0.18213233
0001a0 6f 7b 68 be 85 47 2d be 98 0e 07 3e 80 20 ac 3e
       -0.22703336 -0.16921814 0.13189161 0.33618546
0001b0 a5 8a aa bd 3e 8d 9b 3e 4a 64 02 be 1d ef 94 3e
       -0.083272256 0.30381197 -0.1273357 0.2908868
0001c0 c6 55 50 bd f9 36 e6 3d 3d 4f df bd b7 40 69 be
       -0.05086305 0.11240954 -0.109037854 -0.22778593
0001d0 58 43 76 3d 90 d5 d3 3c e3 ee 00 3e 3e a9 35 be
       0.060122818 0.02585867 0.12591128 -0.17740342
0001e0 06 9b b7 3e 90 2f 06 3e e9 21 df bd 9f 51 13 be
       0.3586046 0.13104081 -0.1089514 -0.14386605
0001f0 71 3c fd bd 46 12 62 be d7 9c 8a 3c c6 b8 e3 bc
       -0.12365044 -0.22077283 0.01692049 -0.027798068
000200 03 e4 d1 bc f9 ff d2 be 97 e6 0f be 4e 67 56 3e
       -0.02562142 -0.41210917 -0.14052807 0.20937845
000210 bf cb c1 be 2c b4 8d be 68 ad 5a bf f1 51 80 3e
       -0.37850758 -0.27676523 -0.85420847 0.25062516
000220 bc ac 83 bd 98 f5 7b 3e 2b 6c 40 3d 57 92 00 3d
       -0.06429431 0.24605405 0.046978157 0.03138956
000230 f1 d5 8d 3e ed 64 c9 3e e4 79 82 3e 6c 4a 9e be
       0.27702287 0.39334813 0.2548362 -0.30916154
000240 4f 51 f3 be ea 50 d0 3e 17 5e 64 bd d1 9f 86 bd
       -0.4752297 0.40686733 -0.055753794 -0.06573451
000250 63 ad 0f bc 7c e2 c2 bd 8f b2 08 3e 58 ab c0 3d
       -0.008769366 -0.09515855 0.13349365 0.09407681
000260 92 5a fb 3d 7a d0 62 be e5 37 4d be 0c 62 b6 3d
       0.12273134 -0.2214984 -0.20040853 0.0890542
000270 4b f8 86 bd 52 31 88 be 69 d5 e4 be b6 2f c4 be
       -0.06590327 -0.26600128 -0.4469407 -0.3831765
000280 48 a0 7d 3d f9 75 6d bd 41 a0 90 be 92 98 a5 be
       0.061920434 -0.057973836 -0.28247264 -0.32342964
000290 5d a6 d8 3d f2 04 b8 3c 60 77 25 be b5 73 45 bd
       0.10578606 0.022463296 -0.16158819 -0.04820605
0002a0 99 e2 21 3e 7b b0 89 be 67 a5 2a be 1f f3 20 3c
       0.15809096 -0.26892456 -0.16664658 0.00982359
0002b0 26 48 b4 be cf b5 27 bf 5b 46 6c be 3e a2 9a be
       -0.35211295 -0.6551179 -0.23073713 -0.30201906
0002c0 31 90 04 3e 62 a5 38 bf 0e e9 03 bf f7 cf c0 3d
       0.1294563 -0.72127354 -0.5152749 0.09414666
0002d0 79 ba 8d be 92 d0 0c be ee ba 4c 3e 6a b0 c4 be
       -0.2768133 -0.13751438 0.19993183 -0.38415843
0002e0 1a f5 76 3e 81 5b 62 3d 19 b8 d2 be 45 fd 03 3f
       0.24116936 0.055263046 -0.4115608 0.51558334
0002f0 c1 f0 7f be 72 10 ae 3d ac 78 96 bd a2 ed 91 bd
       -0.24994184 0.084992304 -0.07347235 -0.07125403
000300 a3 b2 9d bd ea 58 0d 3e 7b 6d e5 3d 6e c5 fe be
       -0.07700088 0.1380345 0.11202522 -0.49760002
000310 6e 26 46 3d 3e dd 3a be f1 dc d4 be 6e 36 9d be
       0.048376493 -0.1824846 -0.41574815 -0.3070559
000320 5d 71 9f be 68 81 13 3f 06 97 2e be 34 8e 0c 3f
       -0.31141177 0.57619333 -0.17049798 0.54904485
000330 77 c5 52 3d f6 f6 82 be fc 17 4a be 65 4b 2e be
       0.05145785 -0.2557904 -0.19735712 -0.17020948
000340 a3 c6 72 be 03 f4 b2 be fe 5f ba 3e 24 64 46 be
       -0.23708586 -0.3495179 0.3640136 -0.19374138
000350 9b 4e 25 3e 52 06 b2 be 50 6b fb 3e 4b 46 ba bd
       0.16143267 -0.34770447 0.4910531 -0.090954386
000360 cd c1 eb 3d 75 6f d0 bd b9 8b 1a be dd e0 84 be
       0.11511574 -0.10177509 -0.15092362 -0.25952807
000370 3b 37 1c be a9 57 49 be 88 96 9a bd 8f ad ee 3c
       -0.15255444 -0.19662346 -0.07548243 0.029135494
000380 1b f1 be 3e a6 00 47 be e9 f4 f5 be d2 cd 81 be
       0.37293324 -0.19433841 -0.48038414 -0.2535234
000390 31 b2 2e bd 82 b8 e2 bc cb 80 a2 be 9c 0b 11 3e
       -0.042650405 -0.02767587 -0.31738886 0.14164585
0003a0 f4 cc cb be 37 0d 4b bd f7 09 3a 3e 76 c4 09 3e
       -0.39804804 -0.04957315 0.18167864 0.1345385
0003b0 5f 9c b5 3d 41 7a 4e 3e 78 e8 ae be 21 f7 fa bd
       0.08867716 0.20163824 -0.34161735 -0.12254167
0003c0 14 53 8f 3e bb b8 99 be 3d fb 7d be 92 1e 52 3e
       0.2799307 -0.3002375 -0.24802871 0.20519474
0003d0 88 f0 3c 3e 7a 5a 6b 3e 04 65 b7 be b0 35 87 be
       0.1845113 0.22983733 -0.35819256 -0.26408148
0003e0 2a 68 b1 be fa 13 5f be 2d d9 19 bd 01 7a 53 bb
       -0.34649783 -0.21784964 -0.03756063 -0.0032268765
0003f0 ae 74 d8 3d 91 a6 b5 be 59 2a 22 3e 9f 72 83 be
       0.1056913 -0.35478643 0.15836467 -0.25673386
